labml_nn/lstm/model_combine_319r2.pth (torch, 9544 bytes, 9 tensors)

lstm.weight_ih_l0 f4 [64, 1]
-0.23792855 -0.06733244 -0.10194264 -0.011388879 0.03387557 0.09653974 0.047259927 -0.2050204
-0.04147843 0.045366235 0.3544108 0.28822806 -0.10695116 -0.40352064 0.13100412 0.0013199198
-0.21853645 -0.15770677 0.040756006 0.10666686 0.1282034 -0.3110404 0.2201511 0.0139789125
-0.29420972 -0.07562207 -0.045496535 -0.04734471 0.20726453 -0.7191278 0.21428238 0.18977785
-0.26424047 -0.054677885 0.3016693 0.17881942 -0.360327 0.06317239 0.115789466 0.2523701
-0.27487224 -0.107774496 0.27334613 0.17833333 -0.22508001 -0.37782627 0.27602762 0.35647696
-0.22429533 0.18570486 -0.056960467 -0.0009668781 0.32873157 0.19745325 -0.1602954 -0.3571958
0.027017353 0.29626274 0.2128378 0.32321483 -0.038380392 -0.4353874 0.20165603 0.26747847
00000000: 8ba3 73be 97e5 89bd 4ec7 d0bd 6c98 3abc
00000010: 1cc1 0a3d a1b6 c53d a093 413d def0 51be
00000020: 49e5 29bd f2d1 393d 5575 b53e a192 933e
00000030: 3609 dbbd 429a cebe f225 063e 2901 ad3a
00000040: 05c8 5fbe e27d 21be c5ef 263d 2874 da3d
00000050: c147 033e b040 9fbe 4a6f 613e cf07 653c
00000060: a8a2 96be bedf 9abd 935a 3abd 87ec 41bd
00000070: 273d 543e c218 38bf d76c 5b3e 2055 423e
00000080: 874a 87be ebf5 5fbd 6674 9a3e 701c 373e
00000090: c87c b8be 8760 813d 0723 ed3d a736 813e
000000a0: 0ebc 8cbe e0b8 dcbd 06f4 8b3e 039d 363e
000000b0: 607b 66be 7272 c1be 7e53 8d3e 2684 b63e
000000c0: adad 65be 6a29 3e3e 614f 69bd 1776 7dba
000000d0: 814f a83e 2f31 4a3e 7a24 24be 5ee2 b6be
000000e0: 7f53 dd3c c0af 973e 27f2 593e 6a7c a53e
000000f0: c234 1dbd 19eb debe eb7e 4e3e f0f2 883e

lstm.weight_hh_l0 f4 [64, 16]
0.10745022 -0.0064964956 0.27767855 -0.027730482 -0.32368848 -0.23339787 0.00015773179 0.19139078
-0.28272155 0.10525977 0.025951585 -0.16503409 -0.19186896 -0.38668153 0.40574074 0.30767086
-0.004620982 0.11006261 0.38074553 -0.19476601 -0.015864111 -0.29532722 0.08846148 0.14713503
-0.1104887 0.287266 -0.083411686 0.10602294 -0.19899647 -0.355501 -0.049058776 -0.0036847212
0.11815776 -0.27784184 0.21771228 -0.27372667 -0.34193036 0.133947 -0.4495602 -0.12640333
-0.18295035 -0.11601555 0.008612618 -0.17580187 0.117917195 -0.2231153 0.596274 0.11928248
0.054436535 -0.15920816 -0.3813476 0.10525726 0.18081279 0.059572957 0.2857968 -0.030540565
-0.13044557 0.27074757 0.015706938 -0.14542851 -0.16421318 0.015250914 -0.5380693 -0.33120033
0.039515957 0.24934189 -0.39174786 0.25555512 0.13031414 0.1816684 0.3802187 -0.27357438
0.34760594 0.10657622 0.05839632 0.17078947 0.32740232 0.71042836 -0.107499614 0.1568463
-0.13681416 0.13604857 0.082847625 -0.17421542 -0.11858525 -0.23164897 0.18967848 -0.00681635
0.17401366 0.103400834 -0.17164129 -0.291695 -0.14588682 -0.02836326 0.055287678 -0.17503539
-0.010175732 0.3487356 0.5320878 0.11774165 -0.37392813 0.22373922 -0.51608074 0.14656462
-0.26118988 0.052404214 0.16311832 0.16422115 -0.110946596 -0.07288778 -0.024470404 0.07548767
-0.010612089 -0.23750429 -0.02886643 0.073319174 -0.00839687 0.053758543 -0.2369957 0.21208271
-0.10742098 -0.24961609 0.04833059 -0.14319998 -0.0454139 -0.20385279 0.1424265 0.11230512
-0.099171974 -0.15957981 -0.02331732 -0.037067216 -0.11784092 0.03386436 -0.47454324 -0.061259866
0.22891653 0.13465582 0.014461559 -0.167793 0.2589194 0.174296 -0.24406654 0.11106009
0.01973791 0.0045852815 0.24154185 -0.17336845 -0.1861977 -0.2880123 0.083598986 0.124549426
-0.32690534 -0.1664184 0.093169615 0.00023089818 -0.13926765 -0.48591086 0.30548248 -0.15782098
-0.14938022 0.17327894 -0.13355702 0.018281406 0.11130477 0.2255317 0.035166938 -0.14367001
0.19856852 0.2305937 -0.18818071 -0.06368862 -0.06437935 0.18796054 -0.060323633 -0.17652367
-0.026429739 -0.10958743 0.25811037 -0.20126706 0.21488453 0.008863597 -0.01847434 -0.09789112
-0.26090312 0.3037277 -0.34891975 0.088269606 0.10815374 -0.0071524046 0.046109784 -0.03768026
-0.041919123 -0.15110391 0.31683898 -0.15761675 -0.11852848 -0.25604394 -0.3146434 0.059512496
-0.028254319 -0.016545612 0.066109 -0.07832629 -0.04179499 0.1656425 0.14708935 -0.30474994
0.08038535 -0.13821575 -0.052677553 0.20375009 -0.13840032 0.06738399 -0.13625835 -0.011605883
0.24643236 -0.15073611 -0.038844693 -0.36770365 -0.27691254 0.20033593 0.24746011 0.058362857
-0.05220392 -0.019617978 -0.24035034 0.26397043 -0.032884583 -0.018495219 0.2735259 -0.11058053
0.16181223 0.11953901 -0.23530263 -0.21504264 0.14019941 0.26797667 -0.26810667 -0.24431768
0.20446652 0.248598 -0.10645161 0.34133092 -0.24843812 0.0038129997 0.93552375 0.015063841
0.21768023 -0.19130181 -0.13396126 -0.025283616 0.054674927 0.43212658 0.17502108 0.14665556
00000000: dc0e dc3d 8ee0 d4bb e22b 8e3e 092b e3bc
00000010: 7fba a5be daff 6ebe ce64 2539 f2fb 433e
00000020: e1c0 90be 6f92 d73d 6b98 d43c b2fe 28be
00000030: 4c79 44be 1ffb c5be 40bd cf3e 0987 9d3e
00000040: 9b6b 97bb 8168 e13d 14f1 c23e be70 47be
00000050: 74f5 81bc 2135 97be 4b2b b53d 91aa 163e
00000060: e647 e2bd 8714 933e bfd3 aabd 8e22 d93d
00000070: bbc5 4bbe 3a04 b6be dbf1 48bd 5d7b 71bb
00000080: b2fc f13d 4941 8ebe f8ef 5e3e e725 8cbe
00000090: 7f11 afbe 6729 093e c12c e6be e06f 01be
000000a0: 5657 3bbe 9099 edbd f01b 0d3c 6805 34be
000000b0: 927e f13d 5678 64be 6aa5 183f 5f4a f43d
000000c0: d8f8 5e3d 7707 23be fe3f c3be 1e91 d73d
000000d0: fd26 393e c602 743d f553 923e 3530 fabc
000000e0: 8693 05be 6d9f 8a3e d6ab 803c 36eb 14be
000000f0: 8027 28be f8de 793c e9be 09bf 1793 a9be
00000100: 7cdb 213d 7b53 7f3e 2d93 c8be 1fd8 823e
00000110: 1271 053e 4807 3a3e 07ac c23e f111 8cbe
00000120: 68f9 b13e a244 da3d fb30 6f3d 6fe3 2e3e
00000130: 47a1 a73e a2de 353f c228 dcbd 519c 203e
00000140: 0319 0cbe 5150 0b3e 04ac a93d 8765 32be
00000150: d3dc f2bd 6335 6dbe 133b 423e b05b dfbb
00000160: a330 323e d1c3 d33d bcc2 2fbe 0c59 95be
00000170: 5b63 15be 115a e8bc 5575 623d 7a3c 33be
00000180: 1db8 26bc 798d b23e e836 083f 8922 f13d
00000190: 8273 bfbe e51b 653e de1d 04bf 0915 163e
000001a0: aeba 85be cda5 563d 7d08 273e 9729 283e
000001b0: f837 e3bd 3046 95bd 2876 c8bc 4899 9a3d
000001c0: 54de 2dbc 5334 73be 4b79 ecbc 5d28 963d
000001d0: 0793 09bc eb31 5c3d 00af 72be 362c 593e
000001e0: 88ff dbbd 5c9b 7fbe 4cf6 453d 04a3 12be
000001f0: ed03 3abd c9be 50be 41d8 113e 3a00 e63d
00000200: ad1a cbbd e468 23be f703 bfbc cbd3 17bd
00000210: 9556 f1bd 5bb5 0a3d 55f7 f2be a0eb 7abd
00000220: 1869 6a3e 37e3 093e 2df0 6c3c eed1 2bbe
00000230: 1591 843e a77a 323e 94ec 79be 7973 e33d
00000240: 66b1 a13c 2140 963b bf56 773e 8087 31be
00000250: 9caa 3ebe 5976 93be f235 ab3d c513 ff3d
00000260: 2360 a7be 9669 2abe b6cf be3d 421d 7239
00000270: 2e9c 0ebe 4fc9 f8be 3368 9c3e d39b 21be
00000280: 21f7 18be 0970 313e 2cc3 08be e3c2 953c
00000290: c1f3 e33d c8f1 663e 350b 103d 3b1e 13be
000002a0: 8c55 4b3e c120 6c3e 72b2 40be 2e6f 82bd
000002b0: 52d9 83bd ba78 403e ea15 77bd 9fc2 34be
000002c0: 2e83 d8bc 606f e0bd 0b27 843e f418 4ebe
000002d0: b10a 5c3e 9f38 113c 8057 97bc 247b c8bd
000002e0: 1895 85be 3282 9b3e 9ca5 b2be b2c6 b43d
000002f0: b57f dd3d b85e eabb 9ddd 3c3d 9e56 1abd
00000300: 63b3 2bbd fcba 1abe b838 a23e 4966 21be
00000310: 0fbf f2bd 3118 83be f118 a1be 60c3 733d
00000320: 9a75 e7bc aa8a 87bc 2864 873d 8969 a0bd
00000330: 3931 2bbd 309e 293e 979e 163e 2f08 9cbe
00000340: 13a1 a43d 6e88 0dbe 6bc4 57bd dda3 503e
00000350: d0b8 0dbe 9e00 8a3d 4f87 0bbe 9a26 3ebc
00000360: c458 7c3e 915a 1abe 9d1b 1fbd a743 bcbe
00000370: 7bc7 8dbe dd24 4d3e 2f66 7d3e e40d 6f3d
00000380: c7d3 55bd e2b5 a0bc 661e 76be 2227 873e
00000390: fcb1 06bd 4983 97bc 960b 8c3e 0b78 e2bd
000003a0: 1bb2 253e ded0 f43d 2cf3 70be 2334 5cbe
000003b0: 6f90 0f3e 3d34 893e 4745 89be 6a2e 7abe
000003c0: ac5f 513e 7990 7e3e 4d03 dabd edc2 ae3e
000003d0: 9066 7ebe 85e3 793b 7c7e 6f3f 54ce 763c
000003e0: 91e7 5e3e 9fe4 43be 242d 09be 961f cfbc
000003f0: d1f2 5f3d b23f dd3e ba38 333e e02c 163e

lstm.bias_ih_l0 f4 [64]
0.08160004 -0.34710705 -0.17474708 -0.054744434 -0.04433106 -0.15748312 0.25233012 0.09006473
-0.21265924 -0.1987528 -0.022309504 -0.050635274 0.08254522 0.048211902 0.15429664 -0.0561432
-0.19534995 -0.28649554 -0.21766694 -0.20389798 -0.12397395 0.18842788 0.36165613 -0.09148035
0.22054812 0.13378529 -0.1815427 -0.05652263 -0.056658376 -0.0117928535 -0.019876912 -0.14159441
0.16542412 0.02020256 -0.0309758 0.22708572 0.056914143 0.36369646 -0.07732391 -0.045353502
0.1155 -0.15186986 0.05971017 -0.1373267 0.017390283 -0.19792688 0.16309859 0.061788347
-0.18676679 -0.12607017 -0.007020729 0.13137224 0.10684434 0.30698916 0.03531706 -0.15060021
0.24886915 0.1148743 -0.17008308 -0.0240498 -0.09889394 0.2523357 0.13504396 0.15148461
00000000: ec1d a73d 04b8 b1be e6f0 32be b33b 60bd
00000010: 7c94 35bd 4143 21be 6a31 813e db73 b83d
00000020: 58c3 59be db85 4bbe 6cc2 b6bc ef66 4fbd
00000030: 780d a93d d879 453d f0ff 1d3e 69f6 65bd
00000040: d109 48be 8baf 92be 15e4 5ebe a2ca 50be
00000050: 0ee6 fdbd 3df3 403e fe2a b93e 0d5a bbbd
00000060: 5ed7 613e 03ff 083e 54e6 39be 4684 67bd
00000070: 9d12 68bd d036 41bc e8d4 a2bc 20fe 10be
00000080: f164 293e d77f a53c f6c0 fdbc 2989 683e
00000090: ce1e 693d 6c36 ba3e 005c 9ebd 98c4 39bd
000000a0: 448b ec3d c683 1bbe a792 743d 5f9f 0cbe
000000b0: 1176 8e3c 58ad 4abe 5103 273e c715 7d3d
000000c0: cb3f 3fbe 8a18 01be 250e e6bb 7286 063e
000000d0: 35d1 da3d af2d 9d3e 9fa8 103d f136 1abe
000000e0: 8ed7 7e3e 3843 eb3d 422a 2ebe 1604 c5bc
000000f0: e888 cabd 2532 813e f748 0a3e c81e 1b3e

lstm.bias_hh_l0 f4 [64]
-0.14753474 -0.18165913 0.011498588 -0.08045518 0.0030894836 0.008784514 -0.12767425 0.16354355
0.24103582 -0.14690985 0.12795104 -0.03020602 0.05393912 0.058330864 0.015076505 -0.004473295
0.07736647 -0.28098378 0.101167046 -0.22769068 -0.09141082 0.20950447 0.094903916 -0.18701857
0.20054272 -0.24386042 -0.21029986 -0.2020711 0.037949286 -0.32731822 -0.10347677 -0.26620498
0.097986154 -0.06029381 -0.030239474 0.02098068 -0.18138494 0.31613857 0.08298907 -0.13766618
0.047726788 -0.05073521 0.02568493 0.14126931 0.13139579 0.1607475 -0.12774579 0.17288128
0.15809576 -0.17913736 0.054069802 0.035156492 0.18019184 -0.1575879 0.12609449 -0.13387975
-0.0635966 -0.009654341 0.046585497 -0.27612245 -0.18024945 0.26622617 -0.061001003 -0.012931023
00000000: 5913 17be da04 3abe 9364 3c3c afc5 a4bd
00000010: ef78 4a3b ecec 0f3c 0abd 02be f677 273e
00000020: 18d2 763e 896f 16be 9905 033e 9e72 f7bc
00000030: 44ef 5c3d 58ec 6e3d 7203 773c b894 92bb
00000040: 5072 9e3d 1bdd 8fbe ab30 cf3d bf27 69be
00000050: 9935 bbbd 5788 563e fc5c c23d cc81 3fbe
00000060: 125b 4d3e 8cb6 79be d958 57be baeb 4ebe
00000070: b670 1b3d 4196 a7be a1eb d3bd 054c 88be
00000080: f7ac c83d a4f6 76bd c6b8 f7bc addf ab3c
00000090: f9bc 39be eadc a13e 2cf6 a93d 5df8 0cbe
000000a0: 2a7d 433d b9cf 4fbd 3469 d23c e7a8 103e
000000b0: 9e8c 063e fe9a 243e cbcf 02be ca07 313e
000000c0: dbe3 213e c96f 37be 4c78 5d3d 4100 103d
000000d0: 3684 383e b95e 21be ea1e 013e c617 09be
000000e0: ef3e 82bd 3e2d 1ebc 6fd0 3e3d ec5f 8dbe
000000f0: 5093 38be cc4e 883e 30dc 79bd a4dc 53bc

layer_norm.weight f4 [16]
1.0547276 0.8889124 1.0262997 0.88707435 1.0604212 0.91847634 0.8553779 1.0025164
1.0361053 0.75083095 1.0044978 0.8708406 0.9917778 1.1257509 0.95994765 0.9438408
00000000: 5001 873f c38f 633f ca5d 833f 4e17 633f
00000010: e2bb 873f 4421 6b3f 0cfa 5a3f 7552 803f
00000020: 199f 843f 7536 403f 6293 803f 69ef 5e3f
00000030: 26e5 7d3f 9b18 903f 21bf 753f 8d9f 713f

layer_norm.bias f4 [16]
0.014362253 0.03616358 -0.00055124395 -0.04320727 0.026637957 -0.068953685 0.061188962 0.0034034862
0.010530982 0.26324216 -0.050407123 0.032263756 0.0109034525 0.019602206 -0.019247178 -0.03985201
00000000: a84f 6b3c 4320 143d 5b81 10ba 1bfa 30bd
00000010: d837 da3c 9737 8dbd 47a1 7a3d 060d 5f3b
00000020: 248a 2c3c adc7 863e b377 4ebd 0027 043d
00000030: 65a4 323c ce94 a03c 42ac 9dbc dc3b 23bd

linear1.weight f4 [16, 16]
0.3115988 -0.048571337 0.034828275 -0.21571189 0.092331775 0.1653525 -0.18233286 0.025150785
0.201591 0.16094083 -0.049776103 -0.057040617 0.2109088 0.30491984 -0.002757132 -0.16694874
0.17533986 0.31560296 0.22147761 0.06111665 -0.003542922 0.3202929 -0.1531528 0.23296098
0.11027463 0.20897497 -0.12670131 0.19807668 0.044820983 -0.05245064 0.18995854 0.19625792
-0.16689429 0.09705945 0.3148445 -0.16517818 -0.14279859 -0.18864478 0.12165055 0.29481614
-0.086611286 -0.08851982 0.2593046 -0.05470485 -0.2726572 -0.16259837 0.06912492 -0.10319648
-0.07607222 0.3059251 -0.14984377 0.07672334 0.08221018 -0.11137694 -0.1656293 0.21036372
-0.17999613 -0.08255413 -0.041517716 0.2913026 -0.11236851 -0.30980164 -0.0072527984 0.107782535
-0.06565407 -0.0062430208 -0.2613624 -0.022327458 0.0046733315 -0.12059734 -0.045996875 0.06148812
0.1902359 -0.040469166 -0.24318884 -0.1080821 0.011889624 0.23957753 -0.0059405817 0.09294363
0.18887703 -0.37235782 0.02267411 0.10511601 0.08887382 -0.032370895 0.12440547 -0.16435152
-0.089740686 0.08764084 -0.17617767 -0.11239834 -0.069548786 -0.017870577 0.052633222 -0.23759127
-0.12935948 0.13944082 -0.12888789 -0.22634417 0.058458615 0.1939258 0.1868301 -0.158085
-0.15869264 -0.09860746 0.050425585 0.36541465 -0.17627254 -0.06352978 0.07491889 0.010184615
0.010640309 0.2995237 -0.0062190252 0.06201018 0.037546776 -0.033311866 0.032777674 -0.14587936
-0.15082185 -0.01768102 0.018789424 0.30508792 0.0870712 -0.32672197 0.23734744 -0.18575919
0.09322877 -0.14509818 0.13661756 -0.18362214 -0.07479275 0.014705289 -0.034762405 -0.017371906
-0.08920381 -0.14021447 -0.114767805 -0.109036766 0.28133082 -0.09381703 0.3431526 -0.050836492
-0.24030979 0.18546748 0.2992505 -0.014519577 0.10304916 -0.16220646 -0.22165582 0.2454825
-0.29828903 -0.10363921 0.07682759 -0.008430093 0.05358822 -0.03146754 0.19563752 -0.15053487
-0.041426305 0.00090664474 -0.003718507 0.15793116 -0.32809672 0.042710938 -0.27055126 0.11297205
0.043980792 -0.117287196 -0.05713459 0.31414983 -0.3044986 -0.14473268 0.10129976 0.14654689
0.030675264 -0.031098658 0.09771362 -0.0025578267 -0.2656769 0.15348831 -0.017087124 0.10197206
0.00033291927 -0.01379839 0.16473912 0.23298262 0.078971036 -0.22117911 -0.02837636 0.16057482
-0.3065724 -0.14540632 -0.14089893 0.097762704 -0.323589 -0.015421739 -0.22384942 0.054241944
0.047162134 0.1567625 -0.0072636087 -0.10795701 -0.035564423 -0.34695753 0.29873917 0.11608666
0.007547385 0.083794884 -0.16130666 -0.25614464 0.108467 0.0133814495 -0.11682391 -0.14945292
0.27072603 -0.028587995 0.029170612 -0.30847755 0.002580122 0.17919983 0.19119537 -0.12048868
-0.13838582 -0.11980723 0.17245129 -0.15741636 0.09310254 0.05203922 0.18292141 0.27605054
-0.1775294 0.0019923293 0.25300556 0.21416728 -0.26256675 -0.059252314 0.27058837 -0.010541619
-0.15012617 -0.012006302 -0.11132156 0.122043155 0.015561385 -0.2845526 0.28121293 0.15456322
0.021314455 -0.0891555 -0.15684246 -0.14466599 0.022181598 0.104314685 -0.15119807 -0.048401333
00000000: e189 9f3e bdf2 46bd 18a8 0e3d 94e3 5cbe
00000010: 7118 bd3d 2a52 293e 77b5 3abe 0509 ce3c
00000020: df6d 4e3e accd 243e 07e2 4bbd 6ca3 69bd
00000030: 7af8 573e 741e 9c3e 00b1 34bb 9cf4 2abe
00000040: 4b8c 333e b696 a13e 07cb 623e 7455 7a3d
00000050: 5e30 68bb 6efd a33e 16d4 1cbe 538d 6e3e
00000060: aad7 e13d 89fd 553e fdbd 01be 9dd4 4a3e
00000070: 3596 373d 7bd6 56bd 7e84 423e d6f7 483e
00000080: 56e6 2abe 1bc7 c63d 4c33 a13e 7824 29be
00000090: cb39 12be 192c 41be ec23 f93d 24f2 963e
000000a0: 4261 b1bd e149 b5bd 93c3 843e 3112 60bd
000000b0: b999 8bbe 3080 26be 5e91 8d3d ad58 d3bd
000000c0: c1cb 9bbd 37a2 9c3e a570 19be 2021 9d3d
000000d0: d05d a83d 9819 e4bd ba9a 29be 9669 573e
000000e0: e850 38be 2412 a9bd 7b0e 2abd 9d25 953e
000000f0: 7621 e6bd 529e 9ebe e2a8 edbb 17bd dc3d
00000100: a475 86bd 4192 ccbb 4bd1 85be 13e8 b6bc
00000110: bf22 993b bdfb f6bd 3867 3cbd f8da 7b3d
00000120: 33cd 423e ffc2 25bd 7f06 79be 265a ddbd
00000130: b3cc 423c d053 753e 36a9 c2bb 3b59 be3d
00000140: fb68 413e afa5 bebe 0ebf b93c 1047 d73d
00000150: 7a03 b63d 5897 04bd 4cc8 fe3d c44b 28be
00000160: f7c9 b7bd 0a7d b33d eb67 34be 1a31 e6bd
00000170: 986f 8ebd 5165 92bc ef95 573d 204b 73be
00000180: d076 04be 93c9 0e3e 30fb 03be c4c6 67be
00000190: 4d72 6f3d 7c94 463e 6450 3f3e 09e1 21be
000001a0: 5380 22be b5f2 c9bd 0f8b 4e3d a117 bb3e
000001b0: ca80 34be e71b 82bd 136f 993d 5fdd 263c
000001c0: b154 2e3c 2c5b 993e f7c8 cbbb 63fe 7d3d
000001d0: a6ca 193d 0672 08bd e241 063d 6661 15be
000001e0: 0b71 1abe c9d7 90bc 47ec 993c 7c34 9c3e
000001f0: 6352 b23d 1a48 a7be 350b 733e a837 3ebe
00000200: baee be3d 9e94 14be 79e5 0b3e 7107 3cbe
00000210: f12c 99bd 74ee 703c 0663 0ebd 874f 8ebc
00000220: 7db0 b6bd 6294 0fbe 620b ebbd ab4e dfbd
00000230: 980a 903e 2523 c0bd b3b1 af3e ed39 50bd
00000240: c513 76be 30eb 3d3e 5d37 993e 85e3 6dbc
00000250: 700b d33d 7319 26be bef9 62be c45f 7b3e
00000260: 57b9 98be cb40 d4bd c957 9d3d 5f1e 0abc
00000270: 527f 5b3d 1be4 00bd 3455 483e d025 1abe
00000280: a1ae 29bd e6ab 6d3a 32b2 73bb b5b8 213e
00000290: 4bfc a7be aaf1 2e3d b285 8abe e45d e73d
000002a0: 3425 343d 4534 f0bd f605 6abd 3fd8 a03e
000002b0: 3ee7 9bbe ce34 14be 4076 cf3d 6310 163e
000002c0: b14a fb3c 9dc2 febc 141e c83d 36a1 27bb
000002d0: cd06 88be 0a2c 1d3e 4cfa 8bbc bad6 d03d
000002e0: ab8b ae39 a412 62bc 5fb1 283e ff92 6e3e
000002f0: 91bb a13d c77c 62be 8a75 e8bc ba6d 243e
00000300: 0ff7 9cbe 65e5 14be cf47 10be d037 c83d
00000310: 75ad a5be 76ab 7cbc c838 65be cd2c 5e3d
00000320: 152d 413d 5986 203e 9103 eebb 9118 ddbd
00000330: 00ac 11bd 6ba4 b1be 57f4 983e d8be ed3d
00000340: 0e50 f73b a79c ab3d 932d 25be 6425 83be
00000350: f223 de3d de3d 5b3c 6041 efbd 300a 19be
00000360: 9a9c 8a3e 5f31 eabc 35f7 ee3c c5f0 9dbe
00000370: 4417 293b 2980 373e b8c8 433e c5c2 f6bd
00000380: 03b5 0dbe 7e5d f5bd 1297 303e c131 21be
00000390: 8bac be3d 1427 553d c04f 3b3e 7f56 8d3e
000003a0: 44ca 35be bd91 023b f289 813e ab4e 5b3e
000003b0: 266f 86be 8eb2 72bd 8f8a 8a3e c1b6 2cbc
000003c0: adba 19be 15b6 44bc 8ffc e3bd c3f1 f93d
000003d0: 2ef5 7e3c e1b0 91be 24fb 8f3e d245 1e3e
000003e0: a79b ae3c 2997 b6bd 4f9b 20be 5223 14be
000003f0: 2fb6 b53c f0a2 d53d abd3 1abe 7a40 46bd

linear1.bias f4 [16]
-0.11988812 -0.2026738 0.14260787 -0.101636246 -0.17493394 0.064194106 -0.295938 0.038058575
-0.08343787 0.112853095 -0.21359724 -0.13659576 0.022360368 -0.061655693 0.17669629 0.13958636
00000000: e787 f5bd b889 4fbe cc07 123e aa26 d0bd
00000010: e221 33be 3378 833d 2f85 97be 4fe3 1b3d
00000020: 79e1 aabd 861f e73d 3cb9 5abe c2df 0bbe
00000030: 172d b73c ae8a 7cbd dfef 343e baef 0e3e

linear2.weight f4 [1, 16]
-0.21649028 0.02451442 0.21567625 0.069576375 -0.050117854 -0.044432968 0.0067084045 0.028249297
0.036348276 0.13920449 0.115907125 0.18641621 0.21185899 -0.08291619 0.16121562 -0.097090006
00000000: a1af 5dbe 77d2 c83c 3cda 5c3e 0f7e 8e3d
00000010: 6148 4dbd 58ff 35bd 2dd2 db3b 126b e73c
00000020: eee1 143d 9f8b 0e3e b760 ed3d e4e3 3e3e
00000030: 90f1 583e f7cf a9bd b515 253e 20d7 c6bd
