labml_nn/lstm/model_real.pth (torch, 337575 bytes, 7 tensors)

lstm.weight_ih_l0 f4 [512, 1]
00000000: c9e2 693e ce6e 53bd 9718 763d 9a38 7f3e
00000010: 9569 89be 368c 46be 2751 903e 4933 0abe
00000020: e017 adbe 9406 50be 93cf c7bd 7358 6bbe
00000030: b655 343e c40e 343e 0e98 ae3d d475 97be
00000040: f96a d03c 2061 92be 16d3 fe3d cf27 94bd
00000050: 5115 283e 788c 00bf b840 623e 410b c1be
00000060: 382e 7ebd 2533 cfbd 719c 1a3e d04b 843d
00000070: 785c 893c 2641 5c3d 7108 073e 2eec a23e
00000080: ce68 053f 5129 9cbe 0de0 2d3e 5b11 a5bd
00000090: e274 793e f7e8 543e 386c c33d 5be9 433e
000000a0: ebcc 69bd c39c 8b3d e9cc e13d 2dbf 1e3f
000000b0: 6ec0 c23c 33b6 b33d d326 0d3d 22bb ccbd
000000c0: 775c b8be a561 cf3d 8dad 2ebe 20ab 0abd
000000d0: 003a ab3e ea4a af3d 7242 413c 021c 54be
000000e0: 9efa 29be 1050 9abd 5ac5 5ebe d118 fe3c
000000f0: d22f 07be 0edc 05be 608e 91be bca4 23be
00000100: 21d4 f93c 4eef aabe 8aff e93d 9af9 543e
00000110: 550b 74be a03b 013f 180e 2a3e 69fe 4bbe
00000120: 7786 e6be 7300 f43d 8b40 1abc 6700 0e3d
00000130: e563 513e fefd dcbd e003 a03e e462 933e
00000140: d5b9 043e fc33 333e d7b1 a3bd b225 bb3d
00000150: 24fb aebe 24c6 c73d fa23 df3c 7d87 8a3e
00000160: d441 9b3d a0b7 2cbe 6ecc b1be 5e4b fb3b
00000170: a571 d0bd 6e1d b43d f1c6 983d ff48 303e
00000180: 2b0f 88be 89bc 9bbb f421 adbd 2570 9f3e
00000190: 3749 b73d 942f 883a a7fd 923e 3aad b8bb
000001a0: 0939 dc3d bd46 c4bd ee45 8fbe e0d8 2ebd
000001b0: 4268 283c 7228 48bd 615e 083e 8da8 babe
000001c0: abff f0be 41fc 42bd 78d4 8fbd 37b8 90be
000001d0: 620b a93e 109d 183d d8cd 69be a5fc da3d
000001e0: bd8c 6b3d 9295 7cbe 2f79 0abe 0faa 863d
000001f0: 3fbd fc3d 2029 0fbe 8faf 273e 0019 a5be
00000200: e35e 9cbd 3dc8 86bc 5d31 febd 47fb 103e
00000210: d3ca 923e a81b 95be d75f 80bd d5e3 58be
00000220: 19bb 33be 8c80 3abe 5a3c dc3d 53bb 41be
00000230: 8019 fb3d cce9 653c a224 06be b021 dbbd
00000240: 91f4 333e 6761 61be 4cf7 a2bd bcbf 53bd
00000250: 721c 8cbc 195d 4bbe 4882 383d 5036 50be
00000260: a60c c93d bc26 29be 8bd7 f8bd 7625 2b3e
00000270: 74c4 5abe b8da 9bba 846d ff3d 6764 dbbd
00000280: 7caa 5e3e 3263 25be d23f 1c3e ad70 8abe
00000290: e419 713e f2bf 0e3e 4a22 963e d8c1 803e
000002a0: 3ce3 d43d 940f 80bd df81 563e 6779 3e3e
000002b0: 4bfe 33bd c283 6b3c f073 82bd e465 fabd
000002c0: eed6 36be bf70 cd3d 8371 70be 2679 0b3e
000002d0: 0928 fc3d 8116 ddbc de46 8a3d 1f4b 81be
000002e0: 9c27 0c3e ba32 02be 52f1 01be c0c4 713d
000002f0: a69b 31be 90af d4bd 5daf f0bd 8cf0 65be
00000300: 24ac 363d 63ab 49be 14ce 3d3e b9fb e03d
00000310: dbb3 4ebe ecf9 933e f122 fa3d e0a6 41be
00000320: bf0f 22be 6ed7 ae3c cfa7 d23d 87bd b43d
00000330: bd46 373c b392 17be 78c5 163e d7f8 c93d
00000340: ca5f 213d 4978 353e fd06 5dbd 2d34 ebbd
00000350: b4ec ffbd a904 3fbe 8e1d f33d 0504 23bd
00000360: bf81 df3e 0604 7ebe 40c7 67be cc9d 333e
00000370: f990 953d acfa 153d 2b6b f3bd c325 5d3e
00000380: dfc5 0cbb c074 083e a24f d4bb 1119 813e
00000390: 8ef1 85bc 1097 2a3d 9517 293e eb94 31be
000003a0: e440 063e bd21 09be b89a 82be 0a05 35be
000003b0: 9f9e ea3c 6e71 9a3c d0bc 79bd 0767 8bbe
000003c0: 392a 4bbe e40f 22be 3641 a13d f314 46be
000003d0: feca a93e c4ae 6b3d 3750 39be 9b72 833c
000003e0: 8159 eb3c bf56 74be 7e38 993d 7fb8 f63d
000003f0: 97fc 213e 3751 38be 28f1 313e 18e9 0bbe
0.22840418 -0.051619343 0.060082044 0.24923936 -0.26838365 -0.19389424 0.28186914 -0.13496126
-0.33807278 -0.2031501 -0.097563885 -0.2298296 0.17610821 0.17583758 0.08525096 -0.29582083
0.025441634 -0.28589725 0.12442605 -0.072341554 0.16414382 -0.5021434 0.22095 -0.377039
-0.062055796 -0.10117177 0.1509874 0.064597726 0.016767725 0.053773068 0.13186814 0.31820816
0.52113044 -0.30500272 0.1698 -0.08059951 0.24360994 0.20791994 0.095421255 0.19131987
-0.05708019 0.06817009 0.11025412 0.6201046 0.023773398 0.08774986 0.034460854 -0.0999663
-0.36008045 0.10126046 -0.17058392 -0.033854604 0.33442688 0.085592106 0.011795627 -0.20713809
-0.16599509 -0.07534802 -0.21754971 0.031017693 -0.13201836 -0.13072225 -0.28428936 -0.1598081
0.030496659 -0.333857 0.11425693 0.2079834 -0.23832448 0.50481606 0.16606939 -0.19921269
-0.45024464 0.11914148 -0.009414802 0.034668352 0.20448263 -0.10790633 0.31252956 0.28786385
0.12961514 0.17500299 -0.07992905 0.09138049 -0.3417598 0.09754589 0.027238835 0.27056494
0.07580915 -0.16866922 -0.3472628 0.0076688966 -0.10177926 0.08794676 0.0745982 0.17215346
-0.26574072 -0.0047526998 -0.08453742 0.31140247 0.089495115 0.0010390156 0.28709146 -0.0056358846
0.10753066 -0.09583805 -0.2798304 -0.042687297 0.010278763 -0.048866697 0.13317253 -0.3645672
-0.4707006 -0.04760385 -0.07022947 -0.28265545 0.33016497 0.03725916 -0.2283243 0.10692719
0.057507265 -0.24666432 -0.1352279 0.06575405 0.12340783 -0.13980532 0.16375564 -0.32245636
-0.07635286 -0.016452903 -0.12411759 0.14158355 0.28670368 -0.29122663 -0.0626828 -0.21180661
-0.17551841 -0.18213099 0.10753699 -0.18919115 0.12260723 0.014032792 -0.13099912 -0.10699785
0.17573763 -0.22009812 -0.079573244 -0.051696524 -0.017103408 -0.19859733 0.04504612 -0.20333219
0.098168656 -0.16518682 -0.121504866 0.16713509 -0.21364003 -0.0011890745 0.1247206 -0.107125096
0.21744722 -0.16151121 0.1525872 -0.2703909 0.23545033 0.13940409 0.29323035 0.2514789
0.10394904 -0.06252971 0.2094798 0.18600999 -0.043943685 0.014374675 -0.063697696 -0.12226465
-0.17855427 0.1003127 -0.23480801 0.13620433 0.123123236 -0.02698827 0.06751798 -0.25252625
0.13686985 -0.12714663 -0.12689713 0.059025526 -0.17344531 -0.103850484 -0.11752198 -0.22455043
0.04459776 -0.19694285 0.18535644 0.10985512 -0.20185797 0.28901613 0.12213696 -0.18911314
-0.15826319 0.02134296 0.10285913 0.08825212 0.011186299 -0.14802055 0.14723766 0.098619156
0.039397992 0.17721666 -0.053961743 -0.11484561 -0.124963194 -0.18654121 0.118708715 -0.039798755
0.43653676 -0.24806222 -0.22634602 0.17540663 0.07303042 0.036616012 -0.11885675 0.21596436
-0.0021480245 0.13325787 -0.0064792195 0.25214437 -0.016350534 0.04164797 0.16512902 -0.17341964
0.13110691 -0.13391776 -0.25508666 -0.17677703 0.02864009 0.018852916 -0.06097108 -0.2722704
-0.19840325 -0.15826374 0.07873766 -0.19343929 0.33162683 0.057539716 -0.18097006 0.01604586
0.028729202 -0.23861216 0.07481478 0.120469086 0.15819012 -0.17999731 0.1737715 -0.13663137

lstm.weight_hh_l0 f4 [512, 128]
00000000: 8ead 063b 7734 093e 742e 49be 750d 5a3e
00000010: 99b8 16bd cf23 02be 652c 4bbd a555 4cbe
00000020: d375 9c3a 3125 5e3c 8038 3d3e b317 dc3c
00000030: 593d 3c3e 3e3c ba3b 520e fc3c 59ea c43a
00000040: f6a3 8abc 30f0 b7bd 85e8 7f3d a436 dc3d
00000050: 7f79 e3bd 27bc a83d 4f1f 063e 54bc 1b3e
00000060: 25c1 a4be a35e fdbd 8347 bd3d 7ffa 22bc
00000070: 6f4a 80bd b902 cdbd 7a49 863d d147 213e
00000080: 8ca9 3a3c 4375 5d3d b9ec 75bd d05e 7b3d
00000090: 67fd 0abd c4dd 923d 85d9 e93d a210 4f3d
000000a0: c4f6 3ebd f4d4 723d 72d6 093d a1b7 80bd
000000b0: 47c8 49be 8570 a3be e9cd af3c be08 76bc
000000c0: 6dac 893d dd72 0cbd 6d61 3dbe 1cdc ccbe
000000d0: 4462 1a3e 7de7 fb3c 28c0 39be 4f49 d7bc
000000e0: b61e 313e a25a 95bc 47d4 893d 9259 7dbe
000000f0: 223b d43d d117 ae3d 503b 073e 6ca5 e8bb
00000100: 69c8 56bd f661 ddbd cf28 203e dbee f8bd
00000110: 9c09 a7bd 24ed 03be 6c3d 9c3b 79bf 3c3e
00000120: 6633 1abc 15ec 88bd 9ce0 923e e773 18be
00000130: 5ca6 a8bd 5fde b8bb 4db3 92bd 7643 4abe
00000140: f1d0 163e d9fd 45bd b3ed e1bd 6160 7f3c
00000150: 0121 d8bd ff8d bfbd 9f6b 873e b486 713d
00000160: 359f d3bd 345d e1bd 5ba8 c83d 52ed 6fbd
00000170: ceb6 1b3e 38c0 583c 7717 063d d053 80be
00000180: 3542 bf3e 8915 dcbd e2ab 273e 8b0a f0bc
00000190: ca1c 4abd 0a6e bb3e 6b58 413e e1bc 353e
000001a0: 045f 34be 763c c2bd b5fb bcbb 308e a4bc
000001b0: c036 a9be 242f 8dbe 1533 8fbd 4d4f b83c
000001c0: 03bc 00be a6b3 2e3e c163 e6bd e905 823d
000001d0: 8a02 b43d 4f83 c9bd 6e67 853c b81a 3e3c
000001e0: d405 583c b9fe 1cbe 7ad9 07bf 7edc 87be
000001f0: f3ff a2bd 1d4c 84bd 3cd0 913d 6463 17bd
00000200: 3f5c 713e 0f72 24bd efff 283e ff50 ce3d
00000210: f6a7 1dbb 2bfc 1d3e 854f 653e 9f9c 0e3e
00000220: 0da7 8dbc 251f 3d3d 1520 373e 949c 8cbd
00000230: 07e0 ae3d 16e6 24be 0b86 95bd d932 8f3e
00000240: f9be e43d 094a e7bd d242 653e 729e bd3c
00000250: c2d2 103e b980 293e a753 0a3e 1b1b 95bd
00000260: 6c07 a1bd 2a40 583e 7673 aebd c7fe 46be
00000270: 8bd6 6e3e 3e05 79bd a1de b43d 59a7 9b3d
00000280: d5fb 37be 8c4f 453d db32 213e c707 03be
00000290: acd6 03be c479 4e3c 0c40 fe3d d091 3b3e
000002a0: 6782 bdbd a3f4 4abe 9239 99bd da48 72bc
000002b0: 2ad3 a6be cf46 0d3e f610 dabd 4587 7cbd
000002c0: 6fac 44bc bd07 2dbd ca1f 213e 16be 043e
000002d0: 2712 1dbd 79e9 313e cd31 ae3c 9525 59be
000002e0: 474a 38bd fee0 aabd 2a78 9dbe 931e 603e
000002f0: e759 82bd 13d7 4b3d 96ed 83be d1b3 403e
00000300: 7c70 22bd 743b 2c3d 85fa b63d bab6 3bbe
00000310: 32d5 973c 3a9d 373d c70f bd3c 466e 183e
00000320: e44f 18bc 5672 7d3e 943a 2b3e fc83 1abd
00000330: 8b3a 01bd ed67 24be 4e68 53be 2582 923d
00000340: 922f 833c 7e61 31be 3461 bebd 94d9 c3bd
00000350: c1c7 40be 0e70 99be 1051 1cbe 7014 3ebe
00000360: 5d0a c3bd 40eb 87bc 81fe a9bc d5fc f5bd
00000370: 9b49 3dbe 82d3 36be c863 67be 0637 d9bd
00000380: 7ca0 3dbe f296 94bc 09af 7f3d 28c3 1c3e
00000390: 7256 8e3e d355 b13e e4a9 5e3e 47a0 06bd
000003a0: d458 203e f5ee 4f3e 2a43 283e a9ef 0e3d
000003b0: cdae 463d 0ce9 e03d d256 47be 8c72 823e
000003c0: c8ff 563e 6ce8 e6bd 645c 80be 038f eb3d
000003d0: 977e d73d 6e51 563e 73eb 143e 91f5 033e
000003e0: 1784 0c3c 4f9c c6bc a76d 80bc 5dd5 0ebd
000003f0: 9b1a 223e d0d0 8c3d de37 d0bc acea 94be
0.0020550224 0.1339892 -0.19646627 0.21294196 -0.03679714 -0.12708972 -0.049602885 -0.19954546
0.001193697 0.013558672 0.18478584 0.02686677 0.18382777 0.005683451 0.030768547 0.0015023454
-0.016923886 -0.08981359 0.062477607 0.10752609 -0.11107158 0.08239012 0.13097881 0.1520856
-0.32178608 -0.12371566 0.092421554 -0.009947418 -0.06264197 -0.10010285 0.06556983 0.15750052
0.011392962 0.054066908 -0.06004021 0.061369717 -0.03393307 0.07171205 0.11418442 0.05055297
-0.046622053 0.05928512 0.033651777 -0.062850244 -0.19705306 -0.31921783 0.02146049 -0.015016733
0.06722341 -0.03428923 -0.18494196 -0.4001168 0.15076548 0.03075003 -0.18139708 -0.026280073
0.17296872 -0.018231694 0.06729942 -0.247412 0.10362841 0.08500636 0.1320622 -0.007099798
-0.05243722 -0.108097 0.15640567 -0.12154933 -0.0815613 -0.1288343 0.0047680642 0.18432416
-0.009411668 -0.06685654 0.28686988 -0.14887963 -0.082348555 -0.005641743 -0.07163105 -0.19752297
0.14728142 -0.04833779 -0.11031666 0.015586943 -0.1055317 -0.093532555 0.26449296 0.058966354
-0.10333101 -0.11004105 0.09797736 -0.058575936 0.15206453 0.013229422 0.03273722 -0.25063944
0.373552 -0.10746295 0.16374162 -0.029301902 -0.04934386 0.3660739 0.18881385 0.17747833
-0.1761437 -0.09484188 -0.0057673105 -0.020087332 -0.33049583 -0.27575028 -0.06992165 0.022498751
-0.12571721 0.17060718 -0.11249495 0.063487835 0.08789547 -0.09839498 0.01628467 0.01160305
0.013184983 -0.15331544 -0.5306622 -0.2653541 -0.07958975 -0.0645983 0.07119796 -0.03696002
0.23570345 -0.040147837 0.16503881 0.100740425 -0.0024056411 0.15428226 0.22393616 0.13926934
-0.01729157 0.04617228 0.17883332 -0.068658024 0.085388236 -0.16103396 -0.07300957 0.2796848
0.11169238 -0.11293418 0.22388771 0.023146842 0.14142898 0.1655301 0.13508473 -0.072805606
-0.07862744 0.21118227 -0.08518116 -0.19433127 0.23324029 -0.060796015 0.088315256 0.076002784
-0.1796716 0.048171565 0.15742056 -0.12795936 -0.1287486 0.012602273 0.1241456 0.18317342
-0.09253388 -0.19819884 -0.07481684 -0.014787877 -0.3258298 0.13796543 -0.10647766 -0.06165244
-0.012004002 -0.042243708 0.15734783 0.12963137 -0.03834739 0.17374219 0.021263981 -0.21205743
-0.04499271 -0.08343695 -0.3075574 0.21886663 -0.06364804 0.049765658 -0.257672 0.18818595
-0.039658055 0.042048886 0.089345016 -0.18331423 0.018534277 0.044827677 0.023078812 0.14885816
-0.009296391 0.24750647 0.16721565 -0.037723526 -0.03154997 -0.1605527 -0.20645258 0.07153729
0.016013894 -0.17322347 -0.09295884 -0.09562984 -0.188262 -0.29968303 -0.15265298 -0.18562484
-0.09523461 -0.016591668 -0.02075124 -0.120111145 -0.1848511 -0.17854121 -0.22596657 -0.10606198
-0.18518251 -0.018138383 0.062422786 0.15308821 0.27800328 0.3463579 0.21744496 -0.032867696
0.15658885 0.20305999 0.16431871 0.034896526 0.048506547 0.1098195 -0.19466713 0.25478017
0.2099601 -0.112748 -0.25070488 0.11501887 0.10522192 0.209295 0.14542942 0.12886645
0.008576415 -0.024244456 -0.015677286 -0.034871448 0.15830462 0.06875765 -0.025417265 -0.2908529

lstm.bias_ih_l0 f4 [512]
00000000: ce8b e6bc a293 07bf cc4c e9bd dac5 10be
00000010: 95dc b1be 05c2 03be d58e 0fbe b90a 40bc
00000020: dd89 ddbd 2feb 5bbb 4ce9 0abe a1c2 48bd
00000030: 2d88 12be e26a 53be 512f 73bd d095 99bd
00000040: 9b2e 76be 4eb1 16be 3321 29be 934c 8fbe
00000050: 5f6f 14be b9a1 72bd 73a2 93be af3a fcbd
00000060: 9766 a4bd a698 e1bc 80ee 8d3d 5701 2bbe
00000070: ecb1 c23a 7e9d 62be 4dac 79be 12ea 67be
00000080: 4993 cebd 3633 eebd 4abc 92be 8f55 85bc
00000090: 58a0 19be 438a 68be 9bb2 07be 4c14 0fbe
000000a0: 9b2e 50be 4753 9bbd 3429 6dbe 4478 1abe
000000b0: cc87 a7be 0199 2ebe c7a9 ec3d f942 17be
000000c0: 97b7 a0bd 92c2 92be 0601 e3bd a344 80be
000000d0: 90bd 25bd 5e96 a1be 145f 8cbe f1ce 26bd
000000e0: 29f6 d1be ec20 0bbe c21e 04bf 3311 77be
000000f0: 0326 8c3b 1ed2 29be 45d1 a8bd afa0 873d
00000100: c894 2fbe 10c7 3cbe 8564 99be 71f6 e2bd
00000110: 2a5d a2bc 0ed9 1bbe 01ad 2cbe ed77 fdbd
00000120: 65e8 01be cea3 4abe 0844 cfbd fad3 b2bd
00000130: 4ef1 54be fb17 e8bd 752e fabd cd03 00be
00000140: 2375 b3bd 63a9 37be 1a41 95be 9ff1 b6bd
00000150: 4a82 1abe de69 dbbc 73b9 3bbe 690f 78be
00000160: ca03 28be 5990 ecbd fecc bebd e0a3 78be
00000170: e46e 8dbe c5e0 1abe 4c77 c6bd 97d2 4cbd
00000180: 9512 45be 81a8 dfbe 5037 86be 0249 e3bd
00000190: 9472 85be 421e 68be b2f8 4fbe 1239 e13c
000001a0: 1f0d 36be 20e2 b7bc aa65 e4bc a974 a3be
000001b0: 49df 3fbe 88f1 2cbe 43b3 49be 7452 16be
000001c0: 96ea bcbd 994f 12be 2adc 84be f9c4 53bd
000001d0: 70a5 87be 4fb7 5cbe 3f43 cebc 4767 61be
000001e0: 6ab7 92be 4f2e b1bd 1fd4 c9bd d251 c8bd
000001f0: fb4b 98be 797c dbbd baf4 fcbd df80 eebd
00000200: 6afb f9bc ac78 37be 7e8d 473d 9084 2cbe
00000210: 3a10 89be 5326 83bd a594 36be 78cc 31bd
00000220: d3c4 98bd 29d4 013d 4d3e 8bbd a60a 1e3d
00000230: 405d 08be 5998 e8bd 6ba2 103c 9455 213d
00000240: cb42 8bbe b013 faba ca05 3b3d df33 9abd
00000250: c114 cfbc 2738 7eba e145 2cbd 7ef4 5d3d
00000260: 0f71 22bd 00b1 663d 9949 183d cce4 0cbe
00000270: e6a0 9fbd 607d 63be 0e45 f8bd 6080 f3bd
00000280: be86 adbd 3e47 b3bd 1d35 d2bd 2ffc c03d
00000290: aa92 f8bd 1fd7 18be 30fc 30be 618e b9bc
000002a0: e114 97bd 2bf5 ebbc f3c4 0ebe a649 3fbd
000002b0: a45a 66be 7d1a 34be 47f8 8fbc 8bca 78bd
000002c0: 745b 793b 0ed3 cebd ba19 cbbd e3a0 a1be
000002d0: 1819 84bd d036 27be 7668 9bbe b68f 5b3d
000002e0: eb11 a4be 883e 92bd eb01 c9be 70b8 3cbe
000002f0: 165d b9bd 5c8a 6eba abe2 d3bd fceb c03c
00000300: 876b 4cbd ec28 593c f2ce 35be 7909 06be
00000310: 1d73 f43c acfb 3cbe d95f d3bd 1f44 2b3d
00000320: 0bda a9bd 5ef0 1bbe aa86 bfbc 36d2 26be
00000330: 353b 7bbd 3b86 f9bc c165 d9bc 43cf 25be
00000340: 0303 58be 8d87 48be 3b99 a2be 60c2 8bbd
00000350: 47e9 21bc a1e0 a8bd c3ac d9bd 0739 c6bd
00000360: ca7c c2bd 726c 79bc aa84 243c 6f10 f7bd
00000370: 8222 9abe 926d a6bd 12ae 29bd 326e 3bbd
00000380: 10fe a3bd 9d51 8dbe 933d 9cbd 60e6 13be
00000390: 442f 35be 0e3f 1cbe 8163 89bc 5028 b5bd
000003a0: 7dfe 27be 5ae9 94bc fe3a b03c 32c4 623d
000003b0: b6ca 7bbd a3b9 0bbe 1c17 e4bd 8deb 57bd
000003c0: eb36 80bd 99a4 22be b31e 57bd beab 04bd
000003d0: 066b 29be 89f1 03be 0db9 7d3d 59c4 16be
000003e0: cadc 05be 83e0 eebd c3b2 f7bd aa03 25be
000003f0: a4f8 05bd 3dcc acbd 302a 11be d47d fbbd
-0.028142836 -0.52959645 -0.11391601 -0.14137974 -0.34738603 -0.12866981 -0.1401933 -0.0117213065
-0.10817311 -0.0033556928 -0.13565558 -0.049013738 -0.1430976 -0.20646241 -0.059371296 -0.074992776
-0.24041216 -0.14716074 -0.16516571 -0.2798811 -0.1449561 -0.059236262 -0.28834876 -0.123158805
-0.0802738 -0.027538609 0.06930256 -0.1669973 0.001485405 -0.22130391 -0.24382134 -0.22647884
-0.10086686 -0.116308615 -0.28659278 -0.01627615 -0.15002573 -0.22708993 -0.13251726 -0.13972586
-0.20330279 -0.07584243 -0.23160249 -0.1508494 -0.32720792 -0.17050554 0.1155582 -0.14771642
-0.07847517 -0.2866407 -0.110841796 -0.25052366 -0.040463984 -0.31560034 -0.2741629 -0.0407247
-0.41008118 -0.13586777 -0.5160943 -0.24127655 0.0042769923 -0.1658406 -0.0824304 0.06622445
-0.171466 -0.18435311 -0.29959503 -0.11082161 -0.019819815 -0.15219519 -0.16862871 -0.1237639
-0.12686308 -0.19789049 -0.10120398 -0.087318376 -0.20795175 -0.11332699 -0.12215892 -0.1250145
-0.087625764 -0.1793571 -0.2915123 -0.08932804 -0.15088764 -0.02678388 -0.18332462 -0.24224629
-0.16407695 -0.1155097 -0.09316443 -0.24281263 -0.27623665 -0.15124805 -0.09690723 -0.05000552
-0.1924537 -0.43683246 -0.26214075 -0.110979095 -0.2606398 -0.22667792 -0.20309713 0.027493034
-0.17778443 -0.022446692 -0.027880508 -0.31924942 -0.1873752 -0.16889012 -0.19697289 -0.14679891
-0.09224431 -0.14288177 -0.25949222 -0.05170152 -0.26493406 -0.21554302 -0.02517855 -0.22012053
-0.2865556 -0.08651411 -0.09854912 -0.09781231 -0.29745468 -0.10717101 -0.123513654 -0.11645674
-0.030515391 -0.17917126 0.04871892 -0.16847444 -0.26770192 -0.06403794 -0.17830141 -0.043407887
-0.07459416 0.031696472 -0.06798992 0.038584374 -0.13316822 -0.11357183 0.008827786 0.039388254
-0.27199396 -0.0019079354 0.045659818 -0.07529425 -0.02527845 -0.00096976984 -0.04205883 0.054188244
-0.039658602 0.056321144 0.037179563 -0.13759154 -0.07794361 -0.22215796 -0.12122546 -0.1188972
-0.08472966 -0.08753823 -0.10264037 0.094231 -0.12137349 -0.14925812 -0.17283702 -0.0226509
-0.07377029 -0.028803429 -0.13942318 -0.046701096 -0.22495514 -0.1758823 -0.017574443 -0.060740035
0.0038048895 -0.10098849 -0.09917016 -0.3156806 -0.06450099 -0.16329503 -0.30353135 0.05360385
-0.3204492 -0.07140833 -0.39259276 -0.18429732 -0.09050958 -0.00090995966 -0.10345968 0.023550026
-0.049907234 0.013254385 -0.17754725 -0.13089551 0.029840047 -0.1845538 -0.10321016 0.041813012
-0.082935415 -0.15228412 -0.023379643 -0.16291127 -0.06133576 -0.030459514 -0.026537778 -0.16192345
-0.21094899 -0.19582959 -0.3175753 -0.068241835 -0.009882278 -0.082459696 -0.10628655 -0.09678846
-0.09496458 -0.015223609 0.010041395 -0.12063681 -0.30104452 -0.08126368 -0.041425772 -0.045759387
-0.08007443 -0.27601328 -0.07628932 -0.1444335 -0.17693812 -0.15258428 -0.01677108 -0.088455796
-0.16405673 -0.018177677 0.021512505 0.055362888 -0.061472617 -0.13645034 -0.1113722 -0.052714873
-0.06260475 -0.15883102 -0.05251951 -0.03239035 -0.16544732 -0.12885107 0.061944056 -0.14723338
-0.13072506 -0.11663916 -0.12094643 -0.16114679 -0.032707825 -0.08437393 -0.1417625 -0.12279859

lstm.bias_hh_l0 f4 [512]
00000000: a9f3 5e3d 3af6 04bf 68c8 7dbd 265b 59be
00000010: c4ff c1be a8c6 b93c fb9f b0bd 313d 30bd
00000020: b010 c5bd f767 293c 732b 2dbe e8b1 8ebd
00000030: fb6b 1bbe 381b 63be e69d 0abe 3794 0c3c
00000040: fc64 8ebe 2967 c6bd 5fd3 dabd 5ec0 85be
00000050: de6f 48be 3fc4 453d fe10 90be 0e9a 5ebe
00000060: 6c1c 60be 4d4c 11bd 2822 44bd 8304 50be
00000070: a17d 1c3d 6deb 8bbe 6856 4fbe 8c4c 48be
00000080: 9294 26bd 55b9 f2bd 83c0 60be 6c3e aebd
00000090: fa4a ebbd e274 e2bd 3cf5 32be a949 4ebd
000000a0: 6bb2 8abe 93d4 84bd d31d 1fbe 0744 c7bd
000000b0: 5c5a 7bbe 44be 5cbe 05ba a33d 5bbf e2bd
000000c0: 814a acbd 8e2d 90be 8ba0 86bd 1f8c 61be
000000d0: d74b 37be 5f88 73be 9a38 69be 0f28 acbd
000000e0: 851a d0be fbbf 7fbe 3898 08bf b50e 54be
000000f0: 6502 e4bd db40 7dbe 07c0 68bd 5f64 6c3d
00000100: 3aa3 35be f6e4 f7bd ef17 8dbe 0b08 3abe
00000110: dd5d 38bd cf97 57be a8ce 00be 6d8e 10be
00000120: 7dd4 bbbd 7027 23be c461 34be 9952 30be
00000130: 7f9a 51be 9e90 40be b94b 38be 62f8 4ebe
00000140: 47c5 8cbd d74f e5bd c75a 9bbe 4eb7 b03c
00000150: 76c4 afbd aaf9 e4bd db8d 7ebd 1ee6 3abe
00000160: d8e4 32be 066a 38be 55f6 ddbd c7bd 6dbe
00000170: 7e12 49be 4bdd 8fbe 9b52 a2bd 2fff 57be
00000180: 8439 05be 2c63 abbe e5ea 71be 3977 ffbd
00000190: c2b4 6abe 351f 1ebe 4b46 34be 98f2 3ebd
000001a0: a050 40be ee5b 3b3c 6f11 8ebd 200a ddbe
000001b0: 138c 06be 7d3f acbe c02d 53be da7a a8bd
000001c0: 4f09 9abd 7d15 02be ad5f 35be a6ca 0bbe
000001d0: cd5e 80be 44d6 80bd 23e8 fd3c 7b48 46be
000001e0: ed32 43be 2949 30be 13b9 31be 17e9 f7bd
000001f0: 27b0 a6be 8356 d2bd 88fe 49be ee27 eabd
00000200: 32de 1abc 3c38 80be d685 5b3d 7703 0dbe
00000210: a432 b7be aeed 0cbd bb71 7abd ee24 893d
00000220: 5726 0fbe 11e7 94bd a1b5 3dbe 87d6 d4bc
00000230: 9344 60bd 9c48 04be c577 18bd a41c afbd
00000240: 0404 34be ad57 663d 0537 39bd d9b4 f03b
00000250: e9ad 16bd f425 f0bc 4c72 4bbe 339a 4dbc
00000260: 1280 9ebc 03fd b2bd f2eb c03c c324 87bd
00000270: 243e e4bd e9cf 30be ec94 c9bd 808a 42be
00000280: 6d3d 23bd fd68 66bd 8b4f 67be aa88 113d
00000290: 7b8e 37be 1d9d 38be 7ba1 44be 43d7 21bd
000002a0: 6152 58be e28a 2cbe f978 35be 0f80 84bd
000002b0: 4a6a 6dbe 5df2 01be 8127 0ebc d8b7 e3ba
000002c0: e8ed 85bd 0dde 04be 646f 81bd 5222 89be
000002d0: 1baa 60bd 7f56 ebbd dfdf 4cbe 1872 37bd
000002e0: e25a 83be 8cfc e5bd 1257 cebe 0b31 45bd
000002f0: aeac 77bc 79c4 2f3d 5fca c4bd 9870 a7bc
00000300: 8cee 703d 3dfa 933d cf5d 61be 6663 84bd
00000310: 9a8c 033b 7125 2bbe a4aa 38be f611 cfbc
00000320: 388a aabd e4cf 9cbd c285 01be 6b9d 04bd
00000330: f398 fbbd d4c3 dabd ae35 aabd e497 9fbd
00000340: f48c 34be 5fa9 a1bd 66be 3dbe d5fe a9bd
00000350: e923 c7bc 5b97 40bb 4eae 13be 6f78 2ebe
00000360: 3ff8 edbc c33c b5bd 9f9d febd cfe2 23be
00000370: b40c 1ebe 0a22 cfbd ba6f 6bbd fa37 b7bd
00000380: f7f6 34be 54d1 75be 6c2b 09be b3a3 1fbe
00000390: 26ec 1bbe 017d 0bbe 3370 32bd eeb0 c1bd
000003a0: a53b 12be 0872 05bd 182c 64bc c81e 9cbc
000003b0: 4c33 0abe 811c 12be 29a9 86bd e7aa a13d
000003c0: 91d1 00be a3e7 2fbe c205 fdbd a2ca 10bd
000003d0: bf9d 4dbe dd7e 42be f325 8ebc b166 f8bd
000003e0: a7b8 4ebe e448 b0bd ab10 f0bd ca25 54be
000003f0: 7a52 9abd 4a7b e4bd bd32 62be ea89 abbd
0.05443159 -0.5193821 -0.0619587 -0.21226177 -0.37890446 0.022677734 -0.08624264 -0.043027107
-0.096223235 0.010339729 -0.16911106 -0.06967527 -0.1517791 -0.22178352 -0.13536796 0.008580259
-0.2781142 -0.09687645 -0.10684847 -0.26123327 -0.19573924 0.048282858 -0.28137964 -0.21738455
-0.21885842 -0.035473157 -0.047884136 -0.20314221 0.038205747 -0.27328053 -0.20247805 -0.1956045
-0.04066903 -0.118517555 -0.21948437 -0.08508 -0.1148891 -0.1105745 -0.17476362 -0.050363217
-0.27089247 -0.06485858 -0.15538721 -0.09729772 -0.24546188 -0.21556956 0.07994465 -0.110716544
-0.08412648 -0.28159755 -0.0657359 -0.22026108 -0.17900024 -0.2378249 -0.22775498 -0.08406078
-0.40645233 -0.24975578 -0.5335727 -0.20708735 -0.11133269 -0.24731772 -0.056823757 0.05771291
-0.17738047 -0.12104218 -0.27557322 -0.1816713 -0.04501139 -0.21054004 -0.12578833 -0.14116831
-0.09171388 -0.15933013 -0.1761542 -0.17219009 -0.20469092 -0.18805167 -0.17997636 -0.20211938
-0.06873565 -0.11196869 -0.30342695 0.021571781 -0.08582394 -0.11180432 -0.062147003 -0.18251845
-0.1747011 -0.18009195 -0.10838 -0.23216926 -0.1963596 -0.2809852 -0.07925912 -0.21093439
-0.13010222 -0.334741 -0.23624761 -0.12473912 -0.22920516 -0.15441592 -0.1760494 -0.046618074
-0.18780756 0.011435492 -0.06936919 -0.43171787 -0.13139372 -0.33642188 -0.20622921 -0.08226557
-0.07521307 -0.1270351 -0.17712279 -0.13651523 -0.25072327 -0.06290868 0.03099448 -0.19363587
-0.19062395 -0.17215408 -0.17355756 -0.12105005 -0.3255627 -0.10270407 -0.19726002 -0.11433397
-0.00945239 -0.25042903 0.053594433 -0.13770853 -0.35780823 -0.034406357 -0.061143618 0.06696497
-0.13979469 -0.07270635 -0.18526317 -0.0259812 -0.054752897 -0.12918323 -0.037223596 -0.08550385
-0.17579657 0.056235958 -0.045218486 0.0073457775 -0.036786947 -0.029314972 -0.1986782 -0.012548971
-0.019348178 -0.087396644 0.023550007 -0.065988086 -0.11144665 -0.17266811 -0.09842858 -0.18998146
-0.039853502 -0.05625247 -0.22588937 0.035530724 -0.17925446 -0.18028684 -0.19202225 -0.03951193
-0.21125175 -0.16849855 -0.17721929 -0.06469738 -0.23185077 -0.1269011 -0.008676411 -0.0017373515
-0.06539518 -0.1297533 -0.06320074 -0.26783997 -0.054849725 -0.11491107 -0.20007275 -0.044786543
-0.25655276 -0.1122981 -0.40300804 -0.048142474 -0.015116854 0.04291198 -0.09608912 -0.020439431
0.058821246 0.072254635 -0.22008441 -0.06464271 0.0020072819 -0.16713502 -0.18033844 -0.02527712
-0.083271444 -0.076568395 -0.12648681 -0.032376688 -0.12285032 -0.106818825 -0.0831102 -0.07792643
-0.17631894 -0.07893633 -0.18529662 -0.083005585 -0.024309115 -0.002938709 -0.1442196 -0.1703813
-0.029049037 -0.0884948 -0.124324076 -0.1600449 -0.15434533 -0.10113914 -0.057479598 -0.089462236
-0.17672335 -0.24005634 -0.1339547 -0.1558979 -0.15226802 -0.13621904 -0.043564033 -0.09457575
-0.14280565 -0.03257945 -0.013926528 -0.019057646 -0.1349613 -0.14268686 -0.065752335 0.07893925
-0.12579943 -0.17178206 -0.12354614 -0.035349496 -0.20079707 -0.18993707 -0.01735208 -0.12128962
-0.20187627 -0.08607653 -0.11721929 -0.2071754 -0.075352624 -0.11156328 -0.22089668 -0.083759144

linear1.weight f4 [128, 128]
00000000: 3170 d13c a6a0 9ebd bd4e c93d 7ff9 8f3d
00000010: b17b e8bd 2dd8 5bbd f1e2 aa3d 69a8 1cbe
00000020: f843 1bbe 11c2 59be 0bb9 453e 543b ef3d
00000030: e220 d93d 1556 29be 4d29 d9b8 b82d 823d
00000040: 1cee 703d d006 0b3e 5d48 20be 0da4 ddbd
00000050: 488b 5dbd 06ac 20be 898a 023e 8fed 44be
00000060: 1a3d debd 1031 f1bc afad a73d c1ee 0bbe
00000070: a19f 743d 8ef7 bd3d f3e3 b33d dfd4 263e
00000080: 5f76 46be 8ec8 82bd 6590 4c3e c0e9 493e
00000090: 1c30 6dbd 3281 083e 1621 d33d a20b 4a3e
000000a0: a4f3 09be 4fef e3bd 5c51 e5bd f51c 2bbe
000000b0: 2454 2fbd 16cf 31bd 7342 91bd 6fac efbd
000000c0: cc41 47be e62b 05be 7333 e6bc e122 103d
000000d0: eaa6 b23c d164 06be 8aef 0b3e 0166 e13d
000000e0: 90ea 7abd 5e1b f9bd d276 5ebe 7cac efbd
000000f0: 3d3f d73d c5db b7bd 041e ba3d 8fb1 e2bb
00000100: 9305 753d d474 483e fccd 5f3c 638b 3bbe
00000110: f23f 023e b453 babd 7411 f1bd d052 ebbd
00000120: c2bd 0f3e 45ce 053e f365 083e ee8d f2bd
00000130: 0f59 37be 5128 003e 3db1 d1bd 419b 41be
00000140: 0933 36bd a182 103e 37c3 773d 5f27 f53b
00000150: 87fa b73d 6fec 69bd a70d 8b3d 277f d3bd
00000160: 6483 ebbd 32b6 453d f064 2d3d 064b 0abd
00000170: cefc d4bb 77ca 46bd f167 cdbd 4c8a 32be
00000180: 2bc0 0c3e 4143 823d d490 e5bd 481e bfbd
00000190: ace8 ad3d 6e84 75bd a0cd e13c 2f31 c63d
000001a0: b091 4fbd 9f9b 633d d5a5 1bbe 27cd f73d
000001b0: 6165 4fbd e5e5 2a3e 50cb 033c 1fc8 2bbe
000001c0: dd91 0e3e 9a44 4f3d cc4a ab3d b8ed ec3d
000001d0: 01ed a5bc 22bd cabd bb8f 18be 65f6 1a3c
000001e0: db27 9d3d 6096 84bb 85a4 b5bc 6b9c a5bc
000001f0: e54c 1f3e 743a cabd 18a0 73bd 3e3a 1a3e
00000200: e874 873e 7777 293e 6d13 473e 5d30 883d
00000210: 785c 8bbb 36b4 b13d 010f 733d f249 ea3c
00000220: 26fc babd 54a1 273e be6b 823c 99c0 aabd
00000230: 8321 053c 3014 13bc 0cfd afbd da6a 493c
00000240: 508b 3a3d e7b0 84bd d988 723e ed74 4a3e
00000250: 5079 753e 0843 b8bc b762 203e 8c2b 8b3d
00000260: de9b 52bd 83c4 a53d 62d3 42be 98b2 1abd
00000270: ce90 023e 7e01 e5bd 2a65 7abc 2d0d fe3d
00000280: db38 cf3c c768 2a3e af63 3b3d 3d4c 07be
00000290: bb74 c0bc fa9d f93d 9235 d4bd 098a 1b3d
000002a0: ff01 4ebc 8a8b 31be f72a 5bbd fa26 52bd
000002b0: 94ca 99be 78db 67bd 6e37 42be b26f ba3d
000002c0: ea3f 9c3d 4ebb 1abd 14b5 dc3d dadd 073a
000002d0: adf3 e93d 579c bf3d 4b25 9c3a baf3 e8bd
000002e0: 5b9c 1ebd a96c 983b 5b5a 083d 6265 ad3d
000002f0: 87a2 e4bd 2298 b23d b869 9ebd fd54 453e
00000300: f6df 16be cacc a1bd 98fc 76bc 0665 eeb9
00000310: 7e15 acbd 6074 a2bd abd3 383e 884a 093d
00000320: 7102 bb3c 2678 ad3d abdf 2aba d410 b93d
00000330: 76cd 953c 5f73 5cbd 567f c3bd 316e 10bd
00000340: 3efb 28be ca83 d4bd 8acf bb3d 66e7 1bbe
00000350: 8f4c c7bc 0568 a5bd c0d5 b3bd 0feb 81ba
00000360: 061b 4a3d aacf 94bd dc02 983d 9fc6 68bc
00000370: 494f 98bd 1282 35be c1b7 07be c8dc b23d
00000380: 6407 a8bd 510d b73d 6a64 1b3d 4aef d0bc
00000390: 1f20 333e fbea 8d3e 98ff cb3d 8952 5fbe
000003a0: 04df 793d 303a a53d 94f7 1c3d 0cb7 8bbd
000003b0: 4a86 11bd c9cc 1a3d 0fae 57bd 82b5 413d
000003c0: 33ba 973d bccb b1bd b777 ecbd f839 b13d
000003d0: 519a 293e 3e5b 003d 3554 0f3d 6bf4 563d
000003e0: be3c e43d d60d 833d 91a9 02bd 1da7 ea3d
000003f0: 8c07 6b3d cffe 053e 02dd 15bd 05b1 82bd
0.025566192 -0.07745485 0.09829471 0.070300095 -0.11351717 -0.05367296 0.08344067 -0.15298618
-0.15162647 -0.21265437 0.1930887 0.11681238 0.10601975 -0.16536744 -0.00010355059 0.063563764
0.05882083 0.13576818 -0.15652604 -0.10822306 -0.054087907 -0.15690622 0.1274816 -0.19231246
-0.10851498 -0.02944234 0.081874244 -0.13665296 0.059722546 0.09275733 0.08783712 0.16292141
-0.19381092 -0.06385909 0.19976957 0.19718075 -0.05790721 0.13330534 0.10309045 0.19731
-0.13471848 -0.11129629 -0.11197159 -0.16710265 -0.042804852 -0.043410383 -0.07092752 -0.11702811
-0.19458693 -0.13005027 -0.028100705 0.035189513 0.021808106 -0.13124396 0.13665596 0.11005784
-0.061258852 -0.12163423 -0.21725014 -0.11702821 0.105101086 -0.089774646 0.09087756 -0.0069181393
0.05981977 0.19575816 0.01365995 -0.1831489 0.12719706 -0.09097996 -0.11770907 -0.114904046
0.1403723 0.13066967 0.1332014 -0.11843477 -0.17905067 0.1251538 -0.10238884 -0.18906881
-0.044482265 0.14112331 0.060488906 0.0074815 0.08983331 -0.057110246 0.06789713 -0.10326987
-0.1149967 0.048269458 0.04233259 -0.033762954 -0.006499863 -0.04853293 -0.10029591 -0.17435569
0.13745181 0.06360484 -0.112092644 -0.093319476 0.08491644 -0.059940748 0.02756387 0.0967735
-0.050676048 0.055568334 -0.15199979 0.120996766 -0.05063379 0.1668926 0.008044079 -0.16775559
0.1392283 0.050602533 0.08363876 0.11568779 -0.020254614 -0.098993555 -0.14898579 0.009458159
0.076736175 -0.0040462464 -0.022173176 -0.020216187 0.15556677 -0.0987443 -0.05947885 0.1506128
0.2645638 0.16549478 0.19441004 0.066498496 -0.0042529665 0.08676951 0.05934048 0.028599713
-0.09130125 0.16370136 0.015920516 -0.08337516 0.008125666 -0.008976981 -0.08593187 0.012293542
0.045543015 -0.06479054 0.23685016 0.19771166 0.23972058 -0.0224929 0.15662657 0.06795415
-0.051418178 0.08094122 -0.19025949 -0.037767977 0.12750551 -0.11181925 -0.015282908 0.12404857
0.025295665 0.16641532 0.045749363 -0.13212676 -0.023493161 0.12188335 -0.1036178 0.037973437
-0.012573718 -0.17338386 -0.05350777 -0.051306702 -0.30037367 -0.056605786 -0.18966457 0.091033354
0.07629378 -0.037776284 0.107767254 0.00051829 0.114234306 0.09355991 0.001191297 -0.11374612
-0.03872333 0.004651625 0.033289295 0.08466603 -0.11163812 0.08720423 -0.07735008 0.19270702
-0.14733872 -0.079003885 -0.0150748715 -0.00045470166 -0.08402537 -0.07932353 0.18049495 0.033518344
0.022828313 0.08470182 -0.00065183145 0.09036413 0.018286448 -0.053820964 -0.09545772 -0.035261337
-0.16502091 -0.10376699 0.09170444 -0.1522499 -0.024328498 -0.08076481 -0.08781004 -0.0009911972
0.049342178 -0.07266171 0.074224204 -0.014207511 -0.074369974 -0.17725399 -0.1325369 0.08733517
-0.08204535 0.08938087 0.03793756 -0.025504727 0.17492722 0.27718338 0.0996086 -0.21808828
0.0610037 0.08067739 0.038322046 -0.06822023 -0.03552846 0.037792955 -0.05265623 0.04729224
0.074085616 -0.086814374 -0.11546271 0.08653635 0.16562773 0.031337015 0.034992415 0.05247919
0.11144398 0.06399123 -0.031899992 0.114576556 0.057380244 0.13085483 -0.036587723 -0.0638142

linear1.bias f4 [128]
00000000: 2a82 9f3d bf8a 683d 54ea 243d c465 82bc
00000010: 02a8 323c bbcf 9c3d 571a e3bb 7c5f ad3d
00000020: 06d5 80bd 7425 02bd 84c8 cebd 9ee7 43bd
00000030: 1f48 383d 4d7e 51bd d063 b6bd 0f60 4e3d
00000040: 374d aa3d 6d6a 203d 0d30 0cbd 8147 163d
00000050: 888b 293d ce26 23bd fca7 793d 61e2 61bd
00000060: 1418 c43d 80e2 8b3d a2e0 9abd 532e 9b3d
00000070: ee7d de3d 75a0 e63d 25f2 323d 0d3c df3d
00000080: ff0c 8e3d a11b 913d 58d5 e1bc f246 a9bc
00000090: ee93 86bd 5e7a 19bd 7d2f 9d3d 6f8e 593d
000000a0: 80b6 88bd 555e ae3d 23b6 3c3d 5d0b 133b
000000b0: f767 c63d c7d3 ba3d 4518 adbb 8b1d ccbc
000000c0: 67b8 79bd 8db1 5cbd 245b b83c 9f09 3ebd
000000d0: 29c0 1dbd 4c76 943d 5dbb 9b3d cf33 f5bc
000000e0: 5ec0 d33c 2b2b a5bd ef46 e53c a584 d23b
000000f0: b82c 91bd 6017 bfbc 4a2a 1ebb b633 943d
00000100: acab bbbd 6a00 9dba bd7f 193d 5ce4 e2bc
00000110: 061f 4d3d c19f cf3c e8ed bfbd 7221 473d
00000120: 5613 073d 9ae8 4e3d 2783 5ebd d0e9 8bbd
00000130: 1466 9a3d 49ff 823d 0121 e7bc 33cf acbc
00000140: 26fa 9b3d e6f9 4fbd e402 75bd f8f4 e4bc
00000150: caa6 80bc 17bf 2dbc aec6 2c3d ac1c b7bd
00000160: 1f2b 84bc 3922 e8bd d388 3b3d 5452 033e
00000170: 27bc bd3d 0a4c b43d 2fbb 783c c1ac a3bc
00000180: d52a c23c a49a df3c 8dce 4dbc 619d 5fbd
00000190: 2c83 263d 8d66 97bd a3f7 4ebc 5ce5 be3c
000001a0: c568 3f3d d40c 543d daf1 773d 860b 7c3d
000001b0: 02ce 973d bb44 563d 5839 c1bc d6b5 3c3c
000001c0: 3f23 4c3d ffec 023c 64d7 32bd 1839 d53c
000001d0: de7c 053d cd4b 53bc c576 0abc 3755 57bd
000001e0: 98a0 cdbd 66c4 97bc 2ce6 5e3d a4aa df3d
000001f0: fc3f b7bc 87ac 223c 8c6c fb3c 5311 823d
0.07788499 0.056772944 0.040262535 -0.015917666 0.010904314 0.07656809 -0.00693063 0.08465478
-0.06290631 -0.031774 -0.10096839 -0.04782831 0.044990655 -0.05114584 -0.089057565 0.050384577
0.08315509 0.039163996 -0.034225512 0.036689285 0.041392833 -0.03983193 0.060951218 -0.055147532
0.09574905 0.06830311 -0.075623766 0.07577195 0.10863863 0.112610735 0.04368796 0.10900126
0.069360726 0.07085348 -0.02756755 -0.020663712 -0.06571184 -0.037470214 0.07675073 0.05311435
-0.06675434 0.08514086 0.046072137 0.0022437193 0.096877985 0.091224246 -0.005282434 -0.024916431
-0.060966875 -0.053880263 0.022504397 -0.046395894 -0.038513336 0.07249126 0.07604096 -0.02993193
0.025848564 -0.08064874 0.027987925 0.006424504 -0.070886075 -0.023326576 -0.0024134093 0.072364256
-0.09163603 -0.0011978273 0.037475336 -0.02769678 0.050078414 0.025344731 -0.09371549 0.04861588
0.032977425 0.050514795 -0.054324295 -0.068317056 0.07539001 0.06396348 -0.02821398 -0.021094894
0.076160714 -0.05077543 -0.05981721 -0.027948841 -0.015704531 -0.010604641 0.042181663 -0.089410156
-0.016133843 -0.113346525 0.045784783 0.12824374 0.09264403 0.08803566 0.015181347 -0.019979836
0.023702065 0.027295418 -0.012561453 -0.054593448 0.04065244 -0.07392607 -0.012632283 0.023302726
0.046730775 0.051770046 0.060533382 0.061534427 0.0741234 0.05231164 -0.023586914 0.011517962
0.0498383 0.007991075 -0.043662444 0.026028201 0.032589786 -0.01289649 -0.008451168 -0.0525715
-0.100403965 -0.018526267 0.054418728 0.10921219 -0.022369377 0.009928829 0.030691408 0.063509606

linear2.weight f4 [1, 128]
00000000: 3478 453d df87 973d 6073 303d 03fc bb39
00000010: 8e13 84bd c35c 523d 36a9 62bd ebc4 073d
00000020: f1f2 a7bc dbbf 58bd 813d 52bd 005c 71bd
00000030: 4a3c 323b c29f 36bd 607e 063d aeba 073d
00000040: d692 903d 99d4 843c 743c 8abd 0ced d93d
00000050: e669 1b3c c5a0 573d 3484 483d 41ce b6bc
00000060: 5669 f93c 259d 113d ba3f 5fbd 912d b43d
00000070: 6731 363d 6999 753c b7a5 5ebd 8a88 babc
00000080: e22b c63d 7240 263d 4c64 81bd a67a aabd
00000090: d5cc d0bc b43f b93d fb4a c43c 032c fb3c
000000a0: 17e8 66bd bc55 863c 09ab 873c 1bd1 6e3c
000000b0: c2df c53d f9bb 9a3c 1819 863c dc42 363c
000000c0: 3abe 4f3c fe62 e03b 9966 323d 8c68 84bb
000000d0: de16 13bd e889 983c b6db 863d a3a8 53b8
000000e0: ef6c 203b 166a 8b3d 7fe2 0dbd 47bc 35bc
000000f0: 8e62 0abd 559d a83c 1824 79bc 0d70 4c3d
00000100: 00a1 53bd f122 85bc 26a0 e33a 1a42 4a3d
00000110: 83fe b83c f7d8 e6bc 15f0 00be da29 c83b
00000120: 6fdd e9bb 4241 8b3c c417 f2bc 3504 6bbd
00000130: 30ba b73c 7766 b03d f69e aabc f13d 28bd
00000140: 8205 823d 1b19 993b f395 72bc b0dc 7dbc
00000150: 491c b6bc 5733 a5bc 2138 f73b de2f 2ebd
00000160: 4fbc 8c3c 4dcb 84bd 221f 433d 4098 563d
00000170: cb66 c53c 35b1 933c cf89 343d 34fc ddbb
00000180: 280d 083d 93b5 483d babc 49bd 21d0 f6b8
00000190: 7089 4bbc 6e1a b8bd b406 8b3a c1e1 1fbc
000001a0: 0999 ac3b ad97 3b3c 4d5d 6c3d 16f9 033d
000001b0: 3e49 5f3d 9bb9 973d f6d3 2d3b bbb2 af3d
000001c0: 4be3 f43c 2797 0b3d 6ae2 9ebc 6bb4 06bc
000001d0: dca8 3dba d52a 7b3c 31c6 823d a39b 45bd
000001e0: 3c59 9fbd 869b 783c 401a adbb f5a0 5c3d
000001f0: 49f1 7ebd 7e0b 053d 4166 f93b 449c e3bc
0.048210338 0.07398962 0.04307878 0.00035855183 -0.06449042 0.051357996 -0.055337153 0.03314678
-0.020501586 -0.052917343 -0.051328186 -0.05892563 0.002719658 -0.04458595 0.032835364 0.033137016
0.07059257 0.016214656 -0.06749812 0.10640916 0.009485697 0.052643556 0.048954204 -0.022315146
0.030445736 0.035550255 -0.054504134 0.087977536 0.044480707 0.014990189 -0.054357257 -0.022770185
0.09676339 0.040588804 -0.06317958 -0.083241746 -0.025488297 0.090453535 0.023961535 0.030660635
-0.056373682 0.016398303 0.016561048 0.014576222 0.09661819 0.01888846 0.016369388 0.011124339
0.012679631 0.0068477383 0.043554876 -0.0040407833 -0.03591048 0.018620446 0.06584875 -5.0463375e-05
0.0024478992 0.06807344 -0.03463983 -0.011092252 -0.033785395 0.020582834 -0.015206359 0.049911547
-0.051667213 -0.016252013 0.0017366454 0.049379446 0.022582298 -0.028179629 -0.12591584 0.0061085047
-0.0071369926 0.01699889 -0.029552348 -0.05737706 0.022427648 0.086132936 -0.020827752 -0.041074697
0.06348707 0.0046721823 -0.0148062585 -0.0154945105 -0.022230284 -0.020166082 0.007544533 -0.04252612
0.017179636 -0.06484089 0.047637112 0.05239129 0.024096867 0.018028835 0.044076737 -0.0067744497
0.03321567 0.049001288 -0.04925225 -0.00011768961 -0.012422904 -0.08989416 0.0010606856 -0.009758414
0.0052672666 0.011449737 0.057706166 0.03221997 0.05451321 0.07408448 0.0026524044 0.08579012
0.029893538 0.034079697 -0.019395072 -0.008221726 -0.000723494 0.015330036 0.06385458 -0.04824413
-0.07780692 0.015173798 -0.0052826703 0.053864438 -0.062241826 0.032481663 0.0076110666 -0.027784474
