labml_nn/lstm/model_combine_322f2.pth (torch, 9544 bytes, 9 tensors)

lstm.weight_ih_l0 f4 [64, 1]
-0.1760368 0.5515314 0.27175552 -0.42529476 -0.22022888 0.2377147 0.22211282 0.46619922
0.043382417 0.46278116 -0.43904397 -0.43738323 -0.33064467 -0.19390659 -0.50960624 0.5272559
-0.21672527 0.18809207 0.01967232 -0.10110662 -0.16723797 0.64093834 0.46588746 0.2110031
-0.018741649 0.18914898 -0.31338337 -0.36016083 -0.2902175 -0.4486107 -0.83210826 0.39419618
-0.48753533 0.31503418 0.12552364 0.18114689 0.2645232 0.35678387 -0.25421938 0.50711906
-0.07765774 -0.55764514 0.00067557895 0.14130881 -0.4056011 0.37566358 0.7189056 -0.10289207
-0.32471314 0.6530374 0.28992838 -0.4893347 0.28818542 -0.38828814 0.56744504 0.5239072
0.30255455 0.5849701 -0.37644944 -0.1479034 -0.2454538 -0.06659691 -0.39942783 0.029229376
00000000: fe42 34be 2931 0d3f 8a23 8b3e 3cc0 d9be
00000010: ae83 61be 7b6b 733e 8b71 633e aab1 ee3e
00000020: c3b1 313d a7f1 ec3e 5fca e0be b2f0 dfbe
00000030: 424a a9be 738f 46be 8e75 02bf 3efa 063f
00000040: 3bed 5dbe 359b 403e d827 a13c fd10 cfbd
00000050: 6e40 2bbe 8914 243f cd88 ee3e 3211 583e
00000060: 1688 99bc 45b0 413e c973 a0be 0067 b8be
00000070: 6397 94be 4db0 e5be 0c05 55bf 15d4 c93e
00000080: 3b9e f9be 294c a13e 4589 003e 927e 393e
00000090: 966f 873e 60ac b63e 0b29 82be 8ed2 013f
000000a0: 050b 9fbd d5c1 0ebf 5619 313a 42b3 103e
000000b0: f3aa cfbe fa56 c03e 330a 383f 14b9 d2bd
000000c0: cd40 a6be 762d 273f 7e71 943e 148a fabe
000000d0: 0a8d 933e b4cd c6be 1444 113f c81e 063f
000000e0: 6ee8 9a3e 9ac0 153f fbbd c0be fd73 17be
000000f0: 3e58 7bbe f663 88bd ce81 ccbe 7272 ef3c

lstm.weight_hh_l0 f4 [64, 16]
-0.09583635 0.06427694 0.2260075 -0.23667777 0.16097032 0.44831532 -0.26401383 0.20350422
-0.024284085 -0.1259432 0.048901126 0.024139386 -0.28110301 0.18165617 0.10591214 -0.3638975
0.24286418 -0.26681653 0.11700909 -0.2201322 -0.17161365 -0.20865755 0.102500826 -0.60686785
0.086104445 0.22398032 -0.20651749 0.12642936 0.5409544 -0.40829867 -0.3755086 0.17034426
0.2397877 0.14563106 0.2160254 -0.27402318 -0.10089412 0.12995295 -0.046455927 -0.080841765
-0.015154989 -0.09549093 0.17082353 -0.13806896 0.1092046 0.19956243 0.17734838 -0.10774582
-0.1148861 -0.00086246 0.2361283 -0.019832408 0.09211321 -0.028191974 0.11340339 0.47334668
-0.16933337 -0.19861968 0.07156519 0.26321784 -0.07158269 0.06896749 -0.17334183 -0.101451
-0.14796226 -0.24907085 0.098054424 0.2431084 -0.24470498 -0.56903535 -0.11977501 -0.0374464
-0.009297216 0.28977302 -0.23752378 0.034208015 0.37951002 0.119720876 -0.020709036 0.29773775
-0.13034552 0.1808677 0.19874802 -0.28470302 0.24036562 0.34171587 -0.1636786 0.29754516
-0.09741371 -0.5142156 0.1396708 0.34251076 -0.6768068 0.07429301 0.35894904 -0.26891902
0.06759526 -0.18511418 -0.23538102 -0.20642522 -0.120004214 -0.44048503 0.2825785 -0.26010746
0.26927012 0.58285475 -0.01927747 -0.20961443 0.22341673 0.10892513 -0.17561102 0.17826824
0.3031116 0.14510997 0.4947502 -0.47959155 -0.06871585 -0.19699214 -0.20656033 -0.29514268
-0.27762407 0.058376256 0.34183827 -0.24348515 0.4262009 -0.29572058 -0.49125516 0.039043333
0.31915998 0.10158134 -0.1287479 -0.27353433 -0.32657847 -0.3114388 0.29902807 -0.44147035
-0.106972285 0.6830548 0.008436577 -0.06494108 0.40107995 -0.17920554 -0.19407645 0.22131124
0.07460463 0.17675705 0.07238029 -0.17215607 -0.3291903 -0.21090093 -0.32732546 -0.42871085
-0.23133647 0.009150396 0.098279886 -0.037226662 0.35660514 -0.31580254 -0.2717912 0.2878016
-0.1278626 0.018111497 -0.20574892 -0.021568475 -0.11760994 -0.32446367 0.0045420974 0.09407457
0.19712274 0.0826182 0.06171142 0.10245847 -0.260976 0.29664648 0.26598498 -0.08986208
-0.24847992 -0.09702556 0.029927624 0.32511857 0.07095025 -0.27258432 0.3277257 -0.20420901
0.08057537 0.008195372 -0.22671312 -0.00047368841 -0.18143141 0.3462649 0.07715224 0.18491784
0.06112516 0.3614916 0.15616293 -0.15720138 -0.26081797 0.22361231 -0.028212652 0.3611677
-0.1723605 -0.6079399 0.2006381 0.026317533 -0.16064814 0.17182636 0.028716395 0.0036806413
-0.17524885 0.1598512 0.12535396 0.036996353 0.45557678 -0.062026393 -0.09775305 0.3004841
0.048285183 0.16236708 -0.0943236 0.08318523 -0.34660503 0.35708177 0.32254657 0.20512348
0.25577366 0.4549983 0.35513806 -0.39557514 0.2605967 0.20655517 -0.13243583 0.46619478
-0.4036814 -0.05255893 0.35308906 -0.5428439 0.04187406 0.11736728 0.06878779 -0.1970796
-0.14414693 0.19845383 -0.24472785 0.08598908 0.20991522 0.14219463 -0.009371515 0.1164224
0.31264046 -0.27002648 -0.27230832 -0.08418215 -0.036739014 0.050492875 0.30757818 0.25178507
00000000: d945 c4bd a1a3 833d 836e 673e a85b 72be
00000010: 67d5 243e 9689 e53e d22c 87be 6963 503e
00000020: 6bef c6bc 41f7 00be 8c4c 483d f6bf c53c
00000030: bcec 8fbe 1304 3a3e 77e8 d83d c650 babe
00000040: 63b1 783e 2d9c 88be 76a2 ef3d 566a 61be
00000050: 7dbb 2fbe 53aa 55be f4eb d13d b15b 1bbf
00000060: 8757 b03d 195b 653e 5279 53be b376 013e
00000070: fd7b 0a3f 860c d1be aa42 c0be ba6e 2e3e
00000080: e88a 753e 4f20 153e c335 5d3e c44c 8cbe
00000090: 94a1 cebd 6312 053e 9248 3ebd 5e90 a5bd
000000a0: a24c 78bc c090 c3bd 5dec 2e3e f361 0dbe
000000b0: a9a6 df3d 185a 4c3e d09a 353e d7a9 dcbd
000000c0: 6749 ebbd b616 62ba 9ecb 713e 9377 a2bc
000000d0: daa5 bc3d dbf2 e6bc 0940 e83d 7f5a f23e
000000e0: ba65 2dbe f562 4bbe c590 923d 7dc4 863e
000000f0: f299 92bd d43e 8d3d 8580 31be 8bc5 cfbd
00000100: 6b83 17be 6e0c 7fbe c2d0 c83d 69f1 783e
00000110: f193 7abe 4dac 11bf 9a4c f5bd 6561 19bd
00000120: 5a53 18bc 215d 943e 6f39 73be b41d 0c3d
00000130: 234f c23e 3830 f53d ffa5 a9bc 1571 983e
00000140: 4c79 05be 6235 393e 9a84 4b3e 98c4 91be
00000150: 6822 763e 62f5 ae3e 5d9b 27be d757 983e
00000160: d780 c7bd a2a3 03bf dd05 0f3e 925d af3e
00000170: 3643 2dbf ef26 983d 2bc8 b73e c1af 89be
00000180: 626f 8a3d 928e 3dbe b907 71be 2261 53be
00000190: c5c4 f5bd 4187 e1be 21ae 903e ce2c 85be
000001a0: c6dd 893e f835 153f c9eb 9dbc 2aa5 56be
000001b0: 5bc7 643e 2314 df3d 60d3 33be f38b 363e
000001c0: 7231 9b3e b597 143e e64f fd3e 068d f5be
000001d0: e5ba 8cbd 4fb8 49be 8d84 53be f11c 97be
000001e0: be24 8ebe f11b 6f3d 6d05 af3e 2c54 79be
000001f0: 0137 da3e b068 97be cc85 fbbe e7eb 1f3d
00000200: f068 a33e e109 d03d 7dd6 03be b10c 8cbe
00000210: 4b35 a7be e874 9fbe 351a 993e 6708 e2be
00000220: 4914 dbbd aedc 2e3f 9239 0a3c d4ff 84bd
00000230: 5a5a cd3e a881 37be fabb 46be 6a9f 623e
00000240: 50ca 983d cdff 343e 1e3c 943d ae49 30be
00000250: a28b a8be 6af6 57be 3497 a7be fd7f dbbe
00000260: 78e3 6cbe 8beb 153c f746 c93d fc7a 18bd
00000270: f394 b63e dfb0 a1be 3728 8bbe bb5a 933e
00000280: 6aee 02be 905e 943c d8af 52be 5fb0 b0bc
00000290: 7bdd f0bd 1a20 a6be e0d5 943b 2baa c03d
000002a0: 8bda 493e bb33 a93d 1dc5 7c3d bfd5 d13d
000002b0: a59e 85be 0ce2 973e 2f2f 883e 9c09 b8bd
000002c0: 8571 7ebe 56b5 c6bd c72a f53c f175 a63e
000002d0: 5d4e 913d 2c90 8bbe aacb a73e 2b1c 51be
000002e0: b304 a53d e245 063c 7c27 68be 6259 f8b9
000002f0: 28c9 39be a249 b13e fe01 9e3d 1a5b 3d3e
00000300: 605e 7a3d 6d15 b93e 2de9 1f3e 66f9 20be
00000310: ef89 85be a0fa 643e 381e e7bc f9ea b83e
00000320: 457f 30be f3a1 1bbf 1374 4d3e de97 d73c
00000330: f280 24be 40f3 2f3e a53e eb3c ea36 713b
00000340: 6f74 33be 08b0 233e ca5c 003e 7d89 173d
00000350: 5c41 e93e 630f 7ebd c032 c8bd 0dd9 993e
00000360: afc6 453d 8e43 263e bb2c c1bd 055d aa3d
00000370: 3776 b1be 6cd3 b63e d324 a53e e40b 523e
00000380: c4f4 823e 8af5 e83e a8d4 b53e d388 cabe
00000390: ee6c 853e 3383 533e 429d 07be 15b1 ee3e
000003a0: 54af cebe 0848 57bd 17c8 b43e d1f7 0abf
000003b0: 2284 2b3d 425e f03d 9de0 8c3d 3ccf 49be
000003c0: 419b 13be 7b37 4b3e f099 7abe 0b1b b03d
000003d0: 04f4 563e 789b 113e fc8a 19bc de6e ee3d
000003e0: 6912 a03e e940 8abe ff6b 8bbe b167 acbd
000003f0: a67b 16bd 9ed1 4e3d e37a 9d3e f9e9 803e

lstm.bias_ih_l0 f4 [64]
0.09210422 -0.19435479 0.2604777 0.084345214 0.010560282 -0.038578674 0.22652072 0.16379511
0.14152388 0.29298955 -0.09738439 0.05148288 0.09318976 -0.08195318 0.43592438 0.05487317
-0.20711188 -0.19896044 0.27548614 -0.2896847 -0.032083776 0.034917716 0.10779217 -0.32228717
-0.0112254815 -0.3485992 -0.055982403 -0.14567754 -0.039717507 -0.26779786 -0.3124234 0.02904066
0.11256861 0.19961494 0.30861002 -0.14967941 -0.06521446 -0.009393435 -0.08706299 -0.07614402
-0.2844491 -0.1601115 0.07977595 -0.053552143 0.07329496 -0.2125678 -0.16092063 -0.18141836
0.12193013 0.14243893 0.11187401 -0.2348672 -0.091784514 -0.15383214 -0.074415796 0.5588093
0.0072643543 0.35544646 -0.047297966 -0.2538777 0.31965736 -0.06898935 0.5309218 -0.14984958
00000000: 23a1 bc3d f104 47be 555d 853e 2fbd ac3d
00000010: 0805 2d3c ac04 1ebd 0cf5 673e e8b9 273e
00000020: a3eb 103e ba02 963e 7871 c7bd b6df 523d
00000030: 46da be3d 12d7 a7bd 7b31 df3e b0c2 603d
00000040: 2315 54be 49bc 4bbe 850c 8d3e 8e51 94be
00000050: 476a 03bd e105 0f3d 24c2 dc3d d302 a5be
00000060: 15eb 37bc 987b b2be ce4d 65bd 7e2c 15be
00000070: d3ae 22bd cd1c 89be f6f5 9fbe aee6 ed3c
00000080: 5f8a e63d dc67 4c3e 2202 9e3e 8f45 19be
00000090: 298f 85bd ece6 19bc 154e b2bd 65f1 9bbd
000000a0: 50a3 91be 45f4 23be 9361 a33d 7e59 5bbd
000000b0: ab1b 963d 60ab 59be 61c8 24be bcc5 39be
000000c0: 81b6 f93d 83db 113e 331e e53d 0781 70be
000000d0: 85f9 bbbd 2c86 1dbe 4f67 98bd 200e 0f3f
000000e0: d209 ee3b 14fd b53e 83bb 41bd 42fc 81be
000000f0: 21aa a33e 4a4a 8dbd 7eea 073f 2b72 19be

lstm.bias_hh_l0 f4 [64]
0.014202257 -0.11118881 0.25637135 -0.12957534 -0.09455984 -0.141988 -0.0026100203 0.51446533
-0.12614883 0.28157097 -0.10549164 -0.021182839 0.026702948 -0.051914103 0.034442693 0.12120078
0.026555788 0.0043718293 0.23983762 0.15990818 0.18761735 0.110152 -0.24291492 -0.23146462
0.1086661 -0.33079207 0.028436482 0.12854981 -0.13449271 -0.14378138 -0.12334601 -0.01226931
0.041551415 0.2318224 0.34036022 -0.044153865 0.007646499 0.26229504 -0.2642799 -0.047974348
-0.24570528 0.02946317 0.11315249 -0.052838974 -0.08315795 -0.0011394541 -0.2994861 -0.10322149
-0.14571393 -0.07311358 0.114306204 0.042406794 0.09072997 0.24242418 -0.12862748 0.24637872
-0.16459395 0.13313149 -0.055808853 0.105638504 0.047151837 0.20013133 0.13245331 -0.23565905
00000000: 95b0 683c f5b6 e3bd 1b43 833e 66af 04be
00000010: 97a8 c1bd 4d65 11be e00c 2bbb 00b4 033f
00000020: 292d 01be 122a 903e 000c d8bd a287 adbc
00000030: 24c0 da3c e2a3 54bd c813 0d3d 1d38 f83d
00000040: 868b d93c 9041 8f3b fe97 753e f8be 233e
00000050: c31e 403e 5f97 e13d b0be 78be 1005 6dbe
00000060: 558c de3d 945d a9be a0f3 e83c 90a2 033e
00000070: 75b8 09be 6d3b 13be d59c fcbd 3705 49bc
00000080: d131 2a3d da62 6d3e b243 ae3e afda 34bd
00000090: 7c8f fa3b 894b 863e b24f 87be c080 44bd
000000a0: 2a9a 7bbe bf5c f13c 7ebc e73d ae6d 58bd
000000b0: b74e aabd bc59 95ba 3e56 99be ca65 d3bd
000000c0: 0836 15be 93bc 95bd 5f19 ea3d bfb2 2d3d
000000d0: a2d0 b93d 0b3e 783e ecb6 03be b44a 7c3e
000000e0: 518b 28be 9f53 083e d397 64bd 0059 d83d
000000f0: 4922 413d 3aef 4c3e d7a1 073e 9b50 71be

layer_norm.weight f4 [16]
1.0349272 1.0231189 0.8421654 0.89356095 0.69918036 0.8522526 1.0457594 0.93454665
0.94136673 1.2550939 0.9264571 0.87970644 1.0093592 0.85117143 0.99107 0.8884954
00000000: 7f78 843f 8ff5 823f 2798 573f 69c0 643f
00000010: 7cfd 323f 3a2d 5a3f 72db 853f 733e 6f3f
00000020: 69fd 703f eba6 a03f 4b2c 6d3f 7134 613f
00000030: af32 813f 5fe6 593f c3b6 7d3f 6f74 633f

layer_norm.bias f4 [16]
-0.03515453 -0.029623311 -0.112610444 0.064711 -0.072831765 0.010140014 0.034794655 0.07338819
0.118013605 -0.015209426 -0.060886864 0.072385535 0.057222676 0.04551473 0.15982604 0.03280934
00000000: 32fe 0fbd 96ac f2bc 4ea0 e6bd 3387 843d
00000010: d228 95bd 4d22 263c d784 0e3d 8c4c 963d
00000020: 1eb1 f13d f530 79bc 8164 79bd de3e 943d
00000030: 5362 6a3d a76d 3a3d 70a9 233e 1663 063d

linear1.weight f4 [16, 16]
-0.30116552 0.22032383 0.30469286 -0.07468053 0.19560732 0.07395465 0.0469455 0.15987355
-0.06440829 -0.2823054 0.07054535 -0.17936407 -0.14060265 0.04756187 -0.15927774 0.18331563
-0.001043029 -0.12941341 -0.043422524 -0.22033104 0.16563873 -0.0011239916 0.13955304 -0.22239754
-0.07766063 0.3064899 0.2983533 -0.098145835 0.104026444 -0.11851918 -0.23047927 -0.13896443
0.24642058 0.08184139 -0.2119621 0.056388907 -0.1470081 0.23203257 -0.020630281 -0.29220375
-0.062759794 -0.032813784 0.14122586 -0.09337728 0.10281266 0.12525852 -0.13929564 0.15122603
-0.24031428 0.014165242 -0.052522503 -0.10167751 -0.02789316 0.12979819 -0.18206446 0.16914934
-0.03264826 -0.3366118 0.033697683 0.10616374 0.035068475 0.080444716 0.18510753 -0.13051648
0.28774855 0.16903317 0.26779523 -0.08095282 -0.014804979 0.18565314 0.16317515 -0.12052178
-0.08083277 0.09596431 0.021733617 -0.08548248 0.329644 -0.088915505 -0.13228542 -0.04441002
-0.041388318 0.24466291 -0.06275122 0.032274354 -0.07825168 0.22688092 0.12767793 0.17888558
0.13788393 -0.40087447 0.03635165 -0.06779879 -0.10790078 -0.022855017 0.2879685 -0.085462034
-0.37605372 0.27046096 0.2011304 0.10953711 -0.06191893 0.1197443 0.14017354 0.10455838
-0.2275118 -0.2752016 -0.17154823 0.0639446 -0.18264855 0.12420525 0.36049226 0.15587772
0.29323876 -0.18420398 0.10597855 -0.04127886 -0.096542336 0.06656864 -0.0029555275 -0.06364633
-0.07294286 -0.008396404 0.123232454 -0.050346594 0.29544622 0.13376954 -0.17723194 0.18427585
0.1966365 0.22765532 0.05251671 0.1551615 0.014924968 0.06330528 -0.11968031 0.353302
0.028911296 -0.0921741 0.07855618 -0.042243026 0.016954055 -0.08365195 0.080736674 -0.13408168
-0.23064272 0.2956436 -0.17818245 0.07653712 -0.013766349 -0.06683695 -0.26660058 0.39141527
-0.28770876 -0.43860692 -0.15853702 -0.06071923 -0.20698553 0.17467329 -0.052985314 -0.03196525
0.085470036 -0.2801727 -0.065667585 -0.08565791 0.0037852116 0.081154004 0.17061959 -0.31835306
-0.1374522 0.20494232 0.12649877 -0.0278506 0.20824103 -0.16017093 -0.34727505 -0.28899956
-0.14620586 -0.15339099 0.004578438 -0.12782373 -0.1969805 0.06940813 0.14281353 -0.29749203
0.1922817 0.17478766 0.04270287 0.09565149 0.33914182 0.17023326 -0.12436174 -0.20064448
0.21101552 0.042743467 -0.10278487 0.14852759 -0.15417758 -0.056560613 0.043002736 -0.11617902
-0.09224411 -0.36648893 -0.13217485 -0.15889244 0.23394407 0.00121076 0.07864443 0.030137332
0.03949195 -0.04936526 -0.236696 -0.0031008942 -0.10774171 -0.09993938 0.27832264 -0.056955513
0.003672073 -0.09057896 0.024018742 -0.14540322 0.1437135 0.25298765 -0.050781853 0.02538459
-0.26640743 -0.03135053 -0.004481139 0.2598158 0.1527708 -0.22948231 0.21548031 0.021800138
0.29681396 -0.33671463 -0.19304432 0.12259805 -0.405225 0.3194993 0.26095217 -0.058446124
-0.12826769 -0.091196835 -0.13512476 0.18096566 0.13493916 0.13681231 -0.26621413 0.105197676
-0.22030522 -0.12956305 0.15478157 -0.12158143 -0.25167993 -0.10312601 0.43552324 0.07885991
00000000: 5e32 9abe 929c 613e b400 9c3e 1bf2 98bd
00000010: 494d 483e 8975 973d ed49 403d e4b5 233e
00000020: 7ee8 83bd 558a 90be 157a 903d 37ab 37be
00000030: 24fa 0fbe 3cd0 423d b419 23be 18b7 3b3e
00000040: 3fb6 88ba f384 04be d1db 31bd 769e 61be
00000050: 339d 293e e652 93ba fee6 0e3e 2ebc 63be
00000060: 890c 9fbd 3fec 9c3e c4c1 983e af00 c9bd
00000070: d10b d53d 2fba f2bd c202 6cbe b14c 0ebe
00000080: ad55 7c3e 759c a73d 980c 59be 0ef8 663d
00000090: 4b89 16be f299 6d3e d600 a9bc bb9b 95be
000000a0: 3588 80bd bf67 06bd 839d 103e 963c bfbd
000000b0: 728f d23d c543 003e 84a3 0ebe ffda 1a3e
000000c0: f214 76be 5515 683c d621 57bd 4c3c d0bd
000000d0: 3280 e4bc d1e9 043e 1b6f 3abe 7c35 2d3e
000000e0: 2fba 05bd 6258 acbe 9506 0a3d 606c d93d
000000f0: f6a3 0f3d 33c0 a43d d48c 3d3e 1da6 05be
00000100: c753 933e 0817 2d3e 751c 893e 98ca a5bd
00000110: 9590 72bc db1b 3e3e 6317 273e 1fd4 f6bd
00000120: a78b a5bd f088 c43d b30a b23c 7011 afbd
00000130: 19c7 a83e 5519 b6bd d475 07be 48e7 35bd
00000140: cc86 29bd ea88 7a3e b683 80bd 1d32 043d
00000150: 6b42 a0bd 7953 683e 01be 023e c82d 373e
00000160: 7231 0d3e 6b3f cdbe 78e5 143d 18da 8abd
00000170: 16fb dcbd 723a bbbc 9b70 933e b806 afbd
00000180: 1d8a c0be dc79 8a3e 21f5 4d3e fe54 e03d
00000190: b49e 7dbd 803c f53d a789 0f3e b422 d63d
000001a0: daf8 68be 39e7 8cbe 57aa 2fbe 63f5 823d
000001b0: 3908 3bbe 525f fe3d 7192 b83e 699e 1f3e
000001c0: 6423 963e f89f 3cbe 480b d93d 0614 29bd
000001d0: fdb7 c5bd 2455 883d 86b1 41bb 0259 82bd
000001e0: 1163 95bd 1291 09bc 4c61 fc3d 3b38 4ebd
000001f0: ba44 973e e2fa 083e 4a7c 35be cfb2 3c3e
00000200: 145b 493e 7a1e 693e c31b 573d a8e2 1e3e
00000210: da87 743c 33a6 813d f31a f5bd 00e4 b43e
00000220: 62d7 ec3c c6c5 bcbd 10e2 a03d 0607 2dbd
00000230: 3be3 8a3c b751 abbd 4559 a53d b54c 09be
00000240: 9b2d 6cbe 995e 973e 7675 36be 7ebf 9c3d
00000250: 418c 61bc d0e1 88bd df7f 88be 9567 c83e
00000260: 904e 93be 1691 e0be 8757 22be bab4 78bd
00000270: 04f4 53be 8edd 323e 2107 59bd feed 02bd
00000280: ea0a af3d cc72 8fbe ba7c 86bd 6a6d afbd
00000290: 5011 783b 1234 a63d e7b6 2e3e 2cff a2be
000002a0: 45c0 0cbe 66dc 513e e588 013e f126 e4bc
000002b0: 233d 553e d903 24be 09ce b1be c0f7 93be
000002c0: fdb6 15be 8712 1dbe b906 963b 39e4 02be
000002d0: 42b5 49be da25 8e3d b63d 123e e050 98be
000002e0: 7ee5 443e 89fb 323e 34e9 2e3d eee4 c33d
000002f0: ffa3 ad3e a151 2e3e 5eb1 febd bf75 4dbe
00000300: 7414 583e c613 2f3d e080 d2bd 9e17 183e
00000310: bae0 1dbe 1aac 67bd a323 303d 44ef edbd
00000320: 7bea bcbd 70a4 bbbe d858 07be b3b4 22be
00000330: 098f 6f3e 5db2 9e3a 5510 a13d 91e2 f63c
00000340: 50c2 213d 3a33 4abd 7060 72be 5f38 4bbb
00000350: b0a7 dcbd 05ad ccbd 4e80 8e3e 2f4a 69bd
00000360: 29a7 703b 7681 b9bd f4c2 c43c 95e4 14be
00000370: a229 133e 9987 813e a200 50bd 58f3 cf3c
00000380: 8e66 88be 6a69 00bd 85d6 92bb 9406 853e
00000390: f36f 1c3e 69fd 6abe dfa6 5c3e 3496 b23c
000003a0: 00f8 973e dc65 acbe 69ad 45be b014 fb3d
000003b0: a779 cfbe 6a95 a33e 869b 853e 3465 6fbd
000003c0: 9b58 03be 68c5 babd 255e 0abe 104f 393e
000003d0: 7e2d 0a3e 8718 0c3e 384d 88be e171 d73d
000003e0: b197 61be 2dac 04be 0f7f 1e3e afff f8bd
000003f0: 31dc 80be bb33 d3bd e7fc de3e 4e81 a13d

linear1.bias f4 [16]
-0.09935517 -0.16845196 0.14782755 0.16750796 -0.11409739 -0.02302339 -0.2682741 0.013793449
0.15194584 -0.07684133 -0.019866364 0.03777213 0.21316305 -0.059996538 -0.32560772 -0.0031322504
00000000: b97a cbbd ac7e 2cbe 1b60 173e 3587 2b3e
00000010: e4ab e9bd 8c9b bcbc 395b 89be ebfd 613c
00000020: b197 1b3e fd5e 9dbd c9be a2bc f3b6 1a3d
00000030: 6a47 5a3e eebe 75bd 0eb6 a6be 7146 4dbb

linear2.weight f4 [1, 16]
-0.0051060133 -0.051760353 -0.0509004 0.11450753 -0.11375668 0.091687925 0.0988871 -0.13955562
0.0110428035 0.25312936 -0.030056152 -0.073587 -0.046113644 -0.096196674 0.045512807 0.040310413
00000000: 5850 a7bb aa02 54bd f07c 50bd ed82 ea3d
00000010: 43f9 e8bd e1c6 bb3d 5285 ca3d abe7 0ebe
00000020: e0ec 343c 2c9a 813e 5238 f6bc c8b4 96bd
00000030: a9e1 3cbd c302 c5bd a36b 3a3d 881c 253d
