labml_nn/lstm/model_combine.pth (torch, 4998 bytes, 9 tensors)

lstm.weight_ih_l0 f4 [32, 1]
0.46539238 0.35338137 -0.35238165 0.008271975 -0.086067066 0.045678847 -0.07634582 0.2130032
-0.1371843 0.2721187 -0.6008376 -0.11844794 0.30819422 0.22963291 -0.05663685 0.59734386
0.6436461 0.5429535 -0.052916832 0.07851368 0.3087988 0.46341124 0.2261374 -0.5012885
0.58956635 0.031430203 -0.23962945 -0.026450165 -0.00774125 -0.030183954 -0.33500728 0.11292754
00000000: e947 ee3e 67ee b43e 5e6b b4be 2e87 073c
00000010: ee43 b0bd be19 3b3d 335b 9cbd 831d 5a3e
00000020: 0b7a 0cbe 2453 8b3e 7ed0 19bf d594 f2bd
00000030: a2cb 9d3e e424 6b3e 0bfc 67bd 87eb 183f
00000040: fec5 243f 00ff 0a3f 52bf 58bd c8cb a03d
00000050: e01a 9e3e 3d44 ed3e 9090 673e 7154 00bf
00000060: d2ed 163f f5bc 003d 6c61 75be 04ae d8bc
00000070: 50aa fdbb 5744 f7bc 1386 abbe 8e46 e73d

lstm.weight_hh_l0 f4 [32, 8]
0.09052422 0.25589067 0.5920464 -0.05871556 0.22002052 -0.18734474 -0.4506878 -0.15091027
0.36745322 0.16749074 -0.18023048 0.24265388 0.07517137 0.008649533 -0.27061102 0.10272414
-0.030718675 -0.020363485 -0.11772633 -0.06906949 -0.48861825 0.21712223 -0.15412094 -0.2119606
0.23943546 -0.1414217 0.12469141 0.4045037 -0.40928364 -0.060451463 0.09265241 -0.119208954
-0.11885529 0.3101171 0.21182887 -0.47466317 -0.18801244 0.3051915 -0.5431254 -0.3817731
-0.3237335 -0.3132614 0.5227789 -0.42892462 0.23932767 0.21054238 -0.11621008 0.0014778763
-0.39861745 -0.109514065 0.1388543 -0.12748376 -0.44807974 -0.023445012 -0.33557454 0.4879629
-0.07346527 -0.1251012 0.588972 -0.36247846 0.40534526 -0.36123747 -0.6475705 0.73164946
0.13197589 -0.15390788 -0.4027504 -0.45262635 -0.010623977 -0.12330761 0.2086373 0.53359354
-0.38660502 -0.22108467 -0.45913127 0.23669595 0.33471066 0.2948053 0.37999034 0.08398621
-0.25788653 -0.27431774 -0.26332316 0.0030945186 -0.33323067 0.18414037 0.18924318 -0.50054127
-0.054778673 -0.18277101 -0.21406086 -0.068834916 -0.57388896 -0.10228593 0.2147028 0.17344172
-0.36796537 -0.15917224 -0.01629658 0.3107607 -0.13877906 0.16168268 0.45493984 0.04414085
-0.08308222 -0.53558034 0.019923331 -0.38981768 -0.14044674 0.23499005 0.070913196 0.31931847
-0.49519548 0.16375628 -0.23306815 0.00072546146 0.13257384 -0.010502957 0.009356274 0.059278224
0.11076834 0.08541903 -0.08406297 -0.3243364 0.14259642 -0.367669 0.22397694 0.09835748
-0.2668987 -0.23586942 0.33858505 -0.05797183 0.5819265 -0.1444975 -0.22090457 0.5885562
-0.44426817 -0.08183263 -0.34008035 -0.25698954 0.4647951 0.029878713 0.40757388 0.65047634
-0.26290452 0.020785477 0.024993494 0.17777531 -0.16040684 -0.09531304 -0.03258494 -0.5798022
0.59385526 0.07480234 0.081811875 0.06618613 0.113529064 0.28274325 -0.43294352 -0.7079886
-0.26944184 -0.47155973 -0.0047013983 -0.41761586 0.055316042 -0.5890912 -0.27902448 0.7739432
-0.15843883 -0.15119123 0.0775288 -0.72191364 0.85459656 -0.07226758 -0.50961006 0.35234046
0.46052134 -0.30854464 0.11108517 -0.16417436 0.11080702 -0.022146646 0.4206291 0.07839848
0.113259286 0.06522784 -0.45382333 -0.110178195 -0.6626692 -0.33006564 0.23014686 -0.04255095
0.47480518 0.45695105 0.21126413 -0.22726837 0.55228436 -0.4466794 -0.019572994 0.33848697
0.21232796 -0.044153914 0.52606195 0.30622956 0.122217566 -0.05608447 0.22045732 -0.61006826
-0.07519462 -0.4747321 -0.35583904 0.15083662 -0.62356037 -0.2823416 -0.13304725 0.08369885
-0.14533956 -0.35246846 0.11075696 0.472087 -0.008426551 0.14242232 0.01677662 0.2681072
0.19736776 0.085494064 0.40686405 -0.1478053 0.063186735 -0.09575642 -0.60461926 -0.18114418
0.71100736 0.25738302 0.3682686 -0.0007197835 0.80171436 0.116873756 -0.054745037 0.05907923
-0.60310584 0.054441758 0.093601204 -0.3066569 -0.46224314 -0.487766 -0.24266858 0.06155209
0.7892888 0.65267146 0.16776022 -0.41620052 0.3664312 -0.07929615 -0.6132391 0.103338614
00000000: c364 b93d 1a04 833e 5a90 173f ba7f 70bd
00000010: 0f4d 613e 4dd7 3fbe 8dc0 e6be 3988 1abe
00000020: d422 bc3e b182 2b3e 578e 38be 427a 783e
00000030: 72f3 993d c5b6 0d3c 878d 8abe 0961 d23d
00000040: bba5 fbbc 53d1 a6bc 811a f1bd 4e74 8dbd
00000050: 2c2c fabe 4a55 5e3e e1d1 1dbe 330c 59be
00000060: 922e 753e dad0 10be 365e ff3d 1c1b cf3e
00000070: a08d d1be f49b 77bd 8cc0 bd3d d323 f4bd
00000080: 676a f3bd abc7 9e3e abe9 583e 0d07 f3be
00000090: 5586 40be 0f42 9c3e 440a 0bbf c477 c3be
000000a0: 66c0 a5be cc63 a0be d7d4 053f 029c dbbe
000000b0: 5012 753e 6c98 573e 8dff edbd 4db5 c13a
000000c0: 9617 ccbe e948 e0bd d22f 0e3e 1a8b 02be
000000d0: b56a e5be c10f c0bc 6dd0 abbe 46d6 f93e
000000e0: f674 96bd 871a 00be dec6 163f c796 b9be
000000f0: 6a89 cf3e 1ef4 b8be 2ec7 25bf 614d 3b3f
00000100: b024 073e 079a 1dbe 4d35 cebe a4be e7be
00000110: 3010 2ebc b388 fcbd 04a5 553e 9699 083f
00000120: 18f1 c5be 0564 62be 4113 ebbe 6c60 723e
00000130: 325f ab3e b8f0 963e 188e c23e f600 ac3d
00000140: b409 84be 6073 8cbe 4bd2 86be 68cd 4a3b
00000150: 369d aabe 4b8f 3c3e f7c8 413e 7923 00bf
00000160: 9a5f 60bd 5328 3bbe c532 5bbe 52f9 8cbd
00000170: 63ea 12bf 497b d1bd 0ddb 5b3e b59a 313e
00000180: f565 bcbe 0cfe 22be 6880 85bc 071c 9f3e
00000190: 191c 0ebe 2590 253e e0ed e83e 09cd 343d
000001a0: 0327 aabd cb1b 09bf 4136 a33c 2f96 c7be
000001b0: 45d1 0fbe 3ba1 703e f03a 913d b67d a33e
000001c0: 438a fdbe baaf 273e 6ba9 6ebe e52c 3e3a
000001d0: 70c1 073e 9814 2cbc 0f4b 193c b9cd 723d
000001e0: 83da e23d 2cf0 ae3d 3529 acbd 6c0f a6be
000001f0: cc04 123e 1c3f bcbe 365a 653e a56f c93d
00000200: f2a6 88be c187 71be 055b ad3e df73 6dbd
00000210: 23f9 143f 27f7 13be cf34 62be 9eab 163f
00000220: 1e77 e3be de97 a7bd 031f aebe 2294 83be
00000230: a0f9 ed3e 34c4 f43c 86ad d03e 9e85 263f
00000240: 6c9b 86be 4e46 aa3c 28bf cc3c bb0a 363e
00000250: b141 24be 7c33 c3bd c977 05bd eb6d 14bf
00000260: e606 183f f831 993d fc8c a73d 988c 873d
00000270: ed81 e83d b9c3 903e c6aa ddbe be3e 35bf
00000280: 48f4 89be 4770 f1be 300e 9abb bfd1 d5be
00000290: 1393 623d aece 16bf 4cdc 8ebe 2421 463f
000002a0: ca3d 22be e0d1 1abe 6bc7 9e3d 55cf 38bf
000002b0: d7c6 5a3f 0601 94bd ce75 02bf f865 b43e
000002c0: 74c9 eb3e 90f9 9dbe 9f80 e33d 531d 28be
000002d0: caee e23d e26c b5bc b35c d73e 628f a03d
000002e0: 7cf4 e73d 2c96 853d 885b e8be 1ba5 e1bd
000002f0: b0a4 29bf 5dfe a8be 9eab 6b3e e849 2ebd
00000300: aa19 f33e 7df5 e93e a055 583e 0ab9 68be
00000310: 8262 0d3f 2ab3 e4be 8b57 a0bc 2a4e ad3e
00000320: 806c 593e bcda 34bd ffab 063f 1fca 9c3e
00000330: 344d fa3d d4b8 65bd 90bf 613e 6f2d 1cbf
00000340: a3ff 99bd 1610 f3be 8930 b6be ea74 1a3e
00000350: a7a1 1fbf 148f 90be 8a3d 08be 4d6a ab3d
00000360: e5d3 14be bf76 b4be 8cd4 e23d 63b5 f13e
00000370: 840f 0abc 28d7 113e 1f6f 893c 5945 893e
00000380: c61a 4a3e 8317 af3d 7c50 d03e 465a 17be
00000390: 0c68 813d f11b c4bd 54c8 1abf dc7d 39be
000003a0: 9404 363f b5c7 833e b48d bc3e daaf 3cba
000003b0: 273d 4d3f 825b ef3d 553c 60bd 10fd 713d
000003c0: 2565 1abf 52fe 5e3d fdb1 bf3d 2202 9dbe
000003d0: 22ab ecbe 77bc f9be 1d7e 78be 0b1e 7c3d
000003e0: d50e 4a3f 7a15 273f 56c9 2b3e 3c18 d5be
000003f0: df9c bb3e 0566 a2bd 3dfd 1cbf 32a3 d33d

lstm.bias_ih_l0 f4 [32]
0.11395876 -0.20532075 -0.12576051 -0.014229363 0.45042008 0.10485886 -0.05449106 0.08706008
-0.31683022 0.047329135 -0.21921016 0.0594829 -0.3269173 0.25935033 0.21987209 -0.4223522
0.14310989 0.15286069 0.42143002 -0.10798016 0.0028535598 0.17810874 -0.44636315 0.09072813
0.16530776 -0.19662262 0.15185833 -0.22168386 0.6928154 0.39537543 0.31462446 0.6874369
00000000: 3663 e93d 9a3f 52be 5dc7 00be 4622 69bc
00000010: 769d e63e 3ec0 d63d 0532 5fbd 8e4c b23d
00000020: 9237 a2be 32dc 413d a178 60be 57a4 733d
00000030: b461 a7be 91c9 843e 2626 613e 8c3e d8be
00000040: 668b 123e 8387 1c3e adc5 d73e b424 ddbd
00000050: ca02 3b3b 2362 363e b689 e4be abcf b93d
00000060: 7046 293e 7157 49be c080 1b3e 1801 63be
00000070: 5a5c 313f a66e ca3e 7516 a13e ddfb 2f3f

lstm.bias_hh_l0 f4 [32]
0.10343342 -0.15708631 0.23774222 -0.03730481 0.032961525 0.3700643 -0.22127487 0.016934518
-0.14662871 0.1487302 -0.19811936 0.14281674 -0.0459853 -0.312055 -0.027958639 -0.23835695
-0.14215644 -0.05899282 0.21256314 0.032974962 0.019998098 -0.03601769 -0.30090737 -0.33427852
0.03509225 -0.21519545 -0.34145895 0.01776003 0.28596222 0.41709393 -0.32004282 0.30446178
00000000: e7d4 d33d 3cdb 20be b272 733e eecc 18bd
00000010: aa02 073d 1179 bd3e e195 62be 42ba 8a3c
00000020: d625 16be bb4c 183e cddf 4abe 8d3e 123e
00000030: 155b 3cbd acc5 9fbe 8409 e5bc d813 74be
00000040: 7591 11be 75a2 71bd 27aa 593e c110 073d
00000050: 0dd3 a33c 4987 13bd 8810 9abe 8e26 abbe
00000060: e4bc 0f3d 325c 5cbe b5d3 aebe 7c7d 913c
00000070: a469 923e 568d d53e a7dc a3be 6ae2 9b3e

layer_norm.weight f4 [8]
1.1352543 0.88402086 1.0883857 0.900004 0.95639396 0.95171326 0.8610899 1.2618084
00000000: 0350 913f 314f 623f 3950 8b3f aa66 663f
00000010: 3cd6 743f 7ba3 733f 6370 5c3f f082 a13f

layer_norm.bias f4 [8]
-0.10457161 -0.06774026 0.04057246 0.100746915 -0.047129396 0.11680573 -0.010701906 0.040317208
00000000: a429 d6bd 68bb 8abd 4f2f 263d 6654 ce3d
00000010: c10a 41bd d837 ef3d 0c57 2fbc a823 253d

linear1.weight f4 [8, 8]
0.021008706 0.15284829 -0.39964727 -0.18989436 0.26329547 0.18003897 -0.0012167888 -0.4730207
-0.2637814 0.40622666 -0.2553826 0.2512638 0.008318022 0.114239715 -0.21514063 -0.029130356
-0.20650955 0.40817988 0.52388006 0.05616422 0.33521912 -0.23603319 -0.4222739 0.28889784
0.015447384 -0.14145254 -0.2930066 -0.32960263 -0.27727473 -0.030335216 -0.17842239 0.053505883
0.008452693 0.046108533 -0.097467706 -0.22611067 0.40034103 -0.114838324 0.18664876 -0.4429861
0.014078229 -0.019105205 0.21894209 -0.2980702 -0.45966697 -0.05923655 0.06263553 0.48480073
0.46124825 0.02715717 -0.3919671 -0.2502325 0.28151318 0.009343699 -0.087065555 -0.15833695
0.2519855 0.1487227 -0.16422637 0.19748601 -0.17512959 0.56262213 0.028285217 -0.48767993
00000000: 731a ac3c 4384 1c3e 919e ccbe ab73 42be
00000010: aace 863e 235c 383e a87c 9fba c52f f2be
00000020: 5b0e 87be f1fc cf3e 82c1 82be a6a5 803e
00000030: 5048 083c 83f6 e93d d34d 5cbe c9a2 eebc
00000040: 3d77 53be f4fc d03e 011d 063f 740c 663d
00000050: d7a1 ab3e afb2 71be 4934 d8be 6bea 933e
00000060: 0617 7d3c efd8 10be f604 96be adc1 a8be
00000070: f4f6 8dbe 8f81 f8bc 5cb4 36be fc28 5b3d
00000080: 2a7d 0a3c 4ddc 3c3d 269d c7bd 8e89 67be
00000090: 80f9 cc3e 5b30 ebbd da20 3f3e 13cf e2be
000000a0: 5fa8 663c 8582 9cbc 5b32 603e a89c 98be
000000b0: 7859 ebbe 06a2 72bd 0f47 803d cd37 f83e
000000c0: bb28 ec3e b778 de3c e9af c8be 791e 80be
000000d0: 7f22 903e 5016 193c 6d4f b2bd 1523 22be
000000e0: 3e04 813e c34a 183e f52a 28be c639 4a3e
000000f0: 2c55 33be 0108 103f 66b6 e73c 2fb1 f9be

linear1.bias f4 [8]
-0.38969642 0.078261584 0.25520137 0.28580526 -0.286618 -0.12752366 0.19578959 0.26538935
00000000: 4a86 c7be 9c47 a03d c1a9 823e 1155 923e
00000010: 98bf 92be 9095 02be 117d 483e 1de1 873e

linear2.weight f4 [1, 8]
0.3796009 0.024912734 -0.1936096 0.033004925 0.13662003 -0.33385623 0.21868263 0.3182807
00000000: 0d5b c23e ca15 cc3c 9841 46be 2c30 073d
00000010: 1fe6 0b3e 34ef aabe 57ee 5f3e b0f5 a23e
