labml_nn/lstm/model_combine_320r2.pth (torch, 339272 bytes, 9 tensors)

lstm.weight_ih_l0 f4 [512, 1]
0	0x3e2c373f	0.1681795
1	0x3e135e19	0.14391364
2	0x3bf2c188	0.0074083246
3	0xbdb97040	-0.09054613
4	0xbcac653c	-0.021044366
5	0xbcd120b0	-0.025528282
6	0xbd932aab	-0.07185873
7	0x3e7fff5f	0.2499976
8	0xbe1df309	-0.15424742
9	0x3dedf33e	0.116186604
10	0xbb1405ad	-0.002258639
11	0xbe39d84d	-0.18148918
12	0x3e593f49	0.21215548
13	0x3c8b1cd5	0.016981522
14	0xbe0221e9	-0.12708248
15	0x3eaf0f5f	0.34191415
16	0x3d9897ae	0.074508056
17	0xbe1e909a	-0.15484849
18	0x3e28d2ec	0.1648671
19	0xbd6d8d85	-0.05799629
20	0x3e54203a	0.20715418
21	0x3e4e78b9	0.2016324
22	0xbde04a1b	-0.109516345
23	0x3e8cce0a	0.27500945
24	0xbdd81b6b	-0.105521046
25	0x3e9dcfab	0.308225
26	0xbdd7b778	-0.10533041
27	0x3e616f65	0.2201515
28	0xbcb6db3e	-0.02232134
29	0x3e27e6a5	0.16396578
30	0x3e96abbe	0.29427904
31	0x3ea80d3c	0.32822597
32	0x3dc7ed3a	0.09762044
33	0xbe3a0f4e	-0.18169901
34	0xbdb12e0f	-0.08651363
35	0x3e486d8a	0.19573036
36	0xbe0ffa2c	-0.14060277
37	0x3bd90841	0.0066232984
38	0xbdeff737	-0.11717074
39	0x3dce7e7f	0.10082721
40	0x3de375b7	0.11106437
41	0xbe10ea7e	-0.14151952
42	0xbd70671a	-0.058692075
43	0x3d8f38d4	0.06993261
44	0xbe0aeb61	-0.13566352
45	0x3deb8b9d	0.115012385
46	0xbe0d2519	-0.13783683
47	0x3d72df00	0.0592947
48	0x3e1713f6	0.14753708
49	0x3e2ca6c0	0.16860485
50	0x3e4f6cea	0.20256391
51	0x3e809180	0.25111008
52	0x3e3b8c3b	0.18315212
53	0x3df83f24	0.12121418
54	0x3e36b0e2	0.17840913
55	0x3e19f8d3	0.15036325
56	0x3e46c962	0.19412759
57	0x3c0ceed2	0.008601861
58	0x3e87e183	0.2653924
59	0xbde41a18	-0.111377895
60	0xbe906219	-0.28199843
61	0x3e955cec	0.29172456
62	0x3e06ef0c	0.13177127
63	0x3e3b48e0	0.18289518
64	0x3e3c6912	0.18399456
65	0xbe2495c4	-0.16072756
66	0x3e90b7d4	0.2826525
67	0xbb3f2a21	-0.0029169398
68	0x3e70cf0e	0.23516485
69	0x3dfa8e44	0.12234166
70	0x3e19ed78	0.15031993
71	0xbdae5760	-0.08512759
72	0xbcd797f2	-0.02631757
73	0xbdd8e89b	-0.10591241
74	0x3e7b909e	0.24566886
75	0xbccad224	-0.024758406
76	0x3cf09a16	0.029370349
77	0x3e0956b0	0.13411975
78	0xbd90f88e	-0.07078658
79	0x3e418396	0.18897852
80	0xbdcf7e3a	-0.10131498
81	0x3df46caa	0.119347885
82	0xbd1bd600	-0.038045883
83	0x3e11a833	0.14224319
84	0xbdd3099d	-0.10304568
85	0xbd696399	-0.05697975
86	0x3d1fc438	0.03900549
87	0xbe3c7fcf	-0.1840813
88	0xbe048a03	-0.12943272
89	0xbc680b1b	-0.014162804
90	0x3dd8aa5f	0.10579371
91	0x3e343315	0.17597611
92	0x3e6bd99a	0.23032227
93	0xbe0821e8	-0.13294184
94	0x3e374451	0.17897154
95	0xbda44abf	-0.08022069
96	0x3e7c19ec	0.24619263
97	0x3e06b7d2	0.1315606
98	0x3de41e43	0.111385845
99	0xbd41e40d	-0.047336627
100	0x3ce0daee	0.027448144
101	0x3e26e7da	0.16299382
102	0x3df0f8d0	0.11766207
103	0xbe6c666d	-0.23085947
104	0xbd69edfa	-0.057111718
105	0x3e0a9ee9	0.13537182
106	0xbdf9aa67	-0.12190705
107	0xbe936c4b	-0.28793558
108	0x3de58f91	0.11209024
109	0xbdb60943	-0.08888485
110	0x3e1d2d88	0.153494
111	0xbe944330	-0.2895751
112	0x3e4d0cac	0.20024365
113	0x3d3a6f6f	0.045516428
114	0x3e67d967	0.22641526
115	0x3dd721e7	0.10504513
116	0x3df1da66	0.11809234
117	0x3e2c6422	0.16835073
118	0x3e965c51	0.29367307
119	0xbd9147cb	-0.070937715
120	0x3e8a84f4	0.2705456
121	0x3da03c3c	0.07823989
122	0x3e44b2fc	0.19208902
123	0x3e9c8a41	0.3057423
124	0x3dd08144	0.101809055
125	0xbdccbaf8	-0.09996599
126	0x3d9a35dc	0.07529804
127	0x3daa0d54	0.083033234
128	0x3e5a11ae	0.21295807
129	0xbca3795c	-0.01995533
130	0x3d71762c	0.058950588
131	0xbc4d7d8f	-0.0125421425
132	0xbc76a53f	-0.015054046
133	0xbd39e68d	-0.045385886
134	0xbe112ccd	-0.14177246
135	0x3e0db043	0.1383677
136	0xbe4f8455	-0.20265324
137	0x3d35a998	0.04435119
138	0xbe0bd30c	-0.13654727
139	0xbda31743	-0.07963421
140	0x3dbdc45e	0.0926597
141	0xbd39d3b3	-0.045367908
142	0xbe4a215b	-0.19739287
143	0x3e3ec9f6	0.1863173
144	0x3cddddeb	0.027083358
145	0xbe46009b	-0.19336168
146	0x3de81c9d	0.113335826
147	0xbd6106e2	-0.054938205
148	0x3e074a69	0.13211979
149	0x3e61bbb6	0.22044262
150	0xbe1c3b75	-0.15257056
151	0x3e0bb0d9	0.13641681
152	0xbd903d4c	-0.070429415
153	0x3e53903f	0.20660494
154	0xbe40a9a7	-0.18814717
155	0x3d794b83	0.06086303
156	0xbde3f496	-0.111306354
157	0x3e39c14c	0.18140143
158	0x3dfedf0d	0.12444887
159	0x3e69a930	0.22818446
160	0x3da6ddf4	0.08147803
161	0xbe791f8c	-0.2432844
162	0xbc5a3bdc	-0.013319936
163	0x3e4d36f6	0.20040497
164	0xbde968ea	-0.11396964
165	0xbe15f082	-0.14642528
166	0xbd3887e7	-0.04505148
167	0x3d5bbf91	0.05364949
168	0x3e545c0f	0.20738243
169	0xbe2ac98e	-0.1667845
170	0xbde13b6d	-0.10997663
171	0x3e1221d9	0.14270724
172	0xbdb4996b	-0.08818325
173	0x3e153817	0.14572178
174	0xbe0fc5b3	-0.1404026
175	0x3d65d64d	0.056112576
176	0x3d82a40c	0.06378946
177	0x3e68a962	0.22720864
178	0x3db1f677	0.086895876
179	0x3dc0d6c9	0.09415967
180	0x3e022a53	0.12711458
181	0x3d90f1cd	0.0707737
182	0x3d07aa71	0.03312153
183	0x3e52d7b9	0.20590104
184	0x3e512951	0.20425917
185	0xbd3a130a	-0.045428313
186	0x3e49f1ed	0.19721194
187	0xbd99cf30	-0.07510221
188	0xbe929b4e	-0.28634113
189	0x3e4c9220	0.19977617
190	0x3d635a87	0.055506255
191	0x3dbfc3ea	0.093635395
192	0x3de60ac7	0.11232524
193	0xbde19eb8	-0.11016601
194	0x3ea547b7	0.32281277
195	0xbd46c71c	-0.04852973
196	0x3e8845fa	0.26615888
197	0x3e07adad	0.13249846
198	0x3e2ef079	0.1708392
199	0x3d88c723	0.06678607
200	0xbda23e81	-0.07922078
201	0xbd6fcc74	-0.05854459
202	0x3e67a9cb	0.22623365
203	0x3cd1bcab	0.02560266
204	0x3d8bd393	0.06827464
205	0x3da136fb	0.07871815
206	0xbd9ea50c	-0.07746324
207	0x3e56c4c3	0.20973496
208	0xbde1d3a1	-0.11026693
209	0x3e6a5d07	0.2288705
210	0xbd991747	-0.07475143
211	0x3db93766	0.090437695
212	0xbddd6fe8	-0.1081236
213	0xbe2c0591	-0.16798998
214	0x3e800219	0.250016
215	0xbcfb8db0	-0.03070721
216	0xbdcf8b7a	-0.10134025
217	0xbc06563c	-0.008199271
218	0x3e280bd9	0.1641077
219	0x3e50a50a	0.20375457
220	0x3e67d9bc	0.22641653
221	0xbdb0a19d	-0.08624575
222	0x3dbc66fd	0.09199331
223	0xbe35ec20	-0.17765856
224	0x3dc0837a	0.09400077
225	0x3d4665d1	0.048436943
226	0x3e03aaff	0.12858199
227	0xbce30bc0	-0.027715564
228	0xbc09cf9b	-0.008411313
229	0x3e02fffa	0.1279296
230	0x3de87eaa	0.11352284
231	0xbe4e545f	-0.20149373
232	0xbd89488a	-0.06703289
233	0x3d98c1cb	0.07458838
234	0xbe1b6570	-0.15175414
235	0xbe43ae75	-0.19109519
236	0x3e298633	0.16555099
237	0xbd4483f3	-0.0479774
238	0x3e8dda14	0.27705443
239	0xbe651c64	-0.22374111
240	0x3e1a4c0f	0.15068077
241	0x3cc69503	0.024240976
242	0x3e645667	0.22298585
243	0x3df45d87	0.119319014
244	0x3dd07d3f	0.10180139
245	0x3e520359	0.2050909
246	0x3e978a27	0.2959759
247	0xbd21dd56	-0.039517723
248	0x3dc1f9bf	0.094714634
249	0xbc116a9b	-0.008875514
250	0x3e440d55	0.19145711
251	0x3e7cd526	0.24690685
252	0x3e0aa3ad	0.13539
253	0xbcc7b9d6	-0.024380606
254	0x3d1a9369	0.037738238
255	0x3df0bc9c	0.117547244

lstm.weight_hh_l0 f4 [512, 128]
0	0x3e16d219	0.14728583
1	0xbd0d151e	-0.034443967
2	0xbd824f86	-0.06362824
3	0xbda0ac76	-0.07845394
4	0x3dc7ed74	0.097620875
5	0x3de85eab	0.113461815
6	0x3d77bc6d	0.06048243
7	0x3db8bae1	0.09020019
8	0xbe0ced70	-0.1376245
9	0xbcfd3f1f	-0.030913888
10	0xbda6d867	-0.08146744
11	0xbda4994e	-0.08037053
12	0xbe074a96	-0.13212046
13	0xbd07933a	-0.03309939
14	0xbe2646bb	-0.16237919
15	0xbdef28a5	-0.11677674
16	0x3e0fcb5d	0.1404242
17	0x3e1dbc2a	0.1540381
18	0x3cf419a8	0.02979739
19	0xbd1f1e43	-0.03884722
20	0xbcb7e1ba	-0.022446502
21	0x3e067e12	0.1313403
22	0x3d883cde	0.066522345
23	0x3c04589d	0.008077768
24	0xbcec0c19	-0.028814362
25	0x3c723f75	0.014785637
26	0xbe33bf45	-0.17553432
27	0xbd4d1bf1	-0.050075475
28	0xbd7abc86	-0.061214946
29	0x3e0bcc81	0.13652231
30	0x3d328276	0.04358145
31	0x3da5a849	0.080887385
32	0x3d0bce6c	0.034132406
33	0x3e42a5f3	0.19008617
34	0x3dd97d88	0.10619646
35	0x3d0bf1a2	0.034165986
36	0x3dac51d2	0.084140435
37	0x3e0a7c5e	0.13524005
38	0xbd63f8ef	-0.055657323
39	0xbded2e20	-0.11581063
40	0xbd99a9ab	-0.07503065
41	0x3e1647ff	0.14675902
42	0x3dcf1148	0.10110718
43	0x3e218f40	0.15777302
44	0x3cc5d33c	0.024148576
45	0x3db454d1	0.0880524
46	0xbcde68f5	-0.027149657
47	0xbdebb4de	-0.11509107
48	0x3d811dd2	0.06304516
49	0xbd0a830c	-0.033816382
50	0x3cc945f2	0.024569485
51	0xbd397ca3	-0.04528488
52	0xbddad6d0	-0.106855035
53	0x3e02d3f3	0.12776165
54	0x3d3eb95d	0.046563495
55	0x3d1af09a	0.03782711
56	0xbcccccf2	-0.02500007
57	0x3e140dc7	0.1445838
58	0xbdda6622	-0.106640115
59	0xbda6d389	-0.08145816
60	0xbe0f976e	-0.1402261
61	0xbdd90b90	-0.105979085
62	0x3d970538	0.07374042
63	0x3e02a1b2	0.12756994
64	0xbce5f43d	-0.028070563
65	0xbd989aac	-0.07451376
66	0x3d10ba22	0.03533376
67	0xbd87591e	-0.06608795
68	0xbe1b974f	-0.15194438
69	0xbca097fe	-0.019603726
70	0xbae1bf1f	-0.0017223096
71	0xbde506d4	-0.11182943
72	0x3dcb19a4	0.09917
73	0x3d1e0e8a	0.038588084
74	0xbd3a02a7	-0.045412686
75	0xbc92353e	-0.017847653
76	0xbd03e10c	-0.032197043
77	0xbd99542f	-0.0748676
78	0xbd835929	-0.0641349
79	0x3dac9844	0.0842748
80	0xbccdd17d	-0.025124306
81	0x3d9735ca	0.07383306
82	0xbd9fe9a2	-0.07808234
83	0xbcfcdfdb	-0.030868461
84	0x3da8bbc0	0.082389355
85	0xbd3a0912	-0.045418806
86	0x3bc62f02	0.0060480842
87	0x3bc7ccd4	0.0060974155
88	0xbd20be37	-0.039243903
89	0xbcddf8f5	-0.027096251
90	0x3d40c0e5	0.04705896
91	0x3d1e8de8	0.03870955
92	0x3d37f9b3	0.044915866
93	0xbdda040d	-0.10645304
94	0xbb77aba4	-0.0037791515
95	0x3d9b4f49	0.07583482
96	0x3d1ca76b	0.0382456
97	0xbdae577e	-0.085127816
98	0x3cc9fd7a	0.024657
99	0xbc92a1c1	-0.017899396
100	0xbe1b4979	-0.15164746
101	0x3d19487e	0.03742265
102	0xbe102209	-0.14075483
103	0x3d851bde	0.06499456
104	0x3d79b57b	0.06096409
105	0x3dea96e8	0.11454564
106	0x3d82dc9e	0.06389736
107	0x3d6298b2	0.055321403
108	0xbd893b26	-0.06700735
109	0x3d86b061	0.0657661
110	0x3e4d8b9d	0.2007279
111	0xbe04d541	-0.12971975
112	0xbcb45d89	-0.022017257
113	0x3d1c2a2e	0.038126163
114	0x3d2d585d	0.042320598
115	0xbd8e0c57	-0.069359474
116	0x3d6bff8c	0.057616755
117	0xbcf48057	-0.029846353
118	0xbde54068	-0.11193925
119	0xbccc1373	-0.024911618
120	0xbcccb32c	-0.02498778
121	0xbe142407	-0.14466868
122	0xbe064c91	-0.13115145
123	0xbda44867	-0.08021622
124	0xbc974d75	-0.018469552
125	0x3e30bba4	0.17259079
126	0xbde5bb64	-0.112173826
127	0xbdca4d11	-0.098779805
128	0xbe234168	-0.15942919
129	0xbeb94367	-0.36184236
130	0x3df71dee	0.120662555
131	0xbd8ff837	-0.07029765
132	0xbe9d61a7	-0.30738565
133	0xbe5453eb	-0.20735137
134	0xbe881a69	-0.2658265
135	0xbe80eb37	-0.25179455
136	0x3e319b23	0.17344336
137	0xbe720a62	-0.23636773
138	0x3d9ebbec	0.07750687
139	0xbceba03a	-0.028762925
140	0x3e808852	0.25104004
141	0x3cdf5a44	0.027264722
142	0xbe05bedb	-0.13061087
143	0x3e5eac7b	0.21745484
144	0xbe2c8750	-0.16848493
145	0x3ddeaad0	0.10872424
146	0xbdaf9034	-0.085724264
147	0x3e2f400b	0.17114274
148	0x3dd148d3	0.10218968
149	0xbe6a92c3	-0.22907548
150	0xbe29fb75	-0.1659983
151	0x3e6ea186	0.23303804
152	0xbdcfd683	-0.10148337
153	0xbe89c40d	-0.26907387
154	0xbafdd3d9	-0.0019365504
155	0xbe060453	-0.13087587
156	0x3e38437a	0.1799449
157	0x3e2fd849	0.1717235
158	0x3e65206e	0.22375652
159	0xbe6f92da	-0.23395863
160	0x3eb43cb1	0.35202554
161	0x3e2ff26c	0.1718232
162	0xbe3fa3c0	-0.1871481
163	0x3e8b8d11	0.27256063
164	0x3d1ee13a	0.03878901
165	0xbea064bd	-0.31326857
166	0x3e505fb1	0.20349003
167	0x3eb7f8a6	0.3593189
168	0xbd92b0d1	-0.07162631
169	0xbc99cdda	-0.018774915
170	0xbe44f053	-0.19232301
171	0xbe87085f	-0.26373574
172	0xbdacdd7f	-0.084406845
173	0xbce3ffff	-0.02783203
174	0xbe8d2f99	-0.27575377
175	0xbe0a86a5	-0.13527925
176	0xbe869f83	-0.26293573
177	0xbbfa4bbd	-0.0076384232
178	0xbe357081	-0.17718698
179	0xbd5d75c8	-0.054067403
180	0x3e98ca1d	0.298417
181	0xbea49df9	-0.32151774
182	0xbea183f8	-0.31545997
183	0x3e4eecde	0.20207545
184	0x3e18c5e7	0.14919244
185	0xbe97390c	-0.2953571
186	0x3e470048	0.19433701
187	0x3b3f0904	0.002914966
188	0xbd74d9b9	-0.05977795
189	0x3e9d5525	0.30729023
190	0x3b2120ab	0.0024586122
191	0xbd273ba4	-0.040828362
192	0xbe74acff	-0.23894118
193	0x3def4f24	0.11685017
194	0xbe924378	-0.285671
195	0x3e57b84e	0.210664
196	0x3e694307	0.22779475
197	0x3e1aec5b	0.15129225
198	0xbea06767	-0.3132889
199	0x3e923349	0.28554752
200	0xbe2ec478	-0.17067134
201	0xbdb5e669	-0.08881838
202	0x3e414e69	0.18877567
203	0xbe98c8a0	-0.29840565
204	0x3e5d9556	0.21638998
205	0xbd491c41	-0.04909921
206	0x3e477135	0.19476779
207	0xbea38c45	-0.31942955
208	0xbcd1a8e5	-0.02559323
209	0xbe473ec8	-0.19457543
210	0x3cd756ed	0.026286567
211	0x3e817eb0	0.25291967
212	0x3e2f9871	0.17147996
213	0x3e2a17e4	0.16610676
214	0x3e3f1e92	0.18664005
215	0x3e6c9867	0.23105012
216	0xbe1a2340	-0.1505251
217	0x3e940aae	0.28914398
218	0xbe1c0465	-0.15236051
219	0xbeb85e82	-0.36009604
220	0x3d4e8b6a	0.050425924
221	0xbc8c8015	-0.017150918
222	0x3cf0de0f	0.02940276
223	0xbc30929d	-0.010777143
224	0x3d89df12	0.067320004
225	0xbdee70e4	-0.11642626
226	0xbe3ae256	-0.18250403
227	0x3dc916b2	0.09818782
228	0x3d7b0fca	0.061294354
229	0xbe6eddef	-0.23326848
230	0x3eccd0d7	0.40003082
231	0x3e29124c	0.16510886
232	0x3dcb0145	0.099123515
233	0xbd5a4405	-0.053287525
234	0xbe3bda9e	-0.18345115
235	0x3e4092a6	0.18805942
236	0xbe1d546e	-0.15364239
237	0xbd9ce1e9	-0.076602764
238	0x3dc13814	0.09434524
239	0xbd0c3b3d	-0.03423618
240	0x3e8187a8	0.2529881
241	0x3ddb8f14	0.10720649
242	0x3dc6d441	0.09708453
243	0xbe77d9a1	-0.24204113
244	0x3db34765	0.08753852
245	0x3c09627e	0.008385299
246	0x3e18c697	0.14919506
247	0xbdf84507	-0.12122541
248	0x3dad4aa2	0.08461501
249	0x3e5cbf55	0.21557362
250	0xbd7ff4cb	-0.062489312
251	0x3e426ada	0.18986073
252	0xbe7d4f75	-0.24737342
253	0xb9f9d58c	-0.00047652086
254	0xbde33d01	-0.1109562
255	0x3e87cbf1	0.26522782

lstm.bias_ih_l0 f4 [512]
0	0x3cfe187f	0.03101754
1	0x3ce4f780	0.027950048
2	0xbd8e829b	-0.06958505
3	0xbe0b430a	-0.13599792
4	0xbced51e8	-0.02896972
5	0xbdc6095b	-0.09669753
6	0xbda2eeea	-0.079557255
7	0x3d55b6a5	0.052176137
8	0xbe37bbfc	-0.17942804
9	0xbe62f4ac	-0.22163647
10	0xbdbe78fe	-0.09300421
11	0xbe29af62	-0.1657081
12	0xbd02b28b	-0.031908553
13	0x3e10e498	0.14149702
14	0x3e2f0f23	0.17095618
15	0xbc02654d	-0.007958722
16	0x3db2ceee	0.08730875
17	0x3d897623	0.06711986
18	0xbc8406fc	-0.016116612
19	0xbe76fe83	-0.24120526
20	0xbc00a457	-0.007851682
21	0x3d98b0a5	0.07455567
22	0xbd4a1e9d	-0.0493456
23	0xbda02654	-0.078198105
24	0xbdae6c82	-0.0851679
25	0x3d9946c1	0.07484198
26	0x3cdb9b0c	0.02680733
27	0x3e013123	0.126164
28	0xbe096a8f	-0.13419555
29	0xbc16b947	-0.009199447
30	0xbd9da54f	-0.07697546
31	0xbcb5888e	-0.02215984
32	0xbd981d12	-0.0742742
33	0x3e0d539c	0.13801426
34	0xbbb4e86c	-0.005520871
35	0x3d3f0dfb	0.046644192
36	0x3dcd1583	0.10013869
37	0xbdad14d0	-0.08451235
38	0xbd83df12	-0.06439032
39	0xbc68c99b	-0.014208223
40	0x3c62acfc	0.013835188
41	0xbe27754c	-0.16353339
42	0xbe163e9a	-0.14672318
43	0xbdd9ed0a	-0.10640915
44	0xbd5b26a2	-0.05350364
45	0x3de1e704	0.11030391
46	0x3d8a36c9	0.06748731
47	0x3e0c995b	0.13730375
48	0x3e2569e3	0.16153674
49	0x3e6c29be	0.23062798
50	0xbe2d545c	-0.16926712
51	0xbd001a79	-0.031275246
52	0x3b8cf857	0.0043020654
53	0x3ce85cfa	0.028364647
54	0xbdebc661	-0.11512447
55	0xbb9b03b6	-0.004730667
56	0xbe0d3ff5	-0.13793929
57	0xbe3b4ff2	-0.18292215
58	0xbd93b802	-0.07212831
59	0x3c3e930a	0.0116317365
60	0xbd45d3bd	-0.048297632
61	0x3d410c54	0.047130898
62	0xbd39dfd3	-0.04537947
63	0x3c7a7ce2	0.015288563
64	0xbdbb114a	-0.09134157
65	0xbdf80e62	-0.12112118
66	0x3b692a14	0.003557806
67	0xbd938cf9	-0.07204623
68	0x3db74863	0.089493535
69	0x3bf02f79	0.007329878
70	0x3d34bc59	0.044124935
71	0x39fb7d01	0.00047967586
72	0xbc80bedf	-0.015716014
73	0xbd96fa73	-0.07371988
74	0x3c020b41	0.007937253
75	0xbcc24880	-0.023716211
76	0xbbbbb207	-0.0057280096
77	0x3e052399	0.1300186
78	0xbdb9c1d7	-0.09070175
79	0xbd93d684	-0.0721865
80	0xbe11fe7b	-0.14257233
81	0xbdea734c	-0.114477724
82	0xbc06fe60	-0.008239359
83	0x3c282913	0.010263699
84	0xbc92d5c8	-0.017924204
85	0xbe34301c	-0.17596477
86	0xbda626fd	-0.08112905
87	0xbdc5a19f	-0.096499674
88	0x3ca66407	0.020311369
89	0xbdcaadd8	-0.09896439
90	0xbe042806	-0.12905893
91	0x3da105f5	0.07862464
92	0x3e2b90f8	0.1675452
93	0xbdbb7801	-0.09153748
94	0xbd87540e	-0.06607829
95	0xbe069599	-0.13143004
96	0x3d456125	0.048188347
97	0x3cd8762a	0.026423533
98	0xbd6f65aa	-0.058446564
99	0xbb914499	-0.0044332263
100	0xbddcf33d	-0.107885815
101	0x3d67b6bc	0.056570753
102	0xbceb34bd	-0.028711671
103	0x3df3bc08	0.119010985
104	0x3e54be9c	0.20775837
105	0x3d8aadc2	0.06771423
106	0x3d19c71e	0.03754341
107	0x3e4a31d5	0.19745572
108	0x3e7a7f8d	0.2446272
109	0xbe4a355a	-0.19746915
110	0xbb075eb2	-0.0020655808
111	0x3d46ea47	0.048563268
112	0x3d70cf2e	0.058791332
113	0xbd8017b8	-0.06254524
114	0x3e3fe648	0.18740189
115	0xbe0a0a83	-0.13480572
116	0xbe9d27e2	-0.3069449
117	0x3e547df5	0.20751174
118	0xbe13ebdb	-0.1444544
119	0xbe13be8f	-0.14428161
120	0xbc5e884a	-0.0135822985
121	0x3c879388	0.01654984
122	0x3dbd431e	0.09241317
123	0x3ab564f1	0.0013839287
124	0x3d7327a9	0.059363995
125	0x3dda6af3	0.1066493
126	0xbe161b8d	-0.14658947
127	0xbc463445	-0.012097423
128	0xb9132110	-0.00014031329
129	0xbdfd4241	-0.123661526
130	0xbe255e25	-0.16149195
131	0xbde5341a	-0.11191578
132	0xbb863fd2	-0.0040969634
133	0xbe352a50	-0.17691922
134	0xbdf84774	-0.121230036
135	0x3db3559f	0.08756565
136	0xbddb5111	-0.107088216
137	0xbe365214	-0.17804748
138	0xbdc9683b	-0.098343335
139	0xbde6bbd0	-0.11266291
140	0xbd4d23d8	-0.05008301
141	0x3dae5b6f	0.08513533
142	0x3dd4a4af	0.103829734
143	0x3dd0531f	0.10172104
144	0xbceab997	-0.02865295
145	0x3e577672	0.21041277
146	0x3d6c8f10	0.057753623
147	0xbe7b3b04	-0.24534231
148	0x3d1e87e4	0.038703814
149	0x3dfaefbc	0.12252757
150	0xbdfd0249	-0.123539515
151	0x3cd85162	0.026405994
152	0xbe50a32c	-0.20374745
153	0x3db53794	0.08848491
154	0xbc58b8b0	-0.013227627
155	0x3cd4987d	0.025951618
156	0xbdaf2621	-0.085521944
157	0xbde4e6e4	-0.111768514
158	0xbe2cf89e	-0.16891715
159	0xbd6a8091	-0.057251517
160	0xbd6a8834	-0.0572588
161	0x3db5cdfb	0.08877178
162	0xbb455a58	-0.0030113664
163	0x3de7fe4b	0.113277994
164	0x3e581a06	0.21103677
165	0xbdcd875e	-0.10035585
166	0xbdad80b6	-0.08471815
167	0xbd6653f1	-0.056232397
168	0x3e170e01	0.14751436
169	0xbd2e1471	-0.042499963
170	0xbe0bf736	-0.13668522
171	0xbe1d4361	-0.15357734
172	0xbd852a9e	-0.06502269
173	0x3d777a59	0.060419414
174	0x3ca486a0	0.020083725
175	0x3e2f6e10	0.1713183
176	0x3e0df542	0.1386309
177	0x3dd01748	0.101606905
178	0xbd356027	-0.04428115
179	0xbc3823b6	-0.011238983
180	0x3daf78fc	0.08567998
181	0xbd8e4650	-0.06947005
182	0xbdd996cc	-0.10624465
183	0x3db2e683	0.08735373
184	0xbe305616	-0.17220339
185	0xbe170836	-0.14749226
186	0xbd71d5fe	-0.05904197
187	0xbe21fc71	-0.15818955
188	0xbbaa69b8	-0.005200591
189	0x3c43725a	0.011929119
190	0xbdb85253	-0.09000077
191	0x3deca138	0.115541875
192	0xba090dbf	-0.00052281836
193	0xbe206b94	-0.15666038
194	0x3e14e5d6	0.145408
195	0xbd36306d	-0.044479776
196	0x3d689f49	0.05679253
197	0x3ddeac8e	0.10872756
198	0x3d32f117	0.043686952
199	0xbd9a8532	-0.07544936
200	0xbcb39408	-0.021921173
201	0xbd96437f	-0.073370926
202	0xbd7d644b	-0.061863225
203	0xbcf6e4ea	-0.030138452
204	0xbc660381	-0.014038921
205	0x3d1f1687	0.038839843
206	0xbce93d46	-0.0284716
207	0xbdb79c86	-0.08965401
208	0xbd89d7a8	-0.06730586
209	0xbe14ebe7	-0.14543115
210	0xbd598681	-0.05310679
211	0xbd9c31fb	-0.076267205
212	0xbdb0c4a2	-0.08631255
213	0xbe0414d3	-0.12898569
214	0xbe817830	-0.25287008
215	0xbd726d3c	-0.059186205
216	0xbe18d137	-0.14923559
217	0xbc82d182	-0.015969042
218	0xbe2672dd	-0.16254754
219	0x3c39748f	0.011319294
220	0x3e2f7b76	0.1713694
221	0xbe78d774	-0.24300939
222	0x3c00b581	0.007855774
223	0xbddac1f9	-0.106815286
224	0x3c29cb4d	0.010363412
225	0x3cc6c9e5	0.024266193
226	0xbd702889	-0.058632407
227	0xbe09150c	-0.13386935
228	0xbe4ab7ff	-0.19796751
229	0xbd07a9a0	-0.03312075
230	0x3deb5994	0.11491695
231	0x3e761f23	0.24035315
232	0x3e29928f	0.16559814
233	0xbb84602c	-0.004039785
234	0x3d21d411	0.039508883
235	0x3e20adb6	0.15691265
236	0x3e127a38	0.14304435
237	0xbdb0e765	-0.08637885
238	0xbddb6682	-0.10712911
239	0x3dd89f13	0.10577216
240	0xbc2fadaa	-0.010722557
241	0xbe045cd9	-0.12926044
242	0x3e5db26f	0.21650098
243	0xbd4bf7c7	-0.049796846
244	0xbe6a8dad	-0.22905608
245	0x3d8c4763	0.068495534
246	0xbdbe5792	-0.092940465
247	0xbe2c825e	-0.16846606
248	0x3da7e412	0.08197798
249	0x3dae48da	0.08509989
250	0x3cd882a3	0.02642948
251	0xbd2208ec	-0.03955929
252	0xbe090dd5	-0.13384183
253	0x3d845809	0.06462104
254	0xbe2fceab	-0.17168681
255	0x3d5f4e6d	0.054518152

lstm.bias_hh_l0 f4 [512]
0	0xbdf37cae	-0.11889015
1	0xbc84d9d6	-0.016217154
2	0xbd220471	-0.039555017
3	0xbdf78e24	-0.12087658
4	0xbe0e64a7	-0.13905583
5	0xbc6bf40b	-0.014401446
6	0xbdc06453	-0.09394135
7	0x3dae4d37	0.08510821
8	0xbdc9b965	-0.09849814
9	0xbe130825	-0.14358576
10	0xbe0fc994	-0.1404174
11	0xbb6fea5a	-0.003660819
12	0x3c664afb	0.014055963
13	0x3e029968	0.12753832
14	0x3d5fe322	0.05465997
15	0xbceb550a	-0.028727073
16	0x3d154525	0.036442894
17	0x3e3a5cb5	0.18199427
18	0x3d09f4df	0.033680793
19	0xbe3a8740	-0.18215656
20	0xbae6167a	-0.0017554306
21	0x3d8a6d06	0.06759076
22	0xbca4b73a	-0.0201069
23	0xbd5388c4	-0.0516441
24	0xbe47bdef	-0.19506048
25	0xbc39210b	-0.011299382
26	0xbc1e9488	-0.009678967
27	0x3e101fc2	0.14074615
28	0xbe0d3841	-0.1379099
29	0xbdf7a8f5	-0.12092773
30	0xbb0e8d51	-0.0021751712
31	0xbe10f828	-0.14157164
32	0xbc1b9031	-0.009494827
33	0x3e09f46a	0.13472143
34	0xbd913242	-0.07089664
35	0xbbd94eb6	-0.0066316975
36	0x3e625b6b	0.22105186
37	0xbd48b968	-0.049004942
38	0xbd4fe504	-0.050755516
39	0x3d278cae	0.040905647
40	0x3daf0ed9	0.08547754
41	0xbd923e2c	-0.071407646
42	0xbe162db4	-0.14665872
43	0xbd2bebc8	-0.041972905
44	0x3ba2cdda	0.004968387
45	0x3e48812c	0.19580525
46	0x3ce8b1e4	0.028405137
47	0x3e7d7eb2	0.24755362
48	0x3ddb5692	0.10709871
49	0x3e284ac1	0.16434766
50	0xbc9f6669	-0.019458013
51	0xbdf6bc6d	-0.12047658
52	0x3d44fd4d	0.04809313
53	0xbde3ef7b	-0.11129662
54	0xbd86f9f8	-0.065906465
55	0x3d842817	0.06452959
56	0xbe2b2182	-0.16712001
57	0xbdbee3b4	-0.09320775
58	0xbde31f60	-0.11089969
59	0xbdf21390	-0.118201375
60	0x3d385af1	0.045008603
61	0x3dc486da	0.095960334
62	0xbde29f60	-0.110655546
63	0x3dbe1943	0.09282162
64	0xbd0a572e	-0.033774547
65	0xbe29ffa0	-0.1660142
66	0x3cf10dc0	0.029425502
67	0xbe286ccf	-0.16447757
68	0x3dd23a7d	0.10265062
69	0x3dc3bde9	0.09557707
70	0xbb73269d	-0.0037101873
71	0xbda86447	-0.082222514
72	0xbe0e5297	-0.13898693
73	0xbd83dd0c	-0.06438646
74	0x3d2237c0	0.03960395
75	0xbcdc8e4f	-0.026923327
76	0xbd9a2fa5	-0.07528619
77	0x3d91a299	0.07111091
78	0xbd840577	-0.06446355
79	0xbda3495f	-0.07972979
80	0xbd2c1a09	-0.042017017
81	0xbd81d9f8	-0.06340402
82	0xbe030048	-0.12793076
83	0x3d82f882	0.06395055
84	0xbe2521dd	-0.16126199
85	0xbe18cd36	-0.14922032
86	0xbda231e0	-0.07919669
87	0xbe26999d	-0.16269536
88	0xbdb77dc6	-0.08959536
89	0xbd47245a	-0.048618652
90	0xbe5f145e	-0.21785113
91	0x3d45e056	0.048309647
92	0x3d996075	0.07489101
93	0xbe1541a6	-0.14575824
94	0x3dccf563	0.10007741
95	0xbe253c9c	-0.16136402
96	0x3c83ee73	0.016104912
97	0xbcc17ce6	-0.023619127
98	0xbd9823a1	-0.07428671
99	0xbd02def4	-0.031950906
100	0xbe8031e0	-0.25038052
101	0x3d3100c2	0.043213613
102	0x3d7b2e35	0.061323363
103	0x3e0df7a3	0.13863997
104	0x3e38d441	0.18049718
105	0x3c3ec42a	0.011643449
106	0xbba5addf	-0.0050561274
107	0x3dbc4081	0.09191991
108	0x3e73e861	0.23819114
109	0xbe23655a	-0.15956631
110	0xbdcf78e1	-0.10130478
111	0x3e03dbb7	0.12876783
112	0xbc177fb8	-0.009246759
113	0xbd14d756	-0.036338173
114	0x3d2b200e	0.041778617
115	0xbdc9c06f	-0.09851157
116	0xbe9a1e1f	-0.30101106
117	0x3db03c21	0.08605219
118	0xbe24b3ed	-0.16084261
119	0xbdbb6fd3	-0.09152188
120	0x3dd452bb	0.10367342
121	0xbda49595	-0.08036343
122	0x3d5e3bc0	0.0542562
123	0x3ca8e1a1	0.0206154
124	0x3d2c04ee	0.04199689
125	0x3c448657	0.01199492
126	0x3c38d4e8	0.01128123
127	0xbc1afb58	-0.009459339
128	0xbd151ade	-0.036402576
129	0x3bd90aa6	0.006623584
130	0xbd7fdbcc	-0.062465474
131	0xbe707785	-0.23483093
132	0xbd8b692d	-0.0680717
133	0xbcd713a5	-0.026254484
134	0xbe3f4f55	-0.18682607
135	0x3d6ca2f5	0.057772595
136	0xbdde2284	-0.10846427
137	0xbe613c4e	-0.2199566
138	0xbda576fd	-0.08079336
139	0xbd35fe96	-0.044432245
140	0x3c4bd96f	0.012441977
141	0xb9f9fda5	-0.0004768196
142	0x3d1bd0a8	0.038040787
143	0xbc1c0171	-0.009521828
144	0x3d8ef823	0.06980922
145	0x3da0e49c	0.07856104
146	0xbc90e78a	-0.017688531
147	0xbdd635de	-0.10459493
148	0xbdd0280a	-0.10163887
149	0x3e05aa6e	0.13053295
150	0xbd5357c0	-0.051597357
151	0x3cc96f09	0.024589079
152	0xbdb5b49e	-0.088723406
153	0xbd8c993f	-0.06865167
154	0xbe12ea4f	-0.14347194
155	0xbbc84e92	-0.006112882
156	0xbc19131b	-0.009342934
157	0xbe3a620a	-0.18201461
158	0xbd718e3c	-0.058973536
159	0xbdbfc520	-0.093637705
160	0xbdbe16a4	-0.09281662
161	0x3e336252	0.17517975
162	0xbe025521	-0.12727787
163	0x3dc24c28	0.09487182
164	0x3e76ed95	0.24114068
165	0xbd0af7b9	-0.033927653
166	0xbd1331f1	-0.0359363
167	0xbd87efe4	-0.066375524
168	0x3e00d6f7	0.12582003
169	0xbe27a195	-0.16370232
170	0xbe266061	-0.16247703
171	0xbde7c733	-0.11317291
172	0xbe1b5be9	-0.1517178
173	0x3da02e24	0.078213006
174	0xbcab84b4	-0.020937301
175	0x3e869d26	0.2629177
176	0x3d5c1810	0.053733885
177	0x3d95dffd	0.07318113
178	0xbe07b456	-0.13252386
179	0x3d64032f	0.0556671
180	0x3da71f5f	0.081602804
181	0xbd7e922a	-0.06215111
182	0xbc26604a	-0.010154793
183	0x3dc5254c	0.096262544
184	0xbcb03e9b	-0.021514228
185	0xbd0c3232	-0.034227557
186	0x3c91dd4a	0.017805714
187	0xbe1de0b5	-0.1541775
188	0xbddc7f8c	-0.10766515
189	0x3d8e7c6c	0.06957325
190	0xbb406e71	-0.0029362703
191	0x3d2217f2	0.039573617
192	0xbd1190d7	-0.03553852
193	0xbe0efc53	-0.13963442
194	0x3dc9609d	0.09832881
195	0xbc8cc527	-0.017183853
196	0x3ccba37c	0.024858229
197	0x3d27d698	0.040976137
198	0xbd78d003	-0.06074525
199	0xbc848c16	-0.01618008
200	0xbddff648	-0.10935646
201	0xbe132cc1	-0.14372541
202	0xbd7b8343	-0.061404478
203	0xbc0ace2d	-0.008472008
204	0xbca7e550	-0.020495087
205	0x3d9fa7a6	0.07795648
206	0xbdf27357	-0.118384056
207	0xba0d559a	-0.0005391479
208	0xbdfb7704	-0.1227856
209	0xbd840ebb	-0.06448122
210	0xbdf717eb	-0.12065109
211	0x3d9cf133	0.076631926
212	0xbd970d69	-0.07375605
213	0xbdcbdcc3	-0.09954216
214	0xbe2406ce	-0.16018221
215	0xbd89b102	-0.06723215
216	0xbda3aba4	-0.07991722
217	0xbddaddec	-0.106868595
218	0xbe3b0092	-0.18261936
219	0x3c880e97	0.01660852
220	0x3d29716f	0.041367944
221	0xbe15707e	-0.14593694
222	0x3ddc1468	0.1074608
223	0xbe4d5f3c	-0.2005586
224	0x3d049617	0.0323697
225	0xbb6662a7	-0.0035154016
226	0x3d3dbc75	0.046322305
227	0xbcf45bdb	-0.029828956
228	0xbe968fad	-0.2940649
229	0x3d66ecc2	0.056378134
230	0x3c62b0fc	0.013836142
231	0x3e66e169	0.22546925
232	0x3e57bf09	0.21068968
233	0xbd7ccd4c	-0.061719224
234	0x3d3c5d10	0.04598719
235	0x3e7705e6	0.24123344
236	0x3e69a56a	0.22817007
237	0xbd9bb1e3	-0.076022886
238	0xbbc6a3a1	-0.0060619866
239	0x3d80a2ef	0.06281077
240	0xbc11f1e8	-0.008907773
241	0xbdd31bf3	-0.10308065
242	0x3e2eadd4	0.17058498
243	0xbd067952	-0.032830544
244	0xbe8b1961	-0.271678
245	0x3e33b159	0.17548122
246	0xbde7fde9	-0.113277264
247	0xbe4d90a5	-0.20074709
248	0x3dfa5cbd	0.1222472
249	0x3db0d46e	0.08634268
250	0x3da0f125	0.07858495
251	0xbca4877f	-0.02008414
252	0xbe03a5f1	-0.1285627
253	0xbd0c8693	-0.034308027
254	0xbd00ec6b	-0.031475466
255	0xbd9cf593	-0.07664027

layer_norm.weight f4 [128]
0	0x3f666871	0.90003115
1	0x3f86c7d1	1.0529729
2	0x3f676325	0.9038566
3	0x3f625a3a	0.88418925
4	0x3f670996	0.90249
5	0x3f68bf51	0.90916926
6	0x3f627197	0.88454574
7	0x3f72ef28	0.94896173
8	0x3f694b23	0.91130275
9	0x3f57c494	0.8428433
10	0x3f6bef4c	0.92162013
11	0x3f6b1678	0.9183116
12	0x3f7052ef	0.93876547
13	0x3f845a86	1.0340126
14	0x3f71d32e	0.9446286
15	0x3f7f48ed	0.9972065
16	0x3f75ada1	0.9596806
17	0x3f801ac7	1.0008172
18	0x3f57655b	0.8413903
19	0x3f55fa89	0.8358541
20	0x3f633df2	0.88766396
21	0x3f851fb4	1.04003
22	0x3f5d3ca3	0.8642065
23	0x3f790687	0.97275585
24	0x3f755e99	0.9584747
25	0x3f75d827	0.9603295
26	0x3f6b7466	0.91974485
27	0x3f7b9bff	0.98284906
28	0x3f68d0b3	0.9094345
29	0x3f6172d7	0.88065857
30	0x3f677fe9	0.9042955
31	0x3f69bca7	0.91303486
32	0x3f68aaa0	0.90885353
33	0x3f64eee6	0.8942703
34	0x3f62efc9	0.88647133
35	0x3f66594a	0.89979994
36	0x3f848817	1.0354031
37	0x3f6684fa	0.90046656
38	0x3f692d8f	0.9108514
39	0x3f71f42c	0.945132
40	0x3f828a3b	1.0198435
41	0x3f6d6803	0.92736834
42	0x3f68d7f1	0.909545
43	0x3f695b4b	0.91154927
44	0x3f6a3b82	0.9149705
45	0x3f871ed5	1.0556284
46	0x3f6fd94f	0.9369096
47	0x3f8a093b	1.0784067
48	0x3f83eabb	1.0306009
49	0x3f8f47a3	1.1193737
50	0x3f6bd71f	0.92125124
51	0x3f53f780	0.8279953
52	0x3f7389dd	0.9513224
53	0x3f65f68b	0.8982932
54	0x3f72c2f3	0.9482872
55	0x3f76d25c	0.9641473
56	0x3f74c08a	0.9560629
57	0x3f667873	0.9002754
58	0x3f5f0a22	0.87124836
59	0x3f6eb2e1	0.932417
60	0x3f6ec8fd	0.93275434
61	0x3f7191e7	0.94363254
62	0x3f5f5391	0.8723689
63	0x3f831a14	1.0242333
64	0x3f76d331	0.96416
65	0x3f6c8cb0	0.9240217
66	0x3f7ea572	0.994712
67	0x3f6aa8d0	0.9166384
68	0x3f68d676	0.9095224
69	0x3f793afe	0.9735564
70	0x3f7dbfd6	0.99120843
71	0x3f66862c	0.9004848
72	0x3f6598b2	0.8968612
73	0x3f6ad02a	0.91723883
74	0x3f65f23b	0.8982274
75	0x3f699349	0.91240364
76	0x3f6f63d8	0.93511724
77	0x3f826e9c	1.0190005
78	0x3f597cc7	0.8495602
79	0x3f7896c5	0.97105056
80	0x3f6767de	0.90392864
81	0x3f6251af	0.8840589
82	0x3f6b30c5	0.9187129
83	0x3f71c4dc	0.9444101
84	0x3f6fabae	0.9362134
85	0x3f66bfa3	0.90136164
86	0x3f53c7cc	0.8272674
87	0x3f66eb58	0.90202856
88	0x3f70856f	0.93953604
89	0x3f6961f4	0.9116509
90	0x3f6a07c2	0.9141809
91	0x3f70dd8a	0.9408804
92	0x3f742685	0.95371276
93	0x3f77502d	0.96606714
94	0x3f749c77	0.95551246
95	0x3f5ea36d	0.8696812
96	0x3f818708	1.0119333
97	0x3f7430f8	0.9538722
98	0x3f7df0c9	0.99195534
99	0x3f7cbbaa	0.9872385
100	0x3f4d851c	0.80281234
101	0x3f6afa0e	0.91787803
102	0x3f7ec3de	0.9951762
103	0x3f918efb	1.1371759
104	0x3f8a61bd	1.0811077
105	0x3f747f9e	0.9550723
106	0x3f77a809	0.96740776
107	0x3f952fb6	1.1655185
108	0x3f85dcd7	1.045802
109	0x3f63103b	0.8869664
110	0x3f65d7b2	0.8978225
111	0x3f83d14e	1.029825
112	0x3f7cf576	0.98812044
113	0x3f5ec087	0.87012523
114	0x3f887597	1.0660886
115	0x3f611066	0.8791565
116	0x3f4f20e3	0.80909556
117	0x3f82773a	1.0192635
118	0x3f6961ed	0.9116505
119	0x3f6e6f06	0.9313816
120	0x3f768908	0.96302843
121	0x3f7c40af	0.985362
122	0x3f77ecc7	0.9684567
123	0x3f6ca814	0.92443967
124	0x3f8368c5	1.0266348
125	0x3f709759	0.9398094
126	0x3f66596c	0.89980197
127	0x3f63d939	0.8900333

layer_norm.bias f4 [128]
0	0x3d9a7e12	0.07543577
1	0xbdc0c862	-0.0941322
2	0x3db2588f	0.087082975
3	0x3dcac1be	0.09900235
4	0x3dabe772	0.08393754
5	0x3d880519	0.06641597
6	0x3d7879d8	0.060663074
7	0xbd7983d6	-0.060916744
8	0xbd69c26e	-0.05707019
9	0xbda1d251	-0.07901443
10	0x3db55985	0.08854965
11	0xbd760fa9	-0.06007353
12	0xbdf4bb0c	-0.11949739
13	0xbde0113c	-0.10940787
14	0xbd489bf3	-0.04897685
15	0x3d3dc860	0.04633367
16	0xbd1d6a40	-0.038431406
17	0x3cce52a4	0.02518589
18	0x3d6039ad	0.054742504
19	0xbe18bea2	-0.1491647
20	0xbd5b2842	-0.05350519
21	0x3d4b4a50	0.049631417
22	0x3dfd8a17	0.12379854
23	0x3d9abc68	0.07555467
24	0xbdb0723a	-0.08615537
25	0xbd93c5c1	-0.07215453
26	0xbd339821	-0.043846253
27	0xbd99d6b0	-0.075116515
28	0xbda2a43a	-0.0794148
29	0x3d77c8be	0.060494177
30	0x3d8d748d	0.06906996
31	0x3d95572a	0.07292016
32	0x3db79ad1	0.08965076
33	0x3db06a88	0.08614069
34	0x3da8b808	0.08238226
35	0xba3bf0c6	-0.0007169362
36	0xbd23e2f8	-0.040011376
37	0x3d8db268	0.06918794
38	0xbd861ca7	-0.06548434
39	0x3d95f08f	0.073212735
40	0x3ddedd65	0.108820714
41	0x3d7e22f3	0.06204505
42	0x3d8124da	0.06305857
43	0x3e051df7	0.12999712
44	0x3d3e0d1f	0.046399232
45	0x3de7f3ae	0.11325775
46	0x3d28e62c	0.041235134
47	0x3ded027d	0.1157274
48	0xbd9110eb	-0.07083305
49	0xbe0d67e8	-0.13809168
50	0x3d8031b9	0.06259484
51	0x3dea39dc	0.11436817
52	0x3d88ed40	0.06685877
53	0xbdd72135	-0.105043806
54	0xbd4d6afe	-0.050150864
55	0x3da20fec	0.07913193
56	0xbcc31cfa	-0.023817528
57	0x3db4d3b1	0.088294394
58	0xbd33f38c	-0.043933436
59	0xbd241616	-0.040060125
60	0xbd5f0b14	-0.054453924
61	0x3d45d9b8	0.048303336
62	0x3d331d69	0.04372922
63	0xbdc396fb	-0.095502816
64	0xbdb05dc4	-0.086116344
65	0xbd76e0f1	-0.060273115
66	0xbd9dd268	-0.077061474
67	0xbd6b0cd8	-0.057385296
68	0xbdb4941d	-0.08817313
69	0x3d7ad608	0.061239272
70	0xbd424597	-0.047429647
71	0xbd8c876b	-0.068617664
72	0x3d9b6a95	0.07588688
73	0x3da2cc83	0.07949164
74	0xbd8ae8a3	-0.06782653
75	0x3dc46b11	0.09590734
76	0x3dc30420	0.09522271
77	0x3dd31cc8	0.10308224
78	0xbd0ca840	-0.034340143
79	0xbdb1279d	-0.08650134
80	0xbd128c27	-0.03577819
81	0xbd95a349	-0.07306535
82	0xbd2e0559	-0.04248557
83	0x3da42417	0.08014696
84	0x3ce2712b	0.027641853
85	0xbda6ea8c	-0.08150205
86	0x3d9417d0	0.072311044
87	0xbda71a03	-0.08159258
88	0xbd0bb3af	-0.034106907
89	0xbd5d9cef	-0.05410474
90	0x3d91a369	0.07111246
91	0xbd51154f	-0.051045712
92	0xbdbb0b01	-0.09132958
93	0x3d90fc20	0.07079339
94	0x3da1107f	0.078644745
95	0x3dd3ffe9	0.10351545
96	0x3dd48173	0.10376253
97	0xbdc510e0	-0.09622359
98	0xbdd79471	-0.1052636
99	0x3d9ec637	0.0775265
100	0x3dcbf2c8	0.09958416
101	0xbd803e63	-0.06261899
102	0x3d9030f8	0.0704059
103	0xbe29d0f6	-0.16583619
104	0xbd168277	-0.036745515
105	0xbd9e176f	-0.07719313
106	0xbd91a8bc	-0.07112262
107	0xbe3912d9	-0.18073596
108	0x3dc11efc	0.09429738
109	0x3db3395a	0.08751173
110	0x3d8ab938	0.06773609
111	0x3dbcb18f	0.09213554
112	0x3dbb90a0	0.091584444
113	0xbdfe5703	-0.1241894
114	0xbd85ffac	-0.06542906
115	0xbd699d85	-0.057034988
116	0xbdbd445f	-0.092415564
117	0x3d5ac195	0.05340727
118	0xbd9c719b	-0.07638856
119	0xbd8b18fe	-0.06791876
120	0x3dbfeae0	0.09370971
121	0x3d9c0038	0.07617229
122	0x3d99fcef	0.075189464
123	0xbda2f512	-0.079569
124	0x3cc1e1b3	0.023667192
125	0xbdc2b044	-0.09506276
126	0xbd4dcb4d	-0.05024271
127	0xbd5634ea	-0.052296557

linear1.weight f4 [128, 128]
0	0xbe320b2b	-0.17387073
1	0xbde6e249	-0.11273629
2	0x3e50fafb	0.20408241
3	0xbd87e916	-0.066362545
4	0xbdf71343	-0.12064221
5	0xbd931acc	-0.071828455
6	0xbe42dd8f	-0.1902983
7	0xbdfd150d	-0.12357531
8	0x3e163d67	0.1467186
9	0xbdde0b51	-0.10842002
10	0xbc2c7922	-0.010526927
11	0x3e04ff18	0.12987936
12	0x3e2fa325	0.17152078
13	0xbd34b1ef	-0.044115003
14	0xbd56b251	-0.05241615
15	0x3e74dc7a	0.2391223
16	0xbe44ead6	-0.19230208
17	0xbc96e60e	-0.018420245
18	0xbd9c1b47	-0.0762239
19	0x3d43e861	0.047829036
20	0x3e6898d2	0.22714546
21	0xbe38ef49	-0.1806003
22	0xbe2d9d74	-0.16954595
23	0x3e2c8136	0.16846165
24	0xbd264a7e	-0.040598385
25	0xbd507e12	-0.05090148
26	0x3d9bcc51	0.0760733
27	0xbd820669	-0.06348879
28	0x3deb220c	0.11481103
29	0xbe1c45f4	-0.1526106
30	0xbc16d965	-0.009207104
31	0xbdae314d	-0.08505497
32	0x3db7a791	0.08967508
33	0xbd834d28	-0.06411201
34	0xbe21c295	-0.15796883
35	0x3e084a33	0.13309555
36	0xbdc016f2	-0.093793765
37	0xbe12e9d3	-0.1434701
38	0x3c76be93	0.015060085
39	0x3e5a88f2	0.21341303
40	0x3d6f825c	0.05847393
41	0xbd4523a8	-0.048129708
42	0xbdd7cd59	-0.10537214
43	0xbe52b4be	-0.2057676
44	0xbe28b6c7	-0.16475974
45	0x3d8bbd72	0.06823243
46	0xbdac0ffc	-0.08401486
47	0xbd01aae0	-0.0316571
48	0xbe2d90d8	-0.16949785
49	0xbe09ed94	-0.13469535
50	0xbe30c019	-0.1726078
51	0xbe776de4	-0.24163014
52	0x3d8f48e9	0.069963284
53	0xbe27dadf	-0.16392086
54	0xbdda207a	-0.10650726
55	0x3da52a2a	0.08064683
56	0x3e3518bd	0.17685218
57	0xbddc712b	-0.107637726
58	0x3e46276c	0.19350976
59	0xb95d4e16	-0.00021105292
60	0xbc89c6ad	-0.016818369
61	0x3e0efc9e	0.13963553
62	0xbe49dcbb	-0.19713108
63	0xbe2c5754	-0.16830188
64	0xbd250eda	-0.040297367
65	0x3c898693	0.016787803
66	0xbdcc155e	-0.09965013
67	0x3dfd5cc8	0.12371212
68	0x3e45c42a	0.19313112
69	0x3e1de8a4	0.15420777
70	0xbe5c509f	-0.2151513
71	0x3e3d87cc	0.18508834
72	0xbe4a6169	-0.19763722
73	0xbc781906	-0.015142685
74	0x3ddb660b	0.107128225
75	0xbdc4d27e	-0.09610461
76	0x3e3b921a	0.18317452
77	0x3e15154b	0.14558904
78	0x3e1d9f49	0.15392794
79	0xbe463925	-0.19357736
80	0x3d9fd1fb	0.078037225
81	0xbe70c2f3	-0.23511867
82	0x3cd72e75	0.02626727
83	0x3dbcb7c9	0.09214742
84	0xbda41a20	-0.080127954
85	0x3d493aed	0.04912846
86	0x3de01d99	0.10943145
87	0x3d5ef7a7	0.0544354
88	0x3a929a6a	0.0011184935
89	0x3d10a24e	0.035311036
90	0xbd4ab2aa	-0.049486794
91	0xbdc06d76	-0.09395878
92	0x3d831a06	0.06401448
93	0x3d2d6809	0.042335544
94	0x3d972700	0.073804855
95	0x3be41ced	0.006961456
96	0x3ddcd1cf	0.10782205
97	0x3cfd6aff	0.030934809
98	0xbe082e6d	-0.1329896
99	0x3e8aeafc	0.27132404
100	0x3dddb157	0.108248405
101	0xbe6f6435	-0.2337807
102	0x3daaedab	0.08346113
103	0x3cd74c6c	0.026281558
104	0x3d984b5e	0.0743625
105	0xbd8434d7	-0.06455391
106	0xbe11b2e2	-0.14228395
107	0xbd813add	-0.063100554
108	0x3d578631	0.05261821
109	0x3c799311	0.015232817
110	0xbe06b4ad	-0.1315486
111	0x3dbd5d09	0.09246261
112	0x3d46428f	0.04840332
113	0xbc448111	-0.011993662
114	0xbd9bb1e3	-0.076022886
115	0x3d13a996	0.0360504
116	0x3e0c9663	0.13729243
117	0xbce869d2	-0.028370772
118	0x3dff9a5b	0.12480613
119	0xbd289cb9	-0.041165087
120	0x3dd95388	0.106116354
121	0x3e26abc1	0.16276456
122	0x3d5bcf50	0.053664505
123	0x3e3955f3	0.18099193
124	0xbe5b72a6	-0.21430454
125	0xbd193bc7	-0.037410524
126	0x3db7babb	0.08971163
127	0x3e020c66	0.12700042
128	0xbde3fcf5	-0.11132232
129	0xbdddaafe	-0.1082363
130	0xbcb03529	-0.021509724
131	0x3e510f85	0.20416076
132	0xbd544ba4	-0.05182995
133	0xbddb81a7	-0.107180886
134	0xbe3e3599	-0.18575133
135	0xbbe4303a	-0.006963757
136	0xbcae2293	-0.02125672
137	0x3d68b7ca	0.0568159
138	0x3e2700c6	0.16308889
139	0x3d8d8e7f	0.069119446
140	0x3e7390e5	0.23785742
141	0x3de8f375	0.11374561
142	0xbded4d59	-0.115870185
143	0xbd1e2f53	-0.03861935
144	0xbe707f82	-0.2348614
145	0x3c2fad1c	0.010722425
146	0xbe1e1b33	-0.15440063
147	0xbd1b8668	-0.037969977
148	0x3d7d08e0	0.061776042
149	0xbe2eebe1	-0.17082168
150	0x3cdefcc7	0.027220143
151	0x3c125f23	0.008933815
152	0xbd866371	-0.06561936
153	0xbce5cf2e	-0.028052893
154	0x3b27016d	0.0025483028
155	0xbcddaae3	-0.027059024
156	0x3d8cbffc	0.068725556
157	0xbe16138b	-0.14655893
158	0xbc7590c9	-0.014988133
159	0xbde30fad	-0.11086974
160	0xbccf18a2	-0.0252803
161	0x3c657a1d	0.014006165
162	0xbe19ea21	-0.1503072
163	0xbdb5f24c	-0.08884105
164	0x3e1c53c3	0.15266328
165	0xbd8239fd	-0.06358717
166	0x3d5fac62	0.054607756
167	0xbda0e408	-0.078559935
168	0xbcf355f2	-0.029704068
169	0xbc862d8c	-0.01637914
170	0xbd780b96	-0.060557924
171	0xbe2249eb	-0.1584851
172	0xbce7ead4	-0.028310217
173	0xbdb5fd4a	-0.08886202
174	0xbde19e1d	-0.11016486
175	0xbe08b660	-0.1335082
176	0xbe37bb14	-0.17942458
177	0x3debbf27	0.11511069
178	0xbc2a5719	-0.010396742
179	0xbd2c2882	-0.04203082
180	0xbd8cbdbb	-0.06872126
181	0x3cd67a82	0.026181463
182	0x3dac998b	0.084277235
183	0x3c90ab53	0.017659819
184	0xbd60dec6	-0.054899953
185	0xbe02195d	-0.12704988
186	0x3dbd78f4	0.092515856
187	0xbd5e771f	-0.05431282
188	0xbce9d861	-0.02854556
189	0xbd9318ca	-0.071824625
190	0xbd82dfcc	-0.06390342
191	0x3dd7b117	0.10531824
192	0x3de02bca	0.10945852
193	0xbd9d6512	-0.07685293
194	0x3d278cb6	0.040905677
195	0x3dc54c05	0.0963364
196	0x3e21e522	0.15810063
197	0xb9dba454	-0.0004189337
198	0xbd8a40ed	-0.06750665
199	0x3e1fcd94	0.15605766
200	0xbd7470e1	-0.059677962
201	0x3db959e1	0.09050346
202	0x3ddf0122	0.10888888
203	0xbdf30fed	-0.11868272
204	0xbd779728	-0.06044689
205	0xbd483167	-0.04887524
206	0x3dcaaddd	0.09896443
207	0xbd2e34e8	-0.042530924
208	0x3d7d6740	0.061866045
209	0x3db88536	0.09009783
210	0x3beccc76	0.007226522
211	0x3c8277b9	0.015926229
212	0x3e237905	0.15964134
213	0x3d720aa6	0.059092186
214	0xbded40eb	-0.11584648
215	0x3d9e90c6	0.07742457
216	0xbd9c6c9b	-0.07637902
217	0x3dbbbc8a	0.0916682
218	0x3e34f5c2	0.17671874
219	0x3d6639ad	0.056207348
220	0x3d1f9145	0.0389569
221	0x3e52fd5b	0.2060446
222	0xbdfba88f	-0.122880094
223	0x3d2857b8	0.04109928
224	0xbd98944a	-0.07450159
225	0xbd3ec775	-0.046576936
226	0xbe23372c	-0.15939015
227	0x3dc8ab6c	0.09798321
228	0xbbe6a5e4	-0.0070388187
229	0xbd86bcb7	-0.06578963
230	0x3ca08f49	0.019599574
231	0x3e08c62f	0.13356851
232	0x3e2a2d16	0.16618761
233	0x3dc3ddd0	0.09563792
234	0xba82f56f	-0.0009991358
235	0x3de90366	0.11377601
236	0xbde8f0d1	-0.11374057
237	0x3db06964	0.08613852
238	0xbe00144e	-0.12507746
239	0xbd5d9a4f	-0.05410224
240	0xbbfe9967	-0.007769752
241	0xbdb973f8	-0.090553224
242	0x3db6ed94	0.08932033
243	0x3de71480	0.11283207
244	0xbd4c5ece	-0.0498951
245	0xbc9343d1	-0.017976673
246	0x3e52e506	0.20595178
247	0xbe423fc4	-0.18969637
248	0xbe011273	-0.12604694
249	0x3e2468bd	0.1605558
250	0xbc32551b	-0.010884549
251	0x3d451c39	0.04812262
252	0xbdcfcb05	-0.10146145
253	0xbd22b766	-0.039725684
254	0x3e23520c	0.15949267
255	0x3dd4e809	0.1039582

linear1.bias f4 [128]
0	0x3d7acfb3	0.061233234
1	0xbd88ae0b	-0.06673821
2	0xba5c618c	-0.00084068696
3	0x3e2d9013	0.16949491
4	0x3daf4d79	0.085596986
5	0x3d7d2e56	0.061811768
6	0xbbbbed3a	-0.0057350667
7	0x3e176b82	0.14787105
8	0xbdb21db7	-0.08697074
9	0x3df94469	0.12171251
10	0x3dfbbf8f	0.12292396
11	0xbda05eae	-0.07830559
12	0x3dc00d44	0.0937753
13	0x3dddc81f	0.10829186
14	0x3ddb5ecb	0.1071144
15	0x3dbb513e	0.09146355
16	0xbddedcec	-0.10881981
17	0xbe0cd57a	-0.1375331
18	0xbd0c2f3e	-0.03422474
19	0x3cfe1a65	0.031018445
20	0xbc47c225	-0.012192284
21	0x3deaa065	0.11456374
22	0xbde210a2	-0.11038329
23	0xbd49b129	-0.04924122
24	0xbd92e1ce	-0.07171975
25	0xbda82327	-0.0820983
26	0x3cd425d3	0.025896942
27	0xbdf7cebb	-0.120999776
28	0xbd466e4f	-0.048445042
29	0xbd41ef89	-0.04734758
30	0xbd45d800	-0.048301697
31	0xbe063677	-0.13106714
32	0xbd9b714c	-0.07589969
33	0x3c16ee90	0.009212151
34	0x3d86189c	0.065476626
35	0xbdec13c4	-0.115272075
36	0xbd4dc974	-0.05024095
37	0xbd83efe1	-0.06442238
38	0xbd1cb76b	-0.03826086
39	0x3c4181d1	0.011810736
40	0x3d2d2c79	0.04227874
41	0x3e1cde76	0.15319237
42	0x3e0b0455	0.13575871
43	0xbc3dad37	-0.011576942
44	0x3d13ce56	0.03608545
45	0x3d6f3b46	0.058406137
46	0x3d1054bd	0.035237063
47	0x3d7ebd89	0.062192474
48	0xbd7416dd	-0.059592117
49	0x3c2773af	0.010220452
50	0x3d96ad0a	0.07357223
51	0x3d01f721	0.03172982
52	0x3d6d1027	0.057876732
53	0x3d5a6fda	0.053329326
54	0xbca5e10a	-0.020248909
55	0xbd4d676f	-0.05014747
56	0x3e0d55f2	0.13802317
57	0xbd1ee849	-0.038795743
58	0x3e1e093a	0.15433207
59	0xbe1ff5de	-0.15621135
60	0xbd172b20	-0.03690636
61	0x3e2a2a40	0.1661768
62	0xbd505101	-0.0508585
63	0x3e0233d4	0.12715083
64	0xbd092ff5	-0.033493
65	0xbe54aeeb	-0.20769851
66	0x3d6beb09	0.057597194
67	0xbdbc11b5	-0.09183065
68	0xbda6118f	-0.08108818
69	0xbdbd7669	-0.092511006
70	0xbb6fa187	-0.0036564784
71	0xbd0070ab	-0.03135745
72	0x3dc1517a	0.094393685
73	0xbc25df79	-0.010124081
74	0xbe1ba662	-0.15200189
75	0xbd559911	-0.05214793
76	0xbd8a8dd8	-0.06765336
77	0x3d5aec51	0.053448025
78	0x3df57c3f	0.11986589
79	0x3d3a07cf	0.045417603
80	0x3d0b3721	0.033988122
81	0xbd23cb9e	-0.039989106
82	0xbe023deb	-0.12718932
83	0xbe4149e5	-0.18875845
84	0x3b3fcfa3	0.0029268048
85	0xbda5c930	-0.08095014
86	0x3df6c294	0.120488316
87	0xbd3b8ec8	-0.045790464
88	0xbda44a7a	-0.08022018
89	0xbca675f8	-0.020319924
90	0xbe0e7296	-0.13910899
91	0xbd0966e8	-0.033545405
92	0xbdb7a58b	-0.08967122
93	0x3d3002bc	0.042971358
94	0xbe47a69a	-0.19497147
95	0xbd814500	-0.06311989
96	0x3dd24e6b	0.10268863
97	0xbc8b3307	-0.016992105
98	0x3bc43728	0.0059880204
99	0x3e1fa383	0.15589719
100	0x3cadb89b	0.02120619
101	0x3d3c4454	0.0459636
102	0x3d385142	0.04499937
103	0xbcea7833	-0.028621769
104	0xbce948d8	-0.028477117
105	0xbe2769bd	-0.1634893
106	0x3d86321d	0.06552527
107	0xbd34a2c2	-0.04410053
108	0x3dde739a	0.10861893
109	0x3e15c41c	0.14625591
110	0x3d5eddb3	0.054410648
111	0xbd783e76	-0.060606442
112	0x394f4f7d	0.0001977067
113	0xbe2ad667	-0.1668335
114	0x3e27dd57	0.16393028
115	0xbd841035	-0.06448404
116	0x3ce00def	0.027350394
117	0xbe6ebf0d	-0.23315068
118	0x3bd349f9	0.006448027
119	0xbd87fb77	-0.0663976
120	0x3d84f9d4	0.064929634
121	0x3e343db0	0.17601657
122	0xbd76dd47	-0.06026962
123	0xbe33678b	-0.17519967
124	0xbe232669	-0.15932621
125	0x3c486ad8	0.012232505
126	0x3e120132	0.14258268
127	0xbd9f4e9a	-0.07778664

linear2.weight f4 [1, 128]
0	0xbdf2c35f	-0.1185367
1	0xbda4c607	-0.08045583
2	0x3dc877e7	0.097884946
3	0x3df10966	0.11769371
4	0xbd3d8486	-0.046268962
5	0x3ca1d5b4	0.019755222
6	0x3d6c7ceb	0.05773632
7	0xbdb182c5	-0.086675204
8	0xbdba7ca6	-0.09105806
9	0x3d125845	0.03572871
10	0xbdbf0c2a	-0.09328492
11	0x3d86e837	0.0658726
12	0xbdab6e70	-0.08370674
13	0x3d370496	0.044682108
14	0x3cbe6716	0.023242515
15	0xbde413d6	-0.11136596
16	0xbda0aea2	-0.078458086
17	0x3d8b102b	0.06790193
18	0x3d5b3532	0.053517528
19	0x3dcfa9bb	0.101397954
20	0xbde4df25	-0.11175374
21	0xbd97299a	-0.07380982
22	0x3da8a2a1	0.08234144
23	0x3d65e7e4	0.05612935
24	0xbd9d51ea	-0.076816395
25	0x3db6e1e9	0.08929808
26	0x3d9041aa	0.070437744
27	0xbdd1fa88	-0.10252863
28	0xbd22fc6d	-0.039791513
29	0xbdb4cc96	-0.08828084
30	0xbd555371	-0.05208153
31	0x3d9e96f4	0.07743636
32	0x3df5e302	0.12006189
33	0x3dfa91e5	0.122348584
34	0xbd98487a	-0.07435699
35	0x3d58d505	0.052937526
36	0xbdc646a8	-0.09681445
37	0x3db728fa	0.089433625
38	0x3d9edb74	0.07756701
39	0x3da3411d	0.07971404
40	0x3dbbb511	0.09165395
41	0xbd437653	-0.047720265
42	0x3d913fd0	0.070922494
43	0x3d492268	0.049105078
44	0xbd5df3de	-0.054187648
45	0x3d4e584c	0.050377175
46	0xbdb6df2c	-0.089292854
47	0x3d6a37ea	0.05718223
48	0x3dc0961d	0.09403632
49	0xbdaa6d88	-0.08321673
50	0xbdaef5f7	-0.08543008
51	0x3da74142	0.08166744
52	0xbdcc79bf	-0.09984159
53	0xbd266cd0	-0.040631115
54	0xbd5b0fbf	-0.053481814
55	0x3dc8161e	0.097698435
56	0xbdb71a08	-0.08940512
57	0x3da43ba2	0.080191866
58	0xbdf2b55c	-0.11850998
59	0xbddf01a2	-0.10888983
60	0xbd5a014e	-0.0532239
61	0xbdbe458e	-0.0929061
62	0x3dde1373	0.108435534
63	0x3ddeb790	0.108748555
64	0xbde8e2f0	-0.1137141
65	0xbd55cb0f	-0.052195605
66	0xbdf428cc	-0.11921844
67	0x3d5411dd	0.05177485
68	0x3ddd6fb5	0.10812322
69	0x3d8874b1	0.06662882
70	0x3d992085	0.07476906
71	0xbdfcb339	-0.123388715
72	0xbdd5badf	-0.104360335
73	0x3dbafbed	0.09130082
74	0x3dbcad48	0.09212738
75	0xbd94287a	-0.07234283
76	0x3da0d6c2	0.07853462
77	0xbd80765d	-0.06272576
78	0xbdb68659	-0.089123435
79	0xbda701dc	-0.081546515
80	0xbdba3016	-0.09091203
81	0xbd990058	-0.07470769
82	0xbdb77fc7	-0.089599185
83	0x3db9b18d	0.09067068
84	0xbdf886c5	-0.1213508
85	0x3da8322e	0.08212696
86	0xbdb03b6c	-0.08605084
87	0x3dd935a6	0.10605936
88	0xbc4f605c	-0.012657251
89	0x3d2b7a4f	0.04186469
90	0x3e1cc262	0.15308526
91	0x3d9497ba	0.07255502
92	0x3d818ee1	0.0632608
93	0xbde327ae	-0.11091553
94	0x3df00294	0.11719242
95	0xbd7f4288	-0.06231931
96	0x3dcb4068	0.09924394
97	0xbda5d433	-0.080971144
98	0xbd5feac1	-0.05466724
99	0xbdcaf525	-0.09910039
100	0xbdb2e9eb	-0.087360226
101	0x3def9018	0.116974056
102	0xbdd8d24b	-0.10586985
103	0xbdb69554	-0.08915201
104	0x3d2515f1	0.040304128
105	0x3df0b262	0.11752774
106	0xbde1f653	-0.11033311
107	0x3d72202c	0.059112713
108	0xbdb1cf32	-0.086820975
109	0xbdb1b620	-0.08677316
110	0x3dbd079c	0.09229967
111	0x3da77a74	0.08177653
112	0xbdbb159a	-0.091349795
113	0xbd855928	-0.06511146
114	0xbdea3bc3	-0.1143718
115	0x3da61658	0.081097305
116	0xbd5714a5	-0.052509923
117	0x3df9c744	0.1219621
118	0xbd8aeea8	-0.06783801
119	0xbd6746bb	-0.05646394
120	0xbda43e0e	-0.080196485
121	0xbdb63672	-0.08897103
122	0x3dd2c640	0.102917194
123	0x3a601caf	0.0008549196
124	0x3dcd49db	0.100238524
125	0xbdacc12b	-0.08435281
126	0xbd8cabb9	-0.06868691
127	0x3dcef5e4	0.10105494
