labml_nn/lstm/LSTM_THz/model_combine_318r1_19.pth (torch, 26025 bytes, 9 tensors)

lstm.weight_ih_l0 f4 [128, 1]
0.06429816 0.1755469 -0.3550867 -0.18392232 -0.06941887 0.30654603 -0.010815643 -0.29815134
0.0514369 -0.11849727 0.21601732 0.16033465 -0.3023838 0.07250085 -0.07832313 0.16152704
0.2499275 0.26964143 -0.013314636 -0.16784938 0.2673666 -0.18369567 -0.2907122 0.12747481
-0.118084244 0.1264931 0.13066629 -0.15003718 0.118197545 0.057980638 -0.13356464 -0.031583976
0.1159733 0.30488592 -0.32599664 -0.017060596 -0.10807613 0.22357108 -0.043928694 -0.018985623
0.06460034 -0.28291342 0.07149944 0.017604368 -0.27879113 0.020647382 0.1829125 -0.016873583
0.044287898 0.076420285 -0.19541778 -0.03332252 -0.042943094 -0.26153436 -0.3052655 0.011921912
0.05565613 0.10957911 0.1893387 -0.1908988 0.23684722 -0.042296287 -0.040310167 0.061853826
-0.3116378 0.3279209 0.14204122 0.32697457 0.1762224 -0.033958003 -0.21418996 0.045367636
0.11410774 -0.21806158 0.025197329 0.06508815 -0.24213624 -0.3291108 0.39028814 0.40773636
0.32377556 -0.00093182403 0.15149435 -0.31487188 0.16641787 0.06685594 -0.10176671 -0.07880926
-0.13857388 -0.25082695 0.18766488 0.10682405 0.2210185 -0.057316326 -0.2799177 -0.3210861
0.047895078 0.2787856 -0.3795193 0.021347227 0.13076799 -0.009405526 -0.24232092 -0.35036892
0.0892785 -0.18187413 0.28842077 -0.11448039 -0.12355871 0.11464632 -0.07682245 0.022388477
0.09253595 0.30095816 0.044282176 -0.025617754 -0.035794422 -0.125745 -0.19072264 0.24613084
-0.09493796 0.058363315 0.18738781 0.06654295 0.16554242 0.1906843 -0.2982475 0.061718863
00000000: c1ae 833d 91c2 333e edcd b5be 2256 3cbe
00000010: 7b2b 8ebd 9af3 9c3e 1834 31bc 4ba7 98be
00000020: 80af 523d b2ae f2bd a533 5d3e c42e 243e
00000030: 0dd2 9abe 537b 943d e167 a0bd 5867 253e
00000040: ffec 7f3e 710e 8a3e a225 5abc b5e0 2bbe
00000050: 46e4 883e b81a 3cbe 3bd8 94be c288 023e
00000060: 27d6 f1bd 6887 013e 62cd 053e 59a3 19be
00000070: 8e11 f23d 1b7d 6d3d 2bc5 08be 335e 01bd
00000080: 6983 ed3d 021a 9c3e 08e9 a6be aac2 8bbc
00000090: 0557 ddbd d1ef 643e 93ee 33bd bd87 9bbc
000000a0: 2f4d 843d 07da 90be 4c6e 923d 0937 903c
000000b0: b6bd 8ebe b324 a93c 6a4d 3b3e 783a 8abc
000000c0: 3a67 353d 3d82 9c3d 991b 48be 327d 08bd
000000d0: 19e5 2fbd d5e7 85be c24b 9cbe 2054 433c
000000e0: aff7 633d 036b e03d 01e2 413e fa7a 43be
000000f0: 1488 723e df3e 2dbd 461c 25bd 705a 7d3d
00000100: fd8e 9fbe 40e5 a73e 4173 113e 3669 a73e
00000110: a573 343e 8c17 0bbd 9d54 5bbe 6ad3 393d
00000120: 52b1 e93d 894b 5fbe a16a ce3c f04c 853d
00000130: 90f2 77be 3681 a8be d9d3 c73e d2c2 d03e
00000140: e9c5 a53e a745 74ba 5621 1b3e e336 a1be
00000150: 7269 2a3e c4eb 883d 116b d0bd c066 a1bd
00000160: 50e6 0dbe 646c 80be 392b 403e 91c6 da3d
00000170: ac52 623e 86c4 6abd 5f51 8fbe 6665 a4be
00000180: a12d 443d fcbc 8e3e 5b50 c2be 61e0 ae3c
00000190: 0be8 053e a319 1abc fa22 78be 8e63 b3be
000001a0: a5d7 b63d 363d 3abe e3ab 933e b274 eabd
000001b0: 590c fdbd b1cb ea3d 1755 9dbd 0a68 b73c
000001c0: 7d83 bd3d 3017 9a3e 3a61 353d 53dc d1bc
000001d0: 2c9d 12bd 4cc3 00be cc4c 43be b909 7c3e
000001e0: d56e c2bd 5f0e 6f3d 97e2 3f3e ac47 883d
000001f0: f483 293e bf42 433e e5b3 98be ebcc 7c3d

lstm.weight_hh_l0 f4 [128, 32]
0.19236203 -0.06040568 -0.26072714 -0.018786058 -0.16235624 0.00055853167 -0.0040009962 -0.09525332
0.16448148 -0.1377074 -0.047611576 -0.04139558 0.18106811 0.16170698 -0.17366788 -0.30199352
-0.08791856 -0.05896941 0.0046888324 0.11600524 -0.10657384 0.08881591 -0.011362727 0.030379765
0.090822585 0.095333755 -0.018684026 0.115504965 -0.14938046 -0.089787684 0.10669209 0.057266336
-0.12914751 0.18619302 0.048817374 0.090720415 -0.059209097 -0.062390104 0.06928077 -0.13916565
0.18465318 -0.0698989 0.1923921 0.046636198 -0.06744364 -0.25668123 0.1638201 0.1708996
0.20677306 -0.15432729 -0.11672954 0.06330521 0.11004038 -0.009092805 0.12761731 -0.096171126
0.140755 0.051395074 0.13321148 0.11439683 0.08341679 0.040927947 -0.066493124 -0.023353616
0.28970656 -0.06406106 0.006454773 -0.13995506 0.018031498 -0.029681366 -0.07866682 0.25634438
-0.13035272 0.053073395 0.4175318 0.024514746 -0.26029477 0.14541256 -0.14150345 -0.09568331
-0.0469055 0.18137848 0.033022534 0.10322515 -0.16524713 -0.051286664 0.08892994 -0.009069571
0.3491957 0.10085138 -0.18578401 0.19868308 -0.06596713 0.06021156 -0.074910924 0.011706967
0.15964295 0.048549447 0.035337057 0.0031314837 -0.06525335 -0.02814637 0.023393335 0.15992998
0.04061807 0.09253469 -0.06180561 0.102517605 -0.010587547 0.046243757 -0.10667111 -0.18912683
0.16481516 -0.13173342 -0.14431393 0.0046046847 0.20372303 0.24400361 -0.19245605 -0.22334096
-0.06551659 -0.1896182 0.19820346 -0.054741465 0.010251064 0.052076597 0.25261825 -0.0904528
0.002078848 0.12885393 -0.16599838 0.18671015 0.2630834 -0.080775164 0.032631982 0.11017518
-0.13278076 0.106674165 0.16579738 0.043644294 -0.20724465 -0.05723109 0.13013387 0.05462108
0.13366792 -0.042501785 0.10338701 0.002906142 0.18672515 0.14002623 0.04235454 -0.14541046
0.1093329 0.1402597 -0.15405798 0.23914406 0.06519768 -0.0113847945 -0.17796172 0.026130509
-0.062391117 -0.23435786 -0.014113226 0.19694827 0.143164 0.03958239 0.0019563856 0.14163311
0.03854982 -0.29791173 0.20302053 -0.026038636 -0.2533115 0.1305942 0.107782215 0.038738772
-0.18354282 0.032465 0.083789475 -0.26383212 -0.17640899 -0.047567923 -0.10115234 0.23132035
0.06860659 0.10732084 -0.05000437 0.2916944 -0.058837894 -0.025304813 -0.14649478 -0.23778789
-0.08183504 -0.08949211 0.09032615 0.08093687 -0.06994289 0.14532493 -0.123606175 0.11775245
0.12081904 -0.11674058 -0.16082194 -0.18524113 -0.02729592 -0.27827558 0.4631964 0.1353785
0.21464561 0.10287068 0.03875263 -0.14740056 -0.14136484 0.26080513 -0.09643819 -0.056333106
0.12540734 0.067703545 0.09592657 0.06572786 -0.10348966 0.041495178 -0.16767317 -0.1419333
0.24748796 -0.0008812036 -0.1849047 -0.13236076 0.18677479 -0.041377645 0.03113443 0.2520162
0.053862777 -0.0858377 -0.033328153 0.04734298 -0.013804585 -0.27280566 -0.11961275 -0.14020549
0.052681077 -0.017678937 -0.12843971 -0.17711778 -0.18363617 0.30277124 -0.29549167 -0.1201274
0.20088735 -0.06767668 0.03356442 0.0398197 -0.21247157 0.28958562 -0.19934875 0.039339222
00000000: 8dfa 443e f26b 77bd 077e 85be 38e5 99bc
00000010: b740 26be 6d6a 123a ca1a 83bb 2c14 c3bd
00000020: d56d 283e 2b03 0dbe 5b04 43bd 698e 29bd
00000030: eb69 393e 8496 253e fed5 31be e59e 9abe
00000040: a50e b4bd e889 71bd c7a4 993b 2894 ed3d
00000050: 6343 dabd 1ee5 b53d bb2a 3abc fcde f83c
00000060: 3101 ba3d 583e c33d 3e0f 99bc de8d ec3d
00000070: 31f7 18be 9be2 b7bd 6281 da3d 1b90 6a3d
00000080: 3f3f 04be 62a9 3e3e baf4 473d a0cb b93d
00000090: 3d85 72bd c48c 7fbd 14e3 8d3d 7181 0ebe
000000a0: b915 3d3e 2827 8fbd 6f02 453e 9905 3f3d
000000b0: e41f 8abd b96b 83be 75c0 273e 4e00 2f3e
000000c0: 51bc 533e f907 1ebe e60f efbd 29a6 813d
000000d0: da5c e13d fdf9 14bc 1dae 023e 5ef5 c4bd
000000e0: 1422 103e a483 523d 9768 083e e348 ea3d
000000f0: 6cd6 aa3d 10a4 273d 8c2d 88bd 1550 bfbc
00000100: 6b54 943e 7232 83bd 8f82 d33b 6150 0fbe
00000110: cbb6 933c 5626 f3bc 121c a1bd 923f 833e
00000120: 2f7b 05be 7d63 593d bac6 d53e 26d3 c83c
00000130: 5b45 85be 08e7 143e 48e6 10be 9cf5 c3bd
00000140: fb1f 40bd 48bb 393e a342 073d b567 d33d
00000150: 8b36 29be f711 52bd e620 b63d 8a98 14bc
00000160: c7c9 b23e 2b8b ce3d 2a3e 3ebe 9473 4b3e
00000170: c619 87bd 66a0 763d e66a 99bd 94ce 3f3c
00000180: 7179 233e c9db 463d 97bd 103d 9439 4d3b
00000190: 8ca3 85bd 3793 e6bc 61a3 bf3c afc4 233e
000001a0: 225f 263d d482 bd3d e127 7dbd c0f4 d13d
000001b0: 6477 2dbc 186a 3d3d 6276 dabd 77aa 41be
000001c0: 4ec5 283e 20e5 06be 08c7 13be e5e2 963b
000001d0: c59c 503e 15dc 793e 3313 45be 7eb3 64be
000001e0: 902d 86bd 462b 42be d9f5 4a3e 9638 60bd
000001f0: 14f4 273c 454e 553d 2e57 813e 513f b9bd
00000200: 483d 083b 49f2 033e 7bfb 29be f230 3f3e
00000210: deb2 863e 736d a5bd 1da9 053d 86a3 e13d
00000220: aef7 07be fc77 da3d cac6 293e 5cc4 323d
00000230: f137 54be 266b 6abd d041 053e 5bba 5f3d
00000240: 3ee0 083e 5a16 2ebd 92bc d33d f974 3e3b
00000250: e134 3f3e 0963 0f3e f47b 2d3d 7be6 14be
00000260: ede9 df3d 3da0 0f3e 60c1 1dbe 2ee2 743e
00000270: 5c86 853d 4a87 3abc 993b 36be a60f d63c
00000280: d48d 7fbd 82fb 6fbe 293b 67bc cfac 493e
00000290: 9599 123e 2521 223d b436 003b 4508 113e
000002a0: 6be6 1d3d e387 98be 9de4 4f3e fa4e d5bc
000002b0: 0cb2 81be 7cba 053e ecbc dc3d 8cac 1e3d
000002c0: a6f2 3bbe 05fa 043d d199 ab3d 0115 87be
000002d0: 8fa4 34be 95d6 42bd f528 cfbd 3edf 6c3e
000002e0: 9d81 8c3d 07cb db3d 62d1 4cbd f858 953e
000002f0: 0100 71bd 0a4c cfbc ba02 16be ab7e 73be
00000300: 2199 a7bd a447 b7bd ebfc b83d 3bc2 a53d
00000310: 383e 8fbd 0fd0 143e 3c25 fdbd 3228 f13d
00000320: f96f f73d af15 efbd 82ae 24be daaf 3dbe
00000330: b19b dfbc 237a 8ebe 1428 ed3e a9a0 0a3e
00000340: 0fcc 5b3e ddad d23d 14bb 1e3d 2cf0 16be
00000350: f2c1 10be 4088 853e 6381 c5bd 8bbd 66bd
00000360: c86a 003e 28a8 8a3d 2675 c43d 549c 863d
00000370: 63f2 d3bd d9f6 293d 84b2 2bbe f756 11be
00000380: 7c6d 7d3e 9300 67ba a857 3dbe 9489 07be
00000390: e441 3f3e 9b7b 29bd a20d ff3c 4408 813e
000003a0: 379f 5c3d adcb afbd 1a83 08bd b6ea 413d
000003b0: a02c 62bc 2fad 8bbe 88f7 f4bd 0792 0fbe
000003c0: 1dc8 573d 6bd3 90bc b385 03be 5d5e 35be
000003d0: 1f0b 3cbe d504 9b3e af4a 97be 5b05 f6bd
000003e0: 6ab5 4d3e 129a 8abd d87a 093d fb19 233d
000003f0: 2692 59be 9144 943e 1422 4cbe 2a22 213d

lstm.bias_ih_l0 f4 [128]
0.16964653 0.033343863 -0.030863948 -0.0613989 0.046279617 -0.28281504 -0.09504438 -0.023507118
-0.23409522 -0.15241109 -0.035707157 -0.41082937 0.09591423 0.08127735 0.03021683 0.07645793
0.14802945 -0.1049306 -0.18095061 0.03228118 0.10554376 -0.1427342 -0.121365175 -0.2738205
0.037394356 0.05533801 0.11960221 -0.08149659 0.02854832 -0.09720597 0.1672046 -0.012601804
-0.113163 -0.13512237 -0.2916185 -0.14279678 0.047005698 -0.24800359 0.07193194 -0.15615904
-0.050140873 -0.27991757 -0.24067721 -0.2287379 -0.2141029 -0.14817859 -0.13228637 -0.19474402
-0.081048936 -0.023301158 0.07152199 0.13388158 0.14573152 -0.33802703 -0.14893919 -0.21998522
0.07041706 -0.019268276 -0.11937035 -0.12259699 0.13632913 -0.21977164 0.0814961 -0.065614484
-0.041674897 -0.16943672 0.019663863 -0.0008263345 -0.048694193 -0.010549922 0.1440166 -0.017835913
0.08902642 0.008496564 -0.12963866 0.105830885 0.06186546 -0.024064595 0.10981957 0.083876625
-0.046458118 0.11038881 0.109342106 0.004572464 0.10068707 0.1375447 0.08420757 -0.099117994
-0.24676768 -0.18193354 -0.09437216 0.07348667 0.14581093 -0.043672938 0.117151715 0.09327053
-0.02069161 0.05023775 -0.11982202 0.11722029 -0.004859416 -0.28148398 0.014556723 -0.047073305
-0.15988626 -0.35524708 -0.19983007 -0.06194472 -0.09574384 0.043748695 0.064938165 0.075470306
-0.08110791 -0.06534291 0.010213904 -0.11565937 -0.13714391 -0.3188527 -0.082373515 -0.0010070021
0.21576425 0.11280485 -0.04603142 -0.27639532 0.19738278 -0.20434593 -0.03117548 0.122250885
00000000: d2b7 2d3e 9393 083d 64d6 fcbc 6a7d 7bbd
00000010: b28f 3d3d 22cd 90be a1a6 c2bd 0092 c0bc
00000020: a8b6 6fbe a711 1cbe ab41 12bd 3a58 d2be
00000030: ae6e c43d bd74 a63d 4989 f73c fa95 9c3d
00000040: 0895 173e dbe5 d6bd 1e4b 39be 4539 043d
00000050: 5427 d83d ea28 12be 4e8e f8bd 3332 8cbe
00000060: d32a 193d 1caa 623d 01f2 f43d afe7 a6bd
00000070: 2bde e93c ec13 c7bd af37 2b3e cc77 4ebc
00000080: 01c2 e7bd 855d 0abe 054f 95be 5239 12be
00000090: 0c89 403d a7f4 7dbe 0e51 933d 28e8 1fbe
000000a0: 8460 4dbd 5b51 8fbe 1674 76be 453a 6abe
000000b0: ca3d 5bbe 21bc 17be 1476 07be fa6a 47be
000000c0: fcfc a5bd 12e2 bebc 1f7a 923d 4118 093e
000000d0: a53a 153e e111 adbe 8483 18be ce43 61be
000000e0: d236 903d 81d8 9dbc 7178 f4bd 2114 fbbd
000000f0: dd99 0b3e d10b 61be 6de7 a63d e360 86bd
00000100: 4cb3 2abd d280 2dbe 1c16 a13c 5f9e 58ba
00000110: 9073 47bd 94d9 2cbc 1679 133e 9f1c 92bc
00000120: 7c53 b63d 2c35 0b3c ffbf 04be ddbd d83d
00000130: a366 7d3d 1d23 c5bc 15e9 e03d 82c7 ab3d
00000140: de4a 3ebd 8713 e23d c1ee df3d 9cd4 953b
00000150: 0635 ce3d 85d8 0c3e 0575 ac3d 60fe cabd
00000160: abb0 7cbe c94c 3abe 3146 c1bd 2e80 963d
00000170: 764f 153e 65e2 32bd 3ded ef3d 9f04 bf3d
00000180: 7481 a9bc 19c6 4d3d 3f65 f5bd 3111 f03d
00000190: bc3b 9fbb ab1e 90be 527f 6e3c f0cf 40bd
000001a0: 39b9 23be f2e2 b5be 41a0 4cbe bfb9 7dbd
000001b0: 5915 c4bd d531 333d 4dfe 843d 2d90 9a3d
000001c0: e71b a6bd 81d2 85bd 3858 273c d2de ecbd
000001d0: 746f 0cbe a940 a3be 72b3 a8bd 62fd 83ba
000001e0: 4ef1 5c3e 3b06 e73d 718b 3cbd b083 8dbe
000001f0: b61e 4a3e 0f40 51be b863 ffbc ac5e fa3d

lstm.bias_hh_l0 f4 [128]
-0.10423981 -0.17459905 -0.3505355 0.14808588 0.098963074 -0.12049185 -0.12942985 -0.07771006
0.08287319 -0.3261883 -0.117235154 -0.18471287 -0.016700864 -0.03825356 0.056137204 0.26301223
-0.07560482 -0.058669113 -0.30152687 -0.022874072 0.12738428 -0.2146788 -0.0024060432 -0.08217512
0.096674204 -0.14713526 -0.059261885 -0.19192027 0.023481881 -0.16406247 0.15262388 -0.08097546
-0.13561423 -0.010064159 -0.04897401 -0.2518988 -0.24836178 0.0016053572 -0.040156562 -0.079360396
-0.05021149 -0.25380227 -0.33914876 -0.3372822 0.052768614 -0.2383499 -0.13499072 -0.09933362
0.071257964 -0.20185581 -0.043040987 0.006440822 0.13135193 -0.3231607 -0.22016747 -0.20910083
-0.03593223 -0.08244313 0.015124123 0.022808366 -0.038957793 -0.062579274 -0.20554139 -0.07339346
-0.07655811 0.046455294 -0.0044570635 0.080183856 -0.11576628 0.019983439 0.021878047 0.04457696
0.090887845 -0.03807024 0.1747658 0.008914326 0.041018642 0.031118397 -0.084438495 -0.020093119
0.121105455 0.023333784 -0.013365902 0.040775042 -0.0362178 -0.11642395 -0.09013042 -0.064768165
-0.19425343 0.069336616 0.08994132 -0.13953915 0.12285742 0.015794583 0.11978228 0.19889106
0.03995612 -0.029748542 -0.1645525 0.1945664 -0.09788073 0.02751339 0.12808336 -0.16851752
-0.20405756 -0.21434417 -0.27143708 -0.1002986 -0.07972263 -0.11414985 0.19013272 0.07091933
0.025423 -0.37007767 -0.023805697 0.032798305 0.008752165 -0.19060934 -0.026118996 0.026654536
0.1299471 0.18874094 -0.1078996 -0.021612499 0.19640246 -0.31499937 0.0012284075 -0.09718261
00000000: ae7b d5bd 18ca 32be 6479 b3be d3a3 173e
00000010: 27ad ca3d 6ec4 f6bd 4289 04be 7426 9fbd
00000020: 6bb9 a93d 2702 a7be fc18 f0bd 5f25 3dbe
00000030: 40d0 88bc c4af 1cbd 20f0 653d 8aa9 863e
00000040: b3d6 9abd 064f 70bd bb61 9abe 6862 bbbc
00000050: 0671 023e c2d4 5bbe b5ae 1dbb 6e4b a8bd
00000060: 20fd c53d a0aa 16be 97bc 72bd bf86 44be
00000070: 135d c03c feff 27be 6f49 1c3e 76d6 a5bd
00000080: 75de 0abe 24e4 24bc f998 48bd e1f8 80be
00000090: 8d52 7ebe d96a d23a 357b 24bd b487 a2bd
000000a0: 90aa 4dbd 5ff2 81be e8a4 adbe 41b0 acbe
000000b0: e723 583d ff11 74be 023b 0abe 6d6f cbbd
000000c0: b2ef 913d 4ab3 4ebe bf4b 30bd 880d d33b
000000d0: 1f81 063e 5275 a5be 9573 61be 871e 56be
000000e0: ad2d 13bd f2d7 a8bd 2bcb 773c 9cd8 ba3c
000000f0: 3592 1fbd 9029 80bd 7179 52be 4f4f 96bd
00000100: 80ca 9cbd e847 3e3d 8f0c 92bb 6f37 a43d
00000110: df16 edbd 4fb4 a33c 9739 b33c 5596 363d
00000120: 6823 ba3d 8aef 1bbd cef5 323e 650d 123c
00000130: 2a03 283d 02ec fe3c 17ee acbd 539a a4bc
00000140: 2306 f83d 7e26 bf3c a8fc 5abc bb03 273d
00000150: 1e59 14bd ae6f eebd 4c96 b8bd 2ca5 84bd
00000160: 5fea 46be 5b00 8e3d 2833 b83d 5ae3 0ebe
00000170: ac9c fb3d a463 813c 6950 f53d 19aa 4b3e
00000180: 07a9 233d 37b3 f3bc 7380 28be 6a3c 473e
00000190: b175 c8bd c363 e13c 4928 033e db8f 2cbe
000001a0: 77f4 50be 0a7d 5bbe cdf9 8abe 5a69 cdbd
000001b0: 9e45 a3bd 66c7 e9bd 27b2 423e 273e 913d
000001c0: e543 d03c d27a bdbe 2a04 c3bc 8457 063d
000001d0: 3e65 0f3c 182f 43be 81f7 d5bc 9d5a da3c
000001e0: da10 053e 4e45 413e 77fa dcbd b20c b1bc
000001f0: ba1d 493e 9947 a1be 8402 a13a ad07 c7bd

layer_norm.weight f4 [32]
1.0110434 0.98478603 0.81289524 1.0347894 0.8997388 0.8668021 1.0006038 0.9028731
0.9126846 0.8507689 0.9426824 0.8370963 1.0016639 1.0599725 1.0627604 1.1893415
1.0171913 0.8159566 0.8760542 1.0050563 0.9703449 0.86315453 0.8673971 0.8797071
0.9600624 1.0250427 0.9464702 0.8136132 0.9648212 0.8477367 0.9803025 0.94476604
00000000: df69 813f f01a 7c3f e719 503f fb73 843f
00000010: 4855 663f bee6 5d3f c913 803f b122 673f
00000020: b3a5 693f fecb 593f a253 713f f14b 563f
00000030: 8636 803f 2ead 873f 8808 883f 583c 983f
00000040: 5333 823f 88e2 503f 1745 603f afa5 803f
00000050: 8668 783f b2f7 5c3f bd0d 5e3f 7c34 613f
00000060: a6c6 753f 9934 833f df4b 723f f448 503f
00000070: 86fe 763f 4605 593f 1bf5 7a3f 30dc 713f

layer_norm.bias f4 [32]
0.022935292 -0.025157828 0.015458741 0.024379168 0.0075527835 0.085163705 0.003348326 0.064738326
-0.09259577 -0.1430312 -0.008361923 0.023461752 -0.04405961 0.0049054497 0.0032793244 0.007885079
-0.010249545 0.15950105 0.03563598 -0.032993965 0.0040734513 0.045844957 -0.00426043 0.0567437
0.026176509 0.004709127 -0.0142443115 0.034017343 -0.053598206 -0.0544476 -0.030500166 0.028528903
00000000: cbe2 bb3c ca17 cebc a946 7d3c d2b6 c73c
00000010: 577d f73b 4f6a ae3d 976f 5b3b 8795 843d
00000020: daa2 bdbd c576 12be 7200 09bc dc32 c03c
00000030: da77 34bd e5bd a03b efe9 563b 6b30 013c
00000040: b5ed 27bc 3e54 233e 09f7 113d ae24 07bd
00000050: 967a 853b ecc7 3b3d 149b 8bbb 156c 683d
00000060: 1e70 d63c 054f 9a3b f960 69bc c555 0b3d
00000070: cb89 5bbd 7204 5fbd 7cdb f9bc 72b5 e93c

linear1.weight f4 [32, 32]
0.23049672 0.09288939 -0.10165013 -0.19836457 0.11026209 0.18412127 -0.046909712 0.12255878
-0.03402005 -0.14539073 0.21816511 -0.03263426 0.05137095 0.0049099936 -0.17537105 -0.07476304
0.033219293 -0.091416165 -0.029027553 0.03906401 0.06653566 -0.06941058 0.03804589 -0.041547943
-0.12123776 0.18475442 -0.17017671 0.013205601 -0.20398627 -0.11577242 0.08948212 0.18268853
-0.14057225 -0.2806668 -0.035163343 -0.17851683 -0.09858613 -0.04101122 0.24655335 -0.019757617
-0.01692248 -0.08437535 0.03261253 -0.013131014 0.15239663 0.26422983 -0.20057714 -0.1385991
0.009424943 -0.18909717 -0.19471152 0.16717127 0.16238737 0.2289773 0.05625564 -0.14664084
-0.18768018 -0.07843097 0.14789863 -0.09847031 0.065218374 0.19807011 0.20738833 0.25288105
0.10507339 0.011325526 -0.032613385 0.098199904 -0.037547436 -0.059453357 -0.11230668 0.2079745
-0.12881202 -0.1236066 0.1223075 0.093814634 -0.11962474 -0.18464938 -0.067919314 0.09876689
0.07268847 -0.055568166 -0.032677177 -0.16758823 0.11633075 0.16780312 -0.20874089 0.19119793
0.13876055 0.044437736 0.12941833 -0.003908194 -0.06167674 -0.14002319 0.069586694 0.06987574
0.19781291 -0.11055007 0.13328016 -0.27643338 0.016423563 -0.07385182 0.080112405 -0.123023026
-0.14111492 0.25463194 0.037527468 0.021381889 0.06685317 0.06816119 -0.37663543 -0.13493292
-0.10945664 -0.10239875 -0.010081202 0.41282392 -0.07294915 -0.15809007 -0.014267425 0.04151628
-0.012574228 0.037146363 0.09344093 -0.14364794 0.04191889 -0.1983044 0.17121422 0.16244595
0.07658788 0.0111641735 0.11081385 -0.13879076 -0.23309118 0.046983235 0.014263459 -0.061525196
-0.12122421 0.055679087 0.06423111 0.06581387 0.07798335 0.21545258 -0.18807507 -0.07676992
0.06285243 -0.19985333 0.08270339 0.13907745 0.086096615 -0.23908466 0.17369473 -0.081942156
-0.08409451 -0.035510935 0.12999298 -0.16936512 -0.1544475 -0.18220758 -0.15979782 0.21656424
-0.10591229 -0.21817705 -0.028612148 -0.15082271 0.028461128 0.016966404 0.18538283 -0.12707643
0.15000276 0.07203941 0.11568521 0.023662051 0.123791106 0.06797595 -0.100431435 -0.26581302
0.13063185 0.004627759 0.17848535 0.007509262 0.15030767 -0.16953452 0.21679287 -0.13227458
0.21704312 0.07901419 0.10032518 0.007046214 -0.07917925 -0.13686514 0.082083285 0.006806993
0.07471055 -0.100227356 -0.004813672 -0.07204957 -0.07397203 -0.094998986 -0.0719823 -0.11278296
-0.04491803 0.04393322 -0.08646574 0.10580801 0.20087107 -0.105556615 -0.009323981 -0.031162865
0.03614025 -0.031074556 -0.13805448 0.30815434 0.07058622 -0.033964176 0.23746821 -0.14671347
0.10054797 0.15285195 -0.08542875 -0.118548945 0.12033172 0.011977559 0.040649515 0.065419234
0.01828409 -0.1955395 -0.17077439 0.013508249 0.12137922 -0.06181268 0.20775235 -0.06409222
-0.2191546 0.09455417 0.014839314 0.08639125 -0.015771078 0.22209118 -0.06505632 -0.1438102
0.040952623 0.17859894 -0.022732712 0.16471992 -0.22212216 0.04118995 0.11083064 0.054524247
-0.061768163 -0.02226796 0.041687403 -0.03160455 -0.06928376 0.016273791 0.046846442 0.15458362
00000000: 5507 6c3e cb3c be3d f12d d0bd 1520 4bbe
00000010: 17d1 e13d 498a 3c3e 6624 40bd 1900 fb3d
00000020: 9c58 0bbd 4fe1 14be ad66 5f3e 80ab 05bd
00000030: 586a 523d 03e4 a03b 7894 33be 5d1d 99bd
00000040: f410 083d 6638 bbbd 31cb edbc 9501 203d
00000050: d943 883d 2227 8ebd 02d6 1b3d 2d2e 2abd
00000060: 814b f8bd 4330 3d3e ce42 2ebe 4e5c 583c
00000070: c7e1 50be 171a edbd 6742 b73d b412 3b3e
00000080: 2cf2 0fbe 8fb3 8fbe 7007 10bd 1ecd 36be
00000090: 86e7 c9bd 62fb 27bd 7b78 7c3e bada a1bc
000000a0: 03a1 8abc fccc acbd b794 053d 7723 57bc
000000b0: dd0d 1c3e 2249 873e 1864 4dbe ecec 0dbe
000000c0: 136b 1a3c b0a2 41be 7562 47be f22e 2b3e
000000d0: e048 263e 0679 6a3e 506c 663d 0429 16be
000000e0: 3c2f 40be 6ba0 a0bd bd72 173e cdaa c9bd
000000f0: 3691 853d e4d2 4a3e 9b5d 543e a079 813e
00000100: b830 d73d b38e 393c 9d95 05bd 081d c93d
00000110: 57cb 19bd 5d85 73bd 0b01 e6bd 44f7 543e
00000120: 4ce7 03be 7525 fdbd 5b7c fa3d e321 c03d
00000130: d1fd f4bd ba14 3dbe 4819 8bbd 4c46 ca3d
00000140: b1dd 943d 729b 63bd 81d8 05bd 409c 2bbe
00000150: d13e ee3d 95d4 2b3e 2cc0 55be 64c9 433e
00000160: 3f17 0e3e 5804 363d 3d86 043e 4f10 80bb
00000170: c0a0 7cbd 3d62 0fbe 7883 8e3d 031b 8f3d
00000180: 788f 4a3e 1368 e2bd 987a 083e ad88 8dbe
00000190: b58a 863c 9f3f 97bd f911 a43d 7ff3 fbbd
000001a0: 6e80 10be 1e5f 823e 67b6 193d 1229 af3c
000001b0: 51ea 883d 1898 8b3d 5cd6 c0be db2b 0abe
000001c0: ce2a e0bd 70b6 d1bd a02b 25bc a85d d33e
000001d0: 5d66 95bd 5de2 21be ebc1 69bc fa0c 2a3d
000001e0: 2304 4ebc c926 183d f55d bf3d 7218 13be
000001f0: 24b3 2b3d 4f10 4bbe c852 2f3e 3b58 263e
00000200: 1bda 9c3d f0e9 363c 5ff2 e23d 2a1f 0ebe
00000210: 74af 6ebe 7e71 403d 48b1 693c d801 7cbd
00000220: 6644 f8bd c10f 643d 9a8b 833d 6cc9 863d
00000230: bcb5 9f3d 9a9f 5c3e c096 40be 8c39 9dbd
00000240: c6b8 803d 5aa6 4cbe 6560 a93d 526a 0e3e
00000250: 6c53 b03d 9cd2 74be 08dd 313e 4ad1 a7bd
00000260: be39 acbd ea73 11bd e11c 053e 0d6e 2dbe
00000270: 7c27 1ebe a094 3abe 0aa2 23be 04c3 5d3e
00000280: 8be8 d8bd ce69 5fbe 0664 eabc 4571 1abe
00000290: 5027 e93c 21fd 8a3c ffd4 3d3e 5320 02be
000002a0: 539a 193e 6689 933d 5eec ec3d ebd6 c13c
000002b0: 3186 fd3d fa36 8b3d ffae cdbd a518 88be
000002c0: 5bc4 053e 75a4 973b ddc4 363e 4110 f63b
000002d0: 41ea 193e 759a 2dbe f3fe 5d3e fd72 07be
000002e0: 8d40 5e3e 31d2 a13d 4a77 cd3d ede3 e63b
000002f0: bb28 a2bd 6026 0cbe 481b a83d 320d df3b
00000300: d801 993d 0044 cdbd 02bc 9dbb ba8e 93bd
00000310: a67e 97bd d48e c2bd 756b 93bd c1fa e6bd
00000320: f8fb 37bd 52f3 333d f314 b1bd dfb1 d83d
00000330: 25b1 4d3e 112e d8bd 9cc3 18bc 4449 ffbc
00000340: cc07 143d 1190 febc 275e 0dbe 68c6 9d3e
00000350: 828f 903d 051e 0bbd de2a 733e 0e3c 16be
00000360: 18ec cd3d 3985 1c3e 45f5 aebd cac9 f2bd
00000370: 7a70 f63d 863d 443c 1b80 263d 85fa 853d
00000380: 84c8 953c 823b 48be 7bdf 2ebe b451 5d3c
00000390: ab95 f83d 4b2f 7dbd 08bd 543e c842 83bd
000003a0: 106a 60be 9ea5 c13d 9820 733c e5ed b03d
000003b0: 5932 81bc df6b 633e 3f3c 85bd fb42 13be
000003c0: f0bd 273d a4e2 363e f439 babc 57ac 283e
000003d0: fe73 63be cbb6 283d 2dfb e23d d154 5f3d
000003e0: 9d00 7dbd 4c6b b6bc 69c0 2a3d c673 01bd
000003f0: a5e4 8dbd 9d50 853c 0ee2 3f3d 2b4b 1e3e

linear1.bias f4 [32]
0.13229322 0.0054236073 0.037368402 -0.113304466 -0.12939964 0.051174033 0.080336444 -0.02418325
0.15875095 0.11737155 -0.15447694 -0.057980593 0.08035043 0.0050921813 0.025623288 -0.079110175
-0.15315755 -0.026683142 -0.0066159787 0.1134558 0.05415848 -0.025747757 0.090161376 -0.11411886
0.15265334 0.044649642 -0.04796185 0.07729807 0.018034106 0.10731695 -0.21961334 -0.16172872
00000000: e077 073e 84b8 b13b 9c0f 193d 2c0c e8bd
00000010: 5781 04be dd9b 513d 6f87 a43d f31b c6bc
00000020: 9c8f 223e 7f60 f03d 342f 1ebe 0f7d 6dbd
00000030: c48e a43d 50dc a63b eee7 d13c 8404 a2bd
00000040: 55d5 1cbe 9b96 dabc daca d8bb 845b e83d
00000050: 48d5 5d3d f6ec d2bc 87a6 b83d 26b7 e9bd
00000060: 2851 1c3e 8be2 363d a573 44bd 734e 9e3d
00000070: 43bc 933c fdc8 db3d 52e2 60be 379c 25be

linear2.weight f4 [1, 32]
-0.04990359 -0.048278492 0.017741278 -0.011383084 -0.013881368 -0.03610501 -0.017003037 -0.04440955
-0.025174733 -0.102366164 -0.0035039661 0.049305975 0.058109198 -0.079098016 0.11546773 0.0046573076
-0.12886254 0.010116328 -0.1482211 0.05005555 -0.03207965 0.052388676 -0.060157284 0.04923558
-0.043892905 -0.016827893 0.07208636 -0.020967226 0.11120931 -0.0030332608 0.11456909 -0.028145626
00000000: b567 4cbd abbf 45bd 2856 913c 1d80 3abc
00000010: ad6e 63bc d9e2 13bd f449 8bbc cae6 35bd
00000020: 3e3b cebc 5aa5 d1bd cca2 65bb 10f5 493d
00000030: e903 6e3d 24fe a1bd 587a ec3d 549c 983b
00000040: 8bf4 03be f4be 253c 46c7 17be 0c07 4d3d
00000050: f365 03bd 8295 563d 7c67 76bd 3fab 493d
00000060: 0cc9 33bd a6da 89bc 03a2 933d 76c3 abbc
00000070: b5c1 e33d acc9 46bb 33a3 ea3d a891 e6bc
