labml_nn/lstm/LSTM_THz/model_combine_319r2_37.pth (torch, 26025 bytes, 9 tensors)

lstm.weight_ih_l0 f4 [128, 1]
000000 5b 7e 81 3e e6 1a 8e be f8 e3 93 3e ff d8 56 3e
       0.25291714 -0.27754897 0.28884864 0.20981215
000010 55 02 c1 3d 90 f0 85 be 0a be a9 bc 90 40 53 be
       0.09424273 -0.26160097 -0.0207205 -0.20630097
000020 6f 7c a9 bc b8 05 86 3d d2 cc 38 3e 51 a7 e7 bc
       -0.020689217 0.065440595 0.18046883 -0.028278025
000030 a5 43 2e 3c be b0 5b 3e 18 a3 8e be cf b4 a9 bd
       0.010636245 0.2145414 -0.27858806 -0.082864396
000040 60 84 c5 3e de 0c 35 be 9d 5b 8d 3e e7 c0 33 3d
       0.38577557 -0.1768069 0.27608958 0.043885138
000050 78 2a b2 be 35 1f b8 bc d8 d6 b4 3d d7 c4 c6 3d
       -0.34798026 -0.022475818 0.08830041 0.09705513
000060 27 46 8b bc 4a b6 93 3c 81 6d e5 bd 5c 03 95 bd
       -0.017001225 0.018031258 -0.11202527 -0.072760314
000070 13 40 ba 3e 8c 8d 2f be e0 ef 19 bc 5f 08 cc 3d
       0.3637701 -0.1714384 -0.00939557 0.09962534
000080 05 fc 8c 3b 6c 53 af bd ee c1 5b 3e e8 03 ba 3c
       0.004302504 -0.08560833 0.21460697 0.02270694
000090 4a ca 10 3e e7 4a 88 bd af 35 d6 bd e9 c6 fd bd
       0.14139667 -0.066549115 -0.10459458 -0.12391455
0000a0 39 1f 1a 3d ff 9d b0 3d ac fe ef bd ea a4 aa be
       0.037627432 0.08623885 -0.11718497 -0.33328944
0000b0 ee 4c 14 3d 66 f9 0e bd 61 22 95 be 4c 93 99 bd
       0.03620618 -0.034905814 -0.29127792 -0.07498798
0000c0 3d 13 3a 3e b6 70 5c 3d 79 1f 8c 3e f2 9c 19 3e
       0.18171401 0.053818427 0.27367762 0.15001276
0000d0 c1 5f 58 bd 47 08 14 be d7 66 90 3e e1 da 9d bd
       -0.052825693 -0.14456283 0.2820346 -0.077077635
0000e0 77 93 44 3e 46 56 8e be 58 aa 5c 3d 5a 5f 23 3e
       0.19196878 -0.27800196 0.05387339 0.15954342
0000f0 0b d3 4d 3d 65 73 5b be c2 68 0a 3e 2b 96 b6 3e
       0.050250094 -0.21430738 0.13516524 0.35661444
000100 b9 ce 78 3e 2c 0b 9c be 1b aa 96 be 5b 38 ae be
       0.24297608 -0.30477273 -0.29426655 -0.3402737
000110 8c 8f 95 be 85 c2 c1 be f3 e0 50 3e df e6 50 be
       -0.2921108 -0.3784372 0.20398311 -0.2040057
000120 34 2f b4 3e 66 b7 b0 be ea bb f6 3c 1c 3c aa be
       0.35192263 -0.34514922 0.030118901 -0.33248985
000130 f7 78 80 bd c3 e8 c9 3e 8b 80 c3 3d cc 1a 1f 3e
       -0.06273072 0.39435396 0.09546002 0.15537566
000140 48 98 58 3e 2d f7 96 3e 7b 02 4c be fc 06 6b be
       0.2115184 0.29485455 -0.19922821 -0.22951883
000150 96 58 f0 3e 78 4a 27 3d af ce 23 3c 56 ac 17 be
       0.46942586 0.040842503 0.009998008 -0.14811835
000160 ea fa 62 3d 79 09 a7 3d ba cf b5 be fc 39 51 3e
       0.05541507 0.08156104 -0.35510045 0.20432276
000170 7d a6 e2 bd de 5b 95 3e 0c f1 56 3e ba 22 aa be
       -0.11066911 0.29171652 0.2099039 -0.3322962
000180 3f 27 72 3e c8 fd 03 be fd e2 86 3e 68 c5 97 3e
       0.23647784 -0.12889779 0.26345053 0.29642797
000190 26 03 d5 3d c3 9b 2c be 15 be 73 bd bf 69 60 bd
       0.10400991 -0.16856293 -0.05950745 -0.054788347
0001a0 9e bb 75 3e f4 27 22 be 63 12 6b 3d b8 37 1e be
       0.23997352 -0.15835553 0.05739058 -0.15450943
0001b0 fa 0b c0 bd 09 76 29 3e 61 c1 23 be 7a e9 26 be
       -0.09377284 0.16548933 -0.15991737 -0.16300002
0001c0 a7 95 17 3e 03 ea a7 3c 91 78 4e 3a 2b a3 b0 3d
       0.14803182 0.020497328 0.0007876242 0.08624872
0001d0 0d ca 4c be 33 09 45 bd ca 34 85 3e 8b 9b 6a bd
       -0.19998951 -0.048104476 0.26016837 -0.057277244
0001e0 7a e1 8c 3e 2a 8e 7d 3d 23 10 09 3d 6d d8 45 bd
       0.27515775 0.061903156 0.033462655 -0.048302103
0001f0 90 8e c1 3e 85 b3 e3 bd 30 59 22 bc d2 e7 9b 3c
       0.3780408 -0.11118225 -0.009908959 0.019031439

lstm.weight_hh_l0 f4 [128, 32]
000000 8a dc d8 3b ba 9b a7 bd d3 64 dd bd c7 ce 0d 3c
       0.006618087 -0.08183999 -0.10810246 0.008655257
000010 76 b5 4e 3e 43 9e e3 bd fd 91 a4 bd f1 9d e4 3d
       0.2018641 -0.111141704 -0.080356576 0.111629374
000020 ee 42 90 bc 1b 3b 4a bd 91 87 c1 bd 68 81 b3 bd
       -0.01761004 -0.049372774 -0.09449685 -0.08764917
000030 fe 75 df bd 72 cc d4 3d 4a c3 03 be bc b3 ac 3d
       -0.10911177 0.10390557 -0.12867466 0.08432719
000040 6f 3a 25 be 27 c2 1d be 5a 5c 24 3e 3a af 4f 3d
       -0.16135572 -0.15406094 0.16050854 0.05070422
000050 bb fa bf bd 91 89 20 3e bf 91 29 3c 4c 47 9c 3d
       -0.09373995 0.15677477 0.01034969 0.07630786
000060 49 5e 23 3d a0 4e 14 be 74 27 da bd a5 66 3c be
       0.03988484 -0.14483118 -0.10652056 -0.18398531
000070 1b 40 ff 3d d1 bf aa bd 50 d1 34 be 2c ad 0b 3e
       0.12463399 -0.08337367 -0.17657971 0.13640279
000080 da 57 0f 3e 91 48 a0 bd 96 46 12 be 81 eb 66 3d
       0.13998356 -0.07826341 -0.14284739 0.056376938
000090 95 04 a2 3d 76 d4 15 bd e4 c9 83 bd 89 3b 49 be
       0.0791103 -0.03657957 -0.06434992 -0.19651617
0000a0 f5 04 ac 3c 7a 01 fb 3d 35 18 62 3e 8a 06 98 bd
       0.020998457 0.12256141 0.22079547 -0.07423122
0000b0 c9 d6 f7 bd 5a 4a a6 bd 8e 95 ee 3d f3 f7 01 3e
       -0.12101514 -0.0811965 0.11649619 0.12692241
0000c0 ec ac 07 be 4c 6b df bd 2d bb 44 3e 54 0b b0 bd
       -0.13249558 -0.10909137 0.19212027 -0.08595911
0000d0 03 df 3b 3e 51 5a 8b 3b 76 be 8c 3b ce 72 25 3c
       0.18346791 0.00425271 0.0042951657 0.010098172
0000e0 9c a5 44 be 14 69 85 3e 7d 4b 1c 3d c9 59 cd 3c
       -0.192038 0.2605673 0.03815793 0.025067227
0000f0 c8 f5 31 3e d7 36 df 3d 6d 2f 8b bd be dd 82 3d
       0.17378914 0.10899132 -0.06796155 0.0638995
000100 51 2e 37 3e 43 4f 38 be bb e9 27 3e e9 fe c8 be
       0.17888762 -0.17998986 0.16397755 -0.3925698
000110 ea a9 8c bd 9f 44 95 be 01 56 b0 3d 33 a5 78 be
       -0.06868346 -0.29153916 0.08610154 -0.24281769
000120 2a 27 c3 bd 3b 72 7d be 0d b9 2a be b2 d5 86 bd
       -0.09528954 -0.24750607 -0.16672154 -0.06583728
000130 ba 64 b7 3d ab 36 32 3d 85 59 4c 3e b3 35 c0 bb
       0.08954759 0.043509167 0.19956024 -0.0058657764
000140 25 08 4f 3d b9 68 56 3d 33 61 c4 3d 2e d1 8f be
       0.050544877 0.052345965 0.09588852 -0.2808928
000150 41 99 c8 3d a5 5f ef bd bd cd ef 3b 4f 74 c1 bd
       0.09794856 -0.116881646 0.007318227 -0.09446012
000160 1a 3c 86 be 51 b5 1f 3d 0a 86 ab ba bf fd 07 be
       -0.2621773 0.038991276 -0.0013086211 -0.1328039
000170 29 13 e9 3d 3c be b7 bc 4b 13 0d be c6 7a 48 be
       0.11380608 -0.022429578 -0.13776891 -0.19578084
000180 ea e5 3d be 9c 4b 35 3e 26 65 14 3d b7 02 4f 3e
       -0.18544737 0.17704624 0.036229275 0.2021588
000190 0e 6d 4d bd 8d d0 19 3d 7f d3 90 3d 71 40 aa 3e
       -0.05015283 0.037552405 0.0707159 0.3325229
0001a0 d6 c6 ad bc ec 8e 59 3d 41 3b 02 3e 8c fd 0f be
       -0.021212976 0.053114817 0.12717916 -0.14061564
0001b0 8f 7d 7a 3e 52 b3 ab 3c 7c 24 80 3d 48 b5 fd bd
       0.2446196 0.02095953 0.06256959 -0.12388092
0001c0 79 43 d1 bd 4e 32 b7 3d 94 57 71 3d e7 1a 1d bd
       -0.102179475 0.08945142 0.05892141 -0.038355734
0001d0 18 ef 08 bd 7c 9f 98 3d 41 10 4a bb 12 9e 48 3e
       -0.033431143 0.07452294 -0.0030832442 0.19591549
0001e0 78 65 c6 3d ab 0a 01 3e 61 4b 56 3d dc ae 01 be
       0.096873224 0.12601726 0.05231798 -0.1266436
0001f0 fa f1 07 3d 0a ad c6 bd b9 0c 89 bb a6 d8 ff bd
       0.03318975 -0.09700973 -0.004182425 -0.12492494
000200 d0 d2 b1 3d a9 78 01 be 23 0c 95 be d9 a2 ee bd
       0.086827874 -0.12643684 -0.29110822 -0.116521545
000210 f2 69 d0 3d 84 5c b5 bc 09 16 a7 bc 22 ab 7d 3d
       0.101764575 -0.022138841 -0.02039625 0.061930783
000220 66 66 cc bd 9b e7 a6 bd 4e a2 3f 3d 8a f4 4f be
       -0.099804685 -0.08149644 0.046785645 -0.20308128
000230 ab 6f b5 bd f4 f5 ab 3e ee f9 47 3e f6 d9 b3 bd
       -0.088591896 0.33586085 0.19528934 -0.08781807
000240 70 df 63 3e 25 d7 d2 bd 42 fc 8a bd 88 24 0e 3d
       0.22253203 -0.10294942 -0.067863956 0.034702808
000250 48 e4 18 3e 71 49 0f 3e 45 ab ed bd f2 a4 1b 3c
       0.14930832 0.1399286 -0.11604933 0.009499775
000260 03 31 30 3e a3 ba 86 3c ab 7f b3 bd b2 79 f1 bc
       0.17206196 0.016446417 -0.08764585 -0.029476974
000270 46 23 96 3c 31 4a 07 3e 21 f4 60 be 98 f2 ad bd
       0.018327367 0.13211896 -0.21968128 -0.08493537
000280 ee 41 1a be b8 91 64 3d 3b cf 2c be 99 3f d5 bd
       -0.15064213 0.05580303 -0.16875927 -0.10412521
000290 25 d8 c3 3b 70 df 04 be bd b3 f4 bd ea 9e 76 3d
       0.005976694 -0.1297586 -0.11948345 0.060210146
0002a0 2f a3 00 3d 68 11 93 3d 69 3c a9 bc de ac 9f 3d
       0.031405624 0.07181054 -0.020658689 0.07796644
0002b0 1d 1e b7 3c bc 55 ec 3d ad 6d 15 3c 79 22 3c 3d
       0.022353226 0.1153979 0.009120387 0.045931313
0002c0 da cc 1b 3e 37 26 aa 3d e8 cb 07 bd 90 b2 e6 3c
       0.15214863 0.0830807 -0.033153445 0.028161317
0002d0 8d f3 08 bc 85 4a 17 3e 44 e1 06 be 47 af 47 bd
       -0.008358848 0.1477452 -0.1317187 -0.048751142
0002e0 83 2d b2 3d b6 6f 20 bd e8 f2 01 3e 09 a2 19 3e
       0.08700087 -0.039169036 0.12690318 0.15003218
0002f0 88 b3 ca 3d 99 18 64 3e a8 f1 f9 bd a5 f4 0a be
       0.09897524 0.22275008 -0.122042954 -0.13569887
000300 76 92 33 be ae 39 8e bd 1a 53 4d bd e1 a7 80 3e
       -0.17536339 -0.06944595 -0.05012808 0.2512808
000310 1f 16 75 bd c7 ea 3e 3e 61 b2 8a 3c b6 01 89 3d
       -0.05983555 0.18644248 0.01693076 0.066897795
000320 6b f4 2a bd 61 b7 53 3e 1a 16 9a 3c 4c fc a3 bc
       -0.041737 0.20675422 0.018809367 -0.020017765
000330 7a c9 e5 bd 49 84 82 3d 12 4f c4 bd d4 29 99 bc
       -0.11220069 0.06372888 -0.09585394 -0.018696703
000340 ec a4 8d 3d c3 9e c9 bd 07 57 f2 3d 5d 85 6d 3e
       0.06916222 -0.098447345 0.118330054 0.23195405
000350 2f fe 71 3d df 8e 63 be 69 c4 8e bc b8 fb c1 ba
       0.0590803 -0.2222247 -0.01742764 -0.001479975
000360 0a cf e1 3d 87 4e b4 bc 12 31 63 bd 92 ea 89 bd
       0.11025818 -0.022010101 -0.05546672 -0.06734194
000370 dd 59 65 be 69 4e 10 3e 35 96 80 be c8 c2 51 3e
       -0.22397561 0.14092411 -0.251146 0.2048446
000380 8b 83 2a bc 3a ff 89 bd 40 39 8d 3e 5d 1d ce bc
       -0.010407339 -0.06738134 0.2758274 -0.025160486
000390 94 8d 1c bd 47 b6 a8 be 8d 82 d8 bd 38 b3 43 be
       -0.038220957 -0.32951567 -0.105717756 -0.19111335
0003a0 5b 6e 24 bd 7f 77 b0 3c 69 87 05 3e 75 93 df bd
       -0.040144306 0.021541355 0.13039936 -0.10916797
0003b0 8e 6e 28 bd f2 9c 24 bc a9 3d 97 3e db d8 ed 3d
       -0.04112106 -0.010047184 0.2953923 0.116136275
0003c0 07 00 c9 bc 39 6c f9 3d 56 37 b1 3e 73 e5 56 be
       -0.024536146 0.12178845 0.3461253 -0.20985965
0003d0 6a 3c e7 3d d2 8f c0 bd 66 ef 02 3e b9 0d 37 be
       0.1129082 -0.094024315 0.12786636 -0.17876329
0003e0 69 35 2a bc e2 27 7e 3e ce 20 96 be db c4 ae be
       -0.010388711 0.24819902 -0.29321903 -0.34134564
0003f0 52 71 97 3c ef d0 a2 3e b1 ac 68 be e6 e7 11 3d
       0.018486653 0.3180003 -0.22722127 0.035621546

lstm.bias_ih_l0 f4 [128]
000000 87 7a 0e 3e 71 e8 ff 3d 49 72 dc bd 1f 33 20 be
       0.13913928 0.124955066 -0.10763986 -0.15644501
000010 89 24 08 be 97 4a 75 3d 06 1d bc bd 5d 5b 4f be
       -0.13295187 0.059885588 -0.09185223 -0.20249696
000020 78 c4 17 3d ef 1c 00 be c0 5f 5e be 07 48 9d bd
       0.0370526 -0.12511037 -0.21716213 -0.07679754
000030 d6 c6 dc be 44 e3 b1 3d ad 13 70 be cf b4 ff 3c
       -0.4312045 0.086859256 -0.23445006 0.031214146
000040 7b 56 01 be 5f de da bb 17 0f 4b 3d 43 cd 07 3c
       -0.12630646 -0.0066793407 0.049574938 0.008288684
000050 5e 20 e8 3d cc d6 11 3e af 92 f5 bd 88 6f 71 bc
       0.113342986 0.14242095 -0.11990868 -0.014736064
000060 9a 12 ad be 6d 37 95 be 4e d4 7e 3d 0c 1d 0a be
       -0.33803254 -0.2914385 0.06221419 -0.13487643
000070 26 82 07 be 5f 5a 0d be a5 ef 9b 3c 2a 92 ca 3d
       -0.13233241 -0.13804005 0.01903517 0.0989116
000080 2d c6 24 3e fb 1a 3a bb 70 93 74 be f0 a7 a1 bc
       0.16091223 -0.002839743 -0.23884368 -0.0197334
000090 07 78 15 be eb 07 c9 bd da 3a 62 be 6c 95 84 be
       -0.14596568 -0.09815963 -0.22092763 -0.2589525
0000a0 fb 7e 08 3e af a1 45 be 16 12 53 bd 3a ef 0d be
       0.13329689 -0.19299959 -0.05153092 -0.13860789
0000b0 66 d5 2a be 5a 82 4b bc c1 23 1b be d8 e3 e5 bd
       -0.16682968 -0.012421215 -0.15150358 -0.11225098
0000c0 0d fe 84 be 55 7d e1 3d 4f ef 51 3c c3 be 10 3e
       -0.25975075 0.11010233 0.012813403 0.1413527
0000d0 1b 67 09 bd 81 31 e4 bd 80 0c 59 bd e0 1d b7 bd
       -0.033545595 -0.111422546 -0.052990437 -0.08941245
0000e0 02 8e a5 be 69 7e 32 bd c4 1d 97 be d3 3d b5 bb
       -0.32334906 -0.043577585 -0.29514897 -0.0055310517
0000f0 3a be 3b be 69 48 f3 bd 3b c5 63 3c 24 14 08 3e
       -0.18334284 -0.118790455 0.013902004 0.13288933
000100 2f e6 d2 3d 20 3a 10 3e 78 a6 e6 bd 08 56 a9 bc
       0.1029781 0.14084673 -0.1126222 -0.020670906
000110 76 45 d1 ba fc 2a 0a bd 9a fc d9 3c 27 ce 6a 3d
       -0.0015966136 -0.0337324 0.026609708 0.05732551
000120 14 94 4c 3e cf 1a d9 bd 02 c1 c1 3d 32 d2 00 3e
       0.19978362 -0.106008165 0.094606414 0.12580183
000130 7a f8 2b be 95 e7 0c bd 89 b2 ce 3d 1e fb b1 bd
       -0.16794005 -0.03440054 0.10092647 -0.08690475
000140 6d 91 df bd cd 61 16 be 08 0d 42 be 00 af cd bd
       -0.1091641 -0.14685746 -0.18950284 -0.10043144
000150 74 48 fa bd ee 52 63 3e f4 7c a1 3b a3 1c 87 3d
       -0.122208506 0.22199604 0.0049282257 0.06597259
000160 c3 29 5c 3e fe 0e 12 3d 85 61 ae 3d 23 ed ed 3d
       0.21500306 0.03565883 0.08514694 0.11617496
000170 cb 02 f5 bc 9f 0a 27 bd 4c d1 13 3e af 8e e1 bd
       -0.029908558 -0.040781613 0.14435309 -0.11013543
000180 0b 7d 13 bd 36 7a 17 bd 41 55 30 bd 11 32 08 be
       -0.036007922 -0.036981784 -0.043050054 -0.13300349
000190 bd c8 e2 bd 73 77 7b bd 81 46 8c bd e3 0e f2 bd
       -0.11073444 -0.061393213 -0.06849385 -0.11819246
0001a0 79 d4 5a 3e db 9e 49 3d 27 74 75 be 3d d4 28 3c
       0.21370114 0.049223762 -0.2397009 0.010304508
0001b0 8f 07 9b be fc 72 20 3d be 10 4b be 97 17 e7 bc
       -0.30279204 0.039172158 -0.19830605 -0.02820949
0001c0 95 8c 2b be 20 d4 f6 bd 2d ef 7e 3d b4 07 33 be
       -0.16752847 -0.120521784 0.062239815 -0.17483407
0001d0 65 af fa bc 55 12 29 3d de 14 53 bd c2 fb a4 be
       -0.030601213 0.04127725 -0.051533572 -0.32223326
0001e0 1f 63 86 be 75 bb 5d bd b8 c6 de 3d 16 30 49 3c
       -0.26247498 -0.05413385 0.10877746 0.012279531
0001f0 6d 7e 79 be 49 f9 13 bd dc ab 6f bd 3d d2 0c bd
       -0.24364634 -0.03612641 -0.058513507 -0.034380186

lstm.bias_hh_l0 f4 [128]
000000 60 fa 16 bc 40 45 2d 3e 2e 04 0c bd 96 49 4b be
       -0.0092149675 0.16920948 -0.034183674 -0.1985229
000010 fe 8b 46 be 14 3c 4e bd a1 fd 22 3d ff a0 83 be
       -0.1938934 -0.050350264 0.03979266 -0.25708768
000020 15 c9 f6 3d b7 50 00 3d fe a3 4b be 65 bd ee bd
       0.12050072 0.031326976 -0.19886777 -0.11657218
000030 cd 66 92 be f7 09 5b bc a6 4e b0 be b0 a0 17 3e
       -0.28594056 -0.013369075 -0.34435004 0.14807391
000040 06 05 b4 be 1b 09 97 bd af af 58 3e 09 12 07 3e
       -0.35160083 -0.073747836 0.21160768 0.13190474
000050 c4 89 0d bd d4 4d 07 3e e4 85 a0 be 86 9d 21 bd
       -0.03455521 0.13213283 -0.3135215 -0.039456867
000060 d9 a6 cc bd 6f 22 d7 bd ea 7a 29 be 2c 58 c2 3d
       -0.09992761 -0.105046146 -0.16550794 0.09489474
000070 54 bf 21 be bf 71 98 bd f4 6c a1 bd 9d 01 eb 3d
       -0.15795642 -0.0744357 -0.07882109 0.11474917
000080 72 7c dc bd e5 0f 06 3d f4 6f 07 bd 63 88 97 bd
       -0.107659236 0.032730002 -0.03306575 -0.073990606
000090 e2 5b b8 bd 68 12 02 be c6 e7 ab bd 5f bb b4 be
       -0.090019 -0.12702334 -0.08393817 -0.35299203
0000a0 95 16 cc 3d 1e ff 01 3d 25 f4 1f be 96 ce 11 be
       0.09965245 0.03173744 -0.15620477 -0.14238963
0000b0 dd ad 92 be 36 42 76 bc 73 97 21 be b3 a0 1e bd
       -0.28648272 -0.015030434 -0.1578043 -0.038727473
0000c0 f6 67 03 be bd 34 3f be 0a 4c e9 3d 52 3e 83 bd
       -0.12832627 -0.18672462 0.113914564 -0.06408371
0000d0 45 4b f5 bd 2e 17 fd bd 53 0e 6e bd 73 3c 06 be
       -0.11977247 -0.12357937 -0.05811913 -0.13108997
0000e0 8e e5 6e be 3a 02 89 be 49 e2 7a be 59 71 3f 3d
       -0.23329756 -0.2675951 -0.24500383 0.046738956
0000f0 29 d8 91 be 9d 97 16 be d9 15 ee 3c c0 ee 1a be
       -0.2848523 -0.14706273 0.029063152 -0.15130138
000100 f4 97 0f 3c 92 2e 2e 3e 95 98 5f 3d 79 e9 8f bd
       0.008764256 0.17009953 0.054588873 -0.07026953
000110 30 3c 88 3c 61 bd 9d 3d 78 6a ec 3d dc 5d e5 3c
       0.016630262 0.07702137 0.11543745 0.027998857
000120 e0 c1 5c 3e 79 5a 07 3e bb af c9 bd 81 ee 4d 3e
       0.21558332 0.13218106 -0.09847971 0.20110513
000130 90 c3 0c 3e e3 72 c6 bc 50 af 9e bc 48 86 2b be
       0.13746476 -0.024224704 -0.019370705 -0.16750443
000140 6c 33 9a bc 8f 7d 9b 3c b9 57 1e be 5d 31 cc 3d
       -0.018823348 0.01898077 -0.15463151 0.09970353
000150 2d 7b 02 be af 5e a5 3d 60 c2 b5 bd 16 3a cb 3d
       -0.127423 0.080747 -0.08874965 0.099231884
000160 a8 eb f9 3c 0a b0 cd bd 63 f9 4d be 54 23 c0 3d
       0.030507877 -0.100433424 -0.20114665 0.09381738
000170 2d b3 a7 bc 68 6f f7 bd 62 2c bf 3d 2b 47 32 bc
       -0.02047118 -0.12081796 0.09334637 -0.010881226
000180 05 ac a8 3d db 60 0c 3d 56 85 2e 3d 3e 92 b1 bd
       0.08235935 0.034272056 0.042607628 -0.086704716
000190 a3 18 52 be dc a9 50 be b0 2e ac bd 3e 6c 83 be
       -0.2051721 -0.20377296 -0.084073424 -0.2566852
0001a0 63 cc 26 3e 5f b7 a3 bc d2 6b 9f bd 9f 24 91 bd
       0.16288905 -0.0199849 -0.07784237 -0.07087063
0001b0 d4 fd f9 be d5 5d f1 bc 9f 49 e0 bd e0 56 f8 bc
       -0.48826468 -0.029463688 -0.10951542 -0.030314863
0001c0 5d dc 93 bd 1c 43 cc 3d d8 55 34 3e aa d5 ae bc
       -0.07219765 0.099737376 0.17610872 -0.021342117
0001d0 9c 39 2b 3e 90 14 44 3d ab 01 8f be c5 71 68 be
       0.16721195 0.047871172 -0.2793096 -0.2269965
0001e0 1b ea bd be 00 40 89 3a b0 c0 73 bd 31 bf 9c 3d
       -0.3709267 0.0010471344 -0.059509933 0.07653654
0001f0 06 86 f8 bd 85 a6 fb 3d 51 51 4a 3d 32 24 06 3d
       -0.12134938 0.122876205 0.049393956 0.032749362

layer_norm.weight f4 [32]
000000 5b 1d 6e 3f da 78 79 3f 2b c8 5e 3f d6 ea 7d 3f
       0.9301354 0.9745003 0.8702418 0.99186456
000010 49 4a 7b 3f f2 f4 81 3f 7c 34 64 3f 48 9e 68 3f
       0.98160225 1.0152876 0.89142585 0.9086652
000020 fe 25 82 3f 28 5d 7d 3f 47 19 53 3f 20 d0 83 3f
       1.0167844 0.9897027 0.82460445 1.029789
000030 f8 4a 41 3f 08 c3 8b 3f f7 d4 66 3f 8a d5 3e 3f
       0.7550502 1.0918894 0.9016871 0.74544585
000040 85 f9 5a 3f 22 ac 64 3f fc 03 6c 3f c0 cc 77 3f
       0.85536987 0.89325154 0.9219358 0.967968
000050 91 47 85 3f c5 f7 6a 3f 69 0a 6c 3f 6f ec 5a 3f
       1.0412465 0.91784316 0.92203385 0.8551702
000060 e3 fb 6b 3f 0d 57 58 3f 84 18 7c 3f 4e 19 72 3f
       0.92181224 0.8450783 0.9847491 0.9456986
000070 da 83 3f 3f 3c c2 6f 3f e3 1d 71 3f 93 6c 81 3f
       0.74810565 0.93655753 0.9418623 1.0111259

layer_norm.bias f4 [32]
000000 90 62 74 bc 23 1f cf bb 96 04 66 3d d6 fb 7e 3d
       -0.014916077 -0.0063208505 0.056156717 0.06225189
000010 3e 83 80 3d 8e 5e c6 3c ae 1b 87 bd 1d 3b e7 bb
       0.062750325 0.024215009 -0.06597076 -0.0070566074
000020 52 76 42 bb ce 5e 40 3d 15 0d 8d 3d 07 97 b8 3c
       -0.0029672575 0.046965413 0.06887261 0.022532953
000030 64 a9 ba 3d b5 dc 3c 3d 8f 58 4f 3d a8 8e 90 3e
       0.0911434 0.04610892 0.050621565 0.28233838
000040 d2 e3 5e 3d be 91 1c bd 4a 37 fe 3c fc 01 2e 3c
       0.054416485 -0.038224928 0.031032223 0.01062059
000050 cd 36 0c bc 36 a8 16 bd 5a 51 cc 3c 7e 92 8a 3c
       -0.008557987 -0.036781512 0.024941135 0.016915556
000060 cc 94 17 3d 85 46 8c 3d c5 68 9c 3c 69 65 25 bc
       0.037007138 0.06849388 0.019092927 -0.010094979
000070 3e 77 55 bd 67 6f 08 3a 6d 95 61 3c 88 ff 3a 3c
       -0.05211567 0.00052045885 0.013768536 0.011413462

linear1.weight f4 [32, 32]
000000 25 c1 81 3d d7 4b b1 bd ba 00 90 bd 38 bd 01 be
       0.063356675 -0.086570434 -0.070313886 -0.12669837
000010 fd 66 fc bd 17 ad 3b 3b 13 0d 4b 3e 50 4f fb be
       -0.12324331 0.0028637105 0.19829206 -0.49083948
000020 c0 ef 56 3d ac bb 93 bd 80 84 74 bb 38 f1 0b 3e
       0.052474737 -0.0721353 -0.0037310421 0.13666236
000030 b7 20 bc 3d 0e 69 d9 3b d2 3f da 3d b7 7d b3 3d
       0.09185927 0.006634838 0.10656704 0.087642126
000040 51 86 8f bd 02 0f 05 3d 54 b3 23 be ed 80 3e bd
       -0.07008041 0.032485016 -0.15986377 -0.046509672
000050 4b 07 02 bd 06 ca 03 be e6 0f 9e bc 89 d5 f9 bc
       -0.031745236 -0.12870035 -0.01929469 -0.03049733
000060 42 3a 67 3d eb f8 27 be 1c ce 09 bf 61 1d bd 3d
       0.056452043 -0.16403548 -0.5383012 0.09234119
000070 f3 7c 0d be 35 78 2d bd b1 29 2b 3c f7 ad 8c be
       -0.13817196 -0.042350966 0.010446952 -0.27476475
000080 9f 1e 00 3e be 1f 2b 3e 88 ce b5 3e f9 74 23 3e
       0.12511681 0.16711327 0.35509133 0.1596259
000090 bd 8d 09 3d 74 85 15 3d 71 e0 1a be 84 0a 27 be
       0.033582438 0.036504224 -0.1512468 -0.16312605
0000a0 3e ff 08 be 13 10 09 be 2a 6f 79 bd 83 fc e8 3c
       -0.13378617 -0.13385038 -0.06089703 0.02844072
0000b0 5d 8c 06 be 2c 50 40 be 26 21 fa 3d 66 dd 87 3d
       -0.13139482 -0.18780583 0.12213354 0.06634025
0000c0 b4 88 37 be 2d 4a 85 3e 2a cf 89 bd 45 8a fe bc
       -0.17923242 0.26033154 -0.067289665 -0.031071791
0000d0 72 b7 38 be ea d5 9b bd 19 11 b5 bc b0 43 63 be
       -0.18038729 -0.0760916 -0.02210288 -0.2219379
0000e0 cc dc bc bd 4a 47 0c be 6b ab 88 3d 70 54 95 3d
       -0.09221801 -0.1369907 0.066733204 0.07291496
0000f0 c4 72 4c 3e b1 7d eb bb 97 be fc 3d 0e bb 0a be
       0.19965655 -0.0071866144 0.1234104 -0.13547918
000100 53 47 87 be 07 64 98 3b cd 0e ed bc 12 69 f3 3d
       -0.26421604 0.004650596 -0.028937722 0.11885275
000110 37 ef 71 3e a9 e6 2b bc e5 eb cc bc b8 6b 83 bd
       0.2362641 -0.010492005 -0.025014827 -0.0641703
000120 6e c6 b2 be d8 49 0b 3e ee 18 0a 3e e7 f0 46 bd
       -0.34917015 0.13602388 0.13486072 -0.048569586
000130 25 ae 12 3d 42 da d2 bd 61 72 94 bb e0 8e 65 bd
       0.03581061 -0.102955356 -0.0045302366 -0.05604446
000140 d3 6b 6b 3d 19 41 23 be d7 d1 8f 3e 78 f0 95 3d
       0.057475876 -0.15942802 0.28089783 0.073212564
000150 c5 25 28 bc e6 66 fb bd 31 17 7c 3c cc cd cb 3c
       -0.010262911 -0.12275486 0.015386389 0.024878405
000160 80 e0 4d 3e 28 88 18 bd 8b ad 38 3e 6f 99 19 be
       0.20105171 -0.037239224 0.18034951 -0.14999937
000170 16 e0 52 be b2 8b b4 3d 8d 9e 9d be 00 36 ac 3e
       -0.20593295 0.08815707 -0.30785027 0.3363495
000180 41 44 f4 bc aa a3 c1 bd 0c 17 1e 3e 5c fe 31 be
       -0.029817702 -0.094550446 0.15438479 -0.17382187
000190 f5 14 a2 bd fc 71 0b be 7a 83 ee 3d 5d 00 d2 be
       -0.079141535 -0.136177 0.11646171 -0.41015902
0001a0 d2 44 88 3e b3 e6 ab be b6 20 e1 39 e5 8d ff 3d
       0.26615006 -0.33574447 0.00042939716 0.12478236
0001b0 10 74 0d 3e 9c 97 7d 3e be 83 0b 3d 62 0e c2 3d
       0.13813806 0.24764866 0.034061186 0.094753996
0001c0 c5 d6 6f be 24 00 60 3e 0f 29 58 bd a6 20 12 bd
       -0.23421772 0.21875054 -0.05277353 -0.035675667
0001d0 0c c7 d9 bd e9 19 4a 3d 65 8c 54 3d 6f 4c e5 bd
       -0.10633668 0.049341116 0.051891703 -0.11196219
0001e0 27 79 33 3d 5a 8b 83 be df 0d 06 bf 3c f9 ab 3d
       0.04381671 -0.25692254 -0.52364916 0.08397147
0001f0 fa f5 7c bd b7 bd 52 bc eb 9f 95 3d 06 34 04 be
       -0.06175802 -0.012862614 0.073058926 -0.1291047
000200 b8 17 22 3e b2 f4 f6 3d c8 3b 86 be 16 f2 3b be
       0.1582936 0.12058391 -0.26217484 -0.18354067
000210 69 f2 bd 3d f4 41 fb bd 44 b0 52 3e 31 4d 02 3b
       0.09274752 -0.12268439 0.20575052 0.0019882435
000220 9e 71 0d bc 8c ff db 3c 6f 36 a1 3d 1d 62 f1 3d
       -0.0086330455 0.026855253 0.078717105 0.11786292
000230 87 2d 06 bc d5 68 40 3d a0 55 8a bd 59 74 84 3d
       -0.0081895655 0.046974976 -0.06754613 0.06467504
000240 9d 84 26 3a 72 75 1a 3c d6 4e 7e be 18 f7 5c be
       0.00063521584 0.009427415 -0.24834761 -0.21578634
000250 45 56 8a 3d 78 1d 37 3e f8 45 de bc 02 23 ee 3d
       0.06754736 0.17882335 -0.027132973 0.11627771
000260 44 00 8d 3c 81 5d 07 be f8 85 8f 3d 71 2f 04 3e
       0.01721204 -0.13219263 0.070079744 0.12908722
000270 0c 77 a7 bd 4d 51 94 bc 07 9b f5 3d 43 d1 88 be
       -0.08177003 -0.018105173 0.1199246 -0.26722154
000280 30 43 1d bc c2 9d 06 3d 96 3e f4 3d ee 69 4f bd
       -0.009598538 0.032865293 0.11926 -0.05063813
000290 5d c8 03 be 7f 51 ce bc 7d 9d 2f be ef fd 20 3d
       -0.12869401 -0.025185345 -0.17149921 0.03930467
0002a0 01 6a 6c be bf ea c3 3d 74 4c ad 3c 65 4b 07 be
       -0.23087312 0.09566259 0.02115462 -0.13212354
0002b0 34 39 9f 39 ab fc 0f be 4b 40 96 bc 93 3c 26 3b
       0.00030369463 -0.14061229 -0.018341204 0.0025365695
0002c0 db bd 03 3d 9a 02 81 bd 85 ca 8f 3c 04 21 82 bb
       0.032163482 -0.06299324 0.017552624 -0.003971221
0002d0 02 bd 1b be 77 44 1e be 2b fe 0b 3e 2c d9 71 3d
       -0.1520882 -0.15455805 0.13671176 0.059045002
0002e0 60 f0 86 ba 55 5e 95 bd c5 c0 06 3d 3e 11 e5 bd
       -0.0010295026 -0.07293383 0.032898683 -0.11184929
0002f0 68 66 49 3e 29 f1 2c be 12 3b 1c be 9d 89 31 3e
       0.19667971 -0.1688887 -0.15256909 0.17337652
000300 05 7f 49 bd 3b dd 15 bd 2e f7 48 be 7e ff 80 bd
       -0.0491934 -0.036587935 -0.19625542 -0.06298731
000310 61 c6 1d be 1e 73 92 be 3a 72 a8 3c 8f 95 cf bd
       -0.15407707 -0.28603452 0.02056228 -0.10135948
000320 c7 ee ae bd 35 47 fc 3c 36 ed 63 bd 4a eb 64 be
       -0.08541637 0.030795673 -0.055646144 -0.2235538
000330 79 01 0a 3e 49 68 8c 3d 57 b9 8b 3d 0c 9d 31 3c
       0.13477124 0.06855828 0.0682246 0.010840666
000340 90 a0 47 bd 17 be 43 3e c2 5f 44 be c3 0f 2c 3e
       -0.04873711 0.19115482 -0.19177154 0.16802888
000350 cb 7b 3a 3e 71 ec 13 be 69 73 85 be a8 2b 4b bb
       0.18211286 -0.14445664 -0.26064613 -0.0031001363
000360 a0 f8 2c bd 43 f0 26 3d cf 21 40 be 64 47 12 bd
       -0.042229295 0.040756475 -0.18762897 -0.035712615
000370 b6 62 96 bc ae 25 75 3c 45 b8 74 3d 63 c7 10 be
       -0.018357616 0.014962597 0.059746046 -0.1413856
000380 00 1a 16 3e 01 67 0c bd 9a 44 89 bc 7c 13 2c be
       0.14658356 -0.03427792 -0.016756345 -0.16804308
000390 c4 51 bc bd 49 49 ff bd 59 a6 0c 3e 3e 29 5e bd
       -0.09195283 -0.1246515 0.13735332 -0.05423855
0003a0 84 75 f6 bc e7 20 92 bd 16 ca ca bd 7c 0e 76 bd
       -0.030085333 -0.07135182 -0.09901826 -0.060072407
0003b0 d3 60 57 3d d2 05 93 3e 0d 19 2b be ac a4 99 bc
       0.052582573 0.28715378 -0.16708775 -0.01875528
0003c0 76 48 b0 39 4c 92 3d 3e 1e 45 fe 3b bb ab f1 bd
       0.00033623324 0.18512839 0.0077597043 -0.11800333
0003d0 df de d0 3d fb 0e 1d 3d a2 db c6 bb ad 00 51 bd
       0.10198759 0.038344365 -0.0060686627 -0.051026035
0003e0 74 ee cb 3c 2b 2d aa 3d 74 08 a7 bd 6e 30 ab 3c
       0.024893977 0.08309396 -0.08155909 0.020897117
0003f0 11 23 a7 bd 96 92 0d 3d 8a 7b 87 3d 9d 1e 2d 3c
       -0.08160985 0.034563623 0.0661536 0.010566381

linear1.bias f4 [32]
000000 e9 47 12 bc 81 ba aa 3d a1 42 4f be f7 b6 c8 3b
       -0.0089282775 0.08336354 -0.2024026 0.0061253267
000010 09 dd 2e 3c f1 fc 08 3e a9 a7 26 be 9c f0 77 3d
       0.010672816 0.1337774 -0.16274895 0.060532197
000020 f0 1c 80 3e 0a 2a 0a be 26 29 16 be d2 de 8f 3d
       0.25022078 -0.13492599 -0.14664134 0.070249215
000030 d4 e7 0a 3e bc dd 9b bd 9c e7 16 3e 8b 97 d1 3d
       0.13564998 -0.07610652 0.1473679 0.10233983
000040 08 12 82 be e3 71 ec bd 8f fa da bb 0a 6e 84 bd
       -0.25404382 -0.1154516 -0.006682701 -0.06466301
000050 a0 96 9f 3d 1c 8e f4 bd 9f 56 81 bd 56 33 9b 3d
       0.07792401 -0.11941168 -0.0631535 0.07578151
000060 4a 62 3e 3d 08 18 40 be 51 cc be 3d dc 29 ef bd
       0.046480455 -0.18759167 0.09316314 -0.11677906
000070 e9 4b 08 3d 64 e2 3a 3e fd 45 b8 bd 55 60 41 be
       0.03327552 0.18250424 -0.08997724 -0.18884404

linear2.weight f4 [1, 32]
000000 65 74 2c 3d 25 24 27 bd 16 c7 c6 bd 2e a6 59 3d
       0.04210319 -0.040805954 -0.097059414 0.053136997
000010 5c fc 5f 3d 8f f0 2b bd 99 ac a3 3d 7c 24 54 3d
       0.054684028 -0.04197746 0.07991905 0.051792607
000020 c4 44 39 bd 62 3d 0d bc 13 76 52 3d 26 bb dc 3d
       -0.045231596 -0.008620592 0.051382136 0.10777883
000030 e6 16 60 3c cb 5e 81 bc 30 4b 22 3b b6 6d 1f ba
       0.013677334 -0.015792271 0.0024764054 -0.0006081717
000040 e4 da b6 3d 07 ec e2 bd 6a 67 4e 3d 62 8a d4 3d
       0.08928469 -0.11080175 0.050391592 0.10377957
000050 81 82 6a 3b 4d 99 2c bd 66 e7 a2 3d 38 b8 ca 3d
       0.0035783353 -0.042138387 0.07954292 0.09898418
000060 75 2f 51 3d 47 9f 12 3b 81 e1 5f bd 58 fa 17 3e
       0.05107065 0.0022372769 -0.054658417 0.14841592
000070 d3 35 d8 3b eb f1 20 3d 49 33 a2 3d 36 7d 91 3c
       0.006598213 0.03929321 0.07919938 0.0177599
