labml_nn/lstm/LSTM_THz/model_combine_319r2_18.pth (torch, 26025 bytes, 9 tensors)

lstm.weight_ih_l0 f4 [128, 1]
00000000: 8257 43be 5d27 813d b400 d9bd 14ea 81be
00000010: 1588 1dbe c225 363d 4cfc 20bd b6b7 29be
00000020: 897d 9a3e 210a 75be d58c a9bc 8390 ecbd
00000030: dc21 df3c 72ba 15be 88cb a43e e9ab 37bd
00000040: ef90 6abe 2c7d e0bd 6cac 9abd f3c1 603d
00000050: a1bf e23d cfe7 b93d 3202 dd3d 470e 45be
00000060: 93ec 213e 4cbd 0ebe 9ad2 e83d 6f21 883e
00000070: a46e 443e 773f 44ba 5ed2 88bd dee6 923d
00000080: 2010 90bd 07fa 203e 4bf5 7fbe 92f1 46be
00000090: e352 13bd 6ab6 7e3c 5aa4 c93c 1add 4cbe
000000a0: 9569 9d3e 1cf6 03be c789 dbbd 9eb8 b7be
000000b0: d106 833e 8833 4fbd 08be c63e d22d 1cbe
000000c0: 0e1f 9fbe 4030 babe 79b8 78bd 15d8 7e3b
000000d0: 3ea8 8e3e 5c0c 913b b757 2c3e 5d1f cdbe
000000e0: 2c2e f3bc 9cd8 fabc 4079 c83d 515b 523e
000000f0: 4544 b13c 01b6 9d3d 6934 eebd 4943 f93d
00000100: 2793 9ebe 16e7 803e 4762 8fbc 6f39 9fbe
00000110: ae89 833e 9e0a 40bc 7f80 0abe 6a72 7cbe
00000120: 6d4e 723e 85ee 31bd 315d 4f3e 1c0f 77bd
00000130: 9a97 76bc 4e3b f93c 7b6b bbbe 1bbe ba3e
00000140: e55a 58be 7c0f a23e acd9 933b 7af2 adbd
00000150: ace3 d33e 8799 d0be ff77 e03e 76b5 43bd
00000160: 5d46 b03e e66a bcbe 4123 87bd aba1 b03e
00000170: 4767 0dbd 6f52 dabd d7d5 1b3e e701 963e
00000180: 9f98 afbe ca49 25be 524e 073d bc17 56be
00000190: d077 2fbd 4680 8ebd 9324 c7bd 60fc 03be
000001a0: bd61 463e 9ba3 5d3d 9259 4abd 1d60 81be
000001b0: 1b28 49bb c483 b8bd 2d4f 793e 804f 95be
000001c0: 5a33 29be 89cc b4be 5cc0 f83d 35a1 7b3d
000001d0: 20dd 913e 6cf2 29bd 3cf7 923e db51 fdbe
000001e0: 8b7d c3bd d729 91bd a72f 6dbe d4a1 4c3e
000001f0: 68fe 653d 516c 66be b64b 9ebd a109 353d
-0.1907635 0.06306336 -0.10595837 -0.253739 -0.15383942 0.044469602 -0.03930311 -0.16573986
0.301739 -0.23929645 -0.020697037 -0.11551001 0.027237825 -0.14621904 0.32186532 -0.04484168
-0.2290685 -0.10961375 -0.07552418 0.054872464 0.110717066 0.09077417 0.10791434 -0.19243728
0.15812902 -0.13939399 0.11368294 0.26588008 0.19182831 -0.00074862636 -0.06680749 0.07172941
-0.070343256 0.15720378 -0.24995916 -0.1942809 -0.03596772 0.015546421 0.024614502 -0.20006219
0.30744615 -0.12886852 -0.10719638 -0.3588304 0.25591138 -0.050586253 0.38816857 -0.15251854
-0.3107838 -0.36364937 -0.0607228 0.003888612 0.27862734 0.004426522 0.16830336 -0.4006299
-0.029685102 -0.030620866 0.097887516 0.20542647 0.021638999 0.0770073 -0.1163109 0.12171037
-0.30971643 0.25176305 -0.017502917 -0.31098506 0.2569098 -0.011721281 -0.1352558 -0.2465302
0.2366273 -0.04344036 0.20250393 -0.060317144 -0.015050793 0.030423786 -0.3660544 0.36473164
-0.21128424 0.3165244 0.0045120325 -0.08493514 0.41384637 -0.40742132 0.4384155 -0.047780477
0.34428683 -0.36800307 -0.06598521 0.34498343 -0.03452232 -0.10660254 0.15218292 0.29298326
-0.34296128 -0.1614143 0.033033676 -0.20907491 -0.04283887 -0.0695806 -0.09723773 -0.12889242
0.19373222 0.054111104 -0.049401827 -0.2526864 -0.003069407 -0.09009507 0.2434661 -0.29162216
-0.16523495 -0.35312298 0.12146065 0.061433036 0.28489017 -0.041490957 0.2870425 -0.49476513
-0.0954543 -0.070880584 -0.23162709 0.19983608 0.056150824 -0.22502257 -0.077292845 0.044198636

lstm.weight_hh_l0 f4 [128, 32]
00000000: 1163 033e df30 a83d afa2 14bd e8d7 1abe
00000010: f971 bbbb 63f6 993d b5e5 4bbe e2eb 52be
00000020: 7ea4 1ebe a69d 8abc 4931 a7bd 6f16 acbd
00000030: f891 e33d 1416 6c3d fcd6 83bd b46b 4abd
00000040: 4455 80bd 2168 47bd 6fc5 b13c 0773 56bd
00000050: 9d49 11be 0467 c83c 0ac7 163c 05b8 83bd
00000060: af54 043e bb40 9bbe 03ee 4cbd 5eaf ea3d
00000070: a399 8d3d a0e5 babd 431e 523e de61 1b3e
00000080: f158 49bd 8c8f 6f3d 464a 213e a652 063e
00000090: fe3e 953c 3938 00be b0a2 92be 5764 20bd
000000a0: 12b7 023d daa3 4e3d 4d41 3ebd c16b 043e
000000b0: 067f 283e f28b 753e 5b34 383e 54f7 a5bd
000000c0: 7cca 13be 0ed4 1abe b34c 5cbc de1f 6ebe
000000d0: 7709 bbbd a58d 843c c6e2 3cbe bc66 ce3e
000000e0: 96a6 e5bd d914 0b3c e022 50be 5ea9 903c
000000f0: 7d0e 7dbd 1609 f2bc b752 8e3d 2394 d63d
00000100: 3ee4 2b3e 52fa 4d3e cb9e 7cbe 5601 54be
00000110: fa98 ca3c ec73 ba3d 94c0 c63c abac 39be
00000120: a8e5 0bbe 0c2f 53bb 74e9 4bbd cd7b 8a3d
00000130: 3966 d33c 4c7b 023e 0b05 a83d bdf4 4bbc
00000140: 9526 333d 0f42 6abe 12a3 6abe 1937 64bd
00000150: 0f7b 09bd 752e d1bb 35a4 00be 9475 713e
00000160: b3fa 843e b404 3f3c 4ae7 30be 6879 69be
00000170: 0a14 ac3d 0324 7abd 792f 9dbe 12fa 24be
00000180: ac19 12bd 6db4 e1bd 7863 c2bd ab6d 26bc
00000190: b904 3d3e 3a16 5b3d 443b d1bc f6e8 23bc
000001a0: 6907 f5bc a9cc 5cbe eab7 aa3c 1af6 203e
000001b0: b685 8e3d 33c0 973d faaa 11be 4c8f 18be
000001c0: 137d 46be b5eb 383b 1a8d 1ebd 4257 f23c
000001d0: 0232 ffbb d5be 9ebd 060e e9bd a80b 343e
000001e0: 765c f2bc a6e5 c03c 1934 8ebd 62be ffbc
000001f0: a1e3 053b 6fe8 41be 4a5f f33d 9d38 acbd
00000200: 3b7c 993d 2017 cabd a130 00be cada 84bd
00000210: ac90 493e ad79 6abe 0d0a 91bd abf4 88bc
00000220: 409a ec3d 6974 73be c7c1 333d e66e 0e3e
00000230: ca67 3fbd feaf 8fba 7359 1c3e 07bb 81be
00000240: b454 71bd 4cb7 0d3d 972b 5dbe 49a2 483d
00000250: 0ee9 95bd caa9 d7bd 38dc a8bd 1e59 ff3d
00000260: 6f39 61bc f173 2fbc 6803 7cbe 0497 98bc
00000270: 4340 c1bd 8e15 25be 7f22 a73d 9d0c 113e
00000280: 58c4 5fbd b2f0 82bd aacd 873e 2985 12bd
00000290: a9f8 a1bd 91ed 80bd 2d0f d6bd 39d7 a73d
000002a0: 6bd4 54be b6e1 83bc 7cdc 50bd 7c03 723e
000002b0: e40d e3bd 5ca1 0cbe c44c a3bd 10e4 b03d
000002c0: 7e43 bdbc da7d 2fbd d34d 273e 6a0f ab3b
000002d0: 2eaf 6ebd ddcb 8c3e 5264 45bd 9c89 13be
000002e0: c570 0d3d 84db 9abd 5472 243d b892 9b3c
000002f0: b15c c13d a585 46be 4510 ec3d 99da 24bd
00000300: bc0c 4dbe d941 853e 06bb a7be cb82 97be
00000310: 5f45 123d 5af1 91be 20a0 273e bc3f 24be
00000320: efe7 0dbe 22f2 06be 6151 a63d 554a eebe
00000330: f529 cb3e e713 723e 8604 c13e 07e0 183e
00000340: fedb 82be e4a1 113e 5bd7 6fbe 4df4 19be
00000350: d93e e9bd c534 86be d5fc ccbe 8134 edbb
00000360: 5aad a53e eedd 173e 21ef f8bd 8d72 bcbe
00000370: ff25 9b3e 0fca 6abe faa3 8f3e d367 21be
00000380: 1df6 b8bc 663c cb3d 01e3 ff3d ac63 d6bd
00000390: aa75 723e 09d7 05be 7ecd 1ebd 814a 0f3e
000003a0: dfbc ebbd bec9 6dba 5fa3 663e cb58 f8bc
000003b0: 3aa5 383c 27da 1dbe a777 e53c 3da3 a4bd
000003c0: 4a99 923d fc25 973c 2f34 a43d c0e3 bcbb
000003d0: 0b29 10be ae77 0dbe 1f06 bdbb 66de 6abe
000003e0: 6def 63be c634 f03d fc70 42be a789 083e
000003f0: 89b6 17be dd93 123e b7fc 873d 633d 8abd
0.1283076 0.082124464 -0.03628796 -0.15121424 -0.0057203737 0.07517698 -0.19911845 -0.20597795
-0.15492436 -0.016920876 -0.08163697 -0.08402716 0.11111826 0.057638243 -0.064374894 -0.04941912
-0.06266263 -0.04868329 0.021700589 -0.052355792 -0.14188237 0.024463184 0.009202728 -0.06431583
0.12922929 -0.30322823 -0.050031673 0.1145923 0.069140695 -0.09125829 0.20519356 0.15174052
-0.049157087 0.058486506 0.1575099 0.13117465 0.018218514 -0.12521447 -0.28639746 -0.03915819
0.03191287 0.05044923 -0.046448994 0.1293173 0.16454706 0.23979166 0.17988722 -0.08103815
-0.1443271 -0.15119955 -0.013446021 -0.23254344 -0.09132665 0.016180823 -0.18445882 0.40312755
-0.11213414 0.008488857 -0.20325804 0.017658886 -0.061781395 -0.029545348 0.0694937 0.104774736
0.16786286 0.20115021 -0.2466995 -0.20703635 0.024731148 0.091041416 0.02426175 -0.18132274
-0.13661826 -0.0032224087 -0.049783185 0.067618944 0.02580558 0.12742347 0.08204087 -0.012448487
0.043737967 -0.22876762 -0.22913769 -0.055716608 -0.033564623 -0.006383712 -0.1256264 0.23580009
0.25972518 0.011658836 -0.1727573 -0.22800219 0.0840226 -0.0610695 -0.3070028 -0.16111019
-0.035669014 -0.110207416 -0.094916284 -0.010157983 0.18458833 0.053487994 -0.025540955 -0.010004273
-0.02991076 -0.21562447 0.02083965 0.1571888 0.06959097 0.07409706 -0.14225379 -0.14898413
-0.1938365 0.0028216664 -0.038708784 0.029582623 -0.007787944 -0.07751242 -0.11379628 0.17582572
-0.029585104 0.023547005 -0.069435306 -0.031218711 0.0020429867 -0.18936323 0.11883409 -0.084092356
0.07494398 -0.09867692 -0.1251855 -0.06487043 0.19684094 -0.22897978 -0.07081995 -0.01671823
0.11552858 -0.23774876 0.043885972 0.13909492 -0.04672984 -0.0010962484 0.15268497 -0.25338003
-0.05891867 0.034598634 -0.2159866 0.048982892 -0.07319842 -0.105304316 -0.082451284 0.1246817
-0.013746603 -0.010708795 -0.24610674 -0.018626697 -0.09436085 -0.16121504 0.081608765 0.14164968
-0.054630607 -0.06393565 0.26524097 -0.035771523 -0.07908756 -0.06295312 -0.10452113 0.08195347
-0.20784156 -0.016098838 -0.05099152 0.23634142 -0.11086634 -0.13733429 -0.07973626 0.086372495
-0.023103472 -0.04284463 0.16338281 0.0052203434 -0.058272533 0.27499285 -0.048191376 -0.14407963
0.034531374 -0.075614005 0.040148094 0.01899086 0.094415076 -0.19386919 0.11526541 -0.040247533
-0.20024389 0.260268 -0.32759875 -0.29591975 0.03571069 -0.2850445 0.16369677 -0.16039938
-0.13858007 -0.13178304 0.081209905 -0.46541086 0.39680448 0.23640405 0.37698764 0.1492921
-0.25558466 0.14221913 -0.23421995 -0.150346 -0.1138894 -0.26212135 -0.40036646 -0.007238925
0.3235882 0.14830753 -0.12154985 -0.36806145 0.30302426 -0.22928642 0.28054792 -0.15762262
-0.022578293 0.099236295 0.124944694 -0.1046823 0.23677698 -0.1307031 -0.03877019 0.13993265
-0.11510634 -0.00090708944 0.22523259 -0.030315777 0.011269862 -0.1541525 0.028011156 -0.08038948
0.07158144 0.01845073 0.08017766 -0.0057644546 -0.14078157 -0.13815185 -0.005768552 -0.22936401
-0.22259302 0.11728816 -0.18988413 0.1333376 -0.14815725 0.14314218 0.066399984 -0.0674999

lstm.bias_ih_l0 f4 [128]
00000000: 47b5 b73d ad40 8f3d 72d4 4ebe 755e 963d
00000010: 58e7 a7bd b456 adbd 0504 90be ef0d eebc
00000020: 23af 183e 33a5 75be 716f e3bc 9e30 30be
00000030: 1b65 d63d 5a1f 08be 6284 55bd 64d1 d33c
00000040: 21d3 5bbe 5a42 e13c 4ebe 00be 9bf2 19bd
00000050: fbe3 93bd 9b2a 00be b8bd 53bd af95 f9bd
00000060: d4ea fb3d 310a eabd d1eb 2ebe 3713 38be
00000070: 17b8 e9bd 367c 61be ca44 61be 4f03 c2bc
00000080: 7710 2abe aaf8 53be a3d9 77bd 2390 2cbd
00000090: f1c9 29bc 94a9 e33c 14af c5bd 3e9d ea3d
000000a0: 7c56 683e c125 8ebd 283d 3ebe de2c dabd
000000b0: 6d09 853d a5bd 093d fb2e eb3d 16f8 cd3b
000000c0: 18cc 9d3d 78fb ba3d bb81 16be 6c11 1d3d
000000d0: 31a0 06be bb22 efbd 2e3f e43c 185f dabd
000000e0: 1bf2 f63b 7e70 5bbe 936d 7bbe 99b5 1e3d
000000f0: 19a5 afbc f227 febd c172 58be 294d bdbd
00000100: 8a57 903d 38c0 ddbd 5757 ff3b 7ae3 513d
00000110: 3eaa 00bd 8f02 ce3d e808 a83d 92a3 123d
00000120: 9c1b 843e 70f0 bf3c 12d0 03be df22 243e
00000130: 8d75 62be 1128 bf3e 747a aabd e6ca 86be
00000140: 9b00 093d 2124 843c e022 1d3e 9874 0b3e
00000150: e4cc e73d 054c 533c 2f4d 803a e4fe cd3d
00000160: 6882 5abd bf77 15bd a6b7 663d 3ade b83d
00000170: f236 fabd c194 69be f3ce 93bd b06c 023e
00000180: 88f7 713c 8a0c 103d 9844 3fbe 11ed 923d
00000190: aefd b93d 1495 7bbc 02e1 cbbe 063b 723d
000001a0: 218b 7a3d 6ca9 d7bd 191a f1bd ea36 59be
000001b0: dd57 6cbd 4720 953d fd90 7f3c df8d c43d
000001c0: 3f4a 1abe 2f9d 023d d9e9 e03c 4556 6a3b
000001d0: 1c04 8e3d 1481 adbd fd48 0bbe 0c64 80be
000001e0: 5202 7cbd 0501 a1bc 1a85 5cbe 8d09 3abe
000001f0: 1eca 89bc 08b6 8cbd be18 b6bd 6692 fa3d
0.08970123 0.06994758 -0.20198229 0.07342235 -0.08198422 -0.08463803 -0.28128067 -0.029059378
0.1491056 -0.239888 -0.0277631 -0.17206046 0.10468503 -0.1329321 -0.052128203 0.025856681
-0.21467258 0.02749746 -0.12572595 -0.037584882 -0.07221218 -0.12516253 -0.0516946 -0.12186753
0.12300649 -0.11427725 -0.17082144 -0.1797608 -0.114120655 -0.22020039 -0.21998897 -0.023683218
-0.16607843 -0.20700327 -0.06051029 -0.042129647 -0.010363088 0.027790822 -0.09652534 0.11455773
0.22689241 -0.06940795 -0.18578017 -0.10653089 0.064959385 0.033628125 0.1148357 0.0062856777
0.077049434 0.09129995 -0.14697926 0.038346693 -0.13147046 -0.11676546 0.027862158 -0.10662669
0.0075361854 -0.21429631 -0.24553518 0.038747404 -0.02144103 -0.12409963 -0.21137525 -0.09243233
0.07047947 -0.108276784 0.007792394 0.05124233 -0.031412356 0.10059082 0.08204824 0.035800524
0.25802314 0.02343008 -0.12872341 0.16028927 -0.22115155 0.37335256 -0.08324137 -0.26326674
0.033447843 0.016130509 0.15345335 0.13618696 0.11318377 0.012896542 0.0009788628 0.10058382
-0.05334702 -0.036491152 0.056327485 0.09026761 -0.12217511 -0.22810651 -0.07217207 0.12736773
0.014768489 0.03516821 -0.1867851 0.07174123 0.09081589 -0.015355367 -0.39820105 0.05913832
0.06116784 -0.105303615 -0.11772556 -0.21212354 -0.05770098 0.07281547 0.015598533 0.09597372
-0.15067385 0.031888183 0.027455257 0.0035756987 0.069343776 -0.08471885 -0.13602062 -0.2507633
-0.06152565 -0.019653806 -0.21535149 -0.18167706 -0.01682001 -0.06870657 -0.08891438 0.122349545

lstm.bias_hh_l0 f4 [128]
00000000: 0f37 a8bd 7a22 64be 8857 36be 9158 0c3e
00000010: 26b0 40bd ce3f 2f3e 788e a1be 511c 173c
00000020: 0083 ea3d c8a2 adbe 2f23 5bbd 36f2 cdbd
00000030: 4f37 b23d 9121 b4bd 10cb 60bd 98a7 1d3e
00000040: 0a7e c3bd 8a65 b83d 018a 183c 07c0 ddbd
00000050: ab2b 17be 0a43 79be 6edb 2f3d cfd1 91be
00000060: 1722 243a ef6c 043e e057 553d 8bcf 18be
00000070: 2db9 52bd 09d2 7bbe 8add 36be 4da1 df3d
00000080: 1e2d acbd 1b54 e4bd 27ef 423d f8c0 26be
00000090: 8ef3 eb3c e464 553c 6814 72be fa15 34be
000000a0: 3ef2 853d 2d1d 71be e542 c3bd b64f 333d
000000b0: 7aca 84bd 6b63 d9bd 4780 c7bd a9c7 4ebb
000000c0: ccc6 81bd 1ca4 29be 02c7 9ebd c3ec 8a3b
000000d0: 421f 20be 9b00 07be 1e19 97bd dca5 fabd
000000e0: ffe0 043d 6e2c 34bd d8a9 87be d7f4 17be
000000f0: 142b 55be b1b5 83bd e71f 71bd caf2 30bd
00000100: 80d7 463c 75cb 533e 1394 563d 4c80 46bd
00000110: 8d9f c43d 35c7 943d 567a 84bd d472 8f3d
00000120: f149 413e 4cf4 11be bb1b 0a3e 84ed 4f3d
00000130: e645 19be 4dbe 7b3d b4ed babd ee7b c9bd
00000140: 99c1 77bd 3fdb 4abc 70a7 703e 9c32 5d3d
00000150: 3e5e 8f3d 543e 083e e2dc 0a3e 5568 1f3e
00000160: bd87 4e3e 2733 50bd 823b b93b 7baf 6c3d
00000170: 5a9f 19be 7b3b e13d 69c7 cd3c 1967 c3bd
00000180: e019 7cbd 0ec4 c03d eb73 11be 42e0 9ebc
00000190: ffd8 853d 2abb c13d 2613 86be 9082 54bd
000001a0: 86b6 503e 82a9 0fbe e92f 54bc 417e 27be
000001b0: 6435 b83d 34ad 673d 4d94 a93d 4974 913d
000001c0: a24a 353d fefa dd3d 01d1 3f3d 4211 48be
000001d0: 7e2b 21be 34fe 24be 572e 163a caee 1fbe
000001e0: a887 aabd 6e6b aebb 7aa8 f5bd ed54 7f3c
000001f0: d49e 83bd 2541 6fbe 07d9 863d 3be9 43bd
-0.082136266 -0.22278777 -0.17806828 0.1370566 -0.04704299 0.17114183 -0.31554008 0.00922306
0.114507675 -0.33913255 -0.05350035 -0.10055964 0.087019555 -0.08795465 -0.054881155 0.15395963
-0.095455244 0.09003742 0.009310246 -0.10827642 -0.14762752 -0.2434198 0.042933874 -0.28480384
0.00062611833 0.1293218 0.052085757 -0.14922921 -0.05144613 -0.24591841 -0.17857948 0.109194376
-0.08407043 -0.11148854 0.047591355 -0.16284549 0.02880266 0.0130245425 -0.23640597 -0.17586508
0.06540345 -0.23546286 -0.095342435 0.04377719 -0.06483932 -0.106146656 -0.09741264 -0.0031552112
-0.063367456 -0.16566509 -0.077528015 0.00423965 -0.15636924 -0.13183825 -0.073778376 -0.122386664
0.032441135 -0.043987684 -0.26496768 -0.14839493 -0.20817214 -0.06431139 -0.058868315 -0.04320029
0.01213634 0.20683081 0.05238731 -0.048462197 0.096007444 0.07264558 -0.06468646 0.070043236
0.18875863 -0.14253348 0.13487141 0.050763622 -0.1496807 0.06146078 -0.091273695 -0.09838091
-0.060487363 -0.012381374 0.23501372 0.054003343 0.07000397 0.13305026 0.13560823 0.15567143
0.20168968 -0.050830033 0.005652846 0.05778454 -0.15002194 0.10997673 0.0251195 -0.09541149
-0.061548114 0.094123945 -0.14204375 -0.019394044 0.06535529 0.09459527 -0.26186484 -0.051882327
0.20382127 -0.14029506 -0.012950876 -0.16356756 0.089945585 0.056561664 0.08280239 0.07102258
0.04426063 0.108388886 0.04683018 -0.19537833 -0.15739247 -0.16112596 0.0005728951 -0.15618435
-0.083266556 -0.005322865 -0.11995025 0.015584213 -0.064267784 -0.23364694 0.065843634 -0.047829848

layer_norm.weight f4 [32]
00000000: a867 7b3f a682 713f 8bb9 503f 99d8 7f3f
00000010: abf5 6d3f 14df 7b3f a872 4f3f e005 7e3f
00000020: fe05 783f 6a73 453f 0029 5a3f addb 4e3f
00000030: e6b7 7e3f 0da4 4c3f 26ac 843f fbee 6f3f
00000040: 8d50 683f 9a20 753f 4c9d 6e3f c448 533f
00000050: 6d68 773f 04d4 5a3f 05ac 833f 29c4 4f3f
00000060: d411 723f 041e 863f 8b5f 603f 77ea 623f
00000070: e388 5e3f 7942 6d3f 14b0 6c3f e865 7d3f
0.9820504 0.9433998 0.81533116 0.99939877 0.92952985 0.98387265 0.81034327 0.99227715
0.96884143 0.7712923 0.8521881 0.8080395 0.99499357 0.7993782 1.0365036 0.9372403
0.9074791 0.9575287 0.93208766 0.82532907 0.96643716 0.8547976 1.0286871 0.8115869
0.94558454 1.047791 0.87645787 0.88639015 0.8692762 0.92679554 0.92456174 0.9898362

layer_norm.bias f4 [32]
00000000: a3b5 bebc 1eb6 7d3d 8a8d 8d3d a7fd 84bd
00000010: f416 b83d 0b27 f93c fd6f b63d ea8d 78bd
00000020: ccca 763c 5d35 44be 802f 563d 99e0 df3d
00000030: d065 fbbc dc56 193e fb65 82bc f36b 59bd
00000040: b33b a2bd 9018 c93c 4659 26bd 5e33 eebd
00000050: ef1f adbc 7aa0 6abb 6673 4c3d 4b5c ec3d
00000060: 9859 5e3d a228 02bd d7e0 adbd fc9a 84bd
00000070: 0f35 a43d 4df4 9ebd 58f9 0d3d ead3 ff3c
-0.02327997 0.06194126 0.06911762 -0.06493693 0.08988753 0.030414125 0.08908079 -0.060682215
0.015062999 -0.19160981 0.052291393 0.109315105 -0.030688196 0.1497454 -0.015917769 -0.053081464
-0.07921543 0.024547845 -0.04061248 -0.11630891 -0.021133391 -0.0035801218 0.04991474 0.11541041
0.054284662 -0.03177703 -0.084901504 -0.064748734 0.080179326 -0.077614404 0.03466162 0.031228978

linear1.weight f4 [32, 32]
00000000: 2a68 c1bb 048d b63d d712 1c3e ae45 813c
00000010: 8454 013d 5ede 29bc ac88 df3d 069e cdbd
00000020: 6845 80bc c511 1cbc 86b8 21be 4cc7 e93a
00000030: 05ae 44be 9b6b 76bd 84f6 f03d bdc5 57be
00000040: f89c 03be ca4d 13be b57d 0ebe edfa 313e
00000050: 4049 8ebd 6d47 833d 32ab 723e 1216 0e3d
00000060: 06ae 36bd 2798 b23d fc1c 2ebd a948 f9bb
00000070: 339f 1abe 3184 11bc 005c 27be 636b 203e
00000080: 00ad 5fbd 081f 03bd 7de3 97bd 9721 003e
00000090: c3d7 ea3b 6140 933d a2de 2bbe 04ea d6bd
000000a0: 735c 14be b007 d23d 30bb 9bbd bece 033e
000000b0: bf81 103e bb21 b73a cc58 213e 2b66 edbb
000000c0: b923 04bd 3003 4cbe 9680 ea3d ab09 753d
000000d0: 5f7a 023c 7393 16be f17c 1fbe c68b c03c
000000e0: 045a 34be 47a1 edbd 9d07 1d3e 29cb b33c
000000f0: 0715 003e 635c 3fbb c887 8bbd 4139 2dbe
00000100: f4ed f9bd 718e 293e d1f2 b13d ab50 093e
00000110: 5de0 f8bd bbe1 85bd 4f28 01bd 054f 3c3e
00000120: 1bba 113c 4c8a ee3c 7589 c3bd d190 0f3e
00000130: 59c5 203e 7bdb 053d 7113 babc b176 08be
00000140: 78ae 763a e887 873c a7d2 45be d568 3bbe
00000150: aa95 3ebe 8230 ff3c 225f 5dbd f6eb ea3c
00000160: 6b6e 01be c598 773e 4e69 943d 3773 8c3d
00000170: 11f1 103e 8f42 393d 095e 583d 1982 d5bd
00000180: b0d5 013c 8df6 c0bd f2d9 1d3e b938 06bd
00000190: 491a 33bd 8e09 2dbd 6df1 65be 502e 92bd
000001a0: 88b4 263d ede6 f0bc 33ea a4bd a3ff 8cbc
000001b0: fd33 e3bd f36b ab3a 62fb a4bd 1596 da3d
000001c0: 861c 2b3e 35c0 9c3c 3668 e2bd 7577 db3c
000001d0: f542 d53d 1362 81be e42e f1bd 16ef 2dbe
000001e0: b080 c9bd 8336 a3bd 492d 1b3d 1d6d dcbd
000001f0: 1c99 3b3d 30e7 27ba 72e9 073e 214f 8abe
00000200: f374 9ebd 3ec1 7cbe 959c 7c3d 7e55 763e
00000210: d340 28be b9f6 b3bc d63d 313e 657e 5a3e
00000220: 9f4e 5fbd 8e74 be3d 173f babd 642a 793d
00000230: 4512 a4bd cab5 2fbe 004d 453e 57fa a4bd
00000240: 3519 68bd fb8b 663d 58b0 b93d d0f2 443e
00000250: 756f 91bd 6f4b 813d b02a 62be c796 64be
00000260: 1b65 3dbe 9bb2 82bd b17e a1bd 1ac6 043e
00000270: 9ad4 433d cc5d 093e 97d6 603d 9261 01be
00000280: 68fc 193d 08e3 1ebd ae40 883d 1693 e43d
00000290: a042 1bbe 67d0 19bd c0dc 4c3d b122 443e
000002a0: f354 003e e59e 00bc 9e19 6bbc eadc 8cbd
000002b0: 6e1f 2abe eb72 3dbe d561 fabc 0a22 f93a
000002c0: deda a9bc 10a6 06be bfe2 a73d 1715 c3bd
000002d0: e810 5cbc 074d 603d c043 88be d019 5fbe
000002e0: f977 c1bd 90ba 2bbe c170 b33d bd7d ff3b
000002f0: 3714 7d3c e523 e9bd 0c26 8fbd 1bd4 30be
00000300: ad2b 043e 00fe 693c fdad 17be 8459 5f3c
00000310: c808 86bd 367a 393e 1a5d c43d e21a 213e
00000320: 92ad e63d 3bb8 4c3e b1bd b53d 5b37 643d
00000330: f315 45be b1ce 0abc 8092 d8bc c387 b83d
00000340: 3461 f73d be0f a6bd 0f3f 443e 4d7b 143e
00000350: 93a2 0d3d e909 05bc d5e9 0bbe 520f 65be
00000360: d9af 0d3e bb98 243d 955c 533c fde8 a13c
00000370: 208b e13d 988c cfbd a184 16bb 07c0 72be
00000380: 9072 52bc 237e 64be 4df0 c5bc 0bef 98bd
00000390: 01a1 2ebe de3b 3e3e 6181 9f3d 12f7 8c3d
000003a0: e6b8 dc3c 580e cc3d 8d95 943d 9a29 ffbc
000003b0: 8b7e a33d b3a3 323d ecc8 50be eb53 6e3e
000003c0: b4c2 b4bd 54cd c93d 6ae0 1ebd 3fa8 9bbc
000003d0: 28b7 e73d 82d9 6abd 3711 abbc b5e3 88bd
000003e0: 9b66 d0bc cbb2 58be 3152 82bd 8a0c d7bd
000003f0: 9bbb e0bd fbd1 843c d2eb 023c f14e ac3d
-0.00590231 0.08913615 0.15241562 0.015780296 0.03157474 -0.010367958 0.1091474 -0.10039906
-0.015658095 -0.009525721 -0.15793046 0.0017835884 -0.19207008 -0.060161214 0.11765769 -0.21071525
-0.12852848 -0.14385143 -0.13915141 0.17380877 -0.06947565 0.06410108 0.23698118 0.034689017
-0.044599555 0.08720427 -0.04250811 -0.0076075387 -0.15099792 -0.008881615 -0.16343689 0.15665965
-0.054608345 -0.032012016 -0.07416437 0.12512814 0.007166834 0.07190014 -0.16784146 -0.10493854
-0.14488392 0.102553725 -0.076040626 0.12871835 0.14111994 0.0013971844 0.1575653 -0.0072448454
-0.03226063 -0.19923091 0.11450307 0.059823673 0.007963746 -0.14704685 -0.15575005 0.02350415
-0.17612463 -0.11603027 0.15334935 0.02194746 0.12508021 -0.0029199354 -0.068130076 -0.16916372
-0.12203589 0.16558243 0.08688892 0.13409679 -0.12152169 -0.06537195 -0.031532582 0.18389519
0.008894469 0.02911868 -0.09547702 0.14020087 0.15700282 0.032680016 -0.022714349 -0.13326527
0.0009410153 0.016544297 -0.19318639 -0.18301709 -0.1861178 0.03115106 -0.054045804 0.028676968
-0.12639777 0.2417937 0.07246648 0.06857913 0.1415446 0.04522949 0.052824054 -0.10425205
0.007924482 -0.09422026 0.15415171 -0.03276894 -0.04372624 -0.04224544 -0.22455378 -0.0713774
0.04069951 -0.029406989 -0.080524825 -0.01721174 -0.110939 0.0013078436 -0.0805576 0.10673157
0.167101 0.01913462 -0.11055033 0.02679036 0.10413162 -0.25270137 -0.11776522 -0.16985735
-0.09838998 -0.07969382 0.037884984 -0.10762999 0.045800313 -0.0006404994 0.13272646 -0.27013496
-0.0773715 -0.24683091 0.061672766 0.2405605 -0.16430978 -0.021968232 0.17308745 0.21337278
-0.05451834 0.09299575 -0.09094065 0.060831442 -0.08011297 -0.17159191 0.19267654 -0.08055561
-0.056664664 0.05628584 0.09066838 0.1923325 -0.07101337 0.06313216 -0.22086596 -0.22323142
-0.184956 -0.063817225 -0.078854926 0.12966195 0.047810175 0.13414687 0.05489215 -0.12634876
0.03759423 -0.038790733 0.06652962 0.11160867 -0.15162134 -0.037552264 0.05001521 0.19153859
0.12532406 -0.007850383 -0.014349369 -0.068780735 -0.16613552 -0.18500869 -0.030564228 0.0019007337
-0.020734247 -0.13149285 0.08197545 -0.09525507 -0.013431765 0.05476096 -0.2661419 -0.2178719
-0.09446711 -0.16770387 0.087617405 0.0077969716 0.015446714 -0.113837995 -0.06989679 -0.17268412
0.12907286 0.01428175 -0.14812465 0.013632182 -0.06544644 0.18113026 0.0958807 0.15732911
0.11263575 0.19992153 0.088740714 0.055716854 -0.19246654 -0.008472131 -0.026437044 0.090102695
0.12079087 -0.08108471 0.1916468 0.1450016 0.03457887 -0.008120039 -0.13663419 -0.22369125
0.13836612 0.040184718 0.012900491 0.019764418 0.11012864 -0.10134238 -0.0022967237 -0.23706065
-0.012844697 -0.22313742 -0.024162436 -0.07467469 -0.17053606 0.18577525 0.07788349 0.068830624
0.026943635 0.09963673 0.07255087 -0.031147767 0.079831205 0.043613147 -0.20389146 0.232742
-0.08826199 0.09853616 -0.038788237 -0.019001124 0.11314231 -0.057336338 -0.020882232 -0.06684057
-0.025439551 -0.21161954 -0.06363333 -0.105004385 -0.10973283 0.016213408 0.007990794 0.084134944

linear1.bias f4 [32]
00000000: 65ea f13c edfc 183e b97b 49be 0f74 513e
00000010: ef32 5b3d cd2d 3d3e 9526 6ebd c66e ecbc
00000020: c427 ce3c 0ec0 2ebe 043e d8bd 8e82 3b3d
00000030: d087 aebd 25d1 833d a46a 263e ff1f 89be
00000040: 9696 b4bd c801 e4bd c612 e5bd 19be 053e
00000050: 586b 173e 1878 23bc 4e7a 3dbd aad5 55be
00000060: 7027 e1bd a14a 9abd 6274 3abc b384 35be
00000070: a95f e7bd 0338 813d 6be3 fd3d a802 ed3d
0.029530713 0.14940234 -0.19676103 0.20454429 0.05351537 0.18474503 -0.058142263 -0.028861415
0.025165446 -0.1706545 -0.105587035 0.045778804 -0.08521998 0.064363755 0.16251618 -0.26782224
-0.088177845 -0.11133152 -0.111852214 0.13060798 0.14787042 -0.009977363 -0.046259217 -0.20882288
-0.1099385 -0.075337656 -0.011380287 -0.17726402 -0.112975426 0.063095115 0.12396892 0.11572772

linear2.weight f4 [1, 32]
00000000: 7cd3 013b 3eaf a6bd b881 ddbc 38e9 1c3c
00000010: 4c5e 81bd 496a 5fbd 46dc 17bd 8bfb b63d
00000020: 263d b33d 7f3d e5bc 895b 083e 2df3 fcbc
00000030: ea8c b7bc fab6 5e3d 2318 6a3c 9ee9 45bd
00000040: f125 c5bd c790 0bbd 1122 133d 9fbe b2bd
00000050: f7c8 b43c 34b0 01bd cf2c 023e 9ae3 513d
00000060: b6d8 9fbd 5d6e 17be ef9e 02be 6c30 1ebe
00000070: 1374 623d 622b b13d cc69 7dbd b203 58bd
0.0019809892 -0.081388935 -0.027039394 0.009577088 -0.06316814 -0.05454472 -0.037075303 0.08934697
0.087518975 -0.027983425 0.13316168 -0.030877674 -0.02240606 0.05437372 0.014287981 -0.048318498
-0.096263774 -0.034073617 0.03592116 -0.08727764 0.022068484 -0.03166218 0.12712406 0.05124245
-0.07805006 -0.14788194 -0.12755941 -0.15448159 0.05528648 0.08650853 -0.061868474 -0.0527379
