labml_nn/lstm/LSTM_THz/model_combine_319r2_16.pth (torch, 26025 bytes, 9 tensors)

lstm.weight_ih_l0 f4 [128, 1]
000000 26 be 94 bc 80 12 99 be d2 b2 ef bd 1c b7 92 be
       -0.018157076 -0.29896927 -0.11704029 -0.28655326
000010 15 7b b8 bb 74 d9 5e be d0 a9 3f be 74 52 e1 bd
       -0.005629907 -0.2176264 -0.18717122 -0.11002055
000020 77 e4 11 be cc 72 80 bd 2d cb 24 3e 54 5a a1 bd
       -0.14247309 -0.06271896 0.1609313 -0.07878557
000030 87 98 5e be 40 14 4c bd 66 a5 04 3e 3b 91 5d be
       -0.21737872 -0.049824 0.1295372 -0.21637432
000040 f6 c8 2a bd 21 b8 f5 bc 6b 64 6f bd 4d 7f 31 3e
       -0.041695558 -0.029995026 -0.058445375 0.17333718
000050 57 d4 49 3d cd ca 9d bb bd e4 13 3e c9 06 b2 3e
       0.04927477 -0.0048154355 0.14442725 0.34770802
000060 78 21 91 bc 29 16 8a bd e6 be dc bc 3b 60 29 3d
       -0.017716154 -0.06742508 -0.026946496 0.04135154
000070 42 7e 43 3d b6 ab e2 3d 26 5e fa bd c0 57 0c be
       0.04772783 0.110679075 -0.12224989 -0.13705349
000080 73 48 4e bd 2f d6 a5 be a3 52 20 bd 22 6b 18 ba
       -0.05036206 -0.32389972 -0.03914131 -0.0005814304
000090 94 e9 39 3d fa e2 25 bc 9f b9 38 be 08 87 c2 bd
       0.045388773 -0.010124916 -0.18039559 -0.094984114
0000a0 d7 9a d9 bc 5f 37 28 bd 97 e2 d5 3d 54 df 4d 3a
       -0.026563091 -0.04106843 0.10443609 0.0007853408
0000b0 05 db 66 be 62 07 65 3d cb e3 61 3d c2 81 bf bc
       -0.22544487 0.055915244 0.05514888 -0.023377303
0000c0 11 d8 4a 3e b3 5c c9 bb 22 54 44 be 52 7f 6a 3e
       0.19808985 -0.006145084 -0.19172719 0.22900131
0000d0 e9 c9 d5 bd e9 4c a5 3d 7a 79 f8 bd d4 44 56 3e
       -0.10438902 0.0807131 -0.12132545 0.20924693
0000e0 f6 fa e1 bd 45 af 1b be e7 da 16 be 41 89 25 be
       -0.11034195 -0.15203579 -0.14731942 -0.1616564
0000f0 73 51 0a 3e b5 1a d1 3c 1e 65 1d be f6 63 82 3c
       0.13507633 0.02552543 -0.15370604 0.015916806
000100 2b 83 82 3e 35 25 7e be b6 a0 85 3e 0a aa 70 3e
       0.25490698 -0.24818881 0.26099175 0.23502365
000110 4b 66 1b be 4d 2e 8f 3c 34 fd ab be fe 5d 7d be
       -0.1517574 0.017478133 -0.33591616 -0.24742886
000120 98 97 7a be 8a 6d f8 bd 3e 72 48 3d d4 23 9e 3e
       -0.24471891 -0.12130268 0.048937075 0.3088671
000130 75 87 48 3e dc 70 dd bd b1 78 a0 3e b0 39 81 3a
       0.19582923 -0.10812542 0.3134208 0.0009859111
000140 63 63 96 be 12 61 a4 3e 3d 3c 4c 3e 1a 9c 87 3e
       -0.293727 0.3210531 0.19944854 0.26486284
000150 e2 6d 93 bd 17 c6 a6 3d a1 c1 26 3e dd 03 37 bd
       -0.07198693 0.081432514 0.16284801 -0.04468142
000160 83 8c 36 be ab 0a 8d bc db ba bd bd bf 22 91 bd
       -0.17827038 -0.017217001 -0.092641555 -0.070867054
000170 e8 a4 5a 3e f1 cc c0 3e c4 27 00 be f3 e1 da bd
       0.21351969 0.37656358 -0.1251517 -0.10687628
000180 2a fb 87 bd 4c 15 e7 bd 15 bc 79 be 02 c2 66 bd
       -0.066397026 -0.11283359 -0.24388154 -0.056337364
000190 d5 ee ab 3d 70 9b 51 be a6 6b 68 be d7 70 88 be
       0.08395163 -0.20469451 -0.22697315 -0.2664859
0001a0 52 e9 78 3c f1 1b 22 be 77 2b 75 3e 00 17 43 3e
       0.015192347 -0.15830971 0.23942362 0.19051743
0001b0 0e 00 9b be 5a 15 4e be 66 d4 75 3e df 26 26 be
       -0.3027348 -0.20125332 0.24006805 -0.16225766
0001c0 98 b3 a7 bd ae f7 3a be 29 82 ff bc 9a 59 81 bb
       -0.08188552 -0.18258545 -0.031189995 -0.003947449
0001d0 3b fe a8 bd 9f 12 ab bb 1f 3e 29 be 5e 22 6d 3e
       -0.082516156 -0.0052207257 -0.16527604 0.23157641
0001e0 fe 99 65 bd 5d 9d 69 3d 60 22 1e be ff 17 25 3d
       -0.05605506 0.05703484 -0.154428 0.040306088
0001f0 df e4 e8 3c 41 e0 74 bd c1 fd df bd 5d a6 57 be
       0.028429447 -0.059784178 -0.109370716 -0.21059556

lstm.weight_hh_l0 f4 [128, 32]
000000 c1 6d d8 3d 53 d9 91 3d 9a 1e 7b bd c6 bb b3 bd
       0.10567809 0.071215294 -0.06130848 -0.08776049
000010 75 dc 14 be c0 c1 a1 3e e0 82 6a 3d 2b c2 a6 bd
       -0.14537223 0.31593132 0.05725372 -0.08142503
000020 89 14 16 be 2c 45 1d 3d 54 a5 8b be e7 97 26 bd
       -0.14656271 0.038396046 -0.27274573 -0.04067221
000030 36 74 e7 bd 06 d0 79 bc 7f f2 41 3e 12 8a a3 bd
       -0.11301462 -0.015247351 0.18940161 -0.07985319
000040 f8 22 17 be cb 7c 66 3d 9e 6f 9c bd 9e 8b 70 3e
       -0.14759433 0.056271356 -0.07638477 0.2349076
000050 cb a6 a0 be 8a d0 4c 3e b4 00 80 3d e9 f9 1b be
       -0.31377253 0.20001426 0.06250134 -0.15232052
000060 74 ea 64 3e 2d 8d 7f 3e 59 97 2e bd 47 fe db 3d
       0.22355062 0.24956198 -0.042624805 0.10741859
000070 e8 ae 53 be 04 57 ff 3d 78 5d 8c be 0f 90 4d 3d
       -0.2067219 0.12467769 -0.2741506 0.050186213
000080 a5 fd 6f bd c8 2d 40 bd 1f 10 b2 bc bd 5d 32 3e
       -0.058591504 -0.04691866 -0.021736203 0.17418571
000090 41 f2 39 be 59 d0 12 3e 86 a3 30 3e 6c bb 93 3b
       -0.18158819 0.14337291 0.17249879 0.0045084264
0000a0 52 b4 53 bd ea f4 0a 3e 21 1f 50 3c 91 f1 50 3e
       -0.05168564 0.1356999 0.012702734 0.2040465
0000b0 96 c2 cc bc ba e3 72 3d 3f 48 70 3d 42 2a 5e 3e
       -0.02499513 0.05929921 0.05866265 0.21695808
0000c0 a4 70 9a bd 99 fa b6 bd 4b 6c b5 3d 63 65 cb bd
       -0.07541016 -0.089345165 0.08858546 -0.09931447
0000d0 67 32 7f bd 57 fa 0d 3d e2 3a 4f 3d d0 ee 55 bc
       -0.062303927 0.03466257 0.050593264 -0.013057426
0000e0 9e 22 aa bc 5c c6 3a 3d 80 79 ca be 6f 3c cf 3a
       -0.02076846 0.045599326 -0.39545822 0.0015810857
0000f0 ca 67 51 be e4 0d 8e 3d 9d d5 21 bd 7d ee 20 be
       -0.20449749 0.06936243 -0.039510358 -0.15715976
000100 fa c7 25 be db 87 16 be d7 d3 d8 3d 33 1a c1 bd
       -0.16189566 -0.14700262 0.1058728 -0.09428825
000110 fe be bc 3b bd 53 0a be 8e b2 0d 3e c8 25 44 be
       0.0057600727 -0.13508506 0.13837644 -0.19155037
000120 ef 15 ae bd 20 07 38 3d c4 ab ac bd b6 48 46 bc
       -0.08500277 0.04492867 -0.08431199 -0.012102297
000130 26 bb 43 be 7f 21 3c 3e cf 6f c9 bd 58 59 69 3d
       -0.1911436 0.18372153 -0.09835779 0.05696997
000140 b9 75 20 be 80 0f 77 3d 4e 34 a1 3d df 57 13 3d
       -0.15669908 0.060317516 0.078713045 0.035972472
000150 22 49 92 bd 2d 9e b3 bd cc ac 3a be 8d 8b 75 3c
       -0.07142855 -0.08770404 -0.1822998 0.014986885
000160 0f 2f 56 3d 9b 8a a2 3d 7b 76 0d be f6 26 4f bd
       0.052290972 0.07936593 -0.13814728 -0.050574265
000170 e1 03 8c be 35 48 a6 bd 04 15 66 3d 03 78 06 be
       -0.2734671 -0.08119241 0.056172386 -0.13131718
000180 87 18 bb bd ae 2c c1 bc c2 f4 57 3e 77 69 56 3e
       -0.091355376 -0.023580875 0.21089461 0.20938669
000190 b8 7a 08 3e 89 96 59 3e 66 49 64 be ef d1 f3 3d
       0.13328063 0.21248831 -0.22293624 0.11905276
0001a0 94 2e 99 3d 87 13 f6 bd 38 b1 6d be 27 18 05 3c
       0.07479587 -0.12015443 -0.23212135 0.008123434
0001b0 f7 7d 7d 3d a3 37 23 bd c1 38 99 3d 5b c1 13 be
       0.061887708 -0.03984798 0.07481528 -0.14429228
0001c0 09 7b 8f 3d 9d 4d a7 bc 3d 36 ca 3d 93 5b 1a 3d
       0.07005889 -0.020422751 0.098736264 0.03768499
0001d0 4f 85 86 bb 48 39 35 3e 6c 61 df bc 9e a2 ad 3d
       -0.004105247 0.17697632 -0.027268134 0.084782824
0001e0 1d 06 ce bd d7 7c 60 3e ac f8 06 be ff ce d1 3d
       -0.1005976 0.21922623 -0.13180798 0.102445595
0001f0 8c 85 08 be 6c 12 1e be 58 0e b4 bd 8b c9 8e bd
       -0.13332194 -0.15436715 -0.08791798 -0.06972035
000200 fb a9 64 3d 32 b5 f7 bd c9 3f 35 bd 74 93 17 be
       0.05582617 -0.12095107 -0.044250283 -0.14802343
000210 88 b4 82 3e 68 2c 46 3e 13 ba 90 bd 71 00 46 bc
       0.2552836 0.19352877 -0.07066741 -0.012085066
000220 8e 9c 10 3e d0 c1 1a bd ae 6c 73 bd bc df 02 3c
       0.14122221 -0.03778249 -0.059429817 0.007987913
000230 45 fd 21 3e 47 61 04 3c 8d ac 00 3e d8 c9 0e be
       0.15819271 0.008079833 0.12565823 -0.13944185
000240 89 23 4d 3e 84 97 a1 3d 52 0c 54 3e eb 82 f3 bb
       0.20033087 0.078902274 0.20707825 -0.007431378
000250 cf 4f df bd 12 64 2e be 26 48 09 bd 6d 8a eb 3d
       -0.10903894 -0.17030361 -0.03351607 0.11501012
000260 3b 92 32 be 31 cd cc bd 9a b5 aa 3e f2 b4 01 be
       -0.17438595 -0.10000075 0.33341676 -0.12666681
000270 a8 21 bc bc 71 23 f5 bc f4 03 01 be f6 9d 5c 3e
       -0.022965267 -0.029924126 -0.12599164 0.21544632
000280 55 f8 5e be 6f 8b e2 3d 02 cd 20 be f8 fd be bd
       -0.21774419 0.11061751 -0.15703204 -0.093257844
000290 b4 71 1b bd dc 0e 69 3e 9a 1b 0f bd 65 ff 57 bc
       -0.037950233 0.22759575 -0.034938432 -0.013183449
0002a0 ba 3b 1c 3e 5d 80 32 3d 4b 29 d8 3d 08 95 19 3e
       0.15257159 0.043579448 0.10554751 0.14998257
0002b0 17 11 27 bd 02 f9 8f be 13 d0 ed 3c 50 ee 09 be
       -0.040787783 -0.28119665 0.029029882 -0.13469815
0002c0 50 87 14 bd 4c fc 0f 3e 14 c6 c4 3d fa fc f2 bc
       -0.036261857 0.14061087 0.09608093 -0.029661644
0002d0 3d 51 40 3d d4 a2 82 bd 46 cd 8e bc 6a a0 3c be
       0.046952475 -0.06378713 -0.017431866 -0.18420568
0002e0 1c e3 38 3e 5d 68 04 3e d2 64 25 3e 3d 5c 88 bd
       0.18055385 0.12930436 0.16151741 -0.06658218
0002f0 ec 9d bf 3c df 94 16 3e 05 98 97 bd 16 3c e6 3c
       0.023390733 0.14705227 -0.07402042 0.028104823
000300 c0 a6 42 bd 87 cd 37 3d 16 e9 00 bc b1 67 38 be
       -0.047522306 0.04487374 -0.007868072 -0.18008305
000310 6c df 9c bd 80 f7 14 be e8 04 07 be ae 42 b0 bc
       -0.07659802 -0.14547539 -0.13185465 -0.02151617
000320 41 3a 9c 3d 60 44 20 be 3d 41 2d be e6 c0 70 3e
       0.076282986 -0.15651083 -0.16919418 0.23511085
000330 fe d8 42 be f8 9b aa bd 78 55 9b 3e 4e a1 c4 3c
       -0.19028088 -0.0833053 0.30338645 0.024002697
000340 8a 63 2e bd 0e 4f ad 3d f1 70 21 bc 00 89 95 bd
       -0.042575397 0.08462344 -0.0098535875 -0.07301521
000350 05 2f 4b 3d 5c 3f e3 3e c3 b3 b7 bd 0f 88 9a be
       0.04960539 0.44384277 -0.08969834 -0.3018193
000360 30 cd c1 3b b8 c2 66 3d 4e d4 c7 ba a2 85 68 3e
       0.005914353 0.056338042 -0.0015245767 0.22707227
000370 b6 a0 7c bd 66 cb 86 3c c2 b5 3f 3d 39 eb 78 3d
       -0.061676703 0.01645441 0.046804197 0.0607712
000380 70 b3 08 3e 4e 70 5e bd c8 25 6b 3e 31 c3 03 3e
       0.133497 -0.05430632 0.22963631 0.12867428
000390 ca 64 89 bd da ba 28 bd 04 04 f8 bd 43 27 d4 bd
       -0.06708677 -0.04119382 -0.12110141 -0.10359051
0003a0 9f 26 74 bd 49 1f 78 be 9d b4 9c 3d 36 2a a3 3e
       -0.059607144 -0.24230684 0.07651637 0.31868142
0003b0 f6 f9 53 be 7e ed 8d bc 11 ff 54 3d 8f 15 86 be
       -0.20700821 -0.01732516 0.052001063 -0.26188323
0003c0 1f 55 6f be 06 ac 10 3e f9 ff 2d 3e 8f be f2 3e
       -0.23372315 0.14128122 0.16992177 0.4741101
0003d0 c7 ad 02 be b0 59 31 3d 7b c3 5b be e2 d7 32 be
       -0.12761603 0.043298423 -0.21461289 -0.17465165
0003e0 af 4b 0d be 89 49 b9 3d 77 5a 53 be 26 bf 27 3e
       -0.13798402 0.09047229 -0.20639978 0.16381511
0003f0 87 3a 4a 3e c0 95 59 3e c8 91 f3 bd 18 7d 93 3d
       0.19748889 0.21248531 -0.1189304 0.07201594

lstm.bias_ih_l0 f4 [128]
000000 2c bc 5f bd f1 e9 56 3c 26 28 6a bd 80 ed 0d bd
       -0.054622814 0.013117299 -0.057167195 -0.034650326
000010 b4 0b e5 bc 93 67 f4 bd 5f cb 28 3e b5 14 70 bd
       -0.027959682 -0.11933818 0.1648383 -0.058613498
000020 91 36 e9 bd 69 9a 01 3e 41 42 93 bd 5b b0 6b bd
       -0.11387361 0.12656559 -0.07190371 -0.057541233
000030 37 9b f3 3d cf e2 9d be 9a a8 0d 3d 56 9a 53 be
       0.11894839 -0.30837104 0.03458462 -0.20664343
000040 e7 54 b0 3d bd 89 20 3b 89 9b 2f 3d 1f 83 e7 bd
       0.08609944 0.002449616 0.04287294 -0.11304306
000050 69 5f 42 39 7f 0f 66 bd ac f8 9e 3c d9 31 46 be
       0.00018536825 -0.056167122 0.019405685 -0.19354953
000060 83 4b a1 bd ce 89 5c be d7 f8 63 be 0f f8 82 3d
       -0.07875731 -0.21536943 -0.22262894 0.0639497
000070 30 d9 6f be 51 af eb bd a7 86 a8 be 14 4c c3 bd
       -0.23422694 -0.11508048 -0.32915232 -0.09535995
000080 e0 25 24 be b2 e4 4a bd 97 77 a0 3d ae d2 22 be
       -0.16030073 -0.049534507 0.0783531 -0.1590068
000090 18 51 a4 bc 66 ed 27 3e 46 bc b2 3b 56 d0 59 3d
       -0.0200582 0.16399154 0.005454573 0.0531772
0000a0 16 a5 23 be 04 01 b9 3c 7e 42 c7 3c 74 77 8f bd
       -0.15980944 0.022583492 0.024323698 -0.07005206
0000b0 b6 b0 87 ba 1d 99 b7 be 22 47 35 be c6 d9 77 3d
       -0.0010352347 -0.35859004 -0.17702916 0.06051042
0000c0 68 0d 4c be ee 96 aa be 64 e5 10 be 6c f1 42 3d
       -0.19926989 -0.33318275 -0.14150006 0.04759352
0000d0 96 fd 4e be 5d 8e 88 bd d3 a9 35 be 5b df 48 be
       -0.20213923 -0.06667779 -0.17740564 -0.19616453
0000e0 b3 bb 25 bd f5 84 9b bd ee 79 b5 bc 4e 2e a8 bd
       -0.040462207 -0.07593719 -0.022152867 -0.08211957
0000f0 63 16 73 be 5f ea 64 bd 63 18 59 be 0f 70 34 be
       -0.23739009 -0.055887576 -0.21200709 -0.17620872
000100 d3 68 08 be da 9d 0b be 03 26 f8 bd c3 a1 3f bd
       -0.13321237 -0.13634434 -0.12116625 -0.046785127
000110 65 78 a3 bd 21 7f 4d be 45 37 31 3e b3 b9 f8 bd
       -0.07981948 -0.20068027 0.1730624 -0.12144794
000120 a3 98 1e 3d 85 c1 d8 bd 15 79 c6 bd 21 b3 f0 bc
       0.038719784 -0.10583786 -0.09691063 -0.02938229
000130 bd 41 01 be 1d 40 63 bd 6a 9a 48 3e 3c 6c c2 bb
       -0.12622733 -0.055481065 0.19590154 -0.0059333127
000140 c0 14 e3 3d ce d3 dd 3a 64 4e 64 bd 03 49 23 3d
       0.11087942 0.0016924085 -0.05573882 0.03986455
000150 ae a7 bd bd 3a 7b 03 3e 9c f2 fa bd 34 df 39 be
       -0.09260498 0.12839976 -0.12253305 -0.18151551
000160 1d 6d b7 3d 05 8e 6e 3d c0 1b 9d bd 80 d8 88 3e
       0.089563586 0.05824091 -0.076713085 0.26727676
000170 7f 1f aa bd c8 17 1e bd e2 f2 db bd a3 70 bb bc
       -0.08306789 -0.0385969 -0.107396856 -0.022880858
000180 00 27 da 3d 1b d0 25 3e 16 b7 46 be 5f f3 e9 3c
       0.1065197 0.16192667 -0.19405779 0.028558431
000190 2b 08 90 bb 3f 24 ed 3c ad bd c1 3c 31 61 ae 3d
       -0.004395505 0.028947948 0.023650015 0.085146315
0001a0 8b 12 f8 bd fc 80 09 be a3 1c 19 be 8b 31 00 3e
       -0.12112912 -0.1342811 -0.1495233 0.12518899
0001b0 5b a8 0c be 5c f7 9e be 9b 0a 3d bd 3a f6 6b be
       -0.13736098 -0.31048095 -0.046152692 -0.23043147
0001c0 9f 8a ef 3d f3 d9 fa 3d 2b 33 88 be 6d 89 07 be
       0.11696362 0.12248602 -0.26601538 -0.13236018
0001d0 fe fb 4e 3d 7d d4 24 be 75 cb d3 bd ad 6d 8d bd
       0.050533287 -0.16096683 -0.10341541 -0.069056846
0001e0 fe 06 06 bd 84 5b 10 bb a5 53 a3 be 8a 55 79 3e
       -0.032721512 -0.0022027204 -0.31899753 0.24349037
0001f0 55 bc d2 bd 78 bf c3 3c 59 72 b1 be ee 1a 59 be
       -0.10289828 0.02389501 -0.34657553 -0.21201679

lstm.bias_hh_l0 f4 [128]
000000 19 26 31 be 14 08 f1 bb df fb 85 bd ee 89 8a 3d
       -0.1729969 -0.0073556993 -0.06542181 0.06764589
000010 3a d9 ed bc a0 58 9e 3d 88 5e 99 3e 08 a6 aa 3c
       -0.029034246 0.077317476 0.29954934 0.020831123
000020 bf 5f a7 bd d2 2b 3f be 59 2c 55 be f9 59 1b bc
       -0.08172559 -0.1866906 -0.20817699 -0.0094819
000030 3f 03 70 3d c4 a9 32 be 9d 9e 3b be 3b 8c 66 be
       0.058596846 -0.17447573 -0.18322225 -0.22514431
000040 c8 6a b6 3d dd 4f c3 bd 11 f3 03 be 84 05 38 3e
       0.08907086 -0.09536717 -0.12885691 0.17970854
000050 12 fb a3 bd e4 0b 5a be 8a 97 22 be ec ab 48 be
       -0.08006872 -0.21293598 -0.1587812 -0.19596833
000060 31 5b bb bd 44 5a 78 bb cc 44 d9 bd 48 7b d9 3d
       -0.09148253 -0.00378956 -0.10608825 0.10619217
000070 21 36 30 be 9f 55 0c be 2e db a8 bd 78 aa a6 be
       -0.17208149 -0.13704537 -0.0824493 -0.32551932
000080 0f b9 06 be 27 dd 01 be 30 99 1f bd 4c 25 56 bd
       -0.13156532 -0.12682019 -0.03896445 -0.052281663
000090 91 c3 48 be d2 0b 02 3d f9 80 7d bd 07 05 44 be
       -0.19605853 0.031749554 -0.061890576 -0.19142543
0000a0 bc df 88 be d1 a1 7a bd 0c 78 a2 bd fe e8 cc bd
       -0.26733196 -0.061189476 -0.079330534 -0.10005377
0000b0 ad 3f 04 be fd aa b6 be 8a 6e 85 bc 81 c9 86 3d
       -0.12914915 -0.3567733 -0.01628806 0.065814026
0000c0 6a 14 08 be 16 88 aa be c6 32 83 be cb 53 50 be
       -0.13289037 -0.3330695 -0.25624675 -0.20344464
0000d0 84 27 3b be fd 7e 97 3d 09 65 8f be 49 c0 f9 bd
       -0.18276793 0.07397268 -0.2800677 -0.121948786
0000e0 79 3a 04 be 43 2f 40 bd 2a 76 81 be 16 76 3f 3d
       -0.1291293 -0.046920072 -0.25285465 0.046743475
0000f0 69 bb 2b be 00 be 39 be f2 fc 72 be 64 99 ca bd
       -0.1677071 -0.18138885 -0.23729303 -0.09892538
000100 7e b9 5e 3c ff c6 03 3e 9f b7 dd bc e3 2e c5 bd
       0.0135940295 0.1286888 -0.027065096 -0.096280836
000110 62 26 d4 bc 1c f9 d7 bd c5 9d bb bd 87 b5 39 3e
       -0.025897209 -0.10545561 -0.091609515 0.18135653
000120 90 54 7c bd 49 52 99 bd 54 22 33 3d 86 ec f5 3d
       -0.061604083 -0.07486398 0.04373391 0.12008004
000130 0e 3d de bd ab e4 b8 3a e6 71 7b 3d b2 f5 0f be
       -0.10851489 0.0014106234 0.06138792 -0.14058569
000140 d3 17 db bd 0e c9 18 bd 96 95 66 3b e1 80 81 3d
       -0.106979035 -0.037301116 0.0035184375 0.0632341
000150 17 81 2c 3e ed af 78 bb ca f0 c8 bd a4 55 68 be
       0.16846119 -0.0037946657 -0.09811552 -0.2268892
000160 70 67 92 3d 95 01 a1 bc 29 8f e1 bd 9f 72 00 3e
       0.071486354 -0.019654075 -0.11013634 0.12543724
000170 5c 11 33 3e e8 22 0b 3e 2c b3 73 bc 90 c0 d5 bc
       0.17487091 0.13587534 -0.014874261 -0.026092798
000180 0d ea 1e be ff a0 e4 bd 54 fb 96 bd 7d cf 03 be
       -0.15518971 -0.1116352 -0.07372156 -0.12872119
000190 cd 14 36 be 03 da 2c 3d b3 65 54 3e e7 38 4b bd
       -0.17781372 0.0422001 0.2074192 -0.049614813
0001a0 80 72 a3 3c ba 5f ed 3d e5 4e 89 be 55 2e cf bd
       0.019952059 0.11590524 -0.26818004 -0.10116259
0001b0 fe 80 a8 3d 46 2a b4 be 47 f8 20 bd 2f 68 29 be
       0.08227728 -0.35188502 -0.039299276 -0.16543649
0001c0 b0 2b 31 bd 33 38 60 3a 30 aa 3c be e9 6f be 3d
       -0.043254554 0.0008553296 -0.18424296 0.09298689
0001d0 d3 38 80 bd c0 ff a7 bd d2 cd 86 be 86 38 6d be
       -0.06260838 -0.08203077 -0.26328903 -0.23166093
0001e0 18 51 15 3e 46 4b 2c be 7c 09 d2 bc e1 37 c6 3d
       0.14581716 -0.1682559 -0.025639288 0.09678627
0001f0 21 18 fb bd c1 00 d9 3b 64 84 1e be 54 92 5e be
       -0.122604616 0.0066224043 -0.1548019 -0.21735507

layer_norm.weight f4 [32]
000000 25 53 80 3f e8 df 78 3f 41 bf 6c 3f fa 71 71 3f
       1.0025374 0.97216654 0.9247933 0.9431454
000010 29 e8 6a 3f ff 8f 68 3f 1e 3c 8f 3f b2 d7 81 3f
       0.917605 0.9084472 1.1190221 1.014395
000020 4b 66 73 3f cd ff 5e 3f 45 dd 4d 3f 55 23 81 3f
       0.9507796 0.8710907 0.80415756 1.0088907
000030 2f 5e 7c 3f 55 f3 47 3f 15 22 7a 3f 6f fe 60 3f
       0.9858121 0.7810567 0.97708255 0.87888235
000040 b2 78 82 3f 54 76 84 3f 00 33 5f 3f e6 c5 81 3f
       1.0193083 1.0348611 0.87187195 1.0138519
000050 f1 27 6a 3f fa 0c 62 3f 83 5b 7b 3f ec 36 6d 3f
       0.91467196 0.8830105 0.9818651 0.9266193
000060 4f 2a 7f 3f 23 6b 5c 3f 31 2d 47 3f f7 e9 80 3f
       0.9967393 0.8610098 0.7780333 1.00714
000070 23 cf 7e 3f ca a6 87 3f 46 86 4e 3f 21 88 57 3f
       0.99534816 1.0597775 0.80673635 0.8419209

layer_norm.bias f4 [32]
000000 ea 5c bd 3c 13 a2 23 bd 69 a1 94 3d a0 41 64 3d
       0.023115594 -0.039949488 0.07257349 0.055726647
000010 c7 ff 34 3d 44 9a c7 3c 31 9e 6a 3c b5 e4 f6 3a
       0.04418924 0.024365552 0.014319942 0.001883647
000020 19 13 cb bd 79 8f 38 3e 73 91 bb bd 40 36 b3 bc
       -0.09915752 0.1802348 -0.091586016 -0.021876454
000030 cb 0b 26 bc 61 10 2e 3e 56 5f 60 3c 27 ad 5d bd
       -0.010134648 0.16998436 0.013694605 -0.05412021
000040 98 f6 8c 3c d2 02 dd bc ae ee 56 3d c5 4f c4 bb
       0.017207429 -0.026978884 0.052473716 -0.0059909546
000050 fd 79 1f bd 06 01 64 bd 78 a2 19 3d 9b a8 d0 3c
       -0.038934696 -0.05566504 0.037508458 0.025471022
000060 3f 7b 28 bc e1 d6 34 3d c9 a8 7e bd b5 9e 55 3b
       -0.01028329 0.044150237 -0.062172685 0.0032595817
000070 f9 09 aa bc e3 ca 15 bc 67 81 86 bd 42 a1 a1 bd
       -0.020756708 -0.00914261 -0.0656765 -0.078920856

linear1.weight f4 [32, 32]
000000 5c 1f 91 3d 8b 9d 50 bd 65 14 eb 3d a1 6b 96 3d
       0.070860595 -0.050931495 0.11478499 0.07344747
000010 6b 2e ab bc df 26 00 be 30 da 06 bd 75 ba 18 be
       -0.020896157 -0.12514828 -0.032922924 -0.14914878
000020 5a 1b 9c bb 55 d1 d2 bd 13 6c 2d 3e 9d 68 a9 3d
       -0.0047640027 -0.10293833 0.16935758 0.082719065
000030 eb 0c d4 bb d8 d4 81 bc f5 40 17 3e 6d 2d da bd
       -0.0064712665 -0.015848562 0.14770873 -0.106531955
000040 2d 6e a7 be f6 ed bc 3d 65 6e b9 3d 65 20 6a 3e
       -0.32701245 0.09225075 0.09054259 0.2286392
000050 31 14 0d bd 00 ea be 3b e6 c7 fb bc 61 c8 f4 3d
       -0.034443084 0.005826235 -0.030734967 0.11952282
000060 49 03 72 bd ee ac 5d bd c0 b7 39 3e b7 62 02 3e
       -0.059085164 -0.054119997 0.18136501 0.12732969
000070 c6 fc 50 3e 08 13 45 3e 8a 16 92 3b 79 47 99 bc
       0.20408925 0.19245541 0.0044582533 -0.018710839
000080 06 7f 3d 3e 1d 10 2c bd 07 18 66 3e 83 1e b0 bd
       0.18505487 -0.042007554 0.22470103 -0.0859957
000090 d0 cd 36 3d 0a 2a ff 3d 23 b5 b9 bd d6 5f 27 be
       0.04462987 0.1245919 -0.09067752 -0.16345152
0000a0 50 36 30 3c 56 a0 b6 3d 57 c6 d5 bd f6 a6 13 be
       0.010755137 0.089173004 -0.10438221 -0.1441916
0000b0 2c a7 c6 3d dc 73 2d bd ac 58 10 3c 72 24 99 bc
       0.09699854 -0.04234682 0.0088102035 -0.018694136
0000c0 ed 8b f9 3d ce a8 bf bd 2d ac 2d bd 36 75 29 be
       0.12184892 -0.09358369 -0.042400528 -0.16548619
0000d0 c4 e6 0b be 4a cd e7 bc 49 98 4c 3c 5a b2 05 3e
       -0.13662249 -0.028296132 0.0124874795 0.13056317
0000e0 28 31 79 bd c0 5f 8e ba 19 49 9c bd 56 3a 26 be
       -0.060837895 -0.0010862276 -0.0763113 -0.16233191
0000f0 40 32 67 be 99 40 3b be b6 a5 bf 3b 25 dd 11 3c
       -0.22577763 -0.18286361 0.0058486117 0.008902823
000100 3a 46 c0 3d 24 fe 04 3e 6e d5 65 bd aa 52 9b bd
       0.09388395 0.12987572 -0.056111746 -0.07584126
000110 4e b8 05 be 01 be 66 3d 94 95 6d be 46 d3 1a be
       -0.13058588 0.056333546 -0.23201591 -0.15119657
000120 0d 39 e1 bd ac a7 bc bd f8 5b 0e 3e e8 2b 70 3e
       -0.1099721 -0.09211668 0.13902271 0.23454249
000130 8c e6 e5 3d a4 65 bc 3d a9 cc 5f 3e a6 08 90 3c
       0.11225614 0.09199074 0.21855415 0.017582249
000140 ee c9 84 be 8e cf 77 3c a7 da d9 bc 2b 27 db 3d
       -0.2593531 0.0151251685 -0.02659352 0.1070083
000150 7d b4 23 3e 5e 3f 87 3d f1 8f 13 bc ff b5 d3 3c
       0.1598682 0.06603883 -0.009006486 0.025843618
000160 7c 97 14 bd 4f 94 74 be 84 b6 21 3d 31 d4 5c 3c
       -0.03627728 -0.238847 0.0394807 0.013478325
000170 ed bb b9 3d 11 52 57 bd 4a b0 1b 3d 98 fe ad bc
       0.09069047 -0.0525685 0.03800992 -0.021239564
000180 2c f2 11 3d ff 47 28 bd bf 02 29 be 3c 4f f4 bd
       0.035631344 -0.041084286 -0.16504954 -0.11929175
000190 c4 5c 00 3e 00 00 32 3e ad f5 a2 bd bf 92 96 bd
       0.12535387 0.17382812 -0.07957015 -0.07352208
0001a0 b6 4c 32 bd 61 2c 22 bd 54 b5 1e bd 8f aa 8a bd
       -0.04353019 -0.039593104 -0.038747147 -0.06770813
0001b0 38 f5 3f 3e 3b 09 3d be 0d b3 85 3c 3e c2 97 bd
       0.18745887 -0.18460552 0.01632073 -0.07410096
0001c0 e7 18 30 be 8d 12 32 3c c5 f9 9f 3d 23 be 1e 3e
       -0.17197 0.010868681 0.07811312 0.15502219
0001d0 5a 8d 09 bd c6 ce 3d bd b9 9b c4 3d d4 e2 88 3d
       -0.03358207 -0.046339773 0.09600014 0.06683889
0001e0 79 82 1e be cb 4e 98 3d 05 f4 31 3c ad e2 83 3c
       -0.15479459 0.074369036 0.010861401 0.016099298
0001f0 6b 68 f9 3c 2f 80 3a 3e 0e e7 5f bc 8a a9 74 bd
       0.030445298 0.1821296 -0.013665928 -0.059731998
000200 be fe 1f 3d ef 36 c6 b8 1f a1 3f 3d 84 d2 32 3d
       0.0390613 -9.451608e-05 0.046784516 0.043657795
000210 19 a4 bb 3e 41 f3 11 3e 81 b1 85 3e 92 50 81 3d
       0.36648634 0.1425295 0.26111987 0.06314196
000220 b4 d2 4c be af 8d 9b 3e 8c 9f cf 3c d7 fe 03 be
       -0.20002252 0.30381534 0.025344633 -0.12890182
000230 e3 53 92 bb 17 7f 86 3e 00 37 b7 be de 44 95 bc
       -0.0044655665 0.26268837 -0.3578415 -0.018221315
000240 50 50 34 3e ea 48 05 be 28 06 19 3e 0a 46 1e bd
       0.17608762 -0.13016096 0.14943755 -0.038641013
000250 44 09 8b be af 24 97 bd 49 27 e0 3d db 33 30 3e
       -0.27155507 -0.07380044 0.10944993 0.17207281
000260 52 a3 a9 bd ab d6 7e 3d 17 fa 36 3c e7 7f 92 be
       -0.08283104 0.062216442 0.0111680245 -0.28613207
000270 51 66 24 bd 9e a0 62 be 45 b7 88 bd a5 b4 21 3d
       -0.04013664 -0.22131583 -0.06675581 0.039478917
000280 7c 00 f6 3d eb 90 71 bd 7f d6 68 3e 85 c9 f8 3d
       0.12011811 -0.058976095 0.22738074 0.12147812
000290 f1 70 80 3d 0f 4a e2 3d fe fc 08 be 84 40 93 3c
       0.06271542 0.11049282 -0.13377759 0.0179751
0002a0 3a c3 18 3c ed 33 1c 3e 15 79 00 3e e1 23 50 3d
       0.009323889 0.15254183 0.12546189 0.050815467
0002b0 70 b8 e3 3d 6f fe 39 3e 6b 6f fd bd 45 63 1c 3e
       0.11119163 0.18163465 -0.12374767 0.15272243
0002c0 44 ad 97 3d aa 64 da bc ce 29 eb 3d a2 c2 b6 bd
       0.07406095 -0.026659328 0.11482583 -0.08923842
0002d0 9d 69 ce 3d ee 08 23 be 85 33 25 bd 7b 21 49 bd
       0.10078738 -0.15921375 -0.040332336 -0.049104195
0002e0 72 62 1d be 70 4a e7 3d 1f a1 55 bd 36 b2 02 be
       -0.15369585 0.11293495 -0.05215561 -0.12763295
0002f0 48 c6 f6 bd c8 3a d3 3d 38 b4 ab 3d 88 08 dc 3d
       -0.12049538 0.10313946 0.083839834 0.10743815
000300 90 5f b0 3d f7 6b eb 3d 6a 87 1d 3e 9a 91 ec 3d
       0.08611977 0.11495202 0.15383688 0.11551209
000310 7a 49 c0 3d 73 be 06 3e 20 5b 4f 3e 9e 17 b8 bd
       0.093890145 0.13158588 0.20249605 -0.089888796
000320 d2 18 00 bc 3f 22 50 3e a7 93 b0 3d df d2 86 be
       -0.007818418 0.20325564 0.086219124 -0.26332757
000330 04 e5 fa 3d d9 38 fb 3d e9 36 a5 be 6e 66 b0 bd
       0.122507125 0.12266702 -0.32268456 -0.08613287
000340 40 9c 7c 3e d7 26 d8 bd 44 79 1e be ee 0f 2c bc
       0.2466898 -0.10554283 -0.15475947 -0.010501845
000350 f9 bb fa bc ef 74 42 be fc 9c f0 3d 4f c8 9c 3d
       -0.03060721 -0.18989919 0.117486924 0.07655393
000360 67 03 8a 3c ae 0c fc 3d 7d dc f5 3d 69 c3 85 be
       0.016847325 0.12307106 0.120049454 -0.2612565
000370 8b 5f b1 be 97 d8 88 be d8 85 d0 3d 89 d8 0f bd
       -0.34643206 -0.26727745 0.10181779 -0.035118613
000380 0c 8e 39 bd 60 75 fb bd f9 24 45 bd 27 09 0c 3e
       -0.045301482 -0.12278247 -0.048130963 0.13675366
000390 c1 91 0f bd 98 6b f6 bc d1 39 e6 bd 76 a8 57 bd
       -0.03505111 -0.030080602 -0.11241496 -0.05265089
0003a0 e8 86 50 be 36 57 b6 3d a8 b2 03 3e 7a d3 47 3e
       -0.20363963 0.08903353 0.1286112 0.19514266
0003b0 be e2 d7 3d 65 88 59 be b6 0a 61 3e 2b bf 95 3e
       0.105412945 -0.21243437 0.21976742 0.29247412
0003c0 4a aa 89 bd 48 27 45 3e 59 02 86 3e c5 99 b5 3e
       -0.06721933 0.19253266 0.26173666 0.3546888
0003d0 ce d6 a4 3d 3a ed e7 bd d4 4c c5 bd 35 cc 41 be
       0.08048783 -0.11324544 -0.096337944 -0.18925555
0003e0 bf 99 8d 3c 16 d9 3d be 8c 1d 61 be 3b 04 20 3e
       0.017285226 -0.18539843 -0.21983927 0.15626614
0003f0 28 73 7f 3e c8 9e 43 3e 14 52 0c be 89 ed f3 3d
       0.24946272 0.19103539 -0.13703185 0.119105406

linear1.bias f4 [32]
000000 92 5c 58 3d f4 ee 26 be 69 c8 ee bc 80 d6 03 be
       0.052822657 -0.16302091 -0.029148297 -0.12874794
000010 9e 93 70 be d5 0e 2a be bf 00 cb 3c 87 e9 7a 3d
       -0.23493811 -0.1660722 0.02478063 0.061257865
000020 a9 49 a4 3d bb 0d 10 3e e4 5f 8b b8 d8 75 0c be
       0.08021862 0.14067738 -6.6458975e-05 -0.13716829
000030 a0 60 1c 3e 12 a7 04 3e 12 f8 a0 bd c2 f0 4a be
       0.15271235 0.12954357 -0.07859816 -0.19818404
000040 0b a9 80 bd fd 88 e7 bd a1 9c 0e bd 42 a5 75 bb
       -0.062822424 -0.11305425 -0.03481734 -0.0037482535
000050 b4 43 1a be 0f 56 93 bc f5 b6 10 be 2c 3b 85 3d
       -0.15064889 -0.017985372 -0.14132293 0.06505427
000060 27 3c 9f 3d b9 9d d2 bd 25 55 a3 3d 4b d6 1b be
       0.07775145 -0.102839895 0.079752244 -0.15218465
000070 2a 62 e4 3d ca d6 6b bd b4 69 3a bd ef f7 4a 3c
       0.11151536 -0.057577886 -0.045510963 0.012388214

linear2.weight f4 [1, 32]
000000 ed 52 98 3d 2d 34 8c bd 13 59 a9 3d 4d b0 d5 3c
       0.07437692 -0.06845889 0.08268943 0.026085043
000010 c6 a5 e4 bd 8f 25 5f 3b a4 6f 34 bd 24 a9 2a 3e
       -0.11164431 0.0034049486 -0.04405178 0.16666085
000020 5d c6 39 3d be 2c 05 3e 9a a9 ba bc a9 5d 34 bb
       0.04535519 0.13005349 -0.02278595 -0.0027521646
000030 39 ea bf 3d 65 b5 8d bd b7 4d ac bd 7e 9e 3b 3d
       0.09370846 -0.06919364 -0.084132604 0.045805447
000040 ac db 8b 3c 3d 5e b4 bd f1 5b 65 bc 3b 6f 03 be
       0.017072521 -0.08807037 -0.013998971 -0.128354
000050 e2 8e 19 3d 88 7c 02 bc ee 13 30 3d 4e be ec bd
       0.03748978 -0.007964261 0.042987756 -0.11559735
000060 f8 f0 d3 bb a4 3c 1f 3c 02 e4 e4 bc 38 02 33 3e
       -0.0064679347 0.009719048 -0.027940754 0.17481315
000070 00 62 8f 3d 94 a5 d1 3d 49 ba 02 3e 6d 5c 57 3d
       0.07001114 0.1023666 0.12766375 0.05257838
