labml_nn/lstm/LSTM_THz/model_combine_322r1.pth (torch, 339272 bytes, 9 tensors)

lstm.weight_ih_l0 f4 [512, 1]
00000000: fd00 c13d e0e8 ab3e b81a d7bd 8b77 3f3e
00000010: 12df 203e eca7 50bc cce7 cc3d 1366 5c3e
00000020: dfc2 d4bd 849c 4cbe aea5 44be 5fc6 123e
00000030: 7780 903d 5776 1c3e 06e5 adbd b7fc 023e
00000040: 0594 f03d 6160 483e 038b 883d cd98 be3d
00000050: cb0a 1b3e 8054 0ebe 2583 0a3e b20a 5d3e
00000060: 3a64 7e3e dc4e 093e 2ec5 6cbd 68de cb3c
00000070: fa2a 653e d10f d13d a930 aa3d 879e 73be
00000080: 9422 f13d 8356 27bd 8d0d 153e d8f2 483e
00000090: d620 b6ba 7679 063e bae0 7f3d 55d6 623e
000000a0: d5d3 b13d 87e4 5c3e 5072 853d fe2b c03d
000000b0: eb91 20bd b35a 163e 0813 04bf 4c77 e4ba
000000c0: e0e1 0dbf f5b7 cd3b 7f7d 323e 07e4 4e3e
000000d0: 8d6d 803d 33f2 003e f4e2 d93e 917c f7bd
000000e0: eef1 203e 9120 0f3e c288 ce3e b216 c8bc
000000f0: ca72 433e a33a ff3d cc3a 7f3e 3ac8 e43d
00000100: 26fa b5bd f019 6a3e 14df 13be 1d8b aabe
00000110: 7917 9fbd 1a16 353e d1ab dd3d a91f 9b3c
00000120: 775d aa3e b37c d33c 013d 493d d030 c43d
00000130: eda0 b2be 932a 7d3e 49c7 963e f876 82bd
00000140: dca9 363d d7e5 98bd 948c bdbb 605b 8c3e
00000150: acfc 43be e9a5 c83c f233 923c e698 1c3e
00000160: 96ea 993d c940 58be 8001 463e e9fb 1a3e
00000170: 76e6 183e 5b04 f83c 2452 8fbe 1c4f 203d
00000180: 0d11 c73d 0e55 14be db50 8f3d babb 1fbe
00000190: f4c8 323e 0767 27be 0ffa 51be 1a5a f03d
000001a0: 42b9 613e f3b4 0b3e 6f11 a33d b6c9 1a3d
000001b0: 7b86 853d eef3 193e 806d e63d eccc b53d
000001c0: 9a24 f4bc f282 433e 7e6e c8bd 3d6d 31be
000001d0: 9839 fe3d 2eab 0dbe 8432 693e 4b3a dfbd
000001e0: 0348 813e 7aeb 333e d301 c13d 8e1c f83d
000001f0: 59ea 3f3e ce87 6d3e c1ae f03d 302a 4b3e
00000200: c3ec 813e 71a3 9b3e d55a 0bbe 3ab0 663e
00000210: 5e3b 963e 8d37 913d 466b 913d 4e5d 8a3e
00000220: 6112 20be 0a17 7ebe 04ce 95be 919f 443e
00000230: b0ab f23d 9131 0a3e cf7b 11bd cc09 1b3e
00000240: fe82 d13d 86ad 303e 1f2f 333e 14d0 de3d
00000250: 2b7d 463e 7a8a ed3d 1955 003e f029 9e3e
00000260: dfca 653e 7020 283d 9b7f 8dbd e6c4 96bd
00000270: f735 403e 1208 343e 016f 113e 6190 16be
00000280: 4e24 453e 313e 883b d12b 5d3e cad9 783e
00000290: 6cf0 213d 0aeb 833e 946f 1a3e b16e 6d3e
000002a0: ef4a 303e 4208 043e e1f9 4a3e 2c72 c23d
000002b0: a6db 503e 74e0 553e 6e89 19be a146 b83d
000002c0: c440 81be 1a35 b53d 5935 143e 3d9d 843e
000002d0: 1213 c63d 1df1 e33d 13ff 8b3e 8208 a0be
000002e0: b84c 6c3e ad1d 503d 6465 743e 2b1c 063e
000002f0: da1a 0b3e e156 f23d a47b 473e ae9c 153e
00000300: ea70 2fbd bb88 4f3e 1c71 be3d ef76 a4be
00000310: 2cc5 f9bd 3da2 3a3e 7f77 8e3e 3eb5 3cbe
00000320: bcd6 7d3e 734f e0bd c24a 1c3e 3746 203e
00000330: d155 babe 04b0 853e 0058 bc3e 44d8 a03d
00000340: 5479 713e 4459 bdbc a214 4e3e b4d4 603e
00000350: 78ea d03d 9e09 90bd e10d 393e 50bf 103e
00000360: 233f b33d 2132 91bd b3b6 da3d 82c5 633e
00000370: d342 653e 0ef1 553e 0a6a 74be 9e9f 4dbe
00000380: ed68 833d ac87 b8bd 3aac d23d 9da8 30bd
00000390: 400f 523e d0be 313e cce0 d7bd 5350 7a3e
000003a0: 89a6 2d3e 89cc 8b3e ae50 053e 1e38 3c3d
000003b0: c707 733e adf4 6a3e de24 343e a38d 6d3e
000003c0: e0ce 143e 472b 273e 700b 16be c4bf b63d
000003d0: e598 013e 904d 9cbe 5c2d 573e e72d 6cbe
000003e0: f7f4 9a3e c359 5b3d 70fc 783e 8514 403e
000003f0: 0062 373e 0c6d 823e 0e2d 3c3d 238d eb3d
0.094240166 0.33576107 -0.10503143 0.18697946 0.15710095 -0.012735348 0.10005149 0.21523313
-0.10388731 -0.19981581 -0.19203827 0.14333485 0.07055753 0.15279518 -0.084909484 0.12791716
0.117469825 0.19568016 0.066671394 0.09306488 0.15140836 -0.13899422 0.1352659 0.21586111
0.24842921 0.13408989 -0.057805233 0.024886325 0.22379676 0.10208095 0.083100624 -0.23790942
0.117741734 -0.04085399 0.1455595 0.19623888 -0.0013895284 0.13132271 0.062470175 0.22152074
0.08682982 0.21571551 0.06515944 0.09383391 -0.03920166 0.14683037 -0.5159154 -0.0017430573
-0.5542278 0.006278033 0.17430685 0.20204173 0.06270895 0.12592392 0.42555964 -0.12084306
0.15717289 0.13977267 0.40338713 -0.024424884 0.19086757 0.12462356 0.24924773 0.11171003
-0.08885603 0.22861457 -0.14440566 -0.3330926 -0.07768149 0.17684212 0.10823787 0.018935995
0.33274433 0.025816297 0.049130443 0.09579623 -0.34888402 0.24723272 0.29448918 -0.06370348
0.044595584 -0.074657135 -0.0057845805 0.27413464 -0.19139355 0.024493175 0.017847035 0.15292701
0.07515447 -0.21118464 0.1933651 0.15135159 0.14931664 0.030275514 -0.27992356 0.039137945
0.09720049 -0.14485571 0.06997844 -0.15598956 0.1745947 -0.16347896 -0.20505546 0.117359355
0.22043326 0.13643245 0.079623096 0.037790023 0.06519791 0.15034458 0.11251354 0.08876976
-0.02980261 0.1909292 -0.097867 -0.17326827 0.12413329 -0.13834831 0.22773176 -0.108997904
0.25250253 0.17570296 0.09424176 0.121148214 0.1874174 0.23196337 0.11752082 0.19840312
0.25375947 0.30398133 -0.13608868 0.22528163 0.2934217 0.070906736 0.07100539 0.2702431
-0.15632011 -0.24813476 -0.2925874 0.19201495 0.11849153 0.1349547 -0.035518464 0.15140456
0.10230063 0.17253694 0.17498444 0.108795315 0.19383685 0.11598678 0.12532462 0.3089137
0.2244067 0.04104656 -0.069091044 -0.07361774 0.18770586 0.17581204 0.14202501 -0.14703514
0.1925213 0.0041578044 0.21598746 0.2430183 0.039535925 0.25765258 0.15081626 0.23186757
0.17216085 0.12893775 0.19821884 0.09494433 0.20396289 0.20886403 -0.14993832 0.089978464
-0.25244725 0.08848019 0.14473476 0.25901213 0.09671606 0.11129973 0.27343044 -0.3125649
0.23076141 0.05080955 0.23866802 0.13096683 0.13584462 0.11832977 0.19480759 0.1461055
-0.042832293 0.20267002 0.09298918 -0.3212199 -0.12195811 0.18225951 0.27825543 -0.18428513
0.24788946 -0.10952654 0.15262893 0.15651785 -0.36393598 0.26110852 0.3678589 0.078537494
0.2358144 -0.023113854 0.20125058 0.2195614 0.10200971 -0.07033084 0.180717 0.1413548
0.08752277 -0.070896395 0.10679378 0.22243312 0.22388773 0.20892736 -0.23868576 -0.2008042
0.064164974 -0.09010252 0.10286756 -0.043129552 0.2051363 0.17357945 -0.105409235 0.24444704
0.1695806 0.27304485 0.13019058 0.045951955 0.23733436 0.22944899 0.17592189 0.23198561
0.14532042 0.16325103 -0.146528 0.08923295 0.12655981 -0.30527925 0.21013397 -0.23064385
0.30265018 0.0535524 0.24315047 0.18757828 0.17908478 0.2547382 0.045941405 0.11501529

lstm.weight_hh_l0 f4 [512, 128]
00000000: 2bb5 f9bd 80dc 783e c12b 5c3d a1a2 68be
00000010: 0016 853d a0fa b0bd 05c6 d93d 33c8 4d3e
00000020: e501 a53d 8efb 473d fde0 25be 1f27 103e
00000030: 1ddb 4f3e b80f cfbd cd44 9a3d 2edc d63d
00000040: 0990 3a3e fbf1 83bd 2d4e 01be fb40 823d
00000050: fcd3 04bc e78c 8c3d 7f96 aa3d 67cd 4a3d
00000060: 10bd 84be b45e ffbd f45a 5c3e 971c 81be
00000070: 169a 85be 0061 a3bd face cebd 6d62 833c
00000080: 849c 1fbe edb6 0c3e 58cb 74bd f161 c2bc
00000090: 935b 7a3d 0e54 fbbd 8165 87bd bbe6 09be
000000a0: 212f 233e 0a19 123e 593a b0bc 9a81 1bbe
000000b0: 96e0 19be c0c0 bc3d 2172 7a3d a855 3a3e
000000c0: 0e98 403e 27d9 2fbe adf1 573c 39f3 0f3e
000000d0: 0a6d cfbb fbc3 d83d 8265 d93c 0bcf d13c
000000e0: b7a3 0b3e 1a5b 6cbe 4a82 463e fa38 e33d
000000f0: e594 973d 7d8c 483e f5d5 88ba bb8a c3bd
00000100: 67a7 e93d a058 1a3e b3a5 0e3e 71a3 013e
00000110: 13ec 973c 24ef 13bd b4c7 8abe 6af5 8abd
00000120: 87de 90bc 7051 24bd 5ca9 8ebe 5959 303e
00000130: f4f6 593c 149c 77be 5ebd 213d 6175 063e
00000140: dae7 5a3e 937b d73d 01b8 04be 3228 883e
00000150: da75 aa3d 9796 44be 7c58 10be 24c3 06be
00000160: bd9b 25bd 2b9d 733a ebce 363c 501f 30be
00000170: e19e 113d 5bf7 413e e5ee 58bc f6a7 f1bc
00000180: 634d 443c 0aec 65bc bf00 093e 5732 b63d
00000190: 093d 403e 3a26 95bd 45e1 803e 8062 85be
000001a0: b5e8 e4bd 8c7b 85be 4064 203e 8c16 bd3d
000001b0: e70f 203e 2b6d abbd d82c 5bbe bbdc 61be
000001c0: 33de e5bd 24d3 57be 76ac 09be b21f c5bc
000001d0: f2d8 653e fb7e 423d f679 3ebd 211d ce3d
000001e0: ae65 4a3d 2211 f5bd ab5a f53d deaa 4e3e
000001f0: e0a3 6fbd d8be 003e 829a 87bd 0ca7 bbbc
00000200: 3d8f aebd beda 843d 47a8 dd3d a183 06be
00000210: 62ed 0fbe f296 b2bd 7e3e 093e 0e46 0a3e
00000220: 9c94 9dbd b4ce 0a3d ff55 34be 4846 1e3e
00000230: 4a4d 343e ebac 45be 00ff e03c b9a4 1a3e
00000240: 3b4c 453e ebd8 3cbe c620 42be 6045 00be
00000250: 33a9 df3d e502 313e acc4 8d3d 47f1 ebbc
00000260: 78f0 09be 575b ebbd 7557 853d 7654 8ebe
00000270: 92f2 4fbe 4600 0fbd 85c1 6ebe 39d9 3a3d
00000280: 3486 d0bd d82e d43d 7f7b 59be f686 803e
00000290: 1395 7c3c ab99 46be 6232 653d d897 3ebe
000002a0: de58 283e 7232 143d 1ea7 73be af91 33be
000002b0: 72c0 92bd c777 ce3d ed1f 13bd 067f 2e3e
000002c0: 8fab 15be 7af6 20be 6347 70bd 372e 5c3e
000002d0: c377 c6bd 97fc 0f3e e555 a4bc 566f 53bd
000002e0: 11f8 233e 3e5a 32be 60f1 573e 7444 aa3d
000002f0: 2e92 863d d2a4 2f3e d5a3 d9bb 8303 87bd
00000300: 346d 7c3d d9f9 623d f403 d73d a7ea 1fbd
00000310: 7340 3b3c a025 1abe 8649 9ebd 3145 ed3d
00000320: dbe4 823d e8c8 a4bd 974b fdbd 407e 0d3e
00000330: 1258 20bd 7ee7 7bbd 08ac b63d 09e8 753e
00000340: 4c5f 0d3e 66e0 f3bd 0d32 27be 7c00 573e
00000350: 5d0e b83d 337b 60be 50df 39be c1be 2bbe
00000360: 399a 4a3e 2916 9e3d ed69 dcbd 92d8 06be
00000370: eca9 b43d 4a16 5c3e d0ef 19bd 2db3 aebd
00000380: c163 92bd 2990 c83b b228 163e 65de 813c
00000390: 4b4e 583d d3f8 363e b329 5d3e 2b59 8abd
000003a0: 9ddf 57be b32e 43be 6420 463e 43c8 fb3d
000003b0: b475 da3d e52e a0bd 8529 8bbe f9b9 15be
000003c0: 6ac2 3ebe bce1 20be db5c fdbd e207 1ebe
000003d0: 5eb9 b73d d218 353d b2da 67bd d95e 153e
000003e0: 6a2b 223e a907 013c 2414 183e 04f3 493e
000003f0: 2377 debd 2a84 ee3d 81eb 8fbd 9f34 08bd
-0.12192758 0.24302864 0.053752664 -0.22718288 0.06498337 -0.08641553 0.10633472 0.20095901
0.08057002 0.048823886 -0.16199107 0.14077424 0.20298429 -0.1011042 0.07532654 0.10491215
0.18219008 -0.064426385 -0.12627478 0.0636005 -0.008107182 0.068628125 0.08329486 0.049512293
-0.25925493 -0.12469235 0.21519071 -0.25217125 -0.2609412 -0.07977486 -0.100980714 0.016038144
-0.1558705 0.13741656 -0.059764236 -0.023728343 0.06112249 -0.122718915 -0.06611157 -0.13466923
0.15935947 0.14267364 -0.021512197 -0.15186158 -0.15027079 0.09216452 0.061143998 0.18196738
0.18808004 -0.17172681 0.013180179 0.14057626 -0.006330137 0.10584255 0.02653766 0.025611421
0.13636671 -0.23081627 0.19385639 0.11094852 0.07401446 0.19584842 -0.0010439741 -0.09547945
0.114088826 0.1507287 0.13930397 0.12660004 0.018545186 -0.036116734 -0.27105486 -0.0678509
-0.017684234 -0.040116727 -0.27863586 0.17221583 0.013303507 -0.24180633 0.039487235 0.13130714
0.21377507 0.10521617 -0.12960817 0.26593167 0.0832326 -0.1919807 -0.14096254 -0.13160378
-0.040431727 0.0009293134 0.0111577315 -0.17199445 0.03555191 0.18942015 -0.013240551 -0.029499035
0.011981341 -0.014033327 0.13379191 0.0889632 0.18773283 -0.07282682 0.25171867 -0.26051712
-0.11177198 -0.2607082 0.15663242 0.09232816 0.15631066 -0.083704315 -0.21403825 -0.22056858
-0.11224022 -0.21076638 -0.13444695 -0.024062965 0.2244604 0.04748438 -0.04650303 0.1006415
0.049413376 -0.119661584 0.11980184 0.20182368 -0.058505893 0.12572801 -0.06621267 -0.022906803
-0.08523414 0.06487034 0.10823112 -0.1313615 -0.14055398 -0.08720197 0.13402745 0.13503286
-0.076943606 0.033888534 -0.1761093 0.15456498 0.17607608 -0.19304244 0.027465343 0.15101899
0.19267361 -0.18442123 -0.18957815 -0.12526464 0.10920944 0.1728626 0.06922278 -0.028801573
-0.13470638 -0.11492031 0.06510822 -0.27798814 -0.20307377 -0.03491237 -0.2331601 0.045617316
-0.10181847 0.10360497 -0.21238516 0.25102967 0.015416401 -0.19394557 0.055956252 -0.18612611
0.1644015 0.03618092 -0.23794219 -0.17536043 -0.07165612 0.100814395 -0.03591912 0.17040643
-0.14616226 -0.15719023 -0.05866183 0.21502005 -0.096908115 0.14061199 -0.020060489 -0.05161985
0.16012599 -0.17417237 0.21088171 0.08313838 0.0657085 0.17152718 -0.0066418448 -0.06592467
0.06162758 0.055414055 0.10498801 -0.03904214 0.01142894 -0.15053415 -0.07728867 0.11585463
0.06391307 -0.08046132 -0.12367933 0.13817692 -0.03914649 -0.061500065 0.08919531 0.24014296
0.13805884 -0.11908035 -0.16327687 0.20996279 0.089871146 -0.21921997 -0.18151593 -0.16771986
0.19785394 0.077190705 -0.10762391 -0.13168553 0.088214725 0.21492878 -0.03758222 -0.08530269
-0.07147933 0.006120701 0.14663962 0.015853116 0.05280904 0.17868356 0.21597938 -0.06755289
-0.21081395 -0.19060783 0.19348294 0.12294056 0.10666981 -0.078214444 -0.27180114 -0.14621724
-0.1862885 -0.15711111 -0.123712264 -0.15432695 0.08970903 0.044213124 -0.05660505 0.14586963
0.15836874 0.0078753615 0.14851433 0.1972161 -0.10862567 0.11646302 -0.07027341 -0.03325331

lstm.bias_ih_l0 f4 [512]
00000000: 113d e0bd 170c 95ba 40b7 a23d b696 48be
00000010: b488 f63d cf36 fcbd 8502 8bbd 1dec 23bd
00000020: 1aa7 9d3d 156d 513e a3e9 293e 1362 463d
00000030: f177 39be d750 f0bd b95b debc baca 63be
00000040: 8de7 febd f70c 0abc 1b3d 3cbd 24e4 d9bd
00000050: 338a 29be 2fc0 92be 1448 39be 72d2 4abd
00000060: 1b2d 9bbd 61fc be3d 68f1 12bd b72a 04be
00000070: 7a02 13bd 2f6e 95bd 0f45 f0bd ef3a 733e
00000080: 1ec1 80bd 8b1c bebd aa0d 10be 7992 cf3d
00000090: add5 ea3d cd84 cabd 9924 bebd 32b2 cbbd
000000a0: a083 1fbe 8592 acbd 491b 05bd d477 08be
000000b0: 63d1 4dbd de9c fcbc 46e3 10bd 9d23 8e3c
000000c0: 6339 25be 8cac e1bd b580 563e 10de 94bd
000000d0: b033 b8bd 16fa 3abd d6aa a0bd 78fd fc3d
000000e0: b607 adbd 4623 46be b7ac 303c a976 96bd
000000f0: 532d 34be 33a1 0ebd cea5 e13d 38d2 9abd
00000100: 3b66 04bd c7e2 bebd d1a6 96bd cc84 1f3e
00000110: c375 3e3e 60ba 01be 73db 08be 5333 c83c
00000120: f410 273d e46c 0c3e ddf8 21be 91af aebc
00000130: c7f7 f63b abf2 13be 8b1a 443c ee11 02be
00000140: b4de 7ebd 3411 93bd 8d85 d9bd 9ab9 efbd
00000150: 3c93 1cbe fb8f 0abe e33d fcbd 195d c6bd
00000160: 0df6 debd 70aa 41bd 68f1 133e 9a84 1abe
00000170: 6258 7a3e 2161 7cbe bcb3 8c3d 8465 3e3e
00000180: 1103 103e 29ce c83b 4421 7fbb 4e4e ba3d
00000190: 3802 e5bd cea9 27be 27e1 b2bd 8ff4 27be
000001a0: c326 2bbe 7619 e73c 46b8 8bbd 0f65 0cbe
000001b0: 9f58 a0bd 5849 b3bd 2f76 29be fe66 32be
000001c0: 05a6 b9bd 5b75 8abd 5589 7e3e 17a3 c0bd
000001d0: c781 d7bc c9bf 6c3e daa4 c6bd c711 853e
000001e0: f6d9 07be 1dcf 0abe 17d0 28bd 00e5 c0bd
000001f0: afb1 733d 9fcf bfbd 4738 1fbe 2c3f 293d
00000200: 28cc 8bbc 7ffd 87bd 9a4c c43d 0e6a 0dbe
00000210: 4ba7 633e 5d8c c8bd 393d 043d a769 08be
00000220: da18 3d3e a763 173e 7c7b 563e fd68 903d
00000230: 5164 88bc 0fc1 2fbe 236b f93d 9a36 11be
00000240: 5bae 27bd a148 09be 8701 3dbe 3075 25bd
00000250: b16b 1cbe ace4 dfbd b412 c1bd 4418 403c
00000260: 88cc 98bd 7ff0 3b3e 38a6 24be 53f5 09be
00000270: 156c fabd 3736 cebc aa84 a4bd 03e4 673e
00000280: 847b 08be 08b5 fcbd 6a3b 23bd b294 a43d
00000290: 412c e93d 6199 dfbd decf 613d 01f7 febc
000002a0: 4b23 33be 67f7 5dbe 6d9d 09be 455e bcbd
000002b0: a534 34be b24c 913d db5a 453d 3bfd 043d
000002c0: 5749 10be 276e ddbd 8716 573e 16aa 20be
000002d0: ba3e 10be 3282 05be d6e1 f9bd 9ab3 873e
000002e0: 38bb 4cbe dfd0 b8bd 8cd1 21bd 9bea ffbd
000002f0: 3c7a 2bbe 9924 823c 0e22 1f3e 3509 45bd
00000300: f2ef 64bd 1368 3bbe f746 933d 65e2 1e3e
00000310: b465 3e3e d7bc 66be 68cc 5cbd 8308 5e3e
00000320: 3e39 c33d bd1e 293e d410 4bbe 0d89 bebd
00000330: d01c 05be 9578 6dbe dc57 5e3d 2549 d3bd
00000340: 9d0a 0fbe b752 f5bd d813 cdbd 4375 2cbe
00000350: e952 61be b6d5 4dbd 4d6e a8bd 2631 bfbd
00000360: 0fe1 b3bd cfea 863d 9484 223e 9939 61be
00000370: 9820 083e d187 11be ad96 a33d 303c d63d
00000380: 5263 6d3e 0245 073d 0d6e d4bd 491f 353e
00000390: 408b c0bd 902f 52be ea66 07be 3bd7 e3bd
000003a0: 5c20 4bbe 8752 87bc 671e 8cbd be70 29be
000003b0: f74f cdbd 7be6 59be 45bb a7bd 04f6 abbd
000003c0: 9769 19be 6858 1bbe 6748 4a3e 6b38 46be
000003d0: 9bdb 43bd 1707 f53d e8ba 61bd 9da9 853e
000003e0: eaf7 cc3d 2dd8 1abd acc9 23be 7f00 0cbe
000003f0: e16f 033e adf3 08be 5239 45bd bae2 01be
-0.109491475 -0.0011371401 0.079451084 -0.19588742 0.12037793 -0.123151414 -0.0678759 -0.040020097
0.07697888 0.20451768 0.16593032 0.048433375 -0.1811216 -0.11734169 -0.027143346 -0.22245303
-0.124465086 -0.008425943 -0.045956712 -0.106392175 -0.16556625 -0.2866225 -0.18093902 -0.049517103
-0.075769626 0.09325481 -0.035874754 -0.1290692 -0.035891034 -0.072964065 -0.11731922 0.2375295
-0.06286834 -0.09282788 -0.14067712 0.10135359 0.11466537 -0.09888611 -0.09284324 -0.099460974
-0.15577555 -0.08426384 -0.032496724 -0.13326961 -0.050248515 -0.030836519 -0.035372995 0.017350966
-0.16135173 -0.11019239 0.20947535 -0.072689176 -0.089942336 -0.045648657 -0.07845084 0.12353033
-0.08448736 -0.19349393 0.010783366 -0.073468514 -0.17595415 -0.0348217 0.11017953 -0.07559627
-0.032324057 -0.09320598 -0.073560365 0.15578002 0.1859961 -0.12668753 -0.13364963 0.024438536
0.040787652 0.13713413 -0.1581759 -0.021323951 0.0075368616 -0.14448039 0.011969219 -0.12702152
-0.062224105 -0.071810156 -0.10621176 -0.117053226 -0.1529054 -0.13531487 -0.123164915 -0.09685726
-0.10886774 -0.047281682 0.14447558 -0.15089646 0.24447778 -0.24646427 0.06870219 0.18593413
0.1406367 0.006128092 -0.003892974 0.09096967 -0.11182064 -0.16373369 -0.08734351 -0.16401885
-0.16714005 0.028210383 -0.06822257 -0.13710426 -0.07829403 -0.087542236 -0.1654899 -0.17422101
-0.09064869 -0.06760665 0.24857076 -0.09406107 -0.026307 0.23120035 -0.09699412 0.25990126
-0.13266739 -0.1355557 -0.041214075 -0.09418678 0.059495624 -0.093657725 -0.15548812 0.04132001
-0.017065123 -0.066401474 0.09584923 -0.13809988 0.22231786 -0.09792397 0.03228495 -0.13321553
0.18466511 0.14784108 0.20945543 0.07051275 -0.016649397 -0.1716349 0.12178638 -0.14180985
-0.040937763 -0.13406612 -0.18457614 -0.04039496 -0.15275456 -0.109322876 -0.094273955 0.011724535
-0.07460886 0.1835346 -0.16079032 -0.1347249 -0.12227646 -0.025172336 -0.08033116 0.22645573
-0.13328367 -0.123392165 -0.039851584 0.08036174 0.11385394 -0.109179266 0.05512988 -0.03112364
-0.17493932 -0.21676408 -0.1343896 -0.09197668 -0.17598207 0.070947066 0.04818235 0.032468062
-0.14090477 -0.108120255 0.21004687 -0.15689883 -0.14086428 -0.13037947 -0.12201278 0.26504213
-0.19993293 -0.09024214 -0.03950648 -0.12495919 -0.16745847 0.015886592 0.15540335 -0.048104484
-0.055892892 -0.1830142 0.0719127 0.1551605 0.18593484 -0.22532974 -0.053905874 0.21682934
0.095324025 0.16515632 -0.19830638 -0.09303484 -0.12999272 -0.2319053 0.054283008 -0.103166856
-0.13968892 -0.11978667 -0.100135505 -0.16841607 -0.22004284 -0.05025264 -0.08224163 -0.09335546
-0.08783161 0.06587755 0.15870887 -0.21994628 0.13293684 -0.14211966 0.079877235 0.104606986
0.23182419 0.033024795 -0.10372553 0.17687716 -0.0940156 -0.20525956 -0.13222852 -0.11125036
-0.19836563 -0.016518844 -0.06841736 -0.16546914 -0.10025018 -0.21279328 -0.08190016 -0.08396533
-0.14981686 -0.15170443 0.19754182 -0.19357459 -0.047816854 0.11964243 -0.05510989 0.26105967
0.10008223 -0.037803818 -0.159949 -0.13672064 0.12835647 -0.13374205 -0.048150368 -0.12684146

lstm.bias_hh_l0 f4 [512]
00000000: 5869 08bb d27c a8bd 1a8c 993d f428 52be
00000010: 6b0a 5e3e d4a2 543c d3a4 07bd 12a7 32be
00000020: 44c9 3f3e e1d2 b23d d7b5 6d3e c459 38bd
00000030: 7daf 53be fd84 4bbe e3cb 9abd d373 87bd
00000040: 24e6 b7bd 67d2 d6bd 4494 27be adff 11be
00000050: 7b4e 1ebd a939 0ebe f905 fbbc 5685 95bd
00000060: 3de2 44be 3641 9a3d c6bb dabd 9bfe 80bc
00000070: 1b76 fabd 60ef 3dbd b92a 93bd 85d4 0e3e
00000080: fe0d 23bc 1a8c 2abe 0928 873c df05 9b3d
00000090: fb1b dd3d 3249 1dbe 8444 9cbc 604a 0ebe
000000a0: b554 7abe 1c52 fabd 3eab 99bc 2b2b dbbc
000000b0: b3e9 90bd c341 f1bd 92bf 20bd 0358 9d3b
000000c0: e72b f2bd cf17 47be bd77 d43d ecd5 31be
000000d0: b7a0 71be cff1 e5bd b853 7a3c 1642 723e
000000e0: 5e44 32be 0caf d5bd 4964 0abe c4d6 c6bd
000000f0: 5623 39be 7863 d0bc eca4 243d 1d88 d3bd
00000100: 5808 35bd 601e 09be 67f9 973d 5d9a 0a3e
00000110: 24be 353e d7dc 3fbe 4cce bebd 3882 1fbc
00000120: acfc 263d 40f2 da3d d9df e6bd 80e4 0fbe
00000130: 550c 00be e62e c9bd c3a9 b9bd c709 99bd
00000140: f1b0 3dbe 8835 febd 1151 b6bd 4508 a5bd
00000150: 0a86 38be 79d2 46be cbf4 2bbe de0f c7bd
00000160: f784 2dbd 6880 c1bd 8969 603e cd0e 12be
00000170: 9a27 6b3e ae14 0ebe ae0e 923d 6d84 4c3e
00000180: 253a 093e 2f22 483d 1ff4 2fbe 8b84 ca3c
00000190: 1294 c8bc 9179 aebd f993 96bd 24f1 2ebe
000001a0: 9f21 8abd 759d 7fbd e927 36be 818f 03be
000001b0: 6864 a9bd 825f 5cbe 7d03 65bc badc eabd
000001c0: 0f4b 5abe adb9 f1bd 5529 4c3e 3bcc 4bbe
000001d0: 1682 aebd a294 6c3e 43bc 50bd d088 043e
000001e0: 629d 483c 000c 9bbd 1fd4 95bd 804d 05be
000001f0: 5972 ce3d 1824 05be 1f5b b9bd 655d adbc
00000200: 89bd b03d 0af0 f7bc 279a 883e 555f 25be
00000210: 8844 833e 17a4 1abe b683 2abd 20f4 c2bc
00000220: ed4a 213e 4d27 3a3e c59c 893e 5264 1c3d
00000230: 74fc 91bd e8b1 d6bd 4d98 d13c 6ce8 cfbd
00000240: 21dc 3fbe 7c01 39be f8ea e7bd 4eda 0fbe
00000250: 21e1 acbc 40bd 29be 36c1 babd 43db 7ebd
00000260: 6b2a 31bd 81ef 463e 1fdd 02be 66a9 cb3c
00000270: afb0 18be f756 20bd eb86 bebd 66c8 183e
00000280: cdb8 11bd 9671 1cbe 45f1 25be e9ad 573d
00000290: 4c3c 523e d105 1fbe 6aa2 bbbd 5ba9 ba3c
000002a0: 671d 48be 9724 57be d005 38bd 1de1 a7bd
000002b0: 1efb 1cbe a23f 80bc 8e54 403b 3cc4 9fbc
000002c0: 67c3 15be d285 9fbd 2d27 603e c20a 31be
000002d0: a002 bcbd d6d5 c9bd 0dad a0bc 0350 ef3d
000002e0: 768f 48be 268d ebbd e6dc 1fbe 226f 37be
000002f0: c45d 26be 1789 d6bc 14e6 b73d 4c6d c4bd
00000300: 2126 27be f87e dfbc 352e cc3d fa1e 5b3e
00000310: e84d 4f3e 7408 07be 5ee8 d2bd 76d4 6b3e
00000320: fcdd fc39 4762 913d 54b8 a5bd 9ff3 15be
00000330: cd1e 93bd e9c2 6bbe d099 e13b e8fa e8bc
00000340: 5b60 95bd d857 993c 6aff babc 345f 00bd
00000350: fe08 64be 8b43 48be 50a3 a8bd 6e45 03be
00000360: b301 b0bc 3242 d63c 48ff 543e 8534 69be
00000370: e90d 7c3e 70e2 eebd c592 293e 47a7 4c3e
00000380: 8782 933e 0093 433e 77ad 70bd 230e f53d
00000390: 76ba e3bd efa1 95bd efd0 d9bd a4e4 3ebe
000003a0: 35b3 6cbe dc29 d1bc 4793 5cbe c945 3e3b
000003b0: dc86 5bbe 8f9b 3dbe 39f0 bcbc 4a41 05be
000003c0: ae55 13bd e3fa 4cbe b802 8f3e 9bff 52be
000003d0: 66d9 cabc 1dc8 f73d 08bd a6bd f9f9 063e
000003e0: 30f4 c33d b060 02be 2c3b 50be 0bfd e9bd
000003f0: 18bb e13c 2c4d d7bc 5885 92bc b87b 5bbd
-0.0020814743 -0.082269326 0.074974254 -0.20523435 0.21683662 0.012978274 -0.033116173 -0.17446545
0.1872912 0.08731628 0.23213898 -0.045007482 -0.20672412 -0.1987495 -0.075584196 -0.066138886
-0.08979443 -0.1048935 -0.16365153 -0.14257689 -0.038649064 -0.13889183 -0.030642496 -0.073008224
-0.19226928 0.07531969 -0.10680346 -0.015746405 -0.12229558 -0.046370864 -0.07185883 0.13948257
-0.0099520665 -0.16655007 0.016498582 0.07569479 0.107963525 -0.15359953 -0.01907564 -0.1389556
-0.24446376 -0.12222692 -0.018758412 -0.026753983 -0.070758246 -0.11780121 -0.039245196 0.0048017516
-0.1182478 -0.19442676 0.10374401 -0.17366761 -0.23596464 -0.11227762 0.015278749 0.23658022
-0.17408893 -0.10433778 -0.13514818 -0.09708932 -0.18079886 -0.025438055 0.040196344 -0.10328696
-0.04419741 -0.13390493 0.074206166 0.13535447 0.17748314 -0.18736587 -0.09316692 -0.009735636
0.04076831 0.10690737 -0.11273164 -0.1405201 -0.12504704 -0.09823398 -0.090655826 -0.07472568
-0.18524529 -0.12412554 -0.08902181 -0.08058218 -0.18019882 -0.19416226 -0.167926 -0.09719823
-0.042363133 -0.0944832 0.21915258 -0.14263459 0.22964326 -0.13875076 0.07131706 0.19972391
0.13401087 0.048860725 -0.17182969 0.024721405 -0.024484668 -0.08519281 -0.07352442 -0.17084175
-0.06744694 -0.062406022 -0.17788662 -0.12847711 -0.08271104 -0.21520808 -0.013977882 -0.114678815
-0.21317695 -0.11802993 0.19937642 -0.19902126 -0.08520906 0.23103574 -0.05096079 0.12942815
0.012244554 -0.07570648 -0.073158495 -0.13017845 0.10080404 -0.1300205 -0.09050583 -0.021162698
0.08629901 -0.030265827 0.2668011 -0.16149648 0.25638223 -0.15101658 -0.041629516 -0.023798048
0.15751238 0.18179055 0.26877418 0.03818161 -0.0712823 -0.10483152 0.025585318 -0.10151753
-0.18736316 -0.18066972 -0.113241136 -0.1404812 -0.021103444 -0.165761 -0.09118883 -0.062220823
-0.043253344 0.19427301 -0.12779664 0.024861049 -0.1491115 -0.039145436 -0.09303077 0.14920196
-0.03557663 -0.15277705 -0.16205318 0.052656088 0.20530814 -0.15529563 -0.091618374 0.022785833
-0.19542466 -0.21010052 -0.04492742 -0.08197234 -0.15330169 -0.015655342 0.0029347274 -0.019502752
-0.14625321 -0.07789196 0.21889944 -0.1728926 -0.09180188 -0.09855239 -0.019613767 0.11685183
-0.19585976 -0.11501531 -0.1561161 -0.17913488 -0.16246706 -0.026188416 0.08979431 -0.09591159
-0.16323139 -0.027282223 0.09969751 0.21398535 0.20244563 -0.13186818 -0.10298227 0.23030266
0.00048230577 0.07098823 -0.080917984 -0.14643715 -0.07183609 -0.23023571 0.006884791 -0.028439954
-0.07293769 0.018718645 -0.022826869 -0.031340793 -0.22269055 -0.19557016 -0.082342744 -0.12819454
-0.021485185 0.026154611 0.20800507 -0.22773941 0.24614681 -0.11664283 0.16559894 0.19985686
0.28810522 0.19099045 -0.05875918 0.11965587 -0.11119549 -0.07306277 -0.10635554 -0.18641907
-0.23115237 -0.025532655 -0.21540557 0.0029033294 -0.21438164 -0.18516372 -0.023063766 -0.13013187
-0.035970382 -0.2001758 0.27931762 -0.20605318 -0.024761867 0.120987155 -0.081415236 0.13181295
0.095680594 -0.12732196 -0.20335072 -0.11425217 0.027555034 -0.026281916 -0.017885849 -0.053584784

layer_norm.weight f4 [128]
00000000: 2ee4 733f 1409 713f 7f57 8b3f 0d04 623f
00000010: 7f81 6f3f 4c99 5d3f e9a7 643f 7023 623f
00000020: a7dc 873f 6e05 783f 5fef 4d3f 60c2 6f3f
00000030: 107d 623f ae99 663f 8141 843f 189c 5c3f
00000040: 358f 683f dbbb 5e3f 18ad 603f 1f6e 733f
00000050: d803 633f 621f 763f 82eb 643f 4f7c 703f
00000060: 52b6 623f e49b 8d3f 8ed3 6f3f 948a 773f
00000070: 1aec 743f a41c 6c3f 4610 6a3f 842a 7b3f
00000080: bc50 613f 6b4b 703f aef6 633f d97e 743f
00000090: ac9b 813f 7f14 603f 1fca 8b3f 277d 793f
000000a0: 3d6b 6c3f 823a 613f 59cd 743f 4d55 623f
000000b0: 9797 5f3f d86a 733f dbf3 803f 87b7 533f
000000c0: 2108 903f 2b4d 5c3f 5fef 8b3f 3637 633f
000000d0: 2d11 483f faf7 603f b23c 713f de5c 843f
000000e0: a1a4 673f fbc2 623f e8d9 5f3f c0ab 593f
000000f0: 7124 643f 5ba1 693f 455e 803f 4e9f 643f
00000100: 3cc4 703f 0732 593f 0f56 5a3f 5907 7f3f
00000110: aa6e 8f3f 9020 623f b810 633f aa88 743f
00000120: 797d 6e3f 75d9 813f 408d 653f 272c 683f
00000130: d4f4 713f 5b8e 5a3f e898 693f 2550 643f
00000140: 993d 5a3f e24a 763f c6a6 733f e091 613f
00000150: b33b 733f 17e8 613f ae5e 583f d4f2 673f
00000160: 7ac6 673f 3bee 793f 2b6b 933f 3f41 5d3f
00000170: 6dce 883f 4027 4c3f 7dc6 863f 9320 8f3f
00000180: ab6a 873f 6886 7c3f 8b4c 5e3f ff87 843f
00000190: 26e1 6b3f 3e43 613f 5f15 4b3f 6d14 603f
000001a0: 9b35 6c3f 2688 613f 4ff3 663f 30d3 6b3f
000001b0: 1d7a 603f 2d0c 6c3f fd2a 613f 4af4 5f3f
000001c0: 5597 683f 9c58 6a3f 0050 903f 9d26 773f
000001d0: 0aaf 613f 24eb 873f f543 693f c875 903f
000001e0: d54e 943f f979 653f 0577 603f 26ad 673f
000001f0: 2e12 5a3f bbb9 653f 2a9e 6b3f 308b 7a3f
0.9527005 0.9415448 1.0886077 0.8828743 0.9355697 0.8656204 0.8931871 0.88335323
1.0614213 0.96883285 0.80443376 0.9365597 0.8847208 0.90078247 1.033249 0.8617568
0.90843517 0.87005395 0.8776412 0.95089906 0.8867774 0.96141636 0.89421856 0.9393968
0.8855945 1.1063199 0.9368218 0.9669583 0.9567276 0.922312 0.9143108 0.9811175
0.88013816 0.9386508 0.8904828 0.95506054 1.0125632 0.87531275 1.0921057 0.9745659
0.9235113 0.879799 0.95625836 0.8841141 0.8734068 0.95084906 1.0074419 0.82701916
1.1252481 0.8605525 1.0932425 0.8875612 0.7815121 0.8787838 0.9423324 1.0340841
0.9048558 0.88578767 0.87441874 0.85027695 0.89118105 0.91261834 1.0028769 0.8930558
0.9404943 0.8484196 0.85287565 0.99620587 1.1205647 0.88330936 0.88697386 0.9552103
0.93160206 1.0144488 0.89668655 0.9069237 0.94514203 0.8537347 0.9124894 0.8918479
0.8525024 0.9620801 0.9517635 0.8811321 0.9501297 0.88244766 0.8451947 0.906049
0.90537226 0.97629136 1.151708 0.8642768 1.0687996 0.7974739 1.0529324 1.1181816
1.0579427 0.9864259 0.86835545 1.0354003 0.92140424 0.8799323 0.79329485 0.8753117
0.92269295 0.8809837 0.9021501 0.9211912 0.8768633 0.9220608 0.8795622 0.8748213
0.90855914 0.9154146 1.1274414 0.96543294 0.88157713 1.0618634 0.9111932 1.1285944
1.1586558 0.8963924 0.8768161 0.9049858 0.8518399 0.8973653 0.92038214 0.97868633

layer_norm.bias f4 [128]
00000000: c864 d3bd f951 803d 6eb8 64bd de63 9ebd
00000010: c4c2 bcbb 8248 c8bc ffdb 293d 98f4 e13b
00000020: cb26 2a3e f4b5 5fbc 03b1 09bb 6440 ee3d
00000030: 8302 a43b 6a61 d23d ff53 ef3d d33c 903d
00000040: abd5 4ebd 037f 213d 82e0 94bd bb24 43bd
00000050: 2f70 f53d 670f b8bd 57c9 bcbc f50a c53d
00000060: 1099 80bd ad72 8b3d a71e d53b fd2d cfbd
00000070: bbe3 2ebd 76d0 42bd 314f 1cbd 0dac d7bd
00000080: e651 c4bd 7931 67bc e101 58bd a803 873c
00000090: 5d07 ff3d 916b 87bd b66e c9bd b791 a6bd
000000a0: 1a2f e7bd 347d 4e3d 07aa 21bb 10ec efbb
000000b0: 94d7 22bd a693 083e 9d25 d03d cf18 913c
000000c0: d990 be3d 5408 9d3d 073c 873d add8 393d
000000d0: c435 cb3d 0164 1dbb 7159 89bd 8319 2c3d
000000e0: ca1c 37bd 9a1a 1d3d 15f3 9f3d d994 003d
000000f0: 19b6 e9bc a6be 823d 02ed eabd 1879 2abd
00000100: 72fd b2bb 4e98 e23d 8074 2fbd 54f6 c7bc
00000110: 8e83 d1bd b5f4 173e 0909 99bd e0b7 9d3b
00000120: b65b b23d 8099 6a3d 787f 8ebd 69f0 ba3d
00000130: 0932 2d3c d10f f5bc 9b1b a83d 15d9 b538
00000140: f4ac 833d f358 73bc a8c1 99bb a200 fb3d
00000150: 1680 bebd d233 143d 061c f0bc 5b1b babd
00000160: 1a56 4f3c 4660 d6bd 6a02 023e 89e6 cbbd
00000170: a35a 80bd 1909 193d c911 c03d c771 c63d
00000180: c37f 0b3d 8a9f fc3d bbe4 043d 2bc2 14be
00000190: 8719 11bd 5687 333d 15c1 8a3d 1e0c d3bd
000001a0: 99fe 913c bd64 84bd acfc 953c c67f 4d3c
000001b0: 4e58 c13c ed8c f13c f4fa 37bd aef8 a4bd
000001c0: c833 22bb 0698 043d 9b71 b13d ec6d 1ebd
000001d0: a4e5 783d 7efb 2bbd 0dab d53d 846c e6bd
000001e0: 6c53 42bd 9d12 8fbd 96a3 623d a654 89bc
000001f0: 50ef 903d 069e 33bd b2e2 913c b51f 09bd
-0.10321957 0.06265635 -0.05583995 -0.07733892 -0.0057605226 -0.024448637 0.04146957 0.006895613
0.16616361 -0.013654221 -0.0021010048 0.11633375 0.005005182 0.102724865 0.11685943 0.07042851
-0.05049674 0.03942777 -0.07269384 -0.04764245 0.11984288 -0.08987313 -0.023045225 0.096212305
-0.06279194 0.06808982 0.006503898 -0.101161934 -0.04269765 -0.047562085 -0.03816146 -0.10530863
-0.095859334 -0.014110916 -0.052736167 0.016481236 0.12452576 -0.066123135 -0.098355696 -0.08133262
-0.11288281 0.05041237 -0.0024667995 -0.007321842 -0.039756373 0.13337573 0.10163424 0.017712025
0.09304971 0.07667604 0.06603246 0.045372654 0.09922364 -0.0024015906 -0.06706513 0.042016517
-0.04470519 0.038355447 0.07810036 0.031391952 -0.028529214 0.063840196 -0.11470987 -0.04161939
-0.005462342 0.11064206 -0.042835712 -0.02440945 -0.1023017 0.14839442 -0.074724264 0.0048131794
0.08708899 0.057275295 -0.069579065 0.09127886 0.010571011 -0.029914768 0.0820839 8.671187e-05
0.064294726 -0.01485275 -0.004692275 0.1225598 -0.09301774 0.036182232 -0.029310238 -0.09087249
0.012654806 -0.104675815 0.12696233 -0.099560805 -0.062672876 0.03736219 0.09378392 0.0968967
0.03405739 0.12335117 0.032444697 -0.14527194 -0.035424735 0.04383024 0.06775109 -0.103050455
0.017821597 -0.06464527 0.01830896 0.012542671 0.023601677 0.029486144 -0.044917062 -0.080552444
-0.0024750102 0.032371543 0.08664247 -0.03867905 0.060765877 -0.04198789 0.10433016 -0.112511665
-0.04744284 -0.06985972 0.05533179 -0.016763996 0.07076895 -0.043851875 0.017808292 -0.033477504

linear1.weight f4 [128, 128]
00000000: e0ce 20be 6897 2f3e 622c 203e 6cde 173d
00000010: 51c9 913d cc72 c8bc 322a 92bd 493f f83d
00000020: 076a b73c 9d58 c13d 71dc 66bd ca46 243d
00000030: 29de 8e3d 1b70 d83d 94b9 1e3e 0170 993c
00000040: dc77 483d 7d6c 033d 1aa8 8fbd 3563 8b3d
00000050: 3130 0f3d e510 91bd f6b1 e13d 6307 dcbc
00000060: 44d0 d9bd 5bbb 3dbe c8e8 55bd e277 84bd
00000070: cf8c 373d e435 babc 4c4b f4bd 5d3f 833d
00000080: f852 f7bd 7732 b2bd 640a 6f3c 5ec4 0b3c
00000090: 3abf 83bd e582 2abd 491a 6bbd 0956 49bc
000000a0: 99cc 13bc b9ba 5e3d 8bb3 023e 4643 0bbe
000000b0: ae80 933d 0be1 073e b2c1 a93d 0d3a a43d
000000c0: 997b 4a3c f5c5 d7bb 4eff 08be 4e4c 42bd
000000d0: b356 a13d 3ff9 a63d 6221 b7bd d545 4bbe
000000e0: 39a7 343d cf17 9d3d cee4 7bba 79ad f9bc
000000f0: f7aa 66bc e6b9 953d e45d e63c 5cc8 683d
00000100: 502e 00be 2fb4 6e3d 4569 a539 97bf 293e
00000110: f6c6 713d ed92 223d 7bab ac3d a9ec e1bd
00000120: ec52 db3d 673b 123d 409f a43d 3e1e 693d
00000130: 6de9 f6bd a1d4 9b3b 5283 68bd a9cf d53c
00000140: 2cea 283d 63ba 303e a93b 873d f416 3a3d
00000150: a2aa 7bbd 1799 31be d0c7 23bc 0b5e 4dbd
00000160: 977c 113a a1b4 923d a173 4ebe 31f5 67bd
00000170: 4a2a b33d 8c73 0e3e e4c3 ae3b 21e7 0fbe
00000180: c0da 0abe 05fe 963b bf59 613d 2318 393d
00000190: a93b 9e38 96c2 e03c 2afd 3d3e 948a 0c3d
000001a0: f236 393e d0d6 ecbc 9062 a63d 4229 6bbd
000001b0: 0ec2 a9bd 7981 50bc 4fa9 98bd 2ae5 b4bd
000001c0: c76d 93bc 3119 fe3c 6d1c 31be f6ae fbbc
000001d0: ef9e d23d 8473 e73d 2f0e a43d 62e1 443e
000001e0: eb2d 89bd 3207 4abd 07c0 67bd d7a4 ab3c
000001f0: ed3d ce3d 6ffe 7fbd b4e6 053d 4fa1 8d3d
00000200: e133 4c3d 65f5 f7bc af84 43bc b628 b63b
00000210: 177c debd 8bb8 0f3e 8a84 b2bc ea22 16be
00000220: 3599 2abd ce4c 953d 5e79 70bc 87e3 603b
00000230: da2f 98bc e794 bdbd 588f 07be 422a bf3d
00000240: 4364 80bd 533d 823c dc34 033e 59db 723d
00000250: ed3b 02be 7445 203e 676a d3bd f8bd 5b3c
00000260: cc0c d33d ad4b 1abe 0df5 28bd 0a1b 903d
00000270: fa2d a5bc d186 de3d b928 303d ff0d b5bb
00000280: 1ed7 bebc fb15 b6bd 4cae ee3d 1ba1 1abe
00000290: edcf 27be f904 b8bc 8f57 533c 4f3d 013d
000002a0: 10f7 b13d 4191 be3c 25af 4abc e559 133e
000002b0: 5f3d 173e f192 573d c4bd 9cbb 323d fdbd
000002c0: 8caf dc3d f86a b63c 2ea0 8e3c 973c 1aba
000002d0: fb50 e5bc 4e73 1abe b7a0 763b 9dc4 8ebd
000002e0: ad08 dabc c398 fa3d 2fe4 04bb 9958 4ebd
000002f0: 96bc 333b a8ec 14be fdb1 103e fafb 843d
00000300: 3a6a 3c3c 5320 46bd 457f d7bc ca64 dc3d
00000310: 6d45 2bbc 0012 2fbd 8da7 3f3c 74c6 88bd
00000320: 4f91 bcbd f4fa 09be 55ae 613c f0bd 1abd
00000330: 92bf bcbb 34cf 29bd b85e 8a3c a149 36bd
00000340: 4e68 38bd ba92 823d 34a9 3c3d 73a0 fbbc
00000350: a096 183e 9d3f f03c 702b e73c 9174 003e
00000360: 6ce2 15be d12a ad3d 2eb5 47bd 5460 edbb
00000370: e9b3 183e 3f20 0bbd dffe 15be 03a0 61bd
00000380: 3840 a6bd 8a92 c33b 0c72 d1bc 741f a03d
00000390: 7e6d 55bc 0d63 34be d173 b0bd 3619 eabc
000003a0: cd65 bb3d 6fdc 173d e56c 3cbd 1dd3 b5bd
000003b0: ac36 2cbd aa3b fa3d 6a9e 4d3c 2127 113e
000003c0: ebc4 bf3c 13fd 0b3e 72a8 edbd 37bf 5d3d
000003d0: dc3f 9cbd 04a3 6e3d c1a9 23bc a222 dd3d
000003e0: f60d 163e cf69 373d e952 7a3c 765a 5bbd
000003f0: b6d4 dbbd bc90 3dbd a499 4b3c 1336 973b
-0.15703917 0.171476 0.1564193 0.037077352 0.07118476 -0.024468802 -0.07136954 0.12121446
0.022389425 0.0944073 -0.056362573 0.040106572 0.069759674 0.105682574 0.1550048 0.018730165
0.04894243 0.032085884 -0.07014485 0.068060316 0.03495807 -0.070833005 0.110202715 -0.026858991
-0.10635427 -0.18528502 -0.05222395 -0.06468178 0.04481202 -0.022730775 -0.11928424 0.0640857
-0.12076372 -0.08701032 0.01458988 0.008530704 -0.06432958 -0.041628737 -0.057398114 -0.012288579
-0.009020948 0.05437729 0.12763803 -0.13599882 0.07202278 0.13269441 0.082888976 0.08018885
0.01235857 -0.0065848776 -0.13378641 -0.04743605 0.07877865 0.08153009 -0.08941914 -0.19850858
0.04410479 0.07670557 -0.00096089847 -0.030478226 -0.014078847 0.07310848 0.028120942 0.056831703
-0.12517667 0.058277305 0.00031549684 0.16576992 0.059027635 0.0396909 0.08431145 -0.110314675
0.107091755 0.03570118 0.08038187 0.056913607 -0.12056241 0.004755572 -0.05676586 0.026099997
0.04123895 0.17258601 0.06603176 0.045432046 -0.061442025 -0.17343555 -0.0099963695 -0.050138514
0.00055498764 0.071633585 -0.20161296 -0.056630317 0.087483004 0.13911265 0.0053334106 -0.14053012
-0.13560009 0.004607918 0.05501723 0.045189034 7.54514e-05 0.027436536 0.18553606 0.034311846
0.18087366 -0.028911024 0.08124268 -0.057412393 -0.08288966 -0.012726181 -0.07454168 -0.08832772
-0.017996682 0.031017872 -0.17296 -0.030723076 0.102842204 0.1130133 0.08010518 0.19226602
-0.06698211 -0.04932327 -0.056579616 0.020952625 0.10070405 -0.062498506 0.03269072 0.06915533
0.049854163 -0.03026838 -0.01193349 0.0055590523 -0.10863512 0.14035241 -0.021791715 -0.14661756
-0.041650016 0.0729004 -0.014677374 0.0034315304 -0.018577505 -0.092569165 -0.13238275 0.09334232
-0.062691234 0.015898382 0.12813133 0.059291217 -0.12718172 0.15651494 -0.10323029 0.013411991
0.10305175 -0.1506793 -0.041249324 0.07036407 -0.020163525 0.10865558 0.043007586 -0.00552535
-0.023295935 -0.08890911 0.11654338 -0.1510052 -0.16387911 -0.022463309 0.012899294 0.03155261
0.086897016 0.023262622 -0.012370859 0.14389761 0.14769505 0.05263037 -0.004783364 -0.12365188
0.107756704 0.022267804 0.017410364 -0.00058836624 -0.027992716 -0.15083048 0.0037632415 -0.06971095
-0.026615465 0.12236168 -0.002027761 -0.050377462 0.0027425638 -0.14543402 0.14130397 0.06493373
0.011499936 -0.04837067 -0.026305804 0.107614115 -0.010453564 -0.042741776 0.011697662 -0.06678477
-0.09207403 -0.13474637 0.013774474 -0.037778795 -0.0057601416 -0.04145737 0.016890869 -0.04450381
-0.045021348 0.06375642 0.046059802 -0.030716157 0.14901209 0.029327208 0.028218955 0.12544467
-0.14637154 0.08455432 -0.04875677 -0.007244149 0.1491238 -0.0339663 -0.14648007 -0.05508424
-0.081177175 0.0059683966 -0.025567077 0.07818499 -0.013026593 -0.1761591 -0.0861584 -0.028576475
0.09150276 0.037075456 -0.046002287 -0.08878157 -0.042044327 0.12218411 0.012549976 0.14175083
0.023409327 0.13670759 -0.11604394 0.054137435 -0.07629368 0.058260933 -0.009989203 0.10797621
0.14653763 0.04477864 0.015278556 -0.053553067 -0.10733931 -0.046280608 0.0124267675 0.0046146004

linear1.bias f4 [128]
00000000: fa4a 13be d406 82bc 62f1 86bd 2e67 8ebd
00000010: 133a 1d3e f684 5dbd a477 4cbe 98aa 29bd
00000020: 0546 903d 6f02 10be daea b63d 42a9 093e
00000030: ce1c 6d3c b33d a73d 8d97 ffbd 9712 fbbc
00000040: a013 303b b0ad 2e3e c483 183d 4cb4 debd
00000050: 6cbf 053e e366 773c 3555 43be 7f99 28be
00000060: 91b8 ac3d ca7d 8a3d f840 43be 5463 aa3a
00000070: fa18 0a3e 39b5 d6bd 70ad 933d 3dce 323d
00000080: 772b 0c3e 33d8 6bbd ca9a 11be 4104 413c
00000090: b772 09be 43d3 053c 9d08 22bd 4b74 813d
000000a0: 514e 07be 8091 3f3e 1deb b93d 5fbc 1e3e
000000b0: bf03 24bd 0c54 b63c a347 56be 5070 d9bd
000000c0: e3f4 4c3e ddae 613d ba58 3abe 1ca0 2cbe
000000d0: 1ee1 0b3d 725b e9bd 3e47 17be a388 89bd
000000e0: e3a5 8dbd 50b1 363e 4c89 ccbd 7c85 983d
000000f0: c0f3 46bd afc6 e3bd b1f9 433e 952a 5e3b
00000100: 3f60 a7bd 9dca 16be 2c95 f73c f933 81bd
00000110: 0df8 16be f27c dabd 4d4a 02be abce d9bd
00000120: ecf7 4d3e 1e1e 1b3e f450 d03d 2de8 37be
00000130: 0672 bfbc ed82 15be a6b2 cdbd 71c7 163e
00000140: 08e4 33be 6388 48bc 1957 54bc 5d0d f23d
00000150: 6a7c bfbd 0cef 37be f475 9bbd 5788 3c3e
00000160: bd40 3a3e e374 8abd 4e0d 0cbe 8821 4ebd
00000170: 1cf7 07be 854e 18bd 1318 623e ac2e 133e
00000180: e4bf b3bd 0c93 7f3d 820c 833d 6fce dfbd
00000190: fd35 c53d 211e 183e b3ef d8bd f332 25be
000001a0: 6bf6 20be 01ef 203e 4037 afbd 4129 30bd
000001b0: cd19 d5bd d189 1e3e c3a1 8d3d 9696 e7bd
000001c0: db95 463e 16a0 4abe 7502 c2bd d562 a4b9
000001d0: 35f3 17be 1c7f b83d 5f13 e03d f6cb f3bd
000001e0: 9335 05be 4114 fc3d 932f 11be 5b61 31be
000001f0: 3079 f23d 021d 013c 125a 75bd cba3 c2bd
-0.1438407 -0.015872397 -0.06589009 -0.06953274 0.15354185 -0.05408188 -0.19967514 -0.041422457
0.07044605 -0.14063428 0.08931513 0.13443473 0.0144722 0.08166065 -0.12480078 -0.030648513
0.0026867166 0.17058444 0.037235036 -0.10874233 0.13061303 0.015100214 -0.19075473 -0.16464804
0.08433641 0.067622736 -0.19067752 0.0012999573 0.1348609 -0.10483784 0.07210815 0.043653715
0.13688456 -0.05757923 -0.14219204 0.011780799 -0.13422666 0.0081680445 -0.039558996 0.06321009
-0.13213469 0.18707848 0.090780474 0.15501545 -0.040042635 0.022256874 -0.20925765 -0.10617125
0.20015292 0.055098403 -0.18197909 -0.16857952 0.034150235 -0.11394395 -0.1477327 -0.067155145
-0.06916406 0.17841077 -0.09987125 0.07447335 -0.048572302 -0.1112188 0.19138218 0.0033899893
-0.08172654 -0.14725728 0.030222498 -0.06308741 -0.14743061 -0.10668363 -0.12723656 -0.10635122
0.20114106 0.15148208 0.101716906 -0.17959662 -0.0233698 -0.14600725 -0.1004384 0.14724518
-0.17567456 -0.012239548 -0.012960219 0.11818955 -0.09349902 -0.17962283 -0.07590857 0.18411385
0.18188758 -0.067605756 -0.1367695 -0.050324947 -0.13277858 -0.037184257 0.22079496 0.14373273
-0.087768346 0.062396094 0.0639887 -0.10928046 0.09629438 0.14855243 -0.10592594 -0.16132717
-0.15719001 0.15716173 -0.0855546 -0.043008093 -0.10405312 0.1548226 0.06915619 -0.11308019
0.19393103 -0.1978763 -0.09473125 -0.00031354153 -0.1483887 0.09008619 0.10941195 -0.11904137
-0.13008718 0.123085506 -0.14178304 -0.17322294 0.11839521 0.007880451 -0.05990035 -0.09503897

linear2.weight f4 [1, 128]
00000000: 7b89 eabd a025 b63d a0e3 c7bd 20fc 04bd
00000010: 9d64 adbd 2544 d53d 801b 74bd 0adb 73bd
00000020: 1bdc 02be 48f8 70bd ea6e 523d 00af e43d
00000030: 9177 86bd fab7 c5bd 3cd5 1c3d da68 103e
00000040: ebad 97bd 95fb f93d 6698 d2bd 4fa2 f5bd
00000050: c334 773d fa1a 8dbd 333a a7ba 89e9 913d
00000060: bf1b c8bd 0b3f 6d3e e711 f4bd b441 9d3d
00000070: 0e3a 993d 7473 a43d 6b04 233e 9c15 c1bd
00000080: 9390 023e 8793 533d 2d41 eebd f171 983d
00000090: 23de a23d 5c4b 75bc 6e08 c3bd e23f dcbc
000000a0: c4d8 ac3d 9383 8d3d 3711 893d 814c c0bd
000000b0: 45fc 82bd f579 9f3d 2806 8fbd b636 813d
000000c0: a6c6 af3d 8f05 cb3d 343b f33d c45d f73d
000000d0: 4cc5 f63d c3c6 88bd 06e6 71bd 6a1a b7bd
000000e0: 46fb f0bd 3c70 bfbd cec6 c43d d1b9 8dbe
000000f0: ad14 adbd f473 c63d a9d8 eebd 64a1 1b3d
00000100: 05f3 42bd e399 a3bd 160a bbbd 1e19 ae3d
00000110: 6194 903d c5c2 ac3d a37d dfbd 94ac a63d
00000120: 6cf2 fbbd 6f23 0bbe 7cd1 e63d 0830 a6bd
00000130: e320 fd3d 3df7 bfbc 9681 e8bd db12 cbbd
00000140: 282d a73d d34b 493d d44c 91bd e67e f43d
00000150: 801a efbd 4c5d 7cbd 7c13 b4bd b171 e5bd
00000160: f2f4 aa3d 714f ae3d aec9 9d3d 32f0 bc3d
00000170: b3d3 bd3d aaf6 edbd ae58 eb3d f197 b7bd
00000180: b8c8 a83d 2397 873d a02e 93bd c6e2 cfbd
00000190: 7cff 83bd 5057 2bbc 8b39 ebbd a606 86bd
000001a0: 581c e53d e230 f8bd 51f4 a83d e2e1 67bd
000001b0: 2f8b cbbd 974d ab3d 4463 a5bd 76df 73bd
000001c0: 9bc9 aa3d 5a17 a9bd 061d 0c3d 8642 c73d
000001d0: d8b2 db3d 647a d53d 8b31 f33d b3a2 503d
000001e0: 0764 8b3d 4b5b b93d 848a a13d 64e8 d13d
000001f0: 5686 b83d 3a80 023d 72e6 f3bd db5d d6bd
-0.114520036 0.08893895 -0.09760213 -0.032467008 -0.08466456 0.10413388 -0.05959654 -0.059535064
-0.12779276 -0.05883053 0.051375307 0.11166191 -0.06565774 -0.09654231 0.038289294 0.14102498
-0.07406219 0.122061886 -0.10282974 -0.119938485 0.060353052 -0.06889911 -0.0012758434 0.071246214
-0.09770917 0.2316858 -0.11917477 0.076785475 0.07481776 0.080298334 0.15919654 -0.0942795
0.12750463 0.051654365 -0.11633525 0.074436076 0.079525255 -0.01497158 -0.09523092 -0.02688593
0.08439782 0.069098614 0.066927366 -0.09389592 -0.06395773 0.07786933 -0.06983596 0.063092634
0.08582811 0.099131696 0.118765265 0.12078431 0.1204935 -0.06678536 -0.059057258 -0.08940585
-0.117666766 -0.09347579 0.096082315 -0.2768083 -0.08451209 0.09690085 -0.116624184 0.03799571
-0.047595043 -0.07988336 -0.09132783 0.085008845 0.07059551 0.08435587 -0.10912635 0.081383854
-0.12302098 -0.13587736 0.11270425 -0.0811463 0.12359788 -0.023433322 -0.113528416 -0.09915706
0.0816291 0.049144577 -0.07094732 0.119382665 -0.11674976 -0.061612412 -0.08792779 -0.112033255
0.08347501 0.08511246 0.07704483 0.09225501 0.09268894 -0.11619313 0.11491524 -0.089645274
0.08241409 0.06620624 -0.071866274 -0.101506755 -0.06445214 -0.010457829 -0.11485585 -0.06544237
0.11187047 -0.12118699 0.08249725 -0.056611903 -0.099386565 0.083644085 -0.08075574 -0.05953928
0.083392344 -0.08256407 0.034207366 0.09729485 0.10727471 0.10423735 0.11874684 0.050936412
0.06806188 0.09050616 0.07887748 0.10249403 0.090099975 0.031860568 -0.11909188 -0.1046712
