labml_nn/lstm/LSTM_THz/model_combine_319r2_6.pth (torch, 25950 bytes, 9 tensors)

lstm.weight_ih_l0 f4 [128, 1]
000000 71 e6 aa 3c 3b cf 1d 3e ee 31 85 be 06 29 89 be
       0.020861836 0.15411083 -0.26014656 -0.2678911
000010 a6 a5 dd 3d d0 07 67 be c8 80 76 3e 65 4b 82 3d
       0.108226106 -0.22561574 0.24072564 0.063620366
000020 5c 8b af 3d 70 41 a5 3b 0e 5b 87 3e 74 56 1c bd
       0.085715026 0.005043201 0.26436657 -0.038168386
000030 ca 87 6c be 02 70 42 3d 3f d2 34 bc e9 2d c0 3d
       -0.23098674 0.0474701 -0.011036455 0.09383757
000040 9d e5 5e be 3f 56 48 bd 73 14 25 be a6 b0 a2 be
       -0.21767278 -0.048910376 -0.16121082 -0.31775397
000050 50 74 12 3e 6c a6 97 3d 09 76 09 bd 85 c4 88 3e
       0.14302182 0.07404789 -0.033559833 0.26712433
000060 0d 3a 2c 3d 59 27 bf be 69 a4 2e bd 44 3b 7d be
       0.04204755 -0.37334707 -0.042637262 -0.2472964
000070 94 aa 83 be 68 a3 1b 3d 2d 43 62 3e c6 b9 3d be
       -0.25716078 0.037997633 0.22095938 -0.18527898
000080 ce 02 b4 3d 0c fe 4c 3d 63 cd fd bd 7e 77 16 be
       0.087895975 0.050046965 -0.1239269 -0.1469402
000090 64 ac 32 3c 92 3b 8d bd 76 3a 54 3d f0 07 09 3e
       0.010905359 -0.06896128 0.051813565 0.13381934
0000a0 43 51 08 be fe da 63 bd 95 1b 4a 3e 33 97 34 bb
       -0.13312249 -0.05562877 0.19737084 -0.0027555942
0000b0 4e 1c 90 bd b4 e1 83 bd 0d a8 44 3e 00 b6 18 3e
       -0.07036649 -0.06439534 0.19204731 0.14913177
0000c0 4c 77 a0 bd b6 84 db bd 0d a7 83 bd 16 d5 69 be
       -0.07835254 -0.10718672 -0.06428347 -0.22835192
0000d0 6c 0e 7e bd a8 0b 73 3d b9 c7 29 be 2a dd 58 3e
       -0.062025473 0.05933729 -0.16580094 0.21178117
0000e0 5e 86 a4 bb 26 86 75 3d 61 bc e0 ba f2 b5 3f be
       -0.0050209006 0.059942387 -0.0017145985 -0.1872175
0000f0 6f fa 25 be 97 db 95 3d a1 81 39 3e b4 97 c0 be
       -0.16208814 0.07317274 0.18115856 -0.3761574
000100 86 3b d6 be cf e0 ff bc 5e 6b 43 bb 23 d1 86 3d
       -0.41842288 -0.031235127 -0.0029818635 0.065828584
000110 62 e7 01 3e 55 31 06 3e 4a 57 9f 3d 7d 1c 54 3b
       0.12685922 0.13104756 0.07780321 0.0032365613
000120 38 a7 3c bb 04 f7 9a bc bd a1 c9 3e 76 48 c2 3e
       -0.0028786194 -0.018916614 0.3938121 0.37945908
000130 1b 3e a8 3b 24 00 31 3e 80 9f 3d 3e 42 73 6e be
       0.0051343567 0.1728521 0.18517876 -0.23286155
000140 1e 8a d1 bd b8 4e 8a 3e 9a 47 ba be 1b 10 36 3e
       -0.10231422 0.27013183 -0.36382753 0.17779581
000150 ea 36 c4 be 09 2e b9 3e ba cd 8f be 6f 50 44 bd
       -0.38323146 0.36167935 -0.28086644 -0.04792827
000160 9d f1 37 3e 24 9d 8b 3e f2 c7 0d 3e 94 c0 bd be
       0.17963262 0.27268326 0.13845804 -0.37060988
000170 33 f0 1d bd f2 e2 e7 3e e3 ad b5 3e b7 ba b2 be
       -0.03855915 0.45290333 0.35484228 -0.34908077
000180 3f da 54 3e 61 3c a9 3d ab 9f e2 3d 0b 6e 6b be
       0.2078638 0.082634695 0.110656105 -0.22991197
000190 f2 d2 9a 3e 7b 48 9e be 0c 10 04 bc 5b 3b 7c bd
       0.30239064 -0.30914673 -0.0080604665 -0.061580043
0001a0 00 6d 2c be bb ee 6c be 95 e0 a9 3e 5c 7e 1b 3d
       -0.16838455 -0.23137943 0.33179155 0.037962303
0001b0 f3 b8 34 be 8b ee 76 bd be 11 0c 3d d1 c5 9a 3e
       -0.17648678 -0.060286086 0.034196608 0.30229047
0001c0 65 71 82 bd 68 56 8a bd c7 a0 9b be ee 8c 7d be
       -0.063692845 -0.06754762 -0.303961 -0.24760792
0001d0 a9 9c 11 3d 46 b9 cc bc cc 6a 08 be 8c 9d 6f 3c
       0.035549793 -0.024990689 -0.1332199 0.014624964
0001e0 d8 bc 80 3e b3 14 a6 be d9 90 4e bc df 0c 20 be
       0.25144076 -0.32437667 -0.012607777 -0.1562991
0001f0 4f bc bd bc a9 63 cb 3d 2f 02 d2 bc 35 99 a8 bd
       -0.023161082 0.09931118 -0.025635807 -0.08232347

lstm.weight_hh_l0 f4 [128, 32]
000000 3f 09 d5 bd 9f 8a da bd cf e0 01 3c 65 20 3b 3e
       -0.10402154 -0.10670971 0.007927134 0.18274076
000010 1e 0a 28 3e 95 b4 1b bd fb 8a 8f 3d 43 65 e2 bd
       0.1641011 -0.038014013 0.0700893 -0.110544704
000020 f7 f3 26 be c5 3f c9 bd 55 4a a8 3c 6e 43 31 3e
       -0.16304003 -0.09826616 0.020543257 0.17310879
000030 e2 b9 28 bd 9e ef 85 3c 5c b1 87 3e b9 55 90 bd
       -0.041192897 0.01634961 0.26502502 -0.070476
000040 c5 81 39 3e 8d 9a 36 bc 65 b2 3e 3e 6a 09 28 be
       0.1811591 -0.011145246 0.1862274 -0.16409841
000050 3f c9 29 3c e4 3c cb 39 5e e7 85 3d 1f 34 df 3c
       0.010362922 0.00038764544 0.065382704 0.027246533
000060 60 b0 e0 3d da 8f 47 bd 11 1c 5a bd 35 d3 70 be
       0.10971141 -0.048721172 -0.053249422 -0.23518069
000070 ec 6b 31 be 07 39 91 3e ac fa 47 bd 6c 9d ba 3d
       -0.17326325 0.2836382 -0.048823044 0.09112057
000080 b9 bd 46 3e 87 ac 8a 3e 75 20 2c 3e ae 7d 68 be
       0.19408311 0.27084753 0.16809256 -0.22704193
000090 64 de af be 9b 4d 02 be 1e 05 56 bd e1 38 83 3d
       -0.34349358 -0.12724917 -0.052250974 0.06407333
0000a0 9a d0 b7 3d 9a cb 50 3e 9a 72 0f be 18 a7 33 3e
       0.089753345 0.20390168 -0.14008561 0.1754421
0000b0 15 11 91 be db 48 dc 3d eb ba 1b bc 73 dc e6 3d
       -0.28333345 0.107560836 -0.009505014 0.11272516
0000c0 b0 23 51 be c6 c8 c6 3c df ec 84 be 13 3f 62 bc
       -0.2042377 0.024265658 -0.25961968 -0.013808983
0000d0 dc 37 82 3d 68 b6 42 3e b5 82 e5 bc 2a 62 2e 3e
       0.063583106 0.19014895 -0.028016428 0.17029634
0000e0 34 36 36 3e ad 27 66 3e 6c 45 b4 bd 30 27 3d be
       0.17794114 0.22476073 -0.08802304 -0.1847198
0000f0 b0 c9 5d 3e a5 68 68 3d 52 77 b2 3b 4f f3 90 be
       0.21658969 0.05674042 0.005446353 -0.2831063
000100 28 77 c9 3d cf 21 a4 3e dc d7 76 be e6 54 83 be
       0.098371804 0.32057044 -0.24105781 -0.2565071
000110 62 2e e1 bd 38 05 62 3b 24 c0 79 bd 35 48 d3 3d
       -0.10995175 0.0034487974 -0.060974255 0.10316507
000120 2e 73 c1 bd fb 0d e5 3d a0 3e 12 be 40 7a 36 3e
       -0.09445797 0.11184307 -0.14281702 0.17820072
000130 25 ea 0a 3e 45 17 b7 3d 36 12 b3 bd 2a df 9d 3e
       0.13565882 0.08939985 -0.08743708 0.30834323
000140 25 f7 d8 bd 10 f6 b6 be 08 40 6d be 49 03 16 3e
       -0.10594014 -0.35734606 -0.23168957 0.1464969
000150 19 8e 8e 3e 3d b5 89 3e b9 df 85 3e da c0 3b 3e
       0.27842787 0.26896086 0.2614725 0.18335286
000160 0c 45 26 be 67 0e 52 be f0 18 38 3d 54 37 38 3e
       -0.16237277 -0.20513307 0.044945657 0.17989856
000170 a6 3f 1a bd df 41 91 be a7 e7 0d be e9 be 6c 3d
       -0.037658356 -0.28370568 -0.138579 0.057799254
000180 8f f9 2b 3e 0a 71 45 3e c1 84 1f be dc e1 19 be
       0.16794418 0.19281402 -0.15577985 -0.15027565
000190 4f 6c 81 be e5 f6 d9 bd a1 f3 ec 3d 7d 12 8d 3e
       -0.25277945 -0.106427945 0.11569906 0.27553168
0001a0 b9 2b 13 3e 27 11 68 3d a1 d5 a7 bd 1d ba 4c 3d
       0.14372148 0.056656983 -0.08195043 0.04998218
0001b0 4b c8 c5 bd f1 0c c0 3d 00 ad b5 bc 80 cb 6e bb
       -0.096573435 0.093774684 -0.02217722 -0.0036437213
0001c0 de 96 5a bd 93 ad 86 bd 08 8d 3e be 2a 4c 40 3d
       -0.053366534 -0.065760754 -0.18608487 0.046947636
0001d0 3e c6 38 3e e5 10 85 3c 20 22 2e be 7d df 60 3e
       0.18044373 0.016243408 -0.17005205 0.21960254
0001e0 54 ab e9 3d 3a fd 0e 3e bd 2f 8a 3e 0a 0b a3 3d
       0.11409631 0.13963786 0.26989546 0.0796109
0001f0 2d 07 5c 3e e8 93 c9 bd 59 fb 14 be 3f 8f 76 be
       0.21487112 -0.09842664 -0.14549007 -0.24078082
000200 74 64 73 3d ab 68 df 3d 82 1a 0a 3e 00 6c bf bc
       0.05942197 0.10908636 0.13486674 -0.023366928
000210 bc 8d f7 bd 96 7d 76 3e c2 49 31 3d 12 db d2 bd
       -0.120875806 0.24071345 0.04328323 -0.102956906
000220 34 ea a5 bd 79 c4 03 bd 6d 7f 06 3d f8 0f 67 bd
       -0.08101311 -0.032169793 0.032836366 -0.056411713
000230 4e 08 d5 3d 75 8c 5e 3d 83 78 04 be 3b 38 1b bd
       0.104019746 0.05433317 -0.12936597 -0.037895422
000240 2b ac 0d be 03 51 8a 3d b3 5c 3c 3d ec bd d5 bd
       -0.13835208 0.06753733 0.045986842 -0.10436615
000250 1a b6 6b bd 2b b2 2a 3d 87 fa 5e 3e f9 58 05 3d
       -0.057546712 0.04167382 0.21775256 0.032555554
000260 a2 4e cb bd 52 36 42 3d 0d 8f 04 bc b6 ba 58 3d
       -0.099271074 0.047415085 -0.008090747 0.052912436
000270 d9 80 07 be d0 d3 d7 3d 48 8f 41 be c5 7d d0 3c
       -0.13232745 0.10538447 -0.18902314 0.025450597
000280 33 65 41 bd e3 9d 3a 3e d9 7a ad 3d 97 ba 92 bc
       -0.04721565 0.18224292 0.08470697 -0.017911239
000290 6a c1 8a be 5f 1c 2d be 5f c6 15 be 00 de 15 3c
       -0.27100688 -0.16905354 -0.14626454 0.009147167
0002a0 47 9c 49 be 35 d4 66 3e 91 97 52 3e d0 7a 21 3e
       -0.19688521 0.22541888 0.2056563 0.15769506
0002b0 c0 60 8c 3c f2 3a a2 3e 37 42 11 be de 88 10 3e
       0.017135978 0.31685597 -0.14185415 0.1411471
0002c0 62 18 04 be 8c 67 8d 3c bb 74 1b be 77 43 b2 3c
       -0.12899926 0.017261289 -0.15181248 0.021760685
0002d0 90 77 e1 3d 2f 91 9d 3e ce 59 00 be 74 d0 92 3e
       0.11009133 0.3077483 -0.12534258 0.28674662
0002e0 86 a7 fb 3d c1 8b 36 bd c0 28 a0 3e df 5a 64 3d
       0.12287812 -0.044566873 0.3128109 0.055750724
0002f0 59 a8 be 3e 6f 21 ca 3d 38 87 86 3d 4d 7d 51 be
       0.37237814 0.09869658 0.0656876 -0.20457955
000300 a7 18 b9 3e 1e e0 2d 3e 1e 05 42 3d 32 e0 82 be
       0.3615162 0.16980025 0.04736816 -0.25561672
000310 62 3b 0c be 49 12 7e be 91 cc 5c bd cd ac 4f 3e
       -0.13694528 -0.24811663 -0.053906027 0.20280762
000320 49 ae 65 be b6 4b 4f 3e cb d4 06 3e e1 6f af bc
       -0.22429766 0.20243725 0.13167112 -0.021415653
000330 aa 82 32 3e f3 45 31 3e 59 d9 c9 3c c6 2c e2 bc
       0.17432657 0.1731184 0.024639772 -0.02760924
000340 38 fc 12 be 8c c1 26 be a5 65 5f be 54 e3 b5 bc
       -0.14354026 -0.1628477 -0.21816118 -0.022203125
000350 12 55 52 3e 58 fc c2 3b 3e 4a fa 3c 3f 26 08 3e
       0.20540264 0.005950492 0.03055298 0.1329584
000360 f8 57 64 bc 62 83 88 be 72 60 38 3e 46 fd 16 be
       -0.013936989 -0.26662737 0.18005541 -0.14745054
000370 5e 7b bd 3d 0e de 59 be 6d 32 07 bd f8 68 92 bd
       0.09252046 -0.21276113 -0.033007074 -0.071489275
000380 4f 01 dd 3d f3 3d 11 3e e0 7f 3e 3e 8a 63 2b be
       0.10791265 0.14183788 0.18603468 -0.1673719
000390 e5 ef 5f be 06 b3 9a 3e 3f be 35 3e 8e f1 38 3e
       -0.21868856 0.3021471 0.17748354 0.18060896
0003a0 cd e8 c0 3e f6 1e 90 bc 05 6e 90 be 73 04 36 be
       0.37677613 -0.017592888 -0.28208938 -0.17775135
0003b0 97 47 bb be fa 17 65 be 57 ad f7 bd 84 6b 3d 3e
       -0.36578056 -0.22372428 -0.12093609 0.18498045
0003c0 9a 6c 03 be 5a e2 4e be ff e6 80 be 0d 74 97 3e
       -0.12834397 -0.20203534 -0.25176236 0.29580727
0003d0 85 dc 9d 3e 3c d5 07 3e b3 ca 01 3e a3 fc 60 3e
       0.30832306 0.13264936 0.1267498 0.21971373
0003e0 75 36 f3 3d 2d 6d 6f 3e b9 5c 5d 3d 31 7d e1 bd
       0.11875621 0.23381491 0.054043505 -0.110102065
0003f0 9b 73 e1 3c ef df fb bd 02 ab 4a bd 84 5d 1c be
       0.027520945 -0.12298571 -0.049479492 -0.15270048

lstm.bias_ih_l0 f4 [128]
000000 c7 99 79 3d 03 10 a0 be ff 9a 9d be a2 e3 cb bd
       0.06093767 -0.31262216 -0.30782315 -0.09955527
000010 a7 46 d3 3d 3c 57 55 ba bd f0 91 bd 91 03 fb bd
       0.1031621 -0.0008138304 -0.07125995 -0.122565396
000020 3b 4d b7 be 40 8d 03 3e 08 c7 14 be 9b d7 92 be
       -0.3580111 0.12846851 -0.1452905 -0.2868012
000030 ed a3 8e be 21 36 2f be 56 e0 a7 3d 18 ec 05 be
       -0.2785944 -0.17110492 0.081970856 -0.13078344
000040 b8 d3 05 be 42 15 81 bc d3 3b 20 bd 12 62 49 be
       -0.13069046 -0.015757207 -0.039119553 -0.19666317
000050 bb 89 29 bd 32 fb 35 3e ba c8 40 bd 4a 0a 34 be
       -0.041391116 0.17771605 -0.047066428 -0.1758205
000060 53 80 7b bd ca ac 06 3d 17 7d 01 3c 11 60 2f 3d
       -0.061401676 0.03287963 0.007903359 0.042816225
000070 88 02 e3 bd 3e e3 20 3e df 1e 6d 3c e5 13 8d 3d
       -0.11084467 0.15711686 0.014472692 0.0688856
000080 68 e9 67 be 3a bd 2e be 6a 57 b0 bc 39 13 8e be
       -0.22647631 -0.17064372 -0.021526057 -0.2774904
000090 cc 19 ca bc 48 4d 00 bd 2f fd 72 be bc c7 06 be
       -0.024670504 -0.0313237 -0.23729394 -0.1316213
0000a0 4f d0 2a be 51 14 85 3d 17 8a c3 bd 89 31 b1 be
       -0.16681026 0.06498016 -0.09547823 -0.34608105
0000b0 f9 5c 30 be 42 01 b2 bd 3d 04 8e 3e 64 eb b9 3d
       -0.17222966 -0.08691646 0.2773761 0.090781
0000c0 f8 10 03 bd e9 80 82 be a7 6d 9c 3c 4e ed dd 3c
       -0.031998605 -0.25488976 0.019095255 0.027090695
0000d0 c9 09 8d be 62 0a 05 3e f7 66 65 bd 16 78 dd 3b
       -0.27546528 0.12992242 -0.056006398 0.0067587
0000e0 85 40 49 bd a6 99 35 bb b4 53 19 bd 59 32 69 be
       -0.049133796 -0.002770999 -0.03743334 -0.22773112
0000f0 20 9c 65 3d a0 ed 0b be 75 d7 73 bd 4d 86 93 3d
       0.056057096 -0.13664865 -0.059531648 0.0720335
000100 da d6 3c bd bf 89 11 3e 73 95 07 3e a5 45 3a 3a
       -0.046103336 0.14212702 0.13240604 0.0007105715
000110 3c 04 17 3e 0b cc cd bd 78 94 85 3d 66 dc 8f bd
       0.14747709 -0.10048684 0.06522459 -0.070244595
000120 f8 eb aa bb e6 0d 78 be a6 49 98 bd 12 8e 08 bd
       -0.005216118 -0.24224052 -0.07435922 -0.033338614
000130 97 dd 22 be 20 03 e2 3c 6a b3 98 3e b1 1e c0 bd
       -0.15904842 0.02758938 0.29824382 -0.09380854
000140 94 47 12 3d 06 cb 53 be e8 ed 2b 3e 5c 66 74 bc
       0.035712793 -0.20682916 0.16789973 -0.0149169825
000150 23 e0 66 3c e9 13 11 be e8 81 13 3c e1 da 0a be
       0.014091524 -0.14167751 0.00900314 -0.13560058
000160 0b 53 c9 bc 66 c8 9e bd 9b 7d f6 bd 92 5e 8f 3d
       -0.02457573 -0.07753067 -0.12035676 0.0700046
000170 09 77 08 be fd 89 09 bd 11 03 89 bb 68 75 3f bd
       -0.13326658 -0.03357886 -0.0041812737 -0.046742827
000180 70 96 66 3e a6 2e 61 be f4 9b c0 bd fa 21 b6 bb
       0.22518325 -0.21990451 -0.09404746 -0.0055582495
000190 70 5d b2 3d a9 69 af be 3d 34 82 bd 23 50 1e 3d
       0.08709228 -0.342603 -0.0635762 0.038650643
0001a0 46 3e ab be d0 fa d2 3d 01 9d d2 bd d8 76 5e be
       -0.33445948 0.10301745 -0.10283852 -0.21725023
0001b0 21 ed 74 be d8 2e 95 be 6b ca 62 3e f6 b8 f9 bd
       -0.23918582 -0.291373 0.22147529 -0.121934816
0001c0 90 7f 00 be 40 49 0d 3d 0d 1e 13 be f6 99 7e bd
       -0.12548661 0.034493685 -0.14366932 -0.062158547
0001d0 f6 8a 23 3e be 60 c4 3d 4b 3f 28 be f7 15 9a 3d
       0.15970978 0.095887646 -0.16430394 0.07523721
0001e0 83 84 27 bc f0 94 a4 bd 31 a4 47 be 01 0e 84 bd
       -0.010224464 -0.0803622 -0.19496228 -0.064479835
0001f0 43 6c 1b be e8 bb c9 3d a3 6a bb bc 65 17 57 3c
       -0.15178017 0.098502934 -0.022877997 0.013128136

lstm.bias_hh_l0 f4 [128]
000000 c8 ff ae 3c 4f ee 23 be 8f ed 39 be 21 9d 98 be
       0.0213622 -0.16008876 -0.18157028 -0.2980738
000010 96 98 71 bd 53 68 51 bd 7b d2 82 3b 66 e6 49 3d
       -0.058983408 -0.051124882 0.0039923764 0.04929199
000020 95 9c c4 be 0e a8 84 bd 72 84 ad be d7 8b d1 bd
       -0.38400713 -0.064773664 -0.3389011 -0.102317505
000030 10 ee 1d be 92 73 83 be f8 40 d6 3d 48 9f ce bc
       -0.15422845 -0.2567411 0.104616106 -0.025222436
000040 c6 d8 d7 3d 91 ec b8 bd e8 6f d0 bd b1 27 96 bd
       0.10539393 -0.090294965 -0.101775944 -0.07331789
000050 36 b2 e9 3d 67 e4 0c 3e cd 84 3c 3d 0e 65 9f bc
       0.11410944 0.13759004 0.046025086 -0.019457366
000060 1c 17 fd 3b 95 c9 16 3d 4f 66 cc bd 22 c0 13 3e
       0.007723702 0.036813337 -0.09980451 0.14428762
000070 80 86 32 3d 05 e6 97 3e 1f e5 69 bd 4b 42 94 3d
       0.0435853 0.29667678 -0.057103273 0.07239207
000080 f0 ce 79 3d 90 f3 da bd 3a c0 58 be 92 0d 7a be
       0.060988367 -0.10690987 -0.21167079 -0.24419239
000090 28 01 93 3d 62 dc 97 be a0 01 14 3d 9d 70 fe 3c
       0.07177955 -0.29660326 0.036134362 0.031059558
0000a0 f6 96 3f be 05 6b e3 3c 03 fd cc bd 8f 97 cc be
       -0.18709931 0.027760992 -0.10009196 -0.3995938
0000b0 e8 69 88 bd d0 cd d4 3a ab a0 ee 3d e4 10 47 be
       -0.06660825 0.0016235653 0.11651739 -0.19440037
0000c0 a8 c5 5e be e4 33 f8 bd bd 26 e6 3d 16 01 7a bd
       -0.21755087 -0.12119272 0.112378575 -0.061036192
0000d0 5d 30 1a be 33 f7 85 3c 03 ea 67 be b0 ca 23 be
       -0.15057512 0.016353225 -0.22647862 -0.15995288
0000e0 82 d5 3a 3e e3 d1 d9 bd e6 fc 84 3d 94 0f a7 bd
       0.1824551 -0.10635736 0.06493549 -0.08157268
0000f0 cf 73 fc 3d 77 e5 e1 bd 81 dd f1 3d a1 ab 75 bd
       0.12326776 -0.11030095 0.11809827 -0.05997813
000100 84 53 b1 3d dc 02 9b bd 28 81 21 be b3 76 a4 3d
       0.086585075 -0.07568905 -0.15771925 0.080304526
000110 2a 96 1e 3e af 85 81 bd b9 29 5f bd 5f 16 97 bd
       0.1548697 -0.06324326 -0.05448315 -0.07377314
000120 2a 21 82 3d 3f 68 4e be 94 a7 44 3d 58 2b 66 3d
       0.06353982 -0.20156954 0.048011377 0.05619368
000130 4e 53 f1 3c 77 91 4d 3c 7e b5 8d 3e db c0 e7 3d
       0.029458668 0.012546889 0.2767753 0.11316081
000140 39 18 63 3e 5a 51 24 bd 4c cd f3 3d fd 62 09 bd
       0.22177209 -0.040116645 0.11904392 -0.03354167
000150 64 6d b2 3d 7f 62 98 bd 94 4c 32 3d d6 89 0e be
       0.08712271 -0.07440662 0.04353006 -0.13919768
000160 58 e2 86 bd 19 82 b3 3d d9 56 d4 3c 2d 33 40 3d
       -0.065861404 0.087650485 0.025920318 0.046923805
000170 f6 de 42 be 2d 2c 25 3c 88 98 80 3d c9 5e d7 3d
       -0.19030365 0.010081333 0.06279093 0.10516126
000180 d9 63 cc bc bd 11 f3 bc 36 8f e8 bd da 56 17 3a
       -0.024949955 -0.029671544 -0.1135544 0.0005773135
000190 b5 05 29 be 17 2b 76 bc e6 04 03 bd 54 0d e8 bd
       -0.16506083 -0.015024922 -0.031987093 -0.11330667
0001a0 81 82 5e be ed 53 23 3e e0 b8 a6 be 0b 99 9e bd
       -0.21729471 0.15949984 -0.32562923 -0.077440344
0001b0 ff ac 61 be 96 be 21 be 88 12 2f 3d aa 03 2b be
       -0.22038649 -0.15795359 0.042742282 -0.16700616
0001c0 67 1c 43 3d 28 32 16 3d 40 55 17 3e 67 85 8b be
       0.04763451 0.036668926 0.14778614 -0.27250215
0001d0 00 c1 ef 3d 8d 38 f4 3d f5 98 0d be 3b a1 da 3d
       0.11706734 0.11924849 -0.1382788 0.106752835
0001e0 ba 63 a8 bd b9 2a 93 bd bc d8 37 be ff 9d 9a 3c
       -0.08222146 -0.07185883 -0.17953771 0.018874167
0001f0 c3 50 9b 3d e5 84 7c 3e 12 e1 43 bd c9 b3 26 3e
       0.075837635 0.2466007 -0.047822066 0.1627952

layer_norm.weight f4 [32]
000000 33 eb 85 3f 33 93 65 3f 0b 13 54 3f 46 43 64 3f
       1.0462402 0.89677733 0.8284156 0.8916515
000010 21 88 6d 3f 7c ec 4f 3f a0 f5 66 3f fb d3 6b 3f
       0.9278584 0.8122022 0.90218544 0.9212033
000020 64 08 4f 3f d0 c7 6c 3f dc 77 58 3f 05 42 5e 3f
       0.8087218 0.9249239 0.8455789 0.8681949
000030 bd a5 49 3f 1c a1 4e 3f 48 58 6d 3f fe 34 72 3f
       0.7876852 0.80714583 0.9271283 0.9461211
000040 d4 b0 61 3f de 02 54 3f 6d 6d 67 3f 4c 42 57 3f
       0.88160443 0.82816875 0.90401345 0.84085536
000050 d5 27 8d 3f 08 63 7b 3f 6f eb 55 3f 84 a7 6a 3f
       1.1027781 0.98197985 0.8356237 0.9166186
000060 d7 98 5f 3f 39 e9 7d 3f d7 92 65 3f b5 4f 8b 3f
       0.8734259 0.99183995 0.89677185 1.08837
000070 dd 80 6c 3f 35 78 97 3f b6 dc 80 3f 7c 59 82 3f
       0.9238413 1.1833559 1.0067356 1.0183558

layer_norm.bias f4 [32]
000000 ae 09 e3 3c 2b a0 6e 3d ad 0c 09 3c 8b 30 d7 bd
       0.027714577 0.058258217 0.008364839 -0.10507306
000010 77 e0 43 bd 0d 3f ac bd 13 d1 98 bd 90 bf 0b 3c
       -0.04782149 -0.084104635 -0.07461753 0.008529559
000020 b9 f1 11 bc 70 37 bc 3d 17 36 d1 3d 8d f6 17 3e
       -0.008907729 0.09190261 0.10215395 0.14840145
000030 03 e6 b6 bc 6f 88 ab 3c 5b 76 ba bd 12 2b 41 3d
       -0.022326475 0.02093908 -0.09104606 0.047160216
000040 02 21 59 3c 98 36 0b be d4 b5 12 be 0e 63 e7 3d
       0.013252499 -0.13595045 -0.14327174 0.1129819
000050 d3 7d 31 3d a0 43 f1 3d d0 30 5c 3d d4 a0 bd 3c
       0.043332886 0.117804766 0.05375749 0.023147978
000060 79 8f 90 bc 3b 46 03 bc 25 c9 b5 ba 77 a2 b0 3c
       -0.017646538 -0.00801235 -0.001386915 0.021561844
000070 b3 15 cc bc e6 f8 01 3b 20 46 e2 bc ba ae ee bc
       -0.02491269 0.0019832193 -0.027621329 -0.02913605

linear1.weight f4 [32, 32]
000000 21 ac 90 bc 2d 90 29 be 04 6f 7f 3e c0 51 dc bd
       -0.017660202 -0.16558905 0.24944693 -0.1075778
000010 80 d2 47 3e 1e 48 38 3e 68 51 ed 3d a9 af af 3d
       0.19513893 0.1799626 0.11587793 0.085784264
000020 5d b3 d4 3c 29 06 09 3e 95 e0 a2 be 64 12 60 be
       0.025964433 0.13381256 -0.31811967 -0.21882015
000030 df ba 27 be 94 ce 91 bd f9 14 de 3d 84 81 52 3c
       -0.1637988 -0.0711948 0.10843844 0.012848262
000040 9e 15 69 3d 08 b7 a1 3d e4 4b a6 bd 54 6c d4 3d
       0.05690538 0.078962386 -0.08119944 0.103722245
000050 72 2c 54 3d 89 5b 81 b9 66 28 85 be ee b9 1f be
       0.0518002 -0.00024672996 -0.26007384 -0.1559827
000060 81 13 a7 bc 48 ad 0b 3e 6e 31 41 be 5d 40 1c be
       -0.020395042 0.1364032 -0.18866512 -0.15258928
000070 d8 c2 d4 3d 3c 4e 3e 3e cb 5a 99 3d f5 88 f5 bd
       0.10388726 0.18584532 0.074880205 -0.11989013
000080 90 e9 24 bd 74 65 29 bd 95 6d 40 be 92 d6 d4 bd
       -0.040261805 -0.04135652 -0.18791802 -0.103924885
000090 1f 71 0d 3e 0f dc 18 be f7 fc cb bb 87 ed ec 3d
       0.13812684 -0.14927696 -0.006225224 0.11568742
0000a0 10 50 a8 3d 3c cd 20 3d 7d 2c 04 bc f4 00 75 be
       0.08218396 0.039258227 -0.008067247 -0.23926145
0000b0 a9 b3 c2 bd 5e 3d 7f bc 51 f8 38 3e 0e 09 24 3e
       -0.09506924 -0.015578596 0.18063475 0.16019079
0000c0 2b 7a 41 3e 6a 65 f5 ba d5 6a ad bd 22 78 13 be
       0.1889426 -0.001872224 -0.08467642 -0.14401296
0000d0 9f 57 6f 3e e0 57 53 be f9 ec e4 3c a8 12 35 3d
       0.23373269 -0.2063899 0.027945029 0.044207245
0000e0 a5 56 a2 bc 49 91 2a 3b c4 51 9e 3d 9d 87 88 3e
       -0.019816706 0.0026026538 0.07730439 0.26665965
0000f0 b9 32 03 3e 06 88 ac be 3a ff 7e 3c 52 f1 6e 3d
       0.12812318 -0.33697528 0.01556378 0.05833561
000100 79 ed 71 3d ad c0 d3 bd 8f 3a ab bd c2 a8 01 be
       0.059064362 -0.10339484 -0.083607785 -0.12662032
000110 78 99 a9 3d 72 ef b0 3d 3b be 51 bd 86 77 cd 3d
       0.08281225 0.086394206 -0.05120681 0.10032563
000120 5d dc 09 be 22 d2 f8 3c 97 02 f7 bc 36 70 10 be
       -0.13462968 0.030373637 -0.030152602 -0.14105305
000130 69 1b c5 bd fb 47 25 3e d7 a4 e0 3d 17 08 0e be
       -0.09624369 0.1614074 0.10968941 -0.13870274
000140 be 55 33 3e 74 a8 36 be 17 cd da 3d 60 8e 3c bd
       0.17513177 -0.17837697 0.10683649 -0.046034217
000150 07 ee 80 3e 9b 9d f5 bc 47 12 0e bb 77 e7 28 be
       0.251816 -0.029982379 -0.0021678375 -0.16494547
000160 63 16 32 3d 3d ad ca 3d e0 52 ad bd f6 49 81 3e
       0.04347838 0.09896324 -0.08463073 0.2525174
000170 f8 c7 02 bd 19 df 98 be 99 f8 2a be 07 6b 9a 3d
       -0.031928986 -0.2985771 -0.16696395 0.07539945
000180 58 03 ae 3d ea 77 7d bd e6 1e c0 bd da 74 4d bd
       0.084967315 -0.061881937 -0.093808934 -0.050160266
000190 66 14 65 bd 2c a2 a9 3d c4 0c 1e 3e 8f be fa bd
       -0.055927657 0.08282885 0.15434557 -0.122433774
0001a0 46 0e 4d be cc af f9 3c 35 71 76 be c6 93 4f 3d
       -0.20024976 0.030479334 -0.24066623 0.050678037
0001b0 b5 ef 4a b8 8f 08 95 bd 63 1a b7 3c ab bf 28 3e
       -4.8383798e-05 -0.07277023 0.02235145 0.16479366
0001c0 6d fe b9 3d 31 e6 2c 3d 81 e9 a9 3d 36 c2 40 3d
       0.09081731 0.042211715 0.082964905 0.047060214
0001d0 8e a2 51 3e 31 84 0c be 07 aa 2b 3d e8 a7 af 3d
       0.20472166 -0.13722302 0.041910198 0.085769475
0001e0 66 49 31 ba 38 83 10 3d 1d 66 ad bd 31 34 59 3e
       -0.00067629514 0.03528139 -0.08466742 0.21211316
0001f0 f7 d5 7d 3e 78 05 d5 be 90 71 41 be ad 00 9e bd
       0.24788652 -0.41605735 -0.18890977 -0.07714973
000200 3d 3e 85 3e de 42 2f 3e 5a 17 1a 3d 22 28 11 be
       0.26024047 0.17115352 0.037619926 -0.14175466
000210 8f b2 1d be 25 66 07 3d 51 87 c7 bd ff 96 ba 3c
       -0.15400146 0.033056397 -0.097426064 0.022777079
000220 ef 48 68 3c d0 62 cc 3d 0d 71 50 bc 8b 1c 34 be
       0.014177545 0.099797845 -0.012722266 -0.17589013
000230 ff 41 12 3e 69 73 7f 3e f3 85 1b bd 32 8e 57 3e
       0.14282988 0.24946369 -0.03796954 0.21050337
000240 57 5b 0f bd 2a 19 06 3d 12 65 51 bd 2e 32 85 bd
       -0.034999218 0.032738842 -0.05112178 -0.06503712
000250 6d 74 4f 3e 7c 69 fc 3d 29 af 61 3e 38 53 f2 3d
       0.20259257 0.12324807 0.22039475 0.11832279
000260 24 37 02 3d a6 80 86 be b9 e1 5b 3d 31 98 cb 3d
       0.031790867 -0.26270026 0.053682063 0.099411376
000270 f0 d3 13 3e 65 3e 2f be eb 1e 1e bd d2 6e 8d bd
       0.14436316 -0.17113645 -0.038603704 -0.06905903
000280 f0 af 08 be de e7 3d be 70 7f b3 3d 6a 30 1a 3e
       -0.13348365 -0.18545482 0.08764541 0.15057531
000290 c6 1b 3d 3e d5 53 96 3d bd 96 fd 3d 3a 68 2d be
       0.18467626 0.073402084 0.12382267 -0.1693429
0002a0 26 0f 16 3e 9e 12 37 be aa 1d a9 3c 4c 02 ff 3d
       0.14654216 -0.17878196 0.020644028 0.1245161
0002b0 54 da 0d bd 10 4f bb 3d 61 c9 3c bc 66 a2 c5 3a
       -0.034632042 0.09145939 -0.011522622 0.0015078306
0002c0 7b 46 ca 3d 8f dd 9f 3d 50 56 33 bc 50 f3 15 be
       0.09876724 0.07805931 -0.0109458715 -0.14643598
0002d0 ba 44 69 be 21 fc 20 be db cc 38 3d 9f 4c 6e bd
       -0.22780123 -0.1572118 0.04511724 -0.05817854
0002e0 c2 ca bf 3d e8 c7 1a 3e 63 b9 a6 bd cb 1b 93 bc
       0.09364845 0.1511532 -0.081408285 -0.017957589
0002f0 46 75 90 be ef 5e 7a 3e da af 69 3e fa 7e 71 bc
       -0.28214473 0.24450277 0.22820988 -0.014739746
000300 95 3e 88 bd c3 94 b5 bd d8 52 48 3e f1 ba 2b be
       -0.066525616 -0.08866265 0.19562852 -0.16770531
000310 c0 96 00 be 25 05 ba bc 57 cb 8d 3b ff 57 bc 3b
       -0.12557507 -0.022707531 0.0043272185 0.0057477946
000320 3e a3 84 3d 15 91 ba 3d 48 86 93 3e 22 b7 22 3d
       0.064764485 0.091097035 0.28813386 0.03972543
000330 f5 c5 28 3e f3 87 a2 3d fa 6e be bd 45 50 72 3d
       0.16481765 0.079360865 -0.09298511 0.059158582
000340 8b 68 e3 3c 68 5e 0f bd c7 50 55 be 5a 26 25 bc
       0.02775981 -0.035002142 -0.20831595 -0.0100799445
000350 b4 d8 81 3d 0f b2 30 3e 91 a7 0f bd 62 b6 40 bc
       0.06340161 0.17255424 -0.035071913 -0.011762233
000360 81 5d 0c bd 61 8b f6 3d 7c fe fa bc 16 71 bf bd
       -0.03426886 0.12038303 -0.030638926 -0.09347741
000370 84 58 60 bd 1a fd a4 3e 48 27 80 bd 50 27 9e bc
       -0.054771915 0.3222435 -0.06257492 -0.019305855
000380 fc 37 9d 3d 17 cc 02 bd 7c 35 47 bc 81 57 11 be
       0.07676694 -0.031932916 -0.012158748 -0.14193536
000390 32 59 7d bc cd bf 15 3e 07 97 ec 3d 69 b5 a7 3d
       -0.01546316 0.14623947 0.11552244 0.08188898
0003a0 0f c3 d1 3d 64 44 e0 bd 68 ae 83 3b a7 bc c2 bd
       0.102422826 -0.109505445 0.0040185936 -0.09508639
0003b0 22 92 bb bd 4a 0a 24 be 11 97 ec 3d 72 f5 dd 3c
       -0.09158732 -0.1601955 0.11552251 0.027094577
0003c0 48 c9 5c 3d 15 9e 1d be 8a 53 43 3e ae cc 0a bd
       0.053902894 -0.15392335 0.19074836 -0.033886604
0003d0 41 da 3d 3e e7 2f 51 3d b5 88 4b 3e 87 65 e2 bb
       0.18540289 0.051071074 0.19876368 -0.0069090757
0003e0 d2 65 bd bd d1 73 17 3d 8f fd 83 bd 6f 64 e0 3c
       -0.09247936 0.036975686 -0.06444847 0.02739164
0003f0 59 15 1c 3d b8 df 8e be 31 6b 2d be 51 fa fe 3d
       0.038106296 -0.2790506 -0.16935422 0.12450088

linear1.bias f4 [32]
000000 5b 6a 2f bd 65 4a fc bb 3a 14 0c be d7 ba 29 3e
       -0.042826038 -0.007699298 -0.13679591 0.1657518
000010 a4 28 37 be 7b 21 97 bc 64 a7 85 bd 2b f8 a1 bb
       -0.17886597 -0.018448582 -0.06526068 -0.004942914
000020 2d 6f 45 be a7 10 34 3e a6 09 95 bd f6 7c 54 3e
       -0.19280691 0.17584477 -0.07277231 0.20750794
000030 89 9a b1 ba e1 9f 87 3d 6b d6 23 bd 62 70 5e bd
       -0.0013550083 0.06622291 -0.039999407 -0.054306395
000040 1b 83 f1 3d 20 c6 bd 3d 41 f9 10 bd 2b 87 d0 3d
       0.117925845 0.09266305 -0.035393957 0.10182031
000050 7d 89 58 3e b9 d5 42 3e b0 d2 96 3d d3 30 62 bd
       0.21146198 0.19026841 0.07364404 -0.055222344
000060 0d df d5 bd d4 85 e7 bd 7b c3 a3 3d ab 00 3f bd
       -0.10442934 -0.113048226 0.07996269 -0.046631496
000070 cf 54 02 be 14 c6 b8 3d f9 97 0e 3e b4 ff d6 3d
       -0.12727664 0.090221554 0.1392516 0.1049799

linear2.weight f4 [1, 32]
000000 eb 58 29 3d e7 62 8c bd 72 3a ad bd 3b 8e a9 bc
       0.041344564 -0.068548016 -0.08458413 -0.020697704
000010 c8 bc ce bd d6 42 ef 3d 9c 1a 24 3d 73 63 34 bd
       -0.10094601 0.1168267 0.04006444 -0.044040155
000020 51 a5 8b bc 4f 15 cd 3c 1d 97 d5 bc 45 22 10 3e
       -0.017046602 0.025034575 -0.026073033 0.14075573
000030 61 63 4e bc ff 50 97 bc 58 97 8b 3d 36 fe 07 3d
       -0.012596936 -0.01847124 0.06815976 0.03320142
000040 9a 57 d7 3c 60 f9 f7 bc eb 88 ad bc fe 64 e4 3d
       0.026286889 -0.030270278 -0.021183452 0.11152075
000050 bd b3 9e 3d 3d bf 68 3d c0 1b 32 3d 06 eb 31 3d
       0.07749126 0.056823004 0.043483496 0.043437026
000060 f1 9a 20 3c 51 6c 02 3e a9 cc 9b 3d 3f 35 1e 3d
       0.009802566 0.12736632 0.07607395 0.038625
000070 39 85 75 bd f7 d3 d2 b9 d8 30 d1 bd 81 39 8d 3c
       -0.059941504 -0.00040212247 -0.10214394 0.017239334
