labml_nn/lstm/LSTM_THz/model_combine_318r1_10.pth (torch, 26025 bytes, 9 tensors)

lstm.weight_ih_l0 f4 [128, 1]
000000 85 48 c4 bd 7d a1 b5 be eb 72 64 be 83 f6 57 bc
       -0.095841445 -0.35474768 -0.22309463 -0.013181332
000010 6c bf 8e 3d 00 db 75 be 53 b5 89 bd b8 58 07 be
       0.069701046 -0.24009323 -0.06724038 -0.13217437
000020 a3 97 e4 bd 1c 67 9a 3c 8d 75 79 bd db 65 22 be
       -0.11161735 0.018847995 -0.06090312 -0.15859167
000030 06 5a fd 3d 0d 1d a1 bb a5 96 13 3d 43 a5 25 3d
       0.12370686 -0.004916793 0.036032338 0.04044081
000040 3d db 46 bc 27 9f 60 be 35 8e 24 be eb 67 da bc
       -0.012137231 -0.21935712 -0.16069873 -0.02666088
000050 54 48 29 be 57 bb c6 3c 46 0a 8b 3e ba aa 88 be
       -0.16531497 0.024259252 0.27156276 -0.26692754
000060 53 fd 25 be 31 cf fa bd 70 f5 24 3e c4 a8 01 be
       -0.16209917 -0.1224655 0.16109252 -0.12662035
000070 b9 58 94 3e d8 40 66 3e 38 10 d4 bc 72 6c b9 3d
       0.2897394 0.22485673 -0.02588664 0.090538874
000080 a5 62 85 bd 02 56 88 be 2e 41 a8 bc 58 e3 e8 3d
       -0.065129556 -0.2662812 -0.020538893 0.113714874
000090 7f 82 4d be bb f6 0f be 2b b3 f4 3d 18 9d 59 bb
       -0.20069312 -0.14058964 0.11948236 -0.0033205207
0000a0 d4 16 7c be ff 75 63 3e 7f 4c cb bd d7 0d 72 be
       -0.24618083 0.2221298 -0.099267 -0.23638092
0000b0 0f 75 9a bd 39 85 46 be 59 16 0a 3e cf 80 49 3e
       -0.075418584 -0.19386758 0.13485087 0.19678043
0000c0 60 41 73 3d c0 47 59 be f5 20 ac bd bc 9c bb bc
       0.05938852 -0.21218777 -0.084047236 -0.022901885
0000d0 93 d8 67 be 61 d0 65 3d 14 e8 8b 3e 59 0b a9 bd
       -0.2264121 0.05610693 0.273255 -0.082541175
0000e0 cf cf 22 be e4 f9 2e 3e bd f5 45 3d a7 bf 86 bd
       -0.15899585 0.17087513 0.048330057 -0.065795235
0000f0 f0 5a ac 3d ec db 68 3e ce 41 1d 3e 56 98 1a bd
       0.084157825 0.22740144 0.15357134 -0.037742935
000100 f3 59 a6 3e 9c 5b 80 3e 1f eb 56 3e 0c 43 9d be
       0.324905 0.25069892 0.20988129 -0.30715215
000110 8a 84 be be b9 0c 2f 3e 39 88 6d 3d 83 f2 1c 3e
       -0.37210494 0.17094697 0.05799124 0.15326886
000120 1e cf 08 be 05 4b 9c 3e 7d c6 92 bd d5 29 7a 3e
       -0.13360259 0.30525985 -0.07166765 0.2443002
000130 fd 73 25 3e 1b 82 2b 3e ac 1a b3 be b0 6b 42 be
       0.16157527 0.1674885 -0.34981287 -0.18986392
000140 2c bd 51 3e 75 d7 32 3e 1c db 15 3e 12 3b 91 be
       0.2048232 0.17465003 0.14634365 -0.2836538
000150 4b fc 26 3e 1f ca 8d bd 78 1c 4b 3e d0 33 be be
       0.1630718 -0.06923317 0.19835079 -0.37148905
000160 03 87 87 be 62 6a a9 bd e4 0e 5c be 7a ca 4d be
       -0.26470193 -0.08272244 -0.21490055 -0.2009677
000170 50 5c c9 bd 9b 5c a5 3e 4f 16 60 be 6f f3 f9 3d
       -0.0983206 0.32297215 -0.2188351 0.122046344
000180 3a 29 96 bd 2f b0 0c bd 54 20 f6 bd 21 72 1f 3e
       -0.07332082 -0.03434771 -0.12017885 0.1557088
000190 af 1e ef bc 1d 7f 06 be 6b da 59 3e 27 cb ab bd
       -0.029189436 -0.13134427 0.21274726 -0.083883576
0001a0 94 59 69 3d 51 ad 38 3e 9c ff 44 3d 7d ef 01 bf
       0.056970194 0.18034865 0.04809533 -0.50756055
0001b0 80 25 e8 3d 7f a4 2c be 28 2f 8c bd 21 86 86 3e
       0.113352776 -0.16859625 -0.06844932 0.26274207
0001c0 ea b4 b9 bb c1 c1 3e 3c 5e f1 12 be 68 be 85 bd
       -0.0056673186 0.011642874 -0.14349887 -0.06530458
0001d0 3e 5c 93 3c c5 c0 9a 3d 81 46 58 3e 32 f2 72 bd
       0.01798832 0.07556299 0.21120645 -0.059313007
0001e0 f1 49 87 bd 69 41 a4 bd 70 49 bf bd df dd 58 be
       -0.066059 -0.080202885 -0.09340179 -0.21178387
0001f0 5e 26 5c 3e 80 6f 86 3e f9 3c 45 3e 02 8d f3 bc
       0.21499011 0.26256943 0.1926154 -0.029730324

lstm.weight_hh_l0 f4 [128, 32]
000000 db 96 43 3c 85 55 18 bd 80 13 c5 3d ad 60 dd 3d
       0.011937822 -0.037190933 0.0962286 0.10809455
000010 98 1f 30 3e c3 27 49 be 0e d6 49 3e 28 bf 9b bd
       0.17199552 -0.19644074 0.19710562 -0.076048195
000020 07 92 09 3e d6 b0 f3 3c 7c fa 36 bc ec 41 f3 bd
       0.13434611 0.029747408 -0.011168119 -0.11877808
000030 7d 21 64 bc c8 2e 1d be 9f 31 38 be 5c 51 c4 be
       -0.013924 -0.15349877 -0.17987679 -0.38343322
000040 cd bf f0 3c b3 86 9a 3d 4f cf ea bd e4 30 21 3d
       0.029388333 0.07545223 -0.11465322 0.039353266
000050 46 79 43 3e d0 01 1a 3d c7 62 79 3d 1f 5c 41 bd
       0.19089231 0.037599385 0.060885217 -0.047206994
000060 e5 0f 41 bc b3 01 c1 bd 5d 26 d7 3d 5c 17 48 be
       -0.011783575 -0.09424152 0.10505364 -0.19540161
000070 ba 46 77 be a6 0d 82 3e 34 f2 ee bb b4 18 7d 3e
       -0.24148074 0.25401038 -0.0072920565 0.24716455
000080 29 a9 c5 be 86 47 03 3d 5d 4a f9 bd 49 5e e8 3e
       -0.3860562 0.032050632 -0.12172387 0.45384434
000090 2a 30 76 3e ca 8e 06 3e 86 f1 42 3d c8 4a d3 be
       0.2404181 0.13140407 0.047593616 -0.4126799
0000a0 50 e0 15 bd 14 84 da be 9c ee f6 bd ad 1e 48 be
       -0.036590874 -0.42678893 -0.1205723 -0.19542952
0000b0 6c b7 4c be c7 de 07 3e e1 f0 ce 3e 94 50 77 3e
       -0.19991845 0.13268577 0.4041815 0.24151832
0000c0 45 b9 70 be 92 29 7e bd 48 2d 48 3d a1 b2 90 3e
       -0.23508175 -0.062051363 0.04887131 0.28261283
0000d0 cc a2 bd be 0b 69 87 3e 3a 18 d1 be 48 47 05 3e
       -0.37038267 0.2644733 -0.40838796 0.13015473
0000e0 51 56 ed 3d b1 e5 f1 3c 51 7a 32 3e e7 ca ff 3d
       0.11588729 0.02952847 0.17429473 0.124898724
0000f0 cd 1c bd 3e 21 da e8 be 75 b1 5e 3e 2e 95 f2 bd
       0.36936036 -0.4547892 0.21747382 -0.1184486
000100 d0 0d 97 bc 7f 1e 9d bd 23 d5 03 3d 5b 37 9a bd
       -0.018439204 -0.07671832 0.032185685 -0.075300895
000110 da f7 84 3e a0 cd b0 bd 53 de 0f 3e e7 29 6d 3e
       0.25970346 -0.0863297 0.14049654 0.23160516
000120 85 2c 59 3d 95 71 35 3c cd 9c 88 bb f6 c9 42 3d
       0.053020973 0.011074443 -0.0041690827 0.047555886
000130 b6 09 41 bd 6e b3 72 be 73 ed 2c 3e 08 ab 48 bb
       -0.0471284 -0.2370126 0.16887455 -0.003061952
000140 da 37 27 be 8d 31 8a be d3 ae 27 3b d6 c7 19 be
       -0.163299 -0.2699093 0.002558638 -0.15017638
000150 fe 00 5b be 76 de a2 3d a5 8f a8 bb e3 31 48 bd
       -0.21387097 0.07952587 -0.005144077 -0.0488757
000160 5d 25 ab 3a 61 ad 5e bd 39 48 64 bd d3 f3 69 3e
       0.00130574 -0.054364566 -0.05573294 0.22846918
000170 49 8b b5 3d d0 d8 74 be 5b 46 4c 3e ee 52 e4 bd
       0.08864457 -0.23910832 0.19948713 -0.1114863
000180 4d b4 09 3e a6 97 21 be 9a 61 6b be cd 18 80 bc
       0.13447686 -0.15780506 -0.22986451 -0.015636826
000190 1a 65 15 3c 87 34 ca 3d 39 5f d3 bc 66 f0 37 be
       0.009118343 0.098733 -0.025802242 -0.17962798
0001a0 fb c8 c5 bd 3f 86 a6 bd 00 89 41 be 3b 15 9d 3d
       -0.096574746 -0.08131074 -0.18899918 0.07670065
0001b0 b0 84 5b 3d d4 a5 00 3e 79 6c 78 bd 76 94 19 3e
       0.053593338 0.12563258 -0.060650323 0.1499804
0001c0 57 28 17 be f3 43 6a 3e f6 4a 1b bd 37 a7 9c 3b
       -0.14761482 0.22877483 -0.037913285 0.0047806758
0001d0 06 d2 0f 3e c8 a1 be bd ae 5d 22 be d3 69 39 bc
       0.14044961 -0.09308201 -0.15856048 -0.011316734
0001e0 70 e7 84 3d 66 7b a0 b9 42 65 24 3e c8 a8 c6 bd
       0.06489456 -0.00030609517 0.16054252 -0.09700161
0001f0 bc 9b e7 3d 06 46 14 3e ee 1a 0a bc 0d b0 3d 3d
       0.11309001 0.14479837 -0.008429272 0.046310473
000200 3a 7d f8 3b 2b 4c 8c 3d 48 b5 2a be e4 64 b0 3d
       0.0075832875 0.068504654 -0.16670716 0.08612993
000210 7d 70 8e 3d 21 95 4e bd dc a3 2c 3e d8 c2 1f be
       0.06955049 -0.05043519 0.16859382 -0.1560167
000220 40 4b fb 3c 60 15 b0 3d ed dd d5 3c 6b ec 11 be
       0.03067553 0.08597827 0.026106799 -0.14250343
000230 55 19 0f 3e 13 5c 2f be bb 4d 2d bd ef 3f 58 be
       0.13974507 -0.17124967 -0.042310458 -0.21118139
000240 66 2e 08 3d 59 8a 0b be 92 14 b3 bd b3 c1 36 3e
       0.033247374 -0.13626994 -0.08744158 0.17847328
000250 64 9d 20 3e fd 40 68 be 94 14 c3 3d c4 76 8f 3e
       0.1568504 -0.22681041 0.09525409 0.28020298
000260 e6 50 1a 3c 5d 8b 96 3d b0 4f 88 3e 5b 1b c4 bd
       0.009418702 0.073508 0.26623297 -0.0957553
000270 db ce 11 be 11 2e a8 3d bb 93 23 3e ca c9 d4 3d
       -0.14239065 0.082119115 0.15974323 0.10390051
000280 ca 94 b4 be 99 5c 31 3e f7 23 80 3e c0 c2 27 3e
       -0.35269767 0.1732048 0.2502744 0.16382885
000290 af e1 b4 3e fa 5c 22 3e 66 52 d2 3d 41 c5 31 be
       0.35328433 0.1585578 0.102696225 -0.17360403
0002a0 ad b2 50 be a0 fa 0c be 0b ab df 3d 39 da c1 3c
       -0.2038066 -0.13767481 0.10921296 0.023663627
0002b0 c2 60 04 be 27 bb e7 3d 03 15 3e 3e bb a9 f0 3e
       -0.12927535 0.11314993 0.18562703 0.47004494
0002c0 5e 45 f0 bd 8c 9c e2 bd 34 49 de 3b 45 73 5c 3e
       -0.11731981 -0.11065015 0.006783629 0.21528347
0002d0 68 96 3d be dc 3d 97 3d e2 35 4d be 19 e8 f2 3b
       -0.18514407 0.073848456 -0.20040086 0.007412922
0002e0 f9 74 d5 3e ae 57 2a be f4 60 4d 3e 4a 82 98 3e
       0.41690806 -0.1663501 0.20056516 0.29786903
0002f0 12 21 03 3e 61 80 aa be 22 0a 91 3e 41 94 da bd
       0.12805584 -0.3330107 0.28328043 -0.106728084
000300 e0 d2 df ba 44 00 a6 3e b2 76 63 3e d4 f1 a5 bc
       -0.0017076395 0.32422078 0.22213247 -0.020256914
000310 52 d3 66 be 11 1a 0d 3d 4a d7 ab 3e 79 d7 df bc
       -0.2254155 0.034448687 0.3356269 -0.027324425
000320 85 83 3a be 6e b4 ef bd 52 99 23 3e c6 02 67 bc
       -0.18214233 -0.11704336 0.15976456 -0.014099782
000330 b4 59 f3 bd 3c ed ae 3c 8a 65 1e 3e 05 62 5f 3e
       -0.11882344 0.021353357 0.15468422 0.21814735
000340 b5 5d 85 bd d8 85 25 3e 41 cf 5c 3d 52 0c cd 3d
       -0.06512014 0.16164339 0.05390859 0.100121155
000350 6a d8 b4 bd 19 66 14 3e 20 9d a8 be 6c ae 5f be
       -0.0883034 0.14492072 -0.32932377 -0.2184388
000360 04 31 05 be fa e3 a9 be b3 88 26 3d a2 9e 0f 3e
       -0.13006979 -0.33181745 0.04065771 0.14025357
000370 5b 92 03 3e bc 01 ed bd 89 8c 47 bc 0b 81 b5 be
       0.12848799 -0.115725964 -0.012179502 -0.35450014
000380 ca 73 96 3d 82 4d 6e 3d c1 7b f3 3d 0e b9 46 bd
       0.07346304 0.058179386 0.118888386 -0.048516326
000390 89 7f b8 3d af 1f 04 be 44 6e 39 3e 6c 59 56 3d
       0.090087004 -0.12902711 0.18108469 0.052331373
0003a0 ee 15 98 be 17 a1 58 be 7c 57 71 3d a4 68 4f 3e
       -0.2970423 -0.21155201 0.058921322 0.20254761
0003b0 18 71 73 3d a1 7f 2a bd e0 a2 3f 3e 59 52 1b 3e
       0.059434026 -0.041625623 0.18714476 0.15168132
0003c0 2e 51 77 be ae b7 06 3e 35 53 0f 3e ad e4 14 3f
       -0.24152061 0.13156006 0.13996585 0.5816143
0003d0 cd 81 14 bd ad f9 27 3d 57 ff 4a be 40 94 1f 3d
       -0.0362566 0.041009594 -0.19823967 0.03895974
0003e0 e5 ad f2 3d f4 a3 e4 bb 3c 04 25 3e a3 ae 12 3e
       0.11849574 -0.0069775525 0.16114897 0.14324431
0003f0 26 47 46 3d ae 95 ab bc b9 37 4e 3e dc c9 1a bd
       0.048407696 -0.020945396 0.20138444 -0.037790164

lstm.bias_ih_l0 f4 [128]
000000 6f 3c 6a 3d a8 f4 e4 bd a3 52 5c bd 7c 2d ea 3d
       0.05718654 -0.11179477 -0.053789746 0.11434457
000010 24 4f 88 bd 3d 5c 28 be 91 ed 33 be 72 2c 82 be
       -0.0665572 -0.16441436 -0.17571093 -0.25424534
000020 c5 fb 49 be f3 30 55 3e 0a b3 01 be 29 31 ca bc
       -0.19724949 0.20819454 -0.12665954 -0.024681645
000030 4c 0f 07 3d af 54 2b bd f3 ad 8f bc 48 39 ab 3d
       0.032973573 -0.041828807 -0.017539 0.08360535
000040 c0 06 72 be 95 0f 4f be 96 29 c3 bd fe 55 95 be
       -0.23635387 -0.20220788 -0.09529416 -0.2916717
000050 5c a2 60 be ca a5 e5 bd 97 04 c7 bd a4 da 9c 3e
       -0.21936935 -0.112132624 -0.09717672 0.3063556
000060 53 ac 14 3e 82 ff 03 bd d9 22 3a be 3a 57 10 be
       0.14518861 -0.032226093 -0.18177356 -0.14095774
000070 21 6c b0 3d 64 6e 1f be 2e f2 00 3e f7 08 48 3e
       0.08614374 -0.15569454 0.12592384 0.1953467
000080 14 00 82 3c 07 18 b0 be ab 0e 67 bd 76 14 67 be
       0.015869178 -0.3439333 -0.056410473 -0.22566399
000090 8a 2f fa 3d c1 7d 73 be 9a 09 81 be be f3 54 be
       0.122160986 -0.2377844 -0.25202638 -0.20796105
0000a0 ef 85 f9 bd 01 e9 b8 3d de d4 46 be 48 bc da bd
       -0.12183749 0.09028817 -0.1941714 -0.10680443
0000b0 b5 f3 f4 bd 0c 4e 89 3d ef 6d c8 b9 20 f7 05 3e
       -0.11960546 0.067043394 -0.0003822888 0.13082552
0000c0 29 9f 4c be e5 ed 0a 3d d9 ff 16 3d 92 00 74 be
       -0.1998259 0.03391828 0.03686509 -0.23828343
0000d0 c6 b6 ef bd 73 f6 0a bd de 2b a5 3d d2 b4 76 3d
       -0.11704783 -0.03392644 0.080650076 0.060231037
0000e0 6c 42 da bb c3 ad 57 3d ed 5b 56 bd 1b 3d 7e be
       -0.00666075 0.052655946 -0.05233376 -0.24827997
0000f0 5c 14 e2 3d 18 2d 53 be d8 1c 7e 3d f1 4f b5 bd
       0.110390395 -0.2062267 0.062039226 -0.08853138
000100 dc 16 21 3d 04 b6 f3 3c 42 c2 99 3d 59 8e d0 3d
       0.03932844 0.029749878 0.07507755 0.10183401
000110 71 12 df 3d 99 2a 81 3e 29 e6 45 3b 31 a7 7e bd
       0.10892189 0.25227812 0.0030197 -0.062171165
000120 69 ca 30 3e fd 89 24 3e f5 60 0a be f5 68 db bd
       0.17264713 0.16068263 -0.13513549 -0.10713378
000130 40 f7 bc 3c 6d 36 33 be f8 3b 3e be 39 59 ba bc
       0.023067117 -0.1750123 -0.18577564 -0.022747623
000140 2c 26 77 3d fc 99 e6 ba 89 b6 c2 3c 5f 29 fe bd
       0.060339138 -0.0017593498 0.02376868 -0.12410235
000150 e4 a8 3c be 5b 6c 0c be 17 f1 39 3e 7b ee 92 3e
       -0.18423802 -0.1371321 0.18158375 0.2869757
000160 49 9f 36 3e 5e ee be 3d 5a 50 2e 3d cc 13 0a be
       0.178342 0.09322809 0.042557098 -0.13484114
000170 c3 c9 1a be 2b 05 66 3d 87 12 75 3d ae c0 88 3e
       -0.15116028 0.056157272 0.059832122 0.26709503
000180 1c be 23 bd 9d 90 9a bb 8b 97 06 be 2a 61 08 3e
       -0.039976224 -0.0047169463 -0.13143747 0.13318315
000190 81 d3 1a 3e 0d de 0b be 4a 1a a4 be 01 99 77 be
       0.15119745 -0.13658924 -0.32051307 -0.2417946
0001a0 b3 28 d2 3d 6e 0e 8d 3d 68 52 04 bd b8 0d 58 3d
       0.10261669 0.06887518 -0.03230515 0.05274746
0001b0 ab fb 13 be 43 09 13 be 65 2c cd bd e3 1f 37 bd
       -0.14451472 -0.14359002 -0.10018233 -0.044708144
0001c0 2d 5b 12 be 00 5d 0a 3e 80 f5 8a 3c 23 44 f0 bd
       -0.14292593 0.13512039 0.016962767 -0.11731746
0001d0 a7 93 57 be 8f 6f 2f bd a5 81 0e be 2b 3c a6 3c
       -0.21052419 -0.042831 -0.13916643 0.020292362
0001e0 d1 0b de 3d ae 01 3d be 8b 36 ba bd eb 9a a5 bc
       0.108420976 -0.18457672 -0.090924345 -0.020215472
0001f0 76 b6 d8 3d ab 74 2c 3d e0 2c 47 bd 6c 20 a6 3c
       0.10581677 0.04210345 -0.04862678 0.020279132

lstm.bias_hh_l0 f4 [128]
000000 c5 71 58 3e a6 f2 94 be 56 41 39 bd 9a 2f a1 bd
       0.2113715 -0.29091376 -0.045228325 -0.078704074
000010 88 d9 a4 bd 19 69 9a be 7c ba a6 be e7 82 71 be
       -0.08049303 -0.30158308 -0.3256415 -0.23585092
000020 72 d6 f9 bd 84 87 aa 3d 65 5e 8b be 38 36 eb 3d
       -0.12199105 0.08326629 -0.27220455 0.11484951
000030 8c 64 80 be d5 44 ee bd 08 51 48 3e f6 ff 6f 3d
       -0.2507671 -0.116342224 0.19562161 0.058593713
000040 9c 73 4b be 23 5b 0b 3e af 35 5f be c3 2e 98 be
       -0.1986832 0.13608985 -0.21797822 -0.29723176
000050 4f 54 20 be fa cd c4 bc 47 46 0f 3e 95 d1 1e 3e
       -0.15657161 -0.024023999 0.13991652 0.15509637
000060 58 6e 68 bd 6e 98 4b 3d f3 8c b2 3c 2d bd 75 bb
       -0.056745857 0.049705915 0.021795725 -0.003749679
000070 63 60 bd bc 8a 99 aa 3d d5 cf 23 be 81 3e 93 3d
       -0.02311725 0.083300665 -0.1599725 0.07189656
000080 cc b9 2e be bc c1 03 be b8 e2 7d be 61 28 56 3c
       -0.17063063 -0.12866873 -0.24793518 0.0130711505
000090 3e 78 0d be b9 1f 9f be 2a dd 1e be 00 fa 83 bd
       -0.138154 -0.3107889 -0.15514055 -0.06444168
0000a0 42 b3 9c bd 48 3b c3 bc e4 e4 90 be 81 2b 19 be
       -0.07651378 -0.023831978 -0.2829963 -0.14958002
0000b0 e8 40 c2 bc a9 4b 6b be d8 9f b2 bd ce 8c 45 be
       -0.02371259 -0.22978081 -0.08721894 -0.19291994
0000c0 13 c9 2a be bc 68 0c 3e 8c 8c cf bd ad f5 8a be
       -0.16678266 0.13711828 -0.10134229 -0.2714056
0000d0 a4 bb 86 bd 3a 4f 29 be 24 3f df 3d 79 ca 28 3e
       -0.06578758 -0.16534129 0.10900715 0.16483487
0000e0 6b d8 5b be 4f c2 39 3d fa 46 d7 3d 85 f7 90 bd
       -0.21469276 0.045351323 0.105115846 -0.070784606
0000f0 41 84 1f be 55 d4 00 be 6e 07 34 be 67 8b 38 3e
       -0.15577795 -0.12580998 -0.17580959 0.18021928
000100 90 9d f0 bd e7 b2 61 3e 86 2f b1 bd 2a 02 f0 bd
       -0.11748803 0.22040902 -0.086516425 -0.11719163
000110 c2 79 33 bc 32 2e f3 3c 99 9d 17 be 3a ff 2d be
       -0.010954322 0.029685114 -0.14806212 -0.16991892
000120 02 3d 16 be 17 f4 19 be 03 62 e2 3a 37 ad d9 bd
       -0.1467171 -0.15034519 0.0017271641 -0.10628741
000130 c6 5b 07 be 88 d9 93 3d 22 6d 93 3d 6c ce b0 3d
       -0.13218603 0.07219225 0.0719855 0.08633122
000140 d6 d2 70 bd 50 86 c4 bd 00 2e a3 3c 2a 1d 3a bc
       -0.05879482 -0.095959306 0.019919395 -0.011359492
000150 06 d4 08 3e cb e9 9d bd 2b 88 b3 bb 82 7d 7c 3e
       0.1336213 -0.07710608 -0.005478879 0.24657252
000160 51 78 79 bd f4 18 ae 3d fa 14 8b 3d c1 9a fb bb
       -0.06090576 0.08500853 0.0679111 -0.00767836
000170 f3 93 75 bd 75 da 1b bc b5 87 2f 3b fd 7a 89 3e
       -0.05995555 -0.009512533 0.0026783769 0.26851645
000180 2e db b7 bd a0 50 5a be 75 40 19 bc 05 3f dc bc
       -0.08977352 -0.21319818 -0.009353747 -0.026885519
000190 df 30 d5 3c e6 8a 8a bc 96 38 ce bd 9f 40 14 be
       0.02602428 -0.016911935 -0.10069387 -0.14477776
0001a0 05 24 3c be bf c9 11 3e fb 51 fc bd e2 d9 36 3e
       -0.18373115 0.14237116 -0.12320324 0.17856553
0001b0 97 04 3b be 65 2f 62 3d d8 1f 25 3e 53 50 15 be
       -0.1826347 0.05522098 0.16125429 -0.14581423
0001c0 10 f8 a3 3b 68 b1 49 be 79 cb 43 be 8b 04 cb be
       0.0050039366 -0.19696581 -0.19120587 -0.39651904
0001d0 56 aa 71 be 4d 29 98 3d 32 74 3d be bd 8e 29 3e
       -0.23600134 0.074297525 -0.18501356 0.16558357
0001e0 7f 73 b6 3d a5 52 3b 3d c1 59 44 be 26 3d 51 3d
       0.08908748 0.045733113 -0.19174863 0.051083706
0001f0 4f 7f f4 3d ea 55 a9 3d 48 c6 a1 bb dd db 1a 3e
       0.11938345 0.0826834 -0.004936967 0.15122934

layer_norm.weight f4 [32]
000000 07 c4 84 3f 7d 89 68 3f 3a f2 68 3f 51 f9 81 3f
       1.0372323 0.9083479 0.9099461 1.015421
000010 8c 25 87 3f 99 55 62 3f e3 7c 4a 3f be b5 5c 3f
       1.0558333 0.8841186 0.7909681 0.86214817
000020 c1 69 6c 3f 59 4c 7f 3f c2 4d 50 3f c1 6a 74 3f
       0.9234887 0.9972587 0.8136865 0.95475394
000030 4a 4b 60 3f fd 20 6e 3f ae e5 85 3f d8 12 75 3f
       0.8761488 0.93019086 1.0460718 0.9573188
000040 73 9d 6e 3f be 96 62 3f 1f 2e 63 3f c8 fe 37 3f
       0.93209 0.88511264 0.8874225 0.7187314
000050 29 ff 5c 3f 02 20 6f 3f bc c9 77 3f 23 4a 73 3f
       0.86326844 0.93408215 0.967922 0.95035
000060 48 d5 83 3f ef 6a 40 3f ed 81 6b 3f 38 72 69 3f
       1.0299463 0.7516317 0.91995126 0.9118991
000070 40 70 77 3f 3e b6 70 3f 79 62 7c 3f ea 88 60 3f
       0.96655655 0.9402808 0.9858776 0.87708914

layer_norm.bias f4 [32]
000000 f7 ec 5e bd bd 72 a8 3d f0 5e bf 3d e3 25 62 3c
       -0.054425206 0.082250096 0.0934428 0.013802978
000010 c5 5c 91 bc 45 e0 5e 3d 9f fe 21 bd 89 74 85 bd
       -0.017744431 0.0544131 -0.039549466 -0.06516368
000020 72 06 d5 bb 1d 39 d3 bc 90 d5 73 bd b1 a2 36 bd
       -0.0065010125 -0.02578407 -0.05952984 -0.04458875
000030 5a 2e e7 bd 9f 54 f3 bc 4b e9 90 3b 48 4f b0 ba
       -0.11288138 -0.029703436 0.004422342 -0.0013451362
000040 76 5b bc 3c 50 c9 7d bb d7 84 66 3d f3 68 49 bd
       0.02299283 -0.0038724728 0.05627903 -0.049172353
000050 c0 eb 21 bd e9 11 49 3d 70 21 e9 bc 4d bc 2a be
       -0.03953147 0.049089346 -0.028458327 -0.16673394
000060 86 df 6e 3c 3a 8f 87 bd 09 6e 8b 3d 65 9f 3f bd
       0.014579659 -0.06619115 0.06808097 -0.04678287
000070 e3 27 d7 3c 6d 28 09 bd 2c 7e d4 3c e8 33 d8 bd
       0.026264137 -0.03348582 0.02593907 -0.10556775

linear1.weight f4 [32, 32]
000000 e9 79 ec bd 00 f0 2b bd 45 3c 3f bd 01 cd 01 bd
       -0.1154669 -0.04197693 -0.046688337 -0.031689648
000010 ee 69 0d 3d 23 85 b7 3d 44 19 9a be cf 7d ae 3d
       0.03452485 0.08960941 -0.300974 0.0852009
000020 58 5b 8c bd df 54 c8 3d 99 ae 02 be b8 42 29 be
       -0.0685336 0.09781813 -0.12761916 -0.16529357
000030 fc 40 39 3e 7a e2 f8 bd 6e 23 20 be 87 e5 19 be
       0.18091196 -0.12152572 -0.15638515 -0.15028964
000040 20 e1 74 3c 2a c2 29 3e 94 8f a0 bc 8e 16 00 3d
       0.014946252 0.16577974 -0.019599713 0.03127151
000050 67 71 73 3d 06 3e ba bd f0 e5 c6 bd 5d fb 58 3e
       0.05943432 -0.09093861 -0.09711826 0.21189637
000060 46 bd 8e 3d 33 20 32 3e 44 b0 cf bd c9 1f cd 3b
       0.06969695 0.17395096 -0.10141042 0.0062598926
000070 d2 fe a0 3c 08 4b 4c 3d e0 28 8a bc fc c8 65 3e
       0.019652758 0.049876243 -0.016865194 0.2243995
000080 19 67 ff 3d 4b b5 4d 3e 65 2f 18 3d 02 e6 78 be
       0.12470836 0.20088689 0.037154574 -0.24306491
000090 73 ea 62 be c9 25 24 3e 15 51 eb bc 84 99 89 bd
       -0.22159748 0.16030039 -0.028725186 -0.06718734
0000a0 9e 20 d6 3c e4 00 42 3e 61 72 46 be da 26 45 bd
       0.0261386 0.18945652 -0.1937957 -0.048132755
0000b0 31 b3 8b bd 0f 6e d2 3c 44 ac 5e be 8a 70 4e 3e
       -0.068212874 0.025687246 -0.21745402 0.20160118
0000c0 66 d3 51 3e 85 28 9b 3d ea 83 07 3e ac 42 41 be
       0.20490798 0.07576088 0.13233915 -0.1887309
0000d0 4c f6 84 3e c0 8a 99 bd a0 6a 00 3e 3f 13 3c be
       0.2596916 -0.074971676 0.12540674 -0.18366717
0000e0 6f a4 1c be 0f e6 c0 3c 53 90 a9 3c fb 1a 24 be
       -0.15297101 0.0235472 0.020698702 -0.16025917
0000f0 86 97 b9 bd 8b 56 33 be a0 28 32 bd 99 c9 7b 3d
       -0.09062104 -0.17513482 -0.043495774 0.061471555
000100 73 b0 50 be 7b dc ab 3d a9 7a 87 bd 9d 97 1d bd
       -0.2037981 0.08391663 -0.066151924 -0.038474668
000110 45 56 36 bd 93 84 9b 3d ce 03 b4 3c f0 f5 e6 3d
       -0.044515867 0.07593646 0.02197447 0.112773776
000120 e1 99 c2 3d 9a 80 5c bd 47 c8 8a 3e 7b cf b4 bc
       0.09502006 -0.05383358 0.27105924 -0.02207159
000130 f8 71 2e 3e 81 86 3b be 6a 36 0a be b0 69 e0 bd
       0.17035663 -0.18313028 -0.1349732 -0.10957658
000140 13 fd d0 3d fd 5f 7f 3d 5f fb c8 3c ef 71 51 3e
       0.1020452 0.0623474 0.024533926 0.20453618
000150 58 dc c4 3d e2 55 e9 3d 97 6d 5e 3e 5f 67 e3 3d
       0.0961234 0.11393334 0.21721493 0.11103701
000160 48 40 3b be c1 4a 5c 3e a3 e1 9b bd 4c a6 48 bd
       -0.1828624 0.21512891 -0.07611396 -0.048986718
000170 aa 23 ac 3d 4e ca 2e 3e 07 f1 28 be d1 3f 0c bd
       0.0840524 0.1706936 -0.16498195 -0.034240548
000180 df de 2e bd 8f cd 24 be ea ea 19 be cb 94 7f 3e
       -0.042693015 -0.1609404 -0.15031019 0.24959104
000190 a5 8f 2a 3d 10 9b c8 bd 9b 9b aa 3d 9b e1 cd bb
       0.041640896 -0.09795201 0.08330461 -0.006282998
0001a0 2b bc b2 3d cb 7b 21 be 88 8f fc 3d 7b 8c 1e be
       0.087272964 -0.1576988 0.12332064 -0.15483277
0001b0 91 3f 24 bd b7 2c 04 be 6f ef 3a 3e ca 8e 64 3d
       -0.040099684 -0.12907682 0.18255399 0.055800237
0001c0 1f 1b 06 be 0d 0c 8f bc 98 c3 a2 bd 24 0d da bd
       -0.13096283 -0.017461801 -0.07947463 -0.106470376
0001d0 e3 bd 55 bc d9 6c 9f 3d e6 cd 39 be 8b d2 46 bd
       -0.013045761 0.07784433 -0.1814495 -0.048540633
0001e0 1b c5 4e 3e 4f 61 d8 bd 07 4f 00 be 03 88 21 3e
       0.20192377 -0.10565435 -0.12530147 0.1577454
0001f0 a4 9e 11 be e1 cc 3c bd a7 79 64 3e d8 a0 97 bd
       -0.14220673 -0.046093825 0.22312032 -0.074037254
000200 d8 10 96 3e 53 84 b9 3d 48 0c 20 3b 2a 38 f1 3d
       0.29309726 0.09058442 0.0024421383 0.117782906
000210 96 80 49 be d8 80 23 bd f1 d7 51 be 22 8b 8c 3d
       -0.19677958 -0.039917797 -0.20492531 0.06862475
000220 8e 83 0a bb 2e 68 2f 3d bf fb c0 3b f0 1e 8a bd
       -0.0021135542 0.042823963 0.0058893855 -0.06744182
000230 c2 fe a0 3d 06 9f 82 3e 90 46 a2 bd fc 10 3f 3d
       0.07861091 0.2551195 -0.07923615 0.046647057
000240 bc ce 54 3e 55 02 44 3e 24 31 51 3c 60 b6 bb 3d
       0.20781988 0.19141515 0.012768064 0.09165645
000250 43 c0 39 3e be ac 0b 3e 49 a3 b3 3d f3 07 8e 3d
       0.18139748 0.13640115 0.087713785 0.0693511
000260 19 40 09 be 20 9c 9c bc 0e ee c0 3c 3d 7e a5 bd
       -0.13403358 -0.019117415 0.023551013 -0.08080719
000270 6f 66 06 3d 6a 32 3a 3b ef 49 24 3e e4 2a 03 be
       0.032812532 0.0028411397 0.16043828 -0.1280933
000280 b4 67 07 3e 9f 99 18 3d dc 32 f7 3d 52 34 32 bd
       0.13223153 0.03725588 0.120702475 -0.043506928
000290 98 7c 39 bd 4a fb a8 3c 91 a8 41 be d1 4f d1 3d
       -0.045284837 0.020627636 -0.18911959 0.10220302
0002a0 0e 1c bc 3c 7f 3e 82 3e 01 b9 f9 bc 50 b6 94 3d
       0.022962596 0.25438306 -0.030483725 0.07261336
0002b0 e8 b0 d6 bd f6 94 8a bd 31 26 62 be ae f5 41 be
       -0.10482961 -0.06766693 -0.22084881 -0.18941376
0002c0 29 83 ca 3c b1 05 73 3d 11 34 f7 3b 70 1a 33 be
       0.024720745 0.0593316 0.0075440486 -0.17490554
0002d0 37 5b 21 bc cb c9 94 bc 99 55 05 3e d1 42 30 3d
       -0.0098484075 -0.018162629 0.13020934 0.04303247
0002e0 79 5d 49 be c2 0f af bd b6 54 f5 bd 87 4a b8 bd
       -0.19664563 -0.085479274 -0.11979048 -0.0899859
0002f0 3e 19 f9 bd 0b 29 78 bd f3 f5 51 be 3c ae 35 3e
       -0.12163018 -0.060586017 -0.20503978 0.17742246
000300 61 5c 82 bd 40 c6 74 3d e4 01 0d be 24 66 9a 3d
       -0.06365276 0.05975938 -0.13770252 0.07539013
000310 22 0a 60 3e 14 61 2a 3e 7f bd 8e 3e db d5 83 3c
       0.21878865 0.16638595 0.2787895 0.016093185
000320 f1 4e 0a 3e f1 09 1b be 3e 2f 6b 3c fc a9 f1 bd
       0.13506676 -0.15140511 0.014354525 -0.118
000330 8c 3b c7 bd 0c 44 38 3d f2 40 72 3e 11 1f 06 3e
       -0.097281545 0.04498677 0.23657587 0.13097788
000340 5f 65 1d bd 55 e0 27 be 9b 86 05 bd 83 8f 20 3e
       -0.038426753 -0.1639417 -0.032599073 0.15679745
000350 25 ea 3a 3c 6d 94 6a 3d a1 4a 9a bd bf 58 24 3e
       0.0114083635 0.057270456 -0.075337656 0.16049479
000360 73 f3 f9 3d 28 33 37 3d fb 1d 34 3d e5 48 8f 3e
       0.122046374 0.04472652 0.043973904 0.27985302
000370 88 ac 3b bc cd a9 04 be 1f 8d 46 3e 3e 9e 03 3e
       -0.011454709 -0.12955399 0.19389771 0.12853333
000380 70 db ff bc 9b d7 76 be 4f d8 c0 bd fc fb 1f 3e
       -0.031232566 -0.24105684 -0.094162576 0.15623468
000390 32 4d 3f 3e 52 f6 e3 3d 26 f9 19 3e 29 33 17 bc
       0.18681791 0.11130966 0.15036449 -0.009228506
0003a0 68 7c f2 3b 93 d6 07 bd 7d f9 5b 3e 68 80 10 be
       0.0074000843 -0.03316362 0.21481891 -0.14111483
0003b0 b2 0c 6d bd 4b 82 8f bd ad 6b 93 3e 29 9d b7 bc
       -0.057873435 -0.07007273 0.28793088 -0.022413807
0003c0 6f bf 09 bd 19 c4 e5 3c d4 0b 4e 3d 01 89 49 3e
       -0.03362983 0.028047608 0.05030425 0.19681169
0003d0 a9 43 da bd a0 23 0b be f7 2b f4 3d 23 3c 9a 3e
       -0.106574364 -0.13587809 0.11922448 0.30124006
0003e0 47 9c e3 3d b9 3d 4d 3e c0 84 14 bc b6 ef 4b 3e
       0.11113792 0.20043077 -0.009064853 0.19915661
0003f0 48 6f 16 be dc 61 5a 3c 01 b0 4e 3d 9a 21 f6 3c
       -0.14690888 0.013328996 0.05046082 0.03004532

linear1.bias f4 [32]
000000 8b 84 db bd 39 b6 65 3d 3c b2 a1 3d 1e 8b 54 bd
       -0.1071864 0.056081984 0.07895324 -0.051890485
000010 32 46 25 be fc a6 b6 3d b3 15 bc 3d 69 d2 f2 3d
       -0.16140059 0.089185685 0.09183826 0.11856539
000020 28 66 31 bd 4f 3a 91 3e 35 cf fd bd b7 12 ef bc
       -0.043310314 0.28364798 -0.12393037 -0.029183729
000030 9c 70 09 3e 00 2f 63 bd 17 a4 06 3d fa 1f 24 be
       0.13421863 -0.055464745 0.032871332 -0.16027823
000040 dd be ce 3d b4 6a 9e bd 04 3a e7 bd 09 0c ac bd
       0.10094998 -0.07735196 -0.112903625 -0.08400733
000050 83 d4 f3 bd aa 66 89 be 4e f2 e4 bd f9 77 01 be
       -0.11905768 -0.2683614 -0.111790285 -0.12643422
000060 8e 21 37 3e 5a 05 52 bc 36 0e 40 3a 5b 1e 2c 3d
       0.17883894 -0.012818659 0.00073263363 0.042021137
000070 05 71 4b 3e cf d2 1c 3d 7a 51 22 be 67 9d 05 3d
       0.19867332 0.03828698 -0.15851393 0.032620814

linear2.weight f4 [1, 32]
000000 ed f2 13 3d d1 60 0c 3d 1d 2d 16 3d 0c fe 92 bd
       0.036120344 0.03427202 0.036664117 -0.07177362
000010 76 d4 81 3d 68 f2 cc 3d 08 de da bd 04 40 2a bd
       0.06339352 0.10007173 -0.1068688 -0.041564956
000020 e2 75 b7 bd 25 71 26 3d f4 a7 bc bd 7b 52 d6 3d
       -0.08958031 0.040635247 -0.09211722 0.10464951
000030 23 90 16 bc ba 93 e6 bd 01 6b a8 3c e9 43 b5 bd
       -0.009189638 -0.11258645 0.020558836 -0.088508435
000040 bf 84 f4 bd 81 20 14 3e b6 f0 4d 3d 02 2b e1 bd
       -0.11939382 0.14465524 0.050278388 -0.10994531
000050 2b 1e a3 3c 18 ae 94 bd d9 29 a7 bd 82 60 90 bd
       0.019911846 -0.07259768 -0.08162279 -0.070496574
000060 cb 27 6d bd 70 a4 de 3d 4d 08 11 3c f8 52 e3 bc
       -0.057899278 0.10871208 0.008852077 -0.027749524
000070 01 90 d1 bd 4f b5 fd 3d 1e 91 48 3c 44 7f 22 bd
       -0.10232545 0.123880975 0.01224163 -0.03967215
