labml_nn/lstm/LSTM_THz/model_combine_318r1_7.pth (torch, 25950 bytes, 9 tensors)

lstm.weight_ih_l0 f4 [128, 1]
0.20625436 -0.11673081 0.23903474 -0.07182832 -0.09368201 0.13012521 0.18096659 -0.09462953
-0.006632656 -0.10276579 -0.10276145 -0.03886325 -0.08823037 -0.19512644 0.13418485 0.03220006
-0.2887888 0.088143386 0.23498149 0.2990053 -0.06860532 0.28325742 0.0701534 -0.25739744
-0.124645926 -0.25467804 0.08606233 0.26056278 0.08602884 -0.39414912 0.333197 -0.1859064
0.33046034 -0.040395517 0.18606399 -0.10320978 0.086862974 0.4600992 0.0045387647 0.093708694
-0.1549797 -0.19894645 -0.15513626 0.0007597363 -0.12466128 0.012863575 0.36490214 0.012026014
-0.25664985 0.21128498 0.02110778 0.2453595 -0.00021292205 0.34172437 0.21912017 -0.15383261
0.16467112 -0.35351878 -0.004102662 0.23628683 0.05665137 -0.16840619 0.086258344 -0.21681276
-0.4027357 0.4084714 0.2802614 -0.0038464223 -0.03674584 0.43094537 0.29142654 -0.10329806
-0.32496482 0.35463792 0.16173244 -0.41421142 0.15341957 -0.35300836 -0.2733684 -0.36819017
0.21427241 -0.3306177 0.15753292 -0.077140875 0.16069825 -0.2768098 0.21154284 -0.38159642
-0.25805026 0.24104671 -0.1714471 -0.04165227 0.19817021 0.27144775 0.01337118 -0.28788906
0.2404217 -0.26736513 0.21530014 -0.06839995 0.064106576 0.30579075 0.17050505 -0.07883464
-0.078432 -0.15863855 -0.14567468 -0.19986103 -0.10112553 -0.24046412 0.3569762 -0.04406444
-0.094076626 0.23820284 0.0717033 0.16315112 -0.17654532 0.33158597 0.18463945 0.0059738625
-0.0678893 -0.31916556 0.09557821 0.10104925 -0.1672389 -0.2594512 0.3328836 -0.16753353
00000000: 5834 533e 9010 efbd 86c5 743e ba1a 93bd
00000010: 5bdc bfbd 8b3f 053e 4e4f 393e 21cd c1bd
00000020: c056 d9bb df76 d2bd 9874 d2bd 122f 1fbd
00000030: 20b2 b4bd 3acf 47be c167 093e 36e4 033d
00000040: 20dc 93be 8584 b43d fd9e 703e 3917 993e
00000050: f280 8cbd 1e07 913e 96ac 8f3d 99c9 83be
00000060: 5d46 ffbd 2965 82be 7241 b03d 7c68 853e
00000070: e32f b03d eacd c9be cc98 aa3e 3f5e 3ebe
00000080: 1932 a93e c575 25bd 8f87 3e3e a65f d3bd
00000090: 37e5 b13d 1f92 eb3e ebb9 943b 58ea bf3d
000000a0: 00b3 1ebe 9eb8 4bbe 0adc 1ebe 0a29 473a
000000b0: 6a4e ffbd bec1 523c 74d4 ba3e c208 453c
000000c0: 9c67 83be 175b 583e 39ea ac3c 853f 7b3e
000000d0: d443 5fb9 7ff6 ae3e 0a61 603e 4c86 1dbe
000000e0: 8c9f 283e 6a00 b5be a06f 86bb 2df5 713e
000000f0: 440b 683d ac72 2cbe 37a8 b03d 2a04 5ebe
00000100: 6033 cebe 2a23 d13e 6c7e 8f3e 4214 7cbb
00000110: ce82 16bd dfa4 dc3e dc35 953e ef8d d3bd
00000120: ca61 a6be 1a93 b53e 309d 253e 8513 d4be
00000130: 051a 1d3e 83bd b4be f1f6 8bbe 6c83 bcbe
00000140: 3a6a 5b3e b946 a9be 4f50 213e 09fc 9dbd
00000150: 158e 243e 04ba 8dbe b09e 583e 9b60 c3be
00000160: 2a1f 84be f3d4 763e d48f 2fbe 929b 2abd
00000170: 22ed 4a3e 33fb 8a3e cb12 5b3c 3266 93be
00000180: 1b31 763e 15e4 88be a477 5c3e 4615 8cbd
00000190: 4f4a 833d 9b90 9c3e e098 2e3e 0e74 a1bd
000001a0: f5a0 a0bd 2572 22be be2b 15be 5fa8 4cbe
000001b0: e71a cfbd 3a3c 76be 96c5 b63e ea7c 34bd
000001c0: 3fab c0bd 72eb 733e 2ed9 923d 1611 273e
000001d0: 4cc8 34be a3c5 a93e 2012 3d3e 64c0 c33b
000001e0: 8c09 8bbd ab69 a3be 82be c33d e9f2 ce3d
000001f0: ad40 2bbe cad6 84be b86f aa3e e98d 2bbe

lstm.weight_hh_l0 f4 [128, 32]
0.086596526 -0.1311048 0.017682403 0.05341103 0.03752034 -0.3140124 0.16476262 -0.22791289
0.2886923 -0.16743822 -0.104229495 0.35023153 0.061029986 0.21611883 -0.12205756 0.042594433
-0.144769 -0.27070278 -0.33400854 -0.1446283 0.045082655 -0.0072194743 -0.12229616 0.13306722
-0.1701989 -0.04831289 -0.06776032 -0.22621082 -0.22072946 -0.037892006 0.050516877 0.12814431
-0.042180635 0.012215855 0.15957569 -0.05847038 0.14193693 -0.19051644 -0.024148501 -0.17612353
0.1493737 0.049888916 -0.0423042 0.005812 -0.24596538 -0.031701203 -0.30732787 -0.1490478
0.20224999 -0.28704044 -0.2459809 0.03733978 -0.09118614 -0.18660375 0.1848047 0.03968246
-0.26091826 0.18724902 -0.18586159 -0.071450554 0.5637991 0.13973173 -0.028823858 0.12594861
0.09898753 -0.25450435 0.075264454 -0.012716504 0.23813047 0.1494674 0.24331063 -0.042542756
0.16659869 -0.09756502 0.027596496 0.0036311033 -0.041285977 0.14290811 0.1369845 0.071221
-0.23571578 -0.15474299 0.10091589 -0.07672771 -0.15379705 0.0054595754 -0.29401138 -0.032682847
0.007090284 -0.2965989 0.11001077 0.04722759 0.02892539 -0.18527052 -0.010061476 0.12206461
0.09549902 0.29507038 -0.14356402 0.03257585 0.0064075706 -0.2515601 0.03139784 0.2738799
-0.018379634 0.19860877 -0.042061727 0.018337619 -0.14893109 -0.1926161 -0.10376717 0.20226616
0.4548128 0.13611907 -0.07894441 0.01795714 0.012027029 -0.08947832 0.17506231 -0.27077007
-0.05623873 -0.03945442 0.16709436 0.065630816 -0.13976832 -0.026704522 -0.089376174 -0.20353483
0.1854445 0.004846682 -0.0071963924 -0.108984776 -0.22771709 -0.05644607 -0.07192076 0.10385646
-0.16134545 -0.19367522 0.2025436 0.121112704 0.008530812 -0.07441005 0.05606438 0.24863157
0.13696562 0.1916547 0.026566604 -0.28494453 0.06063166 0.1557882 0.08082784 -0.106612675
0.18267672 0.17932488 0.16723707 -0.01960692 -0.043649707 0.34268796 -0.059593033 0.07371283
-0.06398957 0.15082248 0.070676826 0.1514843 -0.122098856 0.092139296 -0.24258053 0.15653163
-0.07258129 -0.23235387 -0.051534384 -0.11295962 0.14655861 -0.059499253 0.22031768 -0.10747943
-0.37880364 0.041763343 0.28866562 0.2857002 -0.099506475 0.118050724 -0.0025850965 -0.014282067
0.099162474 -0.06256369 0.19880839 0.011875887 -0.1364717 -0.12856576 0.14670788 0.14696679
0.15383044 0.026211957 0.15031289 0.30669802 0.1854377 -0.15079223 0.025290495 -0.0071529853
-0.025977433 -0.04199585 -0.061014194 0.041407596 -0.21251218 0.1043869 -0.18654373 -0.031083636
0.07693264 -0.061040636 -0.058412455 0.22110449 0.040721055 -0.17698897 -0.41413376 -0.07955132
0.0036459458 -0.27803177 0.19220242 -0.002121754 -0.19834621 0.024015864 0.042215403 -0.030050978
-0.002589874 0.10597088 -0.15148132 0.027660977 0.10442349 -0.31053203 -0.043915007 -0.07130796
-0.06884323 0.19082327 0.12685947 -0.037124947 0.024085103 -0.038120177 -0.07624315 0.029046059
0.0024202936 -0.034500893 -0.036992904 0.09668672 0.09302926 0.14244983 -0.098782904 -0.030703818
-0.06277409 -0.29629406 -0.041486252 0.144905 -0.19724634 -0.082902096 0.15399748 -0.06823014
00000000: 8559 b13d 5640 06be b0da 903c 86c5 5a3d
00000010: eeae 193d 3cc6 a0be 88b7 283e ff61 69be
00000020: 7acf 933e ed74 2bbe 4676 d5bd 8c51 b33e
00000030: 94fa 793d 414e 5d3e 50f9 f9bd 8077 2e3d
00000040: 533e 14be 8e99 8abe 2b03 abbe 7119 14be
00000050: 97a8 383d 5791 ecbb 6976 fabd c642 083e
00000060: 9f48 2ebe bde3 45bd ecc5 8abd cfa3 67be
00000070: e706 62be a634 1bbd c9ea 4e3d 4338 033e
00000080: 9ac5 2cbd 0225 483c cf67 233e a37e 6fbd
00000090: ea57 113e be16 43be 14d3 c5bc ba59 34be
000000a0: 6bf5 183e 5258 4c3d 2b47 2dbd 9772 be3b
000000b0: 59de 7bbe 1fd9 01bd 145a 9dbe fd9f 18be
000000c0: 9f1a 4f3e f7f6 92be 6be2 7bbe 99f1 183d
000000d0: cdbf babd 0e15 3fbe 713d 3d3e 138a 223d
000000e0: 1497 85be 35be 3f3e 8052 3ebe ab54 92bd
000000f0: 2355 103f d615 0f3e 0320 ecbc acf8 003e
00000100: f9b9 ca3d 654e 82be 4024 9a3d e258 50bc
00000110: 79d8 733e fb0d 193e 6c26 793e 5041 2ebd
00000120: d998 2a3e 2bd0 c7bd 0c12 e23c cef7 6d3b
00000130: 7c1b 29bd 8156 123e aa45 0c3e 51dc 913d
00000140: 7a5f 71be f274 1ebe fdac ce3d 6b23 9dbd
00000150: f97c 1dbe 3de6 b23b a988 96be 73de 05bd
00000160: 9d55 e83b d0db 97be 544d e13d b871 413d
00000170: f1f4 ec3c 8eb7 3dbe e4d8 24bc 03fd f93d
00000180: fd94 c33d 7713 973e 7202 13be 416e 053d
00000190: 99f6 d13b 7ccc 80be 059b 003d fc39 8c3e
000001a0: e390 96bc 1960 4b3e eb48 2cbd c638 963c
000001b0: 6481 18be 283d 45be e283 d4bd dc1e 4f3e
000001c0: 39dd e83e cc62 0b3e 9bad a1bd da1a 933c
000001d0: 040d 453c 6940 b7bd 8943 333e 60a2 8abe
000001e0: 955a 66bd f59a 21bd c91a 2b3e 7369 863d
000001f0: 6d1f 0fbe 71c3 dabc db0a b7bd 6f6b 50be
00000200: 2ae5 3d3e ead0 9e3b b7cf ebbb 6933 dfbd
00000210: ab2e 69be ff33 67bd 314b 93bd b2b2 d43d
00000220: be37 25be cc52 46be 9767 4f3e f009 f83d
00000230: d2c4 0b3c 4c64 98bd c3a3 653d 4699 7e3e
00000240: b740 0c3e 2141 443e 35a2 d93c 40e4 91be
00000250: e758 783d f186 1f3e 1189 a53d bf57 dabd
00000260: 9b0f 3b3e f1a0 373e 3240 2b3e b19e a0bc
00000270: 09ca 32bd cc74 af3e d317 74bd c1f6 963d
00000280: f70c 83bd 3571 1a3e 03bf 903d b31e 1b3e
00000290: f70e fabd 87b3 bc3d 0867 78be d449 203e
000002a0: 80a5 94bd 2cee 6dbe b815 53bd 6057 e7bd
000002b0: 7613 163e 7db5 73bd f59a 613e 2d1e dcbd
000002c0: 8df2 c1be 0a10 2b3d fbcb 933e 4c47 923e
000002d0: 0dca cbbd 94c4 f13d b96a 29bb 55ff 69bc
000002e0: b215 cb3d 6421 80bd 6d94 4b3e 1593 423c
000002f0: 3dbf 0bbe bea6 03be 973a 163e 767e 163e
00000300: ba85 1d3e 75ba d63c 9feb 193e 8607 9d3e
00000310: 61e3 3d3e 4769 1abe 032e cf3c 9763 eabb
00000320: a0ce d4bc d703 2cbd 05ea 79bd 039b 293d
00000330: cb9c 59be cdc8 d53d 5205 3fbe 1ca3 febc
00000340: dc8e 9d3d bf05 7abd e641 6fbd 3769 623e
00000350: 1fcb 263d 993c 35be 5709 d4be cdeb a2bd
00000360: d2f0 6e3b 2e5a 8ebe b6d0 443e 200d 0bbb
00000370: 451b 4bbe ebbc c43c 0fea 2c3d 782d f6bc
00000380: e0ba 29bb 4307 d93d eb1d 1bbe 4699 e23c
00000390: fcdb d53d 0efe 9ebe 39e0 33bd e809 92bd
000003a0: aefd 8cbd 2d67 433e 73e7 013e 5410 18bd
000003b0: 1f4e c53c e723 1cbd 5e25 9cbd 00f2 ed3c
000003c0: ca9d 1e3b cf50 0dbd df85 17bd b003 c63d
000003d0: 2086 be3d 5ede 113e b14e cabd 9386 fbbc
000003e0: b48f 80bd dbb3 97be 7ded 29bd fa61 143e
000003f0: f2fa 49be 93c8 a9bd 84b1 1d3e 3ebc 8bbd

lstm.bias_ih_l0 f4 [128]
-0.035222873 0.03959039 -0.047199067 -0.07204266 0.012410711 0.015934289 0.06928479 -0.059269633
0.032659274 0.046020433 -0.0356338 0.24003324 -0.094666645 -0.1136839 -0.15555 0.045950226
0.19850926 0.015028357 -0.29888472 -0.043498594 -0.12505916 -0.19106862 -0.2608484 0.15818973
-0.23078217 -0.18893628 0.22856373 -0.29494065 -0.047491297 -0.2154808 0.023623783 0.018992074
0.013108554 0.08901636 0.10943351 -0.09894532 0.062048666 -0.16017908 0.09156053 -0.10176906
0.05592716 -0.07195609 -0.19704004 -0.17241038 -0.06602987 -0.05964211 0.096821874 0.060570553
0.22315906 0.068687625 -0.15379195 -0.2775103 -0.0327678 -0.18002498 -0.014072381 -0.096143186
-0.008578841 -0.21617685 0.05806273 -0.041513667 -0.08979164 -0.08428782 -0.17850044 -0.040168803
-0.1971092 -0.021308407 0.11395715 0.07709068 -0.016113492 0.008934003 -0.0031708383 -0.03917453
0.031839516 -0.08954449 0.07601116 0.086884744 -0.1134998 0.0024754114 -0.030436592 -0.20912445
-0.13581212 0.0035162359 0.007299461 0.13983591 0.03357512 -0.06601802 -0.1209536 0.1852855
-0.06647434 0.03869225 -0.25679398 0.03237583 0.14630927 -0.007585619 -0.11965138 -0.028570188
-0.020647762 0.040371977 0.11968085 -0.018613914 -0.116572715 -0.19913004 0.21686059 -0.08624544
0.036437824 0.065020084 -0.20391333 0.12698601 -0.2423025 -0.21571527 0.0672361 -0.13986935
0.08330413 -0.18719405 -0.3063816 -0.27679208 -0.17194979 -0.076428436 -0.07135323 0.046298347
-0.18639399 -0.0040689134 0.20579374 -0.058995668 -0.043837897 -0.015595839 -0.07888897 -0.30707562
00000000: dc45 10bd 8829 223d cf53 41bd 1a8b 93bd
00000010: 4b56 4b3c a088 823c 2fe5 8d3d b7c4 72bd
00000020: bbc5 053d ec7f 3c3d bff4 11bd 46cb 753e
00000030: 96e0 c1bd 1bd3 e8bd 8048 1fbe 4e36 3c3d
00000040: 0346 4b3e 7f39 763c 6b07 99be 952b 32bd
00000050: 820f 00be 7ea7 43be ec8d 85be 7dfc 213e
00000060: 2952 6cbe 8378 41be 9c0c 6a3e 7602 97be
00000070: 3c86 42bd 00a7 5cbe aa86 c13c 4495 9b3c
00000080: 43c5 563c 364e b63d ad1e e03d d8a3 cabd
00000090: be26 7e3d fc05 24be 1684 bb3d 4c6c d0bd
000000a0: e113 653d b75d 93bd ddc4 49be 598c 30be
000000b0: ab3a 87bd 494b 74bd 8c4a c63d d418 783d
000000c0: cf83 643e 19ac 8c3d a37b 1dbe d415 8ebe
000000d0: 8737 06bd 7858 38be d88f 66bc b8e6 c4bd
000000e0: 448e 0cbc 775d 5dbe 2fd3 6d3d 3c0a 2abd
000000f0: aee4 b7bd 189f acbd d2c8 36be 0b88 24bd
00000100: fed6 49be f88e aebc 5e62 e93d b8e1 9d3d
00000110: 7100 84bc ed5f 123c d7cd 4fbb 7975 20bd
00000120: 276a 023d 1a63 b7bd bdab 9b3d a1f0 b13d
00000130: 9572 e8bd 833a 223b 2956 f9bc b824 56be
00000140: 5512 0bbe a670 663b 5130 ef3b 2531 0f3e
00000150: 1186 093d 7534 87bd 85b6 f7bd 7bbb 3d3e
00000160: b323 88bd c47b 1e3d 807a 83be 859c 043d
00000170: 19d2 153e c990 f8bb c80b f5bd 070c eabc
00000180: 7f25 a9bc 165d 253d 3c1b f53d 357c 98bc
00000190: adbd eebd bfe8 4bbe b410 5e3e 73a1 b0bd
000001a0: d43f 153d 4029 853d a8ce 50be 9f08 023e
000001b0: 261e 78be 77e4 5cbe 15b3 893d e939 0fbe
000001c0: 5b9b aa3d ccaf 3fbe 0dde 9cbe b1b7 8dbe
000001d0: 9b13 30be 8386 9cbd a421 92bd 56a3 3d3d
000001e0: 11de 3ebe 8554 85bb 98bb 523e 71a5 71bd
000001f0: 5e8f 33bd b185 7fbc 8a90 a1bd 0439 9dbe

lstm.bias_hh_l0 f4 [128]
0.20479496 -0.10179612 0.07778407 -0.22677752 0.008518888 -0.18258204 -0.0356871 0.0028776713
0.0035963373 0.27228966 0.02666223 0.30373204 -0.03404538 0.03973253 0.085107826 -0.009269737
-0.11316483 -0.13721876 -0.11939804 -0.23445751 -0.029571567 0.06064918 -0.064111926 -0.09472042
-0.006390055 -0.0023589935 0.31305328 -0.28096858 0.050346326 -0.0684582 -0.083707586 -0.15235756
-0.070388444 -0.008300254 -0.053141106 0.10244633 0.067189045 -0.36062518 -0.068754055 0.05305835
0.079908915 -0.17508045 -0.048704598 -0.18203887 -0.043581367 -0.08208416 0.0014062269 -0.060318947
0.37086508 -0.07395721 -0.28790963 -0.14091522 -0.18867743 0.023584817 -0.07888488 -0.051105656
-0.24130647 -0.20420685 0.27884448 -0.030758139 -0.114626475 -0.11073279 -0.06584432 -0.013156091
0.094617024 -0.12221177 -0.0017928097 -0.23715134 0.13243426 0.085062295 0.121393785 -0.18237728
0.11144968 -0.050284036 -0.10721131 -0.16499549 -0.10448555 -0.04825515 -0.012311945 0.117363945
-0.04768056 -0.0018566098 0.02776112 -0.054552495 -0.05260597 -0.06884979 0.097137354 0.09494451
-0.043978423 0.036888238 -0.29684994 -0.045394998 -0.036350414 -0.092974365 -0.16931166 0.016213119
0.1879103 0.17311023 0.1396966 -0.23972282 -0.12151849 -0.18546444 -0.05797033 -0.13310497
-0.16863048 0.25412524 -0.17923336 -0.005187908 -0.022908902 -0.16982943 -0.100753315 -0.044492606
0.18297337 -0.08003736 -0.118611515 -0.13817947 -0.075899996 0.025410049 -0.2228941 0.1011564
-0.24503163 -0.010623341 0.22566567 -0.18467288 -0.12139781 -0.10210586 0.03154215 -0.24342896
00000000: c5b5 513e 7c7a d0bd 414d 9f3d 5e38 68be
00000010: ce92 0b3c c9f6 3abe a32c 12bd 5097 3c3b
00000020: 87b0 6b3b 8d69 8b3e c06a da3c c482 9b3e
00000030: 2b73 0bbd 94be 223d 034d ae3d 18e0 17bc
00000040: f6c2 e7bd 1383 0cbe f686 f4bd a115 70be
00000050: 1240 f2bc 466b 783d 1d4d 83bd c8fc c1bd
00000060: ab63 d1bb 5899 1abb 8548 a03e 1ddb 8fbe
00000070: f337 4e3d d033 8cbd e26e abbd 9f03 1cbe
00000080: d127 90bd cafd 07bc 7daa 59bd 62cf d13d
00000090: 699a 893d dda3 b8be edce 8cbd b653 593d
000000a0: 49a7 a33d 4a48 33be 797e 47bd 6668 3abe
000000b0: 6082 32bd bd1b a8bd 2551 b83a 0011 77bd
000000c0: 07e2 bd3e e176 97bd e468 93be 144c 10be
000000d0: a834 41be f234 c13c 658e a1bd 2a54 51bd
000000e0: 0b19 77be 9a1b 51be b4c4 8e3e 7ef8 fbbc
000000f0: 49c1 eabd dfc7 e2bd 63d9 86bd a58c 57bc
00000100: 92c6 c13d 2a4a fabd b6fc eaba cdd7 72be
00000110: d99c 073e 2435 ae3d 4e9d f83d 1cc1 3abe
00000120: bb3f e43d a2f6 4dbd 9a91 dbbd 94f4 28be
00000130: 85fc d5bd 31a7 45bd 0ab8 49bc 825c f03d
00000140: b14c 43bd 7d59 f3ba 4a6b e33c 7072 5fbd
00000150: 5c79 57bd 1e01 8dbd f3ef c63d 4472 c23d
00000160: b822 34bd 1f18 173d b7fc 97be 1bf0 39bd
00000170: 2ce4 14bd 5869 bebd 0960 2dbe 60d1 843c
00000180: 8f6b 403e cf43 313e a00c 0f3e e679 75be
00000190: b0de f8bd 64ea 3dbe 4c72 6dbd ab4c 08be
000001a0: 78ad 2cbe b41c 823e f388 37be 54ff a9bb
000001b0: 73ab bbbc c4e7 2dbe c157 cebd e13d 36bd
000001c0: 5f5d 3b3e a1ea a3bd 98ea f2bd eb7e 0dbe
000001d0: 7571 9bbd bc28 d03c 5a3e 64be 162b cf3d
000001e0: 92e9 7abe 860d 2ebc e714 673e e31a 3dbe
000001f0: 6a9f f8bd e11c d1bd 5732 013d 7145 79be

layer_norm.weight f4 [32]
1.0388763 1.1031696 0.9747821 0.77721447 0.8473096 0.9103694 0.97684616 0.8374109
0.806701 1.0526013 0.9073467 0.9407158 0.9021358 0.76488626 0.97274196 0.93139666
0.9088319 0.9818372 0.8383104 0.80697364 0.90793043 1.006109 0.93386245 0.98127145
0.85056543 0.89017224 0.95395774 0.8834926 0.74626696 0.88838214 0.9213755 0.90950847
00000000: e6f9 843f a934 8d3f 528b 793f 87f7 463f
00000010: 48e9 583f f80d 693f 9712 7a3f 9060 563f
00000020: f583 4e3f a4bb 863f e047 683f c0d2 703f
00000030: 5ff2 663f 96cf 433f 9e05 793f 0370 6e3f
00000040: 35a9 683f af59 7b3f 839b 563f d395 4e3f
00000050: 216e 683f 2ec8 803f 9c11 6f3f 9b34 7b3f
00000060: a8be 593f 54e2 633f 9336 743f 922c 623f
00000070: 5a0b 3f3f 036d 633f 44df 6b3f 8cd5 683f

layer_norm.bias f4 [32]
-0.11620743 -0.007774757 -0.0515655 -0.09259283 -0.17087348 0.12988453 -0.07090499 -0.07595469
-0.18664424 -0.0354904 0.016771294 -0.1868993 0.055170752 -0.189439 0.043090165 -0.093941286
-0.04978926 0.05517665 0.16166124 -0.030154202 -0.042407185 0.05655226 -0.026826525 -0.06839669
0.07365103 -0.15759626 0.051982395 0.09235986 -0.123051405 -0.052703097 0.052244604 0.026723776
00000000: 29fe edbd 64c3 febb 5936 53bd 4fa1 bdbd
00000010: 75f9 2ebe 7300 053e a336 91bd 228e 9bbd
00000020: ab1f 3fbe 625e 11bd f463 893c 8862 3fbe
00000030: bafa 613d 4cfc 41be 507f 303d 4a64 c0bd
00000040: d3ef 4bbd e900 623d 868a 253e f205 f7bc
00000050: 28b3 2dbd 58a3 673d 4dc3 dbbc 9013 8cbd
00000060: 5ad6 963d ea60 21be 7eeb 543d 2b27 bd3d
00000070: 6002 fcbd 34df 57bd 70fe 553d d2eb da3c

linear1.weight f4 [32, 32]
-0.108449854 0.16739199 0.10265712 -0.046105064 -0.118350916 -0.04559539 -0.07174924 -0.060767062
0.042325262 -0.014462249 0.03366569 -0.1817334 0.012260666 0.11744534 -0.26670113 -0.079304196
0.29461035 -0.22524002 -0.10048644 -0.21746872 0.010726964 -0.022030195 0.19102423 -0.029568419
-0.09207853 0.05570844 0.01981676 -0.06627558 0.15074115 0.089117065 -0.026150076 0.030063746
0.182478 -0.3172138 0.045326043 0.023851654 -0.07864455 -0.07324346 0.09052795 0.058538843
0.15662836 -0.15928705 0.0051835496 -0.04137151 -0.114293315 -0.0026059493 0.17182744 0.24686481
0.062010154 0.031988665 -0.09491687 0.0149405 -0.08261514 -0.12487359 -0.1014218 0.17625609
0.16954851 -0.004961767 0.08780784 -0.13237247 -0.14127287 -0.1437717 -0.071680844 0.21529765
0.22034632 0.01381361 0.0099841105 0.14439519 0.11998468 0.012333367 0.047437508 0.042999107
0.052673206 -0.30403376 -0.042945225 0.1577152 -0.29561663 0.06491609 0.099242665 0.08096696
-0.25607473 0.09862338 -0.11516715 0.35729542 -0.013874665 0.14770766 0.15534772 0.34077185
-0.10253985 0.13900477 -0.19492029 0.094760016 0.05335168 -0.087409064 -0.21602406 -0.010914007
-0.08012783 0.20180556 0.16811754 0.12874083 0.08596641 0.17015128 0.04917922 -0.16662823
-0.020206017 0.14496212 0.0753187 -0.23067659 -0.07532539 -0.14038104 0.11412724 -0.3371788
-0.064062655 0.13364772 0.16319802 0.1268666 0.10785933 -0.020671738 -0.11362142 0.047296777
-0.091433726 0.18238728 -0.10800061 0.19196175 0.12335484 0.14529698 -0.010761212 -0.2309589
-0.081302665 0.25801387 0.11561165 0.03992896 -0.054989554 0.110888265 0.061661076 -0.07543094
-0.051670548 0.20444141 0.07134177 0.08033861 0.1550908 -0.068692766 -0.073645644 -0.22511971
-0.16802019 0.066850044 0.066564545 0.19146642 0.21120013 0.04545064 0.08206912 -0.10041708
0.027371697 -0.16462901 -0.07007355 0.06721652 0.053663563 -0.099053204 0.20040473 -0.23790465
0.22637853 -0.2666871 -0.01797674 0.09058876 -0.13944057 -0.15378825 -0.08135905 -0.005404445
0.14690086 -0.0925255 0.068928614 -0.085628845 -0.16065942 0.14971283 0.12206431 -0.009586885
-0.0944725 0.19008054 -0.02094104 -0.16945133 -0.00046434553 0.1445803 -0.016807888 0.18798682
0.09015504 0.06737243 -0.08325612 -0.0068883603 0.08730826 -0.014328017 0.049662266 0.21116745
-0.04885596 0.3012078 -0.015751682 -0.11661627 0.1751 0.010935059 -0.09193973 0.15215196
0.014805679 0.1455421 0.04390516 -0.18145831 -0.020970367 -0.17621236 -0.132822 -0.11448281
0.03575979 0.15347026 -0.06459575 -0.0008004133 0.042722814 0.036115605 -0.108132295 -0.20888239
0.055985313 -0.057026394 0.016824797 0.14860956 -0.157963 0.05317778 0.08443393 -0.12358642
-0.3661484 0.04024094 0.28338444 -0.041169815 0.048132 0.08226236 0.27683365 0.011653747
-0.037123844 0.068554185 -0.0038932234 0.06259123 -0.0055306316 0.14742506 -0.0045314245 -0.06653451
0.16756251 -0.12508845 0.15284652 0.27920917 -0.041087568 -0.2193573 0.1006081 0.078108214
-0.26096782 0.119045824 -0.20466983 -0.06754437 0.16388354 0.12002883 -0.18872574 -0.1376695
00000000: f51a debd ce68 2b3e e53d d23d aad8 3cbd
00000010: f761 f2bd 3bc2 3abd 44f1 92bd e2e6 78bd
00000020: 415d 2d3d 12f3 6cbc 09e5 093d 5218 3abe
00000030: f6e0 483c 2f87 f03d 0d8d 88be 3d6a a2bd
00000040: 2bd7 963e 52a5 66be d6cb cdbd 1fb0 5ebe
00000050: 26c0 2f3c ab78 b4bc db9b 433e 7839 f2bc
00000060: ab93 bcbd 882e 643d c256 a23c 7ebb 87bd
00000070: e35b 1a3e 0283 b63d af38 d6bc 3f48 f63c
00000080: 83db 3a3e d969 a2be cda7 393d 8b64 c33c
00000090: 6510 a1bd ab00 96bd b866 b93d 6dc6 6f3d
000000a0: 2f63 203e 251c 23be c4da a93b 2c75 29bd
000000b0: 9d12 eabd 93c8 2abb 88f3 2f3e 21ca 7c3e
000000c0: 5cfe 7d3d 8c06 033d c763 c2bd 00c9 743c
000000d0: 2032 a9bd babd ffbd 3cb6 cfbd 7a7c 343e
000000e0: 209e 2d3e 5196 a2bb 99d4 b33d a68c 07be
000000f0: d6a9 10be e338 13be 68cd 92bd fd76 5c3e
00000100: 77a2 613e 7b52 623c 6594 233c 55dc 133e
00000110: 87ba f53d e411 4a3c d54d 423d d51f 303d
00000120: dcbf 573d 50aa 9bbe 55e7 2fbd 1880 213e
00000130: 105b 97be baf2 843d bd3f cb3d 01d2 a53d
00000140: 3a1c 83be 0efb c93d c1dc ebbd 6def b63e
00000150: 9052 63bc ad40 173e 7913 1f3e a679 ae3e
00000160: 6a00 d2bd 4457 0e3e 2f99 47be 8a11 c23d
00000170: 4b87 5a3d 8603 b3bd 6935 5dbe aad0 32bc
00000180: 0f1a a4bd 1ea6 4e3e 0127 2c3e a3d4 033e
00000190: 280f b03d 233c 2e3e 2670 493d 97a0 2abe
000001a0: 1787 a5bc f370 143e b140 9a3d 7c36 6cbe
000001b0: 3344 9abd 0cc0 0fbe 8bbb e93d b3a2 acbe
000001c0: 4833 83bd f3da 083e 621d 273e 51e9 013e
000001d0: 5ae5 dc3d c757 a9bc 59b2 e8bd 44ba 413d
000001e0: 9b41 bbbd bbc3 3a3e 6c2f ddbd 9f91 443e
000001f0: 76a1 fc3d bbc8 143e cb4f 30bc 7d80 6cbe
00000200: 0382 a6bd 651a 843e cdc5 ec3d 8d8c 233d
00000210: ba3c 61bd 6319 e33d 5390 7c3d 897b 9abd
00000220: 7fa4 53bd 1759 513e a21b 923d 9288 a43d
00000230: 1fd0 1e3e cbae 8cbd 87d3 96bd c885 66be
00000240: 7c0d 2cbe ade8 883d fe52 883d c60f 443e
00000250: d944 583e 732a 3a3d db13 a83d 78a7 cdbd
00000260: 9c3a e03c 8294 28be b982 8fbd d1a8 893d
00000270: 53ce 5b3d 68dc cabd e636 4d3e 479d 73be
00000280: c6cf 673e 368b 88be f543 93bc 9a86 b93d
00000290: 82c9 0ebe ab7a 1dbe 939f a6bd c517 b1bb
000002a0: 2e6d 163e 027e bdbd 722a 8d3d 2d5e afbd
000002b0: e783 24be 524e 193e dafc f93d 4f12 1dbc
000002c0: cc7a c1bd 79a4 423e 8b8c abbc a684 2dbe
000002d0: 6773 f3b9 dc0c 143e b2b0 89bc 9e7f 403e
000002e0: 35a3 b83d 8efa 893d 2f82 aabd c1b7 e1bb
000002f0: acce b23d 0fc0 6abc a96a 4b3d 483c 583e
00000300: 301d 48bd e937 9a3e ac09 81bc 83d4 eebd
00000310: 6a4d 333e f628 333c e64a bcbd b9cd 1b3e
00000320: 8593 723c fd08 153e e6d5 333d 35d0 39be
00000330: 0cca abbc 0371 34be 7e02 08be f775 eabd
00000340: dc78 123d 4f27 1d3e c74a 84bd d4d2 51ba
00000350: 1efe 2e3d f5ed 133d 7774 ddbd 44e5 55be
00000360: db50 653d 8294 69bd 28d4 893c 1b2d 183e
00000370: 0dc1 21be f2d0 593d b2eb ac3d e11a fdbd
00000380: ce77 bbbe afd3 243d c417 913e aea1 28bd
00000390: 0f26 453d 2b79 a83d 24bd 8d3e 5cef 3e3c
000003a0: 2c0f 18bd 2366 8c3d 7325 7fbb d52f 803d
000003b0: 4d3a b5bb 98f6 163e 587c 94bb 3f43 88bd
000003c0: 8295 2b3e 3017 00be cc83 1c3e 81f4 8e3e
000003d0: 704b 28bd 339f 60be 9f0b ce3d 33f7 9f3d
000003e0: 939d 85be 4cce f33d f894 51be b454 8abd
000003f0: 16d1 273e add1 f53d 5241 41be 3cf9 0cbe

linear1.bias f4 [32]
0.054579727 -0.060124353 0.0970568 -0.08813153 -0.18673764 0.15156887 -0.0042149317 0.033172503
-0.11743879 -0.18202448 -0.09399397 0.1068364 -0.04478964 0.0060652914 0.20210253 0.1413459
-0.054009553 0.12017958 0.01450207 0.009017101 -0.03821893 -0.019612914 0.02691471 0.087610535
0.18128595 -0.24652328 -0.1279407 0.007278616 -0.056520082 0.09564816 -0.17832577 -0.23246732
00000000: fe8e 5f3d f444 76bd b7c5 c63d 4e7e b4bd
00000010: 2738 3fbe df34 1b3e 691d 8abb e4df 073d
00000020: c083 f0bd a064 3abe e97f c0bd 0bcd da3d
00000030: 5775 37bd 5abf c63b f7f3 4e3e fbbc 103e
00000040: 1f39 5dbd b620 f63d 179a 6d3c 76bc 133c
00000050: 748b 1cbd 43ab a0bc 3d7c dc3c 276d b33d
00000060: 06a3 393e 9970 7cbe e302 03be 7581 ee3b
00000070: 9a81 67bd 2fe3 c33d 089b 36be ea0b 6ebe

linear2.weight f4 [1, 32]
0.035754837 -0.056224123 -0.07265527 0.029122815 0.04243069 -0.12750722 0.049473353 0.13673331
-0.04097058 -0.0005997238 -0.058540855 0.069154896 -0.022144044 0.075812414 0.024440888 -0.042013656
0.021412384 -0.025730267 0.057154447 0.056711648 -0.054537833 -0.09290582 0.0011888782 -0.17701301
0.013174008 -0.08425062 0.026379084 -0.01334337 -0.043987323 -0.03298757 0.06322635 -0.035922177
00000000: aa73 123d 444b 66bd 49cc 94bd f892 ee3c
00000010: cecb 2d3d 4191 02be 92a4 4a3d d103 0c3e
00000020: c4d0 27bd c836 1dba 89c8 6fbd 15a1 8d3d
00000030: 6d67 b5bc 8a43 9b3d 4238 c83c 8316 2cbd
00000040: 0669 af3c 48c8 d2bc c81a 6a3d 794a 683d
00000050: 1063 5fbd 6845 bebd 22d4 9b3a e642 35be
00000060: cbd7 573c 978b acbd f318 d83c 269e 5abc
00000070: 0d2c 34bd f91d 07bd d17c 813d 2223 13bd
