labml_nn/lstm/LSTM_THz/model_combine_318r1_24.pth (torch, 26025 bytes, 9 tensors)

lstm.weight_ih_l0 f4 [128, 1]
0	0xbbdf21cd	-0.0068094493
1	0xbd6e7cc9	-0.058224473
2	0xbe4bb75e	-0.19894168
3	0xbc421e37	-0.011848024
4	0x3e5ca120	0.2154584
5	0xbdee7ca3	-0.11644866
6	0x3e921b7d	0.28536597
7	0x3d915957	0.07097118
8	0xbe67fe3a	-0.22655573
9	0xbcad8776	-0.021182757
10	0x3e5bd844	0.21469218
11	0x3e2c59ea	0.16831174
12	0xbeaeef3b	-0.34166893
13	0x3e9bd8df	0.30438897
14	0xbdf15b86	-0.11785035
15	0xbe905be0	-0.28195095
16	0xbccfa461	-0.025346937
17	0xbd4a88f5	-0.04944702
18	0x3e01808e	0.12646696
19	0xbe030607	-0.12795268
20	0xbccfae75	-0.025351742
21	0xbdf991f4	-0.121860415
22	0x3b83c969	0.0040218127
23	0xbea3a23a	-0.31959707
24	0xbe0a2db7	-0.13494001
25	0x3e42c68d	0.19021054
26	0x3eb063e6	0.34451216
27	0x3e27ae48	0.16375077
28	0xbd66e90a	-0.056374587
29	0xbe19afa1	-0.15008403
30	0xbe8781b9	-0.26466158
31	0x3dab08e1	0.08351303
32	0xbcbad8a5	-0.022808382
33	0x3da492c8	0.08035809
34	0xbd50280c	-0.05081944
35	0x3e013aca	0.12620082
36	0x3da87622	0.08225657
37	0xbe14b13d	-0.14520736
38	0x3f02a4c2	0.5103265
39	0x3e22a0d0	0.15881658
40	0xbd32c7b4	-0.043647483
41	0x3dbd7c42	0.09252216
42	0xbc908e03	-0.017645841
43	0x3e6f1f74	0.23351842
44	0xbf159bfc	-0.5844114
45	0x3de35f02	0.11102106
46	0xbe33447e	-0.17506596
47	0xbe970d36	-0.29502267
48	0x3e183840	0.14865208
49	0xbd8a2963	-0.06746175
50	0x3e8c5012	0.2740484
51	0xbe1fe3a4	-0.15614182
52	0xbeae7d2f	-0.34079883
53	0xbde858a4	-0.11345032
54	0x3cedea17	0.029042287
55	0xbe4ce9de	-0.20011088
56	0xbdbc1741	-0.09184123
57	0x3ca43a22	0.020047251
58	0x3e97f949	0.29682377
59	0x3e5e2c2a	0.21696535
60	0x3e679efd	0.22619243
61	0xbe1e1bc0	-0.15440273
62	0xbec1f68c	-0.37883413
63	0x3e7583f3	0.23976116
64	0x3e2805c3	0.16408448
65	0xbe0c9895	-0.1373008
66	0x3e2620bd	0.16223426
67	0x3e18be50	0.14916348
68	0x3dbca8b6	0.092118666
69	0xb9003da6	-0.00012229997
70	0xbe82fc82	-0.25583273
71	0x3e3d27e7	0.18472253
72	0xbeba61e8	-0.36402822
73	0x39d49506	0.00040546822
74	0x3e6d359e	0.23164985
75	0xbe0cc31e	-0.13746306
76	0xbe36698b	-0.17813699
77	0x3e943b84	0.28951657
78	0x3ebbd98e	0.3668942
79	0x3e8db04d	0.2767357
80	0x3ce81804	0.028331764
81	0x3ad94b08	0.0016578147
82	0xbe67e158	-0.22644556
83	0x3e0babde	0.13639781
84	0xbe27fb4c	-0.16404456
85	0x3e511b9b	0.20420687
86	0x3e0f2c26	0.13981685
87	0xbe7a1abd	-0.24424262
88	0xbe37d8b2	-0.17953756
89	0x3ddd79ab	0.10814222
90	0xbefd9ba2	-0.495328
91	0xbe37e4fd	-0.17958446
92	0xbdde0d63	-0.10842397
93	0x3d994797	0.07484358
94	0x3e504d47	0.20341979
95	0x3cff097e	0.031132456
96	0x3caa1641	0.020762565
97	0xbd489de6	-0.04897871
98	0xbea1e8b4	-0.3162285
99	0x3e4bf364	0.19917065
100	0x3df46205	0.11932758
101	0xbceb03fc	-0.028688423
102	0x3eb3565f	0.35026833
103	0xbd19dcbe	-0.03756403
104	0xbe42cc08	-0.19023144
105	0x3d4ff153	0.050767254
106	0x3ddc05e8	0.10743314
107	0xbc8ae2c8	-0.01695384
108	0xbeaed177	-0.34144184
109	0x3d8ef13b	0.06979605
110	0xbe1d3470	-0.15352035
111	0xbd239bf4	-0.03994365
112	0x3d96dee8	0.07366735
113	0xbdc0063c	-0.09376189
114	0x3eb79501	0.35855868
115	0x3d98d853	0.074631356
116	0xbe932f54	-0.28747046
117	0xbe4e95c5	-0.2017432
118	0x3e72bcc0	0.23704815
119	0xbe3bfcc3	-0.1835814
120	0xbe39080a	-0.18069473
121	0x3dd02aee	0.10164438
122	0x3ee616ff	0.4493942
123	0x3d763207	0.060106304
124	0x3d844c43	0.06459858
125	0xbcf21774	-0.029552199
126	0xbe23b5c9	-0.15987314
127	0xbd05aea0	-0.03263724

lstm.weight_hh_l0 f4 [128, 32]
0	0xbe5b2f01	-0.2140465
1	0xbc7a6d51	-0.015284852
2	0x3daf27d3	0.08552518
3	0x3e39f1c8	0.18158638
4	0x3c46dffa	0.012138361
5	0x3c66b63b	0.014081533
6	0x3d0c6113	0.034272265
7	0x3e1b1f67	0.15148698
8	0x3d10413d	0.035218466
9	0xbd6d366b	-0.057913225
10	0x3dfea0dc	0.12433025
11	0x3e65719f	0.22406624
12	0xbe09889d	-0.1343102
13	0x3e0a3b3d	0.1349916
14	0x3e8f62f1	0.28005174
15	0x3d4829e4	0.048868075
16	0xbd23a477	-0.039951768
17	0xbe63c39d	-0.2224259
18	0x3e60009f	0.21875237
19	0x3e4c0069	0.19922031
20	0xbe49daa3	-0.1971231
21	0x3e046cc0	0.1293211
22	0xbdd553f1	-0.10416401
23	0xbe82f793	-0.2557951
24	0xbd6cbd20	-0.05779755
25	0xbc6d78f1	-0.014494167
26	0xbb4dfe7e	-0.0031432207
27	0xbcda7eb7	-0.02667175
28	0x3e6f6f66	0.23382339
29	0x3e143fbd	0.14477439
30	0x3dcf514b	0.10122927
31	0xbe266642	-0.16249946
32	0x3e0c9660	0.13729239
33	0xbdb04201	-0.08606339
34	0xbc99f66f	-0.018794267
35	0xbd46b722	-0.048514493
36	0x3e69067f	0.22756384
37	0x3d7a28fc	0.061074242
38	0x3dcfd9ea	0.10148986
39	0xbe11cd6d	-0.1423852
40	0xbe0955f5	-0.13411696
41	0xbd8b47eb	-0.06800827
42	0x3cdda11a	0.027054358
43	0x3d07da6b	0.033167284
44	0xbd65cf5a	-0.05610595
45	0xbdfac8ff	-0.12245368
46	0xbcf6db02	-0.030133728
47	0x3d63617b	0.055512886
48	0xbe04e4d9	-0.12977923
49	0x3d5fd65b	0.054647785
50	0x3e0830d0	0.1329987
51	0xbd67bb03	-0.056574833
52	0xbe8f104a	-0.27942115
53	0xbd91dfda	-0.071227744
54	0xbe0d6a89	-0.13810171
55	0xbdfd25e3	-0.12360742
56	0x3dc90217	0.09814852
57	0xbd79ba66	-0.06096878
58	0x3ce717fd	0.02820968
59	0xbd6a5d8d	-0.057218123
60	0x3e27dca4	0.16392761
61	0xbbd3ab5c	-0.0064596366
62	0xbd8b9f07	-0.068174414
63	0x3e092142	0.13391593
64	0xbe74fdac	-0.23924893
65	0x3e62dd25	0.22154672
66	0xbe33c268	-0.17554629
67	0xbea4bf7a	-0.32177335
68	0xbdb6b9c9	-0.089221545
69	0x3dc1463f	0.094372265
70	0xbc623bb5	-0.013808181
71	0xbde0f551	-0.109842904
72	0xbe3dc2e6	-0.18531379
73	0xbc89a001	-0.016799929
74	0xbd987b65	-0.07445411
75	0x3db21b56	0.0869662
76	0x3e408a98	0.1880287
77	0xbda06a9a	-0.07832833
78	0x3d9cd613	0.07658019
79	0xbd89472c	-0.06703028
80	0xbdc221a1	-0.094790705
81	0x3ea37ec4	0.31932652
82	0xbe34c1bc	-0.17652029
83	0xbd82a915	-0.06379906
84	0x3d4ced71	0.05003113
85	0xbe5e041b	-0.21681254
86	0xbc43fc0d	-0.011961949
87	0x3c93fbd3	0.018064415
88	0xbdcb677a	-0.09931846
89	0x3e0f7b6b	0.14011924
90	0xbd6f7109	-0.058457408
91	0x3e98af67	0.2982132
92	0xbd9bfd70	-0.07616699
93	0x3cb8dcea	0.022566278
94	0xbdf82bcc	-0.121177286
95	0x3e03e59d	0.1288056
96	0x3d0e471e	0.03473579
97	0xbed284fd	-0.41117087
98	0x3edadb1c	0.42745292
99	0x3d54bc43	0.051937353
100	0x3e8cae9e	0.27476972
101	0xbe60f14f	-0.21967052
102	0xbda5067c	-0.080578774
103	0xbe5f14b2	-0.21785238
104	0xbeb1785d	-0.34662142
105	0x3ea86f1c	0.3289727
106	0x3e7d3be5	0.24729879
107	0x3eb4dd29	0.35324982
108	0xbef139c2	-0.47114378
109	0xbdd9aa84	-0.106282264
110	0x3c75ce94	0.015002865
111	0x3eba80e3	0.36426458
112	0x3ea74545	0.32670036
113	0xbe136ed6	-0.1439775
114	0x3e626afc	0.22111124
115	0xbce6dc5f	-0.028181253
116	0xbe827a89	-0.25484112
117	0x3e3f684b	0.18692128
118	0x3d0ec2e5	0.034853835
119	0xbebe2ce0	-0.37143612
120	0xbdd25234	-0.10269585
121	0xbe80ab93	-0.251309
122	0x3de93923	0.11387851
123	0x3dae9489	0.085244246
124	0x3e9a611b	0.3015221
125	0x3cb4e470	0.022081584
126	0x3e9f5691	0.31120732
127	0xbe7369ee	-0.23770878
128	0x3c8e3047	0.017357005
129	0xbdc6ca00	-0.09706497
130	0x3e0a525c	0.1350798
131	0xbe1290fe	-0.14313123
132	0xbcc6fc71	-0.024290295
133	0xbdb02bbb	-0.08602091
134	0x3c91a5d9	0.017779278
135	0x3e3400e0	0.17578459
136	0xbd1242e6	-0.03570833
137	0x3dffe2b1	0.1249441
138	0x3d52238b	0.051303428
139	0x3e152d25	0.14568003
140	0x3dcf80bf	0.10131978
141	0xbcb97650	-0.022639424
142	0xbdaa5371	-0.083166964
143	0x3dcefed5	0.10107199
144	0xbdf6f1c4	-0.12057832
145	0xbdd4f99d	-0.103991725
146	0x3cca051c	0.02466064
147	0xbc422c3b	-0.011851366
148	0x3df6896b	0.12037929
149	0xbe212991	-0.15738513
150	0xbd87d686	-0.06632714
151	0x3e175c4f	0.14781307
152	0x3b862994	0.004094312
153	0xbc382436	-0.011239102
154	0xbdd751dd	-0.10513661
155	0xbb9ccaf7	-0.0047849375
156	0xbda2e3a3	-0.079535745
157	0x3e02b342	0.12763694
158	0x3caf621c	0.021409087
159	0x3e037332	0.12836912
160	0x3d3ca921	0.04605973
161	0xbe569429	-0.20954956
162	0xbdf5380c	-0.11973581
163	0xbd1fd4d8	-0.039021343
164	0x3e166644	0.14687449
165	0xbdd6448b	-0.10462292
166	0xbd3714f6	-0.044697724
167	0xbe555039	-0.20831384
168	0xbe434e61	-0.19072868
169	0x3d062845	0.032753248
170	0x3d7ed0c5	0.062210817
171	0x3d740c35	0.059581954
172	0xbdea211c	-0.11432096
173	0xbe7de154	-0.24792987
174	0x3d4034c7	0.046925332
175	0x3c9a1b2c	0.018811785
176	0x3b91624e	0.0044367677
177	0xbdd23a39	-0.10265011
178	0xbe2c5ad0	-0.16831517
179	0x3e024792	0.12722614
180	0xbdd469c6	-0.10371737
181	0x3da9c3b6	0.08289282
182	0x3e253879	0.16134824
183	0x3e3e5179	0.18585767
184	0xbd79838f	-0.06091648
185	0x3d8cd9b2	0.068774596
186	0x3dad04c3	0.08448174
187	0xbe237566	-0.15962753
188	0x3d92f972	0.07176484
189	0x3dd3d43d	0.103432156
190	0x3eb096df	0.34490106
191	0xbd4eeba3	-0.05051769
192	0x3e16440a	0.14674392
193	0xbe0802c6	-0.13282308
194	0x3daa8289	0.08325679
195	0x3e0cc200	0.1374588
196	0x3eb21d52	0.34787995
197	0xbd86b122	-0.06576754
198	0xbe7b74e0	-0.24556303
199	0x3ea782ad	0.32716885
200	0xbe8d0ed4	-0.27550375
201	0x3b821d04	0.003970744
202	0x3e87d77b	0.26531586
203	0x3d73cda0	0.05952227
204	0xbe056fa9	-0.13030876
205	0x3d35bd12	0.044369765
206	0x3e419a91	0.18906619
207	0x3e342a47	0.17594253
208	0x3b6afd5e	0.0035856585
209	0xbda3c737	-0.079969816
210	0x3dbd88bc	0.09254596
211	0x3eb3e0ce	0.3513245
212	0xbe423519	-0.18965568
213	0x3eaa6df0	0.33287
214	0x3eed8988	0.4639399
215	0xbe35410e	-0.17700598
216	0xbed5a893	-0.41730174
217	0xbe8dc587	-0.27689764
218	0xbd5f5158	-0.054520935
219	0x3c979c5f	0.01850718
220	0x3cca382a	0.024684984
221	0x3ca059a4	0.019573994
222	0x3ea3de4c	0.32005537
223	0xbe9e391c	-0.30902946
224	0xbb8ca724	-0.0042923857
225	0xbe134875	-0.14383109
226	0xbd689d34	-0.056790546
227	0x3e250fd2	0.16119316
228	0x3b8345fd	0.004006146
229	0xbe6a7511	-0.2289622
230	0x3d0f492f	0.034981903
231	0xbe56c63e	-0.20974061
232	0x3e620a94	0.22074348
233	0xbbe13921	-0.0068732654
234	0x3e91973a	0.2843569
235	0x3bf8fc39	0.0075984267
236	0x3d812914	0.06306663
237	0xbd7495f1	-0.059713308
238	0xbe5dbc7c	-0.21653932
239	0x3e402edc	0.18767875
240	0xbdb8bc88	-0.090203345
241	0xbda7a147	-0.08185058
242	0xbb03e439	-0.0020125045
243	0xbd9643ee	-0.07337175
244	0x3d8a1fd8	0.06744355
245	0x3dd98215	0.10620514
246	0xbe1bd99f	-0.15219735
247	0xbd23caa2	-0.039988168
248	0xbd906a3d	-0.07051513
249	0xbd437925	-0.047722954
250	0x3ce8edbd	0.028433675
251	0x3d301709	0.042990718
252	0x3e8050be	0.250616
253	0x3d0e1e1c	0.034696683
254	0xbdaca765	-0.084303655
255	0xbb5de924	-0.0033860886

lstm.bias_ih_l0 f4 [128]
0	0x3d779aee	0.060450487
1	0xbd667867	-0.05626717
2	0x3d3800eb	0.04492275
3	0xbe60dc1e	-0.21958968
4	0x3e0ea36e	0.13929531
5	0x3d286acb	0.04111747
6	0xbbe3f452	-0.0069566155
7	0xbd262660	-0.04056394
8	0xbe0302fc	-0.12794107
9	0xbe98c22b	-0.29835638
10	0xbe0b260f	-0.13588737
11	0x3e1fe87c	0.1561603
12	0xbdeb8e63	-0.115017675
13	0x3e1c7081	0.15277292
14	0xbe2966b2	-0.16543081
15	0xbdbb60d5	-0.091493286
16	0xbc8dd0f1	-0.017311545
17	0xbcd95774	-0.026530959
18	0xbe861f81	-0.2619591
19	0xbdfb9896	-0.12284963
20	0x3e787dfe	0.24266812
21	0x3e25b900	0.16183853
22	0x3db6aad2	0.089193
23	0xbdcfb457	-0.10141819
24	0x3df38de2	0.118922964
25	0xbe043de9	-0.12914242
26	0x3e179f91	0.14806964
27	0xbde78910	-0.113054395
28	0x3cd78185	0.026306877
29	0xbeabd0f5	-0.3355786
30	0xbdd5e899	-0.10444755
31	0xbde7eba9	-0.113242455
32	0xbe5683e3	-0.20948748
33	0xbd24f136	-0.0402691
34	0x3e8c300c	0.27380407
35	0xbe2e6e9f	-0.17034386
36	0x3e795278	0.24347866
37	0xbda6d831	-0.08146704
38	0xbdc37d4e	-0.09545384
39	0xbe019f6b	-0.1265847
40	0xbd043aca	-0.032282628
41	0xbdaea740	-0.08527994
42	0xbe07b2e2	-0.13251832
43	0xbdb4f45b	-0.088356696
44	0xbe048de0	-0.12944746
45	0xbc895a6f	-0.016766755
46	0xbdb242a6	-0.087041184
47	0x3d8dd720	0.069257975
48	0xbe812949	-0.2522681
49	0xbe7c4d8e	-0.2463896
50	0xbe26d27f	-0.16291235
51	0xbe9632f9	-0.29335764
52	0x3dac2cc7	0.08406978
53	0x3dc230c0	0.094819546
54	0x3e1491ba	0.14508715
55	0xbe420416	-0.18946871
56	0x3d8caace	0.06868516
57	0x3dddeeba	0.10836549
58	0x3d16c1ac	0.036805794
59	0xbea94d29	-0.3306668
60	0xbe527d72	-0.20555666
61	0xbdac330e	-0.084081754
62	0xbe3f5287	-0.18683825
63	0xbe088206	-0.1333085
64	0xbd91a5d2	-0.07111706
65	0x3cf56492	0.029955182
66	0xbda47d3d	-0.080317
67	0xbd78e5a2	-0.06076587
68	0xbe7186d2	-0.23586586
69	0xbd3489ab	-0.044076603
70	0x3ce64e43	0.02811349
71	0x3d94ecef	0.07271754
72	0xbdaacfe8	-0.08340436
73	0x3af11851	0.0018394088
74	0x3d94e8b5	0.07270948
75	0xbde5fecf	-0.112302415
76	0x3c3e27dd	0.011606184
77	0xbd65301f	-0.055954095
78	0xbd587070	-0.052841604
79	0x3d13b053	0.036056828
80	0xbe245e0b	-0.160515
81	0xbdb2d578	-0.08732122
82	0x3d9de818	0.07710284
83	0x3da1c3e2	0.0789869
84	0x3e8b27ce	0.27178806
85	0xbe112828	-0.14175475
86	0x3cc3d368	0.023904517
87	0x3d484e9f	0.048903104
88	0xbc9bfc79	-0.019041287
89	0x3e57cc17	0.21073948
90	0xbdb41867	-0.08793717
91	0xbddddc43	-0.10833027
92	0xbe45c35c	-0.19312805
93	0xbc978024	-0.01849372
94	0xbd9658ed	-0.0734118
95	0xbd93c5e3	-0.07215478
96	0xbe124cd9	-0.14287128
97	0xbe4fbe40	-0.20287418
98	0x3d15e0bf	0.036591288
99	0xbea40b34	-0.32039797
100	0x3e5f45e3	0.21804003
101	0xbe34fb07	-0.17673884
102	0xbe2e0d05	-0.16997154
103	0xbdfc3f83	-0.123168014
104	0xbe5ad89a	-0.2137169
105	0xbea4b46a	-0.32168895
106	0x3defe2c1	0.11713172
107	0x3da598ae	0.08085762
108	0xbe4d10c7	-0.20025931
109	0xbd935ffb	-0.07196041
110	0xbdb9110c	-0.090364546
111	0xbdb429a0	-0.08797002
112	0xbe8bb6bd	-0.27287856
113	0x3cd70912	0.026249442
114	0xbe670b2e	-0.22562858
115	0xbe3f29f8	-0.18668354
116	0x3e483214	0.19550353
117	0x3ce0cda9	0.027441816
118	0xbcdf6fdb	-0.027275017
119	0x3e183f9e	0.14868018
120	0x3d3d93a5	0.046283383
121	0x3bcfb75a	0.006338996
122	0x3e8d319c	0.2757691
123	0xbe9cb0dd	-0.30603686
124	0x3cf96948	0.03044571
125	0xbd84b310	-0.06479466
126	0xbe040314	-0.12891799
127	0xbdc3d919	-0.095628925

lstm.bias_hh_l0 f4 [128]
0	0xbe09c917	-0.13455616
1	0xbcaaafc4	-0.020835765
2	0x3e2bf729	0.16793503
3	0xbe0c7091	-0.13714816
4	0x3e805d2e	0.2507109
5	0xbdb0ac72	-0.08626641
6	0xbe43280f	-0.1905825
7	0x3db69362	0.0891483
8	0x3d8e985f	0.06962656
9	0xbea720a7	-0.326421
10	0xbd115ada	-0.035487033
11	0x3df27b06	0.11839871
12	0x3cd97fb0	0.026550144
13	0x3d87b2f8	0.066259325
14	0xbdfd144e	-0.123573884
15	0xbd8445a3	-0.06458595
16	0xbe65956c	-0.22420281
17	0xbce29094	-0.02765683
18	0xbdef8c41	-0.11696673
19	0xbe002f6e	-0.12518093
20	0x3dcd5cdb	0.100274764
21	0x3da60b1e	0.08107589
22	0xbd8998da	-0.06718607
23	0xbdd028ae	-0.10164009
24	0xbd74e67f	-0.05979013
25	0xbd0c216e	-0.03421157
26	0x3d9544c9	0.0728851
27	0xbebde5ee	-0.37089485
28	0xbc649096	-0.013950488
29	0xbd5d2745	-0.05399253
30	0xbe0224d3	-0.1270936
31	0xbe423eb2	-0.18969229
32	0xbd9486b4	-0.07252255
33	0x3d8ce993	0.06880488
34	0x3e573efb	0.21020119
35	0xbe96649a	-0.29373628
36	0x3d26d442	0.04072977
37	0x39320076	0.00016975575
38	0xbd6c6382	-0.057712086
39	0xbe5e941f	-0.21736191
40	0xbe643cef	-0.2228887
41	0xbe0418ee	-0.12900135
42	0x3d4ac926	0.049508236
43	0xbe30ed97	-0.17278133
44	0xbe45b8d6	-0.1930879
45	0x3d9aae6c	0.075527996
46	0xbe68dea0	-0.22741175
47	0xbc66d578	-0.014088981
48	0xbdb1fa43	-0.08690312
49	0xbdd42a7c	-0.10359666
50	0xbdcf9701	-0.101362236
51	0xbe6bf814	-0.23043853
52	0xbdf2822e	-0.11841236
53	0xbd25c611	-0.040472094
54	0xbdaa425c	-0.08313438
55	0xbe391391	-0.1807387
56	0xbe354d0e	-0.17705175
57	0xbcbf4fdb	-0.023353508
58	0x3e382add	0.17985101
59	0xbe404295	-0.18775399
60	0xbdec947d	-0.115517594
61	0xbdb70d82	-0.08938123
62	0xbec9efa8	-0.39440656
63	0x3c1134ee	0.008862717
64	0x3dd02e6a	0.10165103
65	0x3df6e591	0.12055505
66	0xbea7b8b5	-0.32758108
67	0x3de5e8cb	0.11226042
68	0xbe5a84a0	-0.21339655
69	0x3e44778b	0.19186227
70	0x3d48c444	0.0490153
71	0x3ce6ca87	0.028172744
72	0xbc7b944d	-0.015355182
73	0xbc8af533	-0.016962623
74	0xbde8d6ee	-0.113691196
75	0xbc6883f9	-0.014191621
76	0x3cee3f12	0.029082809
77	0x3e19ed7d	0.15032001
78	0x3d1639c2	0.036676176
79	0xbe07e34e	-0.13270304
80	0x3c499795	0.012304206
81	0x3de5317b	0.11191078
82	0xbc7b9f91	-0.015357868
83	0x3b93b236	0.0045073284
84	0x3e0c2e71	0.13689591
85	0x3d73c715	0.05951603
86	0x3db3fc15	0.08788315
87	0xbdead0af	-0.114655845
88	0x3ca62c21	0.020284714
89	0x3e695a1d	0.22788282
90	0xbde3a643	-0.11115696
91	0xbd238364	-0.039920226
92	0xbe492944	-0.19644648
93	0xbd3913a5	-0.04518475
94	0xbde1fd1a	-0.110346034
95	0x3e3af330	0.18256831
96	0xbe4b9bd3	-0.19883661
97	0x3d233e46	0.03985431
98	0x3e8e6c47	0.27816984
99	0xbe88dcc1	-0.26730922
100	0x3e1ea02f	0.15490793
101	0x3da99f3b	0.08282324
102	0x3c243851	0.0100231925
103	0x3d6e64ab	0.058201473
104	0x3b236742	0.0024933373
105	0xbde294b8	-0.11063522
106	0xbd9744df	-0.07386183
107	0x3e2ce72b	0.16885059
108	0x3d5b4792	0.05353505
109	0x3d060b4d	0.03272562
110	0xbd471677	-0.04860541
111	0x3e15ca43	0.14627938
112	0xbeaa1dc3	-0.3322583
113	0xbe0dbee9	-0.13842358
114	0xbeb5ceb0	-0.35509253
115	0xbbe94ce6	-0.0071197627
116	0xbd7aef58	-0.061263412
117	0xbd440055	-0.04785188
118	0xbca57c32	-0.020200823
119	0x3dd79401	0.105262764
120	0xbd4ff281	-0.05076838
121	0xbe1cbec4	-0.15307146
122	0x3d356f5b	0.04429565
123	0xbebfce70	-0.37462187
124	0xbe3a3eb3	-0.1818798
125	0xbe1e5556	-0.1546224
126	0xbca69608	-0.020335212
127	0xbc38024b	-0.011231015

layer_norm.weight f4 [32]
0	0x3f71be35	0.9443086
1	0x3f771a05	0.9652408
2	0x3f770467	0.9649109
3	0x3f4fe827	0.8121361
4	0x3f5a1e6b	0.85202664
5	0x3f747eda	0.9550606
6	0x3f4ac331	0.7920409
7	0x3f7079cf	0.93935865
8	0x3f6316f0	0.88706875
9	0x3f4854ec	0.7825458
10	0x3f766f99	0.96264035
11	0x3f73249c	0.94977736
12	0x3f750115	0.95704776
13	0x3f768ddb	0.96310204
14	0x3f715fe7	0.9428696
15	0x3f7b9ff5	0.9829095
16	0x3f63ac75	0.88935024
17	0x3f5e6fbc	0.86889243
18	0x3f3a257f	0.72713464
19	0x3f612ed6	0.8796209
20	0x3f689c36	0.9086336
21	0x3f75ba71	0.9598761
22	0x3f49dc47	0.7885174
23	0x3f760d91	0.9611445
24	0x3f7253fc	0.946594
25	0x3f541f67	0.82860416
26	0x3f82b32f	1.0210932
27	0x3f593866	0.8485168
28	0x3f764262	0.9619504
29	0x3f54573d	0.82945615
30	0x3f68b5af	0.9090223
31	0x3f718db9	0.94356877

layer_norm.bias f4 [32]
0	0x3cbe7d11	0.023252996
1	0xbc74e85a	-0.014947975
2	0x3c659bc1	0.014014185
3	0x3cb9e3b0	0.022691578
4	0x3e18ad0c	0.14909762
5	0x3b4a8afe	0.00309056
6	0xbc339bc0	-0.010962427
7	0xbc3f2c68	-0.011668302
8	0x3cfccb1f	0.030858574
9	0x3d690f93	0.05689962
10	0x3d50bf0a	0.05096344
11	0x3d67b305	0.05656721
12	0xbc813580	-0.015772581
13	0xba8365c9	-0.0010024841
14	0x3c892b99	0.016744422
15	0x3cd33be6	0.025785398
16	0x3cedf3ca	0.029046912
17	0xbda3f56c	-0.08005795
18	0x3dc7da29	0.097584076
19	0x3d33a0a6	0.04385438
20	0xbd6e27ac	-0.058143303
21	0x3d3d293f	0.046181913
22	0x3ceeaea6	0.029136013
23	0xbd80b48d	-0.06284437
24	0xbc93ae2c	-0.018027388
25	0xbe330e0e	-0.1748583
26	0x3c5e92f7	0.013584844
27	0xbd6284aa	-0.0553023
28	0x3d0efed1	0.03491098
29	0xbd944218	-0.07239169
30	0xbc24fcc4	-0.01007003
31	0x3b52d8ef	0.003217276

linear1.weight f4 [32, 32]
0	0x3b14623e	0.0022641565
1	0x3e13cc8c	0.14433497
2	0xbd95120e	-0.07278834
3	0xbe68d3d1	-0.22737052
4	0x3ce26a15	0.027638474
5	0xbc510133	-0.012756634
6	0x3e32b6c1	0.17452528
7	0xbde1aaf1	-0.110189326
8	0x3e928a57	0.2862117
9	0xbd1e336c	-0.03862326
10	0xbdab9d96	-0.083796665
11	0xbd8b6617	-0.068065815
12	0x3e1cdc9d	0.15318532
13	0xba9f3652	-0.0012146926
14	0x3e0ed1cc	0.13947219
15	0xbe0842b1	-0.13306691
16	0xbd518a9a	-0.05115757
17	0xbd821684	-0.06351951
18	0x3da06302	0.07831384
19	0x3d5e7123	0.054307114
20	0x3e3c5c43	0.1839457
21	0x3d86b37d	0.065772034
22	0xbe0b9a97	-0.1363319
23	0x3dca4ea6	0.09878282
24	0x3c26884e	0.0101643335
25	0x3da2c53d	0.079477765
26	0xbdd5f3a0	-0.104468584
27	0xbddab10e	-0.10678302
28	0xbd5f1a66	-0.054468535
29	0xbd6647c2	-0.056220777
30	0x3bd01df2	0.006351226
31	0x3cc98861	0.024601163
32	0xbdc463ce	-0.09589349
33	0xbd8f6dcc	-0.07003364
34	0x3db9bada	0.09068842
35	0xbdb7cc70	-0.0897454
36	0x3cb4dc75	0.022077778
37	0xbde0ce8a	-0.10976894
38	0xbd1dd781	-0.0385356
39	0xbd4a8be6	-0.049449824
40	0x3dc6877f	0.096938126
41	0x3e2e08b0	0.16995502
42	0xbd90596f	-0.07048308
43	0xbd2ec52e	-0.042668514
44	0x3d4f2bbc	0.050578818
45	0xbde13db8	-0.109981
46	0xbde1ea0a	-0.110309675
47	0x3e38e77e	0.18057057
48	0xbe629b9f	-0.22129677
49	0xbdf699dd	-0.12041066
50	0xbb84aa6c	-0.004048636
51	0x3da74d0f	0.08168995
52	0xbe55c258	-0.20874918
53	0x3da23191	0.0791961
54	0xbe892dcf	-0.26792762
55	0xbda809d9	-0.08205003
56	0xbe5bb8b7	-0.21457182
57	0xbe2eef69	-0.17083515
58	0x3d9d2807	0.0767365
59	0xbde787ce	-0.113051996
60	0x3d461d29	0.048367653
61	0xbcc43791	-0.023952277
62	0xbe63c4f6	-0.22243103
63	0xbe388d92	-0.18022755
64	0x3dfcbee0	0.12341094
65	0xbb3e870d	-0.0029072196
66	0x3dd73543	0.10508206
67	0x3d1535f0	0.036428392
68	0x3e082ef8	0.13299167
69	0xbe24322b	-0.16034763
70	0xbe6b211e	-0.22961852
71	0xbdb768fe	-0.089555725
72	0xbce083e8	-0.027406648
73	0xbdbfab0c	-0.093587965
74	0x3e0206d9	0.12697925
75	0xbe350dee	-0.17681095
76	0xbe0831fb	-0.13300316
77	0x3dff10b4	0.12454358
78	0x3e2ae899	0.16690291
79	0xbc85a7be	-0.016315337
80	0xbd7403d5	-0.059573967
81	0x3e16c7b0	0.14724612
82	0xbd8f1642	-0.06986667
83	0x3dbf340b	0.09336098
84	0xbd9431bc	-0.072360486
85	0xbda1bb8b	-0.07897099
86	0xbd927f05	-0.07153133
87	0x3dbb5ea1	0.091489084
88	0xbdef8f43	-0.11697247
89	0xbe133d61	-0.14378883
90	0x3d54b43d	0.0519297
91	0xbc345f7e	-0.011009095
92	0xbdb08d0c	-0.086206526
93	0x3e52b2c1	0.20576002
94	0x3e54be31	0.20775677
95	0x3cca3ba7	0.024686648
96	0x3d212657	0.039343204
97	0x3d89cc36	0.06728403
98	0x3c364747	0.011125392
99	0x3dfd32ba	0.12363191
100	0xbe30e316	-0.17274126
101	0x3e175bb1	0.14781071
102	0x3c181876	0.009283176
103	0x3e3b9544	0.18318659
104	0xbc907127	-0.01763208
105	0xbd691818	-0.056907743
106	0x3d614ba1	0.055003766
107	0xbd3f90a8	-0.046768814
108	0xbe24f76d	-0.1611001
109	0xbd482e0c	-0.04887204
110	0x3d90a074	0.07061854
111	0x3dec64e1	0.115426786
112	0xbe65e8aa	-0.22452036
113	0x3d7bb82a	0.06145493
114	0xbc5131e3	-0.012768242
115	0xbe5eda34	-0.21762925
116	0xbe2fc74c	-0.1716587
117	0x3e0ef4b8	0.1396054
118	0x3df0e6c9	0.11762769
119	0xbe517d83	-0.20458035
120	0xbe2050b9	-0.15655793
121	0x3cdbd733	0.026836013
122	0x3b2b42c6	0.002613233
123	0x3b831706	0.0040005473
124	0x3d2b58b9	0.04183266
125	0xbe2f9b20	-0.17149019
126	0xbd756283	-0.0599084
127	0x3e3d09b0	0.18460727
128	0x3e2329d9	0.15933932
129	0xbca35a89	-0.019940631
130	0x3cdd3d77	0.027006848
131	0x3d8e04b1	0.069344886
132	0x3d3213f7	0.04347607
133	0xbe0cb095	-0.13739236
134	0x3e5d54b3	0.21614341
135	0x3da4d29b	0.08047982
136	0x3e2fe15a	0.17175809
137	0xbd7bfb47	-0.061518934
138	0xbdc99f92	-0.09844889
139	0x3d97bb60	0.07408786
140	0x3dba78db	0.091050826
141	0xbd3ba8c0	-0.04581523
142	0xbe4265d0	-0.18984151
143	0xbe1d5c1d	-0.1536717
144	0xbe53044c	-0.20607108
145	0xbd48a29f	-0.048983213
146	0x3e423e00	0.18968964
147	0xbdf61a3a	-0.12016721
148	0x3d9e4987	0.07728868
149	0x3d19fc91	0.03759438
150	0xbe209b85	-0.15684326
151	0x3daf8b23	0.0857146
152	0x3e154674	0.14577657
153	0x3d122032	0.035675235
154	0x3e14aba5	0.14518602
155	0x3dfc01a0	0.123049974
156	0x3ace1f3b	0.001572586
157	0xbe243bce	-0.16038439
158	0xbd67bf4a	-0.05657891
159	0xbde1437c	-0.109992
160	0xbbd323ba	-0.006443468
161	0x3dc134e4	0.09433916
162	0xbe19b516	-0.15010485
163	0xbdbcd066	-0.09219436
164	0xbe2494b3	-0.16072349
165	0x3c4689d2	0.01211782
166	0x3d784ae6	0.060618304
167	0xbcf1bbdf	-0.02950853
168	0x3d5b894f	0.053597745
169	0xb985b7b1	-0.00025504598
170	0x3d73f310	0.059557974
171	0xbcbdbc13	-0.02316097
172	0x3d804c71	0.0626458
173	0xbdc5983d	-0.09648178
174	0xbdfa4804	-0.12220767
175	0xbe434f29	-0.19073166
176	0x3def1ac8	0.1167503
177	0xbd2862c5	-0.04110982
178	0x3dbebb91	0.09313119
179	0x3acf033e	0.0015793813
180	0xbd94fb67	-0.07274514
181	0xbe441c09	-0.1915132
182	0xbcae5673	-0.021281457
183	0x3d80118d	0.062533475
184	0xbd4f9fb5	-0.050689418
185	0xbdcd94e7	-0.100381665
186	0x3e36a51a	0.17836419
187	0xbd03c374	-0.03216882
188	0x3caedb0d	0.021344686
189	0xbe73da67	-0.23813783
190	0xbe069d52	-0.1314595
191	0xbc89958a	-0.016794939
192	0x3dc865eb	0.09785064
193	0xbe22be65	-0.15892942
194	0x3e149e28	0.14513457
195	0xbc54b7e1	-0.012983293
196	0x3e487ea3	0.19579558
197	0x3db85024	0.089996606
198	0xbc9a1b81	-0.018811943
199	0x3d5fbe7b	0.054625016
200	0x3e68cd75	0.22734626
201	0x3e1c9bb6	0.15293774
202	0xbd88c2c1	-0.06677771
203	0x3e1a3bd0	0.15061879
204	0x3df254e7	0.118326
205	0x3d988aac	0.074483246
206	0xbe010fa5	-0.12603624
207	0x3cb4590b	0.022015115
208	0xbdd50978	-0.10402197
209	0xbd214f5d	-0.039382327
210	0x3e372c37	0.1788796
211	0xbd074b93	-0.033031058
212	0x3d07cd44	0.03315474
213	0xbd9fec84	-0.07808784
214	0xbe77daba	-0.24204531
215	0xbd427f66	-0.047484778
216	0x3cec46d4	0.028842367
217	0x3d93afa8	0.07211238
218	0x3e155765	0.1458412
219	0xbdeded94	-0.1161758
220	0x3d652f1d	0.055953134
221	0xbe84f31c	-0.25966728
222	0xbe3fbbd8	-0.18724
223	0x3daa26c0	0.08308172
224	0x3e4e15cd	0.20125504
225	0x3e4349f0	0.19071174
226	0xbe06101b	-0.13092081
227	0xbe00b1a8	-0.1256777
228	0x3da7ecf7	0.08199494
229	0x3c23fe68	0.010009386
230	0x3e564888	0.20926106
231	0x3ddfe0e5	0.10931567
232	0x3dfea3c7	0.12433582
233	0x3db73e21	0.08947397
234	0xbda527c7	-0.080642276
235	0xbd08d394	-0.0334049
236	0x3d84eb2c	0.06490168
237	0x3d32e0ee	0.04367154
238	0x3de82fe0	0.113372564
239	0xbe12d27b	-0.14338104
240	0xbe6a5f29	-0.22887863
241	0xbdfafa73	-0.12254801
242	0x3deb183e	0.11479233
243	0x3d05fc01	0.032711033
244	0x3e2f79a0	0.1713624
245	0x3c34da84	0.011038426
246	0xbe197804	-0.14987189
247	0x3d36bbc9	0.04461268
248	0xbe03168e	-0.12801573
249	0xbd564a06	-0.052316688
250	0x3e173236	0.14765248
251	0xbe054477	-0.13014399
252	0xbdfdbb22	-0.123892084
253	0xbe00f23c	-0.12592405
254	0xbe4bfba8	-0.19920218
255	0xbd8a4600	-0.06751633

linear1.bias f4 [32]
0	0xbe100f0e	-0.14068243
1	0xbe47846b	-0.19484107
2	0x3dff8f68	0.124785244
3	0xbc995b9e	-0.018720444
4	0x3d3892a6	0.04506173
5	0x3dfce31d	0.12348006
6	0xbd3c756a	-0.046010412
7	0x3db01651	0.085980065
8	0xbd8c2057	-0.06842106
9	0x3e509bb2	0.20371893
10	0x3dac6e2d	0.08419452
11	0x3df8750e	0.121317014
12	0xbe0ce3b4	-0.13758737
13	0x3e056e39	0.13030328
14	0x3dac8179	0.084231324
15	0xbe03e829	-0.12881531
16	0x3dd3db6d	0.103445865
17	0xbcd4d5dd	-0.025980884
18	0x3dc8d64d	0.098065
19	0x3dc4d13a	0.09610219
20	0x3d922a86	0.07137017
21	0xbc51f04e	-0.012813641
22	0x3dfcdfd8	0.12347382
23	0xbd3922e8	-0.045199305
24	0xbdf800d0	-0.1210953
25	0x3d843bf8	0.06456751
26	0xbd6ae7b5	-0.05734988
27	0x3d80ab30	0.062826514
28	0x3d8714ae	0.06595741
29	0xbe042532	-0.12904814
30	0xbda831b5	-0.08212606
31	0x3d6f010c	0.058350608

linear2.weight f4 [1, 32]
0	0xbcadc3d8	-0.02121155
1	0xbd4eb251	-0.050463025
2	0x3d7d3ab6	0.06182357
3	0x3de99060	0.114044905
4	0xbdebaa27	-0.11507063
5	0xbdbb6e27	-0.09151869
6	0xbd269368	-0.04066792
7	0xbdb036d6	-0.08604209
8	0x3d6ac792	0.05731923
9	0x3d2a4088	0.041565448
10	0xbabb7e26	-0.0014304563
11	0x3d8511eb	0.06497558
12	0xbd06bc07	-0.03289416
13	0xbd4894d9	-0.048970077
14	0xbd315eef	-0.043303426
15	0xbc972c13	-0.018453633
16	0x3c6ac04c	0.014328074
17	0x3db5069f	0.088391535
18	0x3dfc4db3	0.123195074
19	0x3d25bf26	0.040465496
20	0xbdca64c0	-0.09882498
21	0x3d80ba9d	0.06285594
22	0x3e0aa45d	0.13539262
23	0x3dbd175e	0.092329726
24	0x3deded2c	0.116175026
25	0x3d82981e	0.0637667
26	0x3bbdc57b	0.005791364
27	0x3e034930	0.12820888
28	0xbe009acf	-0.12559055
29	0x3dbdef3e	0.092741475
30	0x3d80ab1d	0.06282637
31	0x3d4ac23c	0.049501643
