labml_nn/lstm/LSTM_THz/model_combine_318r1_34.pth (torch, 26025 bytes, 9 tensors)

lstm.weight_ih_l0 f4 [128, 1]
000000 d6 03 40 be b6 9f c8 be d1 6c 3e be 36 b5 e6 3e
       -0.18751463 -0.3918435 -0.18596198 0.45060128
000010 8a c3 b2 3e b7 dd 84 3d c5 8c 98 3e 5b cd c1 bc
       0.3491481 0.06487601 0.297949 -0.023657491
000020 76 32 4f 3e c5 8b 2c be 46 dc 2c bb 3c 94 c2 bd
       0.20234093 -0.16850193 -0.002637641 -0.0950093
000030 19 27 69 bc ea 11 a4 3e 3d c5 75 3c 6f 3d ef 3d
       -0.014230513 0.32044917 0.015000639 0.116816394
000040 ef 10 74 3e 2e 03 fa 3c af 17 22 3e cd e4 80 3e
       0.23834585 0.030519094 0.15829347 0.2517456
000050 31 1f e8 bd aa 9e 81 be e4 d8 47 3e c3 8f 3f be
       -0.11334074 -0.25316364 0.19516331 -0.18707184
000060 79 b1 7f be a2 5e bb bd f3 97 2b be 54 a4 9c 3e
       -0.24970044 -0.09148909 -0.16757183 0.30594122
000070 4c 54 d8 bd 4a 46 57 3e fe ca 63 be 05 bd 44 3e
       -0.10562953 0.21022907 -0.22245404 0.1921273
000080 33 8a 4e be ca b7 68 bd c6 84 9b be b4 f9 13 3f
       -0.20169906 -0.0568159 -0.30374736 0.5780289
000090 72 1d 4a 3e 31 06 ad 3d b2 95 a0 3d 26 34 0f 3d
       0.19737795 0.084484465 0.07841052 0.034961842
0000a0 a1 51 28 3e 9a 7e 9f be cf ef 74 3d b4 fa 5b be
       0.16437389 -0.31151277 0.05979901 -0.21482354
0000b0 24 e0 85 3e 21 4f e0 3d 97 64 57 3e f7 ff f6 3c
       0.26147568 0.10952593 0.21034466 0.03015135
0000c0 0c 5b 91 3e 1b 05 a3 bd c8 89 84 3e c3 05 83 3e
       0.28389776 -0.07959958 0.2588637 0.25590333
0000d0 ce d8 fd bd 3c 1d c4 bd ff a8 1e bd 0d 4a 3e be
       -0.12394868 -0.095758885 -0.038735386 -0.18582936
0000e0 b5 93 e6 bd ba 14 d9 bd da cb d1 be e2 3a 8e 3e
       -0.11258642 -0.105996564 -0.4097584 0.277793
0000f0 cc 97 5e be f8 27 25 3e 02 2f 96 be eb c2 57 3d
       -0.21737593 0.16128528 -0.2933274 0.052676123
000100 a8 2d 1b 3e 35 98 6e 3e b2 11 ce 3e 63 95 93 3e
       0.15154135 0.2330025 0.40247875 0.2882491
000110 42 72 57 3c c3 ea cc 3e a6 1e 9c be 4d 18 42 be
       0.0131498 0.4002286 -0.30492133 -0.18954583
000120 d4 1c e6 3d ae a8 b5 bc c3 91 d2 3e 45 39 8c be
       0.11235967 -0.02217516 0.41126832 -0.27387443
000130 bc 1b db be fb 66 dc bd 09 01 c7 bd 51 0f 9c be
       -0.42794597 -0.107618295 -0.09716994 -0.30480435
000140 1b f7 46 be f1 82 1b bd 24 ef 73 3e 1c 7a 67 be
       -0.19430201 -0.037966672 0.23821694 -0.22605175
000150 84 09 9f 3e b5 f5 52 3d 81 47 f3 be 44 f0 5b be
       0.31061947 0.051503856 -0.4751549 -0.21478373
000160 c3 67 48 bd 25 29 2b 3c 4c a1 69 be 1b 17 12 be
       -0.04892708 0.010446821 -0.22815436 -0.14266627
000170 b9 7c ef 3d eb 52 ed bd 71 b1 87 3e 71 25 16 3e
       0.11693711 -0.11588081 0.26502565 0.1466272
000180 a1 d3 90 be ec 46 a5 be 3f 9c e5 be bd 69 d1 3e
       -0.2828646 -0.32280672 -0.4484577 0.40900984
000190 c9 9c 9a 3e 74 82 11 3e f8 36 5f 3d c6 0c e5 bd
       0.30197743 0.1420992 0.05449578 -0.11184077
0001a0 81 5b 7e 3e 99 f4 19 be a0 56 56 be f8 15 21 be
       0.24839593 -0.15034713 -0.20931482 -0.15731037
0001b0 e6 3e 40 3d 9a cf ed 3c 19 9d a9 3d c5 64 17 3c
       0.046934985 0.029029656 0.08281917 0.009240334
0001c0 27 be 07 3e 74 7e 7a 3d 98 d8 a0 3d 59 72 b1 3e
       0.13256131 0.06115575 0.07853812 0.34657553
0001d0 57 d6 59 be f6 98 1d be da b7 2f 3e 08 e6 6c be
       -0.2127317 -0.15390381 0.17159978 -0.23134625
0001e0 c2 d4 eb be b4 6f 41 be d0 55 a6 be 66 e9 ac 3d
       -0.4606076 -0.18890268 -0.32487345 0.08442955
0001f0 2c 53 73 be 28 8c 0f 3e f8 84 85 bd 6c 00 33 bd
       -0.23762196 0.14018309 -0.065195024 -0.043701574

lstm.weight_hh_l0 f4 [128, 32]
000000 b6 da 03 bd 28 cc a9 bd 98 65 88 ba d6 fc 95 be
       -0.032191 -0.08290893 -0.0010406254 -0.2929446
000010 f6 29 a0 3c a9 6c a5 be 0f 9a 0c 3e 53 0e 9a bc
       0.019551259 -0.32309464 0.13730644 -0.018805658
000020 bf 2e 25 3d ee 8a 82 3e c3 5e 89 3d b9 ec 53 be
       0.040327784 0.2549662 0.067075275 -0.20695771
000030 98 f3 00 3d 50 f7 56 3e d3 94 91 3e da 57 8a bd
       0.03148231 0.2099278 0.28433856 -0.067550376
000040 77 47 a6 3e 3f 59 eb bc 14 eb 0d bd 65 79 03 be
       0.32476398 -0.02872908 -0.034648016 -0.12839277
000050 90 1b db bc d3 4b 59 3e f8 be 3e 3e 5c c3 5a 3e
       -0.026746541 0.21220331 0.18627536 0.21363586
000060 7b eb 12 3d 44 d7 19 3e e7 94 80 be 41 f7 7a 3d
       0.035869103 0.15023524 -0.25113603 0.061270956
000070 18 6c b2 bc 47 c7 64 3e 10 5a d7 bc b8 21 74 be
       -0.021780059 0.22341643 -0.026288062 -0.23840988
000080 0e 52 0a 3e 28 0a 11 3c a0 74 79 3d ce d0 3b be
       0.13507864 0.008852519 0.060902238 -0.18341371
000090 8b 0b 0d be 65 4e ab 3d 97 e1 a8 3e 1b 46 dd 3e
       -0.13773935 0.08364562 0.3298461 0.4321755
0000a0 79 f4 88 be c4 a0 2c 3e d7 dd 3e 3e 1a 45 e3 bd
       -0.26749018 0.16858202 0.18639313 -0.110971645
0000b0 52 02 9c 3e 64 2b fe 3d da 71 d3 3e 80 e7 05 be
       0.3047052 0.1241062 0.412978 -0.13076591
0000c0 7f 8c 99 3e 89 ce 7d be 44 b3 4f be d7 c1 dd 3d
       0.29990003 -0.24785818 -0.20283228 0.10827988
0000d0 07 7e f9 3d 42 ff 7c 3d 62 6f 8e 3e 9a 26 55 bc
       0.12182241 0.06176687 0.27819353 -0.013009692
0000e0 8c fd f0 3d ab d1 8d 3d 97 98 b9 be 76 04 8c 3e
       0.1176711 0.069247566 -0.3624923 0.27347153
0000f0 24 93 98 bc 1d 95 2f bd ac d2 41 3e 07 e1 90 be
       -0.01862485 -0.042866815 0.18928021 -0.28296682
000100 e1 79 43 be 1c 8f 39 bd 4e 49 c4 3c 55 cf 08 be
       -0.19089462 -0.045302495 0.023960736 -0.13360341
000110 cb 37 7b be c6 71 60 be 4c 93 26 3e a1 03 cd 3d
       -0.24533002 -0.21918401 0.16267127 0.10010458
000120 f4 4c 86 be af 6d 5e 3e ce 0a 59 be 09 8d 4d bd
       -0.26230586 0.21721528 -0.21195528 -0.05018333
000130 97 ea 35 3d 18 45 20 3e bb 20 a2 3d 75 14 12 be
       0.044413175 0.15651357 0.07916399 -0.14265616
000140 01 2d 27 ba e8 de 40 be 6e 3a bd bd d7 7a 4b 3e
       -0.00063772505 -0.18835032 -0.0923966 0.19871078
000150 ee db 6e 3e 5b 96 9d 3d 4f 3a 76 3e b2 d4 e7 3d
       0.23326084 0.07694694 0.2404568 0.11319865
000160 67 06 26 be 1a cb 95 3c 9d 10 cf 3c 3a 4c 42 3e
       -0.1621338 0.018285323 0.025276477 0.1897439
000170 c7 3e 3d bb 7b e7 12 3e 51 ad 69 bd 06 11 28 3a
       -0.002887653 0.14346115 -0.057050053 0.0006411228
000180 0e 4c fb 39 25 97 a6 bd e3 36 b4 bc 15 7a 06 3e
       0.00047931116 -0.08134297 -0.021998828 0.13132508
000190 0b e0 2a be c3 04 63 3c 00 0b 1b 3d 7b b9 c0 3c
       -0.16687028 0.013856116 0.037852287 0.023525944
0001a0 b0 f9 0b 3d 52 78 20 3d a0 a4 7a 3e 4c f5 1a be
       0.034173667 0.039177246 0.24476862 -0.15132636
0001b0 4c b2 25 3e 90 8b 83 bc eb 22 92 bd 7e dd 9c 3c
       0.16181296 -0.01605776 -0.07135566 0.019148584
0001c0 ae 95 82 bd 22 5b 0c bd 79 f9 75 bd aa 8e 4c be
       -0.063762054 -0.0342666 -0.06005237 -0.19976297
0001d0 6f f5 8c 3e ef 6f bf 3d c3 e6 5a be b1 77 91 3d
       0.27531 0.093475215 -0.21377091 0.071029074
0001e0 57 7b 8b bc 34 d1 49 be bb c1 eb bd 66 80 12 be
       -0.017026586 -0.19708711 -0.115115605 -0.14306793
0001f0 85 61 29 3e e8 28 37 be a1 d1 01 3e da 83 82 3d
       0.16541107 -0.17886698 0.12677623 0.06372805
000200 46 6e 00 3c d2 18 35 bd 1f 16 49 3e 2e 76 4c be
       0.007838791 -0.044213124 0.19637345 -0.19966957
000210 d5 fa bf bd 06 91 a4 be 93 8a 66 be ba 21 ad bd
       -0.09374014 -0.32141894 -0.225138 -0.084536985
000220 1f a7 25 3e 50 81 2c be 74 fd 41 be f7 93 36 bd
       0.16177033 -0.16846204 -0.18944341 -0.044574704
000230 fa d6 24 be 4e 0a d2 3d 96 d5 37 3d c3 0e 7a bd
       -0.16097632 0.10255872 0.044881426 -0.061049234
000240 9d 17 00 be e2 0d ee 3d f6 ba 1d 3e cb c7 34 3e
       -0.12509008 0.11623742 0.15403351 0.1765434
000250 5a 28 83 3d 98 77 4f bd 4d a7 06 bd e4 24 b5 bd
       0.06404181 -0.050651163 -0.032874394 -0.08844927
000260 42 2c 57 3d c4 69 69 be 01 07 32 be c6 f8 ab bd
       0.052532442 -0.22794253 -0.17385484 -0.08397059
000270 c2 6f 1c 3d 9a 3d 43 3d 2e 6f 5b be 3f e5 26 3d
       0.038192518 0.04766617 -0.2142913 0.04074597
000280 39 84 02 be 33 b9 83 be fa 1d a4 be 52 52 1e bd
       -0.12745751 -0.25727233 -0.3205412 -0.038652726
000290 ea ae 10 3e 7c e4 02 3e c4 04 ff bd a1 09 55 be
       0.14129224 0.12782472 -0.12452081 -0.20804454
0002a0 8d 1a dc 3d 21 01 a9 3d bf f5 b7 3d a0 37 7d 3d
       0.10747252 0.082521684 0.08982419 0.061820626
0002b0 23 d9 2c 3d bb b1 4a be cd 6e 7a 3d 62 38 46 3e
       0.042199265 -0.19794361 0.061140824 0.19357446
0002c0 34 80 11 3e ea 60 04 3d d5 e1 5a 3d 79 3c ac bd
       0.14209062 0.032318987 0.053438026 -0.08409972
0002d0 b8 fb 72 bd f6 46 c0 3b 84 70 12 3d fe a3 90 3e
       -0.05932209 0.005867834 0.035751835 0.28250116
0002e0 ab 81 55 3d be a3 6a 3d b1 2f 1c 3e de 90 91 be
       0.052125614 0.057285063 0.15252568 -0.28430837
0002f0 4b 0f 2d 3e 1f af d1 ba 24 c5 97 bd 66 df 08 be
       0.16900365 -0.0015997625 -0.074106485 -0.1336647
000300 1a 3b 0e 3e d4 5b be 3d e8 8c 9a 3c b7 22 42 be
       0.13889733 0.092948586 0.018866017 -0.18958555
000310 87 e6 ef bd b7 6c c3 bd 75 ab 3a 3e 2c 00 26 3e
       -0.117138915 -0.0954222 0.18229468 0.16211003
000320 26 06 6b bd ee 1e a3 bd b9 d9 90 3b b0 9c 90 3d
       -0.05737891 -0.07964884 0.004420486 0.07061136
000330 85 64 23 bd 7a 6d 4d 3e b3 ff 25 3e cc ec 99 bc
       -0.039890785 0.20061293 0.16210823 -0.018789671
000340 fe 88 a4 3d 43 1e d0 bd c7 1e 0c be bb 78 6f 3d
       0.08033942 -0.10162022 -0.13683616 0.058464747
000350 30 12 16 3e 48 e7 ac bd 1e 85 36 3e 0a 6a bb bd
       0.14655375 -0.08442551 0.17824218 -0.09151085
000360 c7 c4 fb 3d d5 bf a7 be a9 b5 06 3d d3 c9 a6 bd
       0.12293392 -0.32763544 0.03288809 -0.08143964
000370 67 4a 24 bc ee 4b 37 bd ec b7 d5 3d 35 bd 3f bc
       -0.0100275045 -0.044750147 0.10435471 -0.011702825
000380 a9 e2 8a be 78 00 b1 3e 3e 24 c3 3e 83 9f 5f be
       -0.27126053 0.3457067 0.38113588 -0.21838193
000390 d4 27 0f be 26 25 2b bd a5 d9 46 3e 5d 49 0d 3d
       -0.13980037 -0.041783474 0.19418962 0.034493793
0003a0 c7 69 f1 3d fe ad 07 3e c6 51 5f be 42 13 62 3e
       0.117877536 0.13249967 -0.21808538 0.22077659
0003b0 e6 80 7e 3d 99 30 93 3e e2 73 76 bd 2d cb 7f be
       0.062134646 0.28748015 -0.06016911 -0.24979849
0003c0 ad d6 ad bd 22 17 47 be 4d 16 02 3e 3c fa 8a bd
       -0.08488212 -0.19442418 0.1270382 -0.0678601
0003d0 70 18 ef 3c 4f e0 a0 3c 52 2f 5b bc a8 47 63 bd
       0.029186457 0.019638209 -0.013377981 -0.05548826
0003e0 01 5a 4f 3e f5 b4 41 be 61 53 96 be b8 e8 48 bd
       0.20249178 -0.18916686 -0.29360488 -0.049050063
0003f0 6d c0 df bd a0 82 8e 3e c4 75 50 be 77 d2 4e be
       -0.10925374 0.27834034 -0.20357424 -0.20197473

lstm.bias_ih_l0 f4 [128]
000000 5f 90 be bd 7e 3f a0 be 27 43 ac 3c 8d 06 2c be
       -0.0930488 -0.3129844 0.021028114 -0.16799374
000010 83 eb b7 3b 6c ed cc 3c 2e 2e d3 bd 3b 95 3a be
       0.005612792 0.025015555 -0.103115425 -0.1822099
000020 10 af 0b be 2a 2b 35 b9 63 21 4b 3e ee 44 e8 bd
       -0.13641 -0.00017277585 0.19836955 -0.11341272
000030 27 2d 85 3d 50 5c fb 3d 26 1c d2 bd f2 6f 67 bd
       0.06502753 0.122734666 -0.10259275 -0.056503244
000040 7e 26 6e be 59 48 8d bd 5a 3f 0c be 22 f6 e6 bc
       -0.23256871 -0.06898565 -0.13696042 -0.028193537
000050 52 bb 53 be d5 bb 9c bd cb 77 ca bd 15 2d d3 bd
       -0.20676926 -0.076530136 -0.0988613 -0.10311333
000060 ef 30 54 be b3 bb 6d be 5c a6 aa 3e 6e 12 74 be
       -0.20721792 -0.23216133 0.33330047 -0.23835155
000070 d3 1a d2 bd d7 8e b3 be d8 2c b9 3d 49 c2 6a be
       -0.102590226 -0.35069916 0.090417564 -0.22925676
000080 a2 f5 0e 3d 45 f1 c5 be bb 9e 13 be 20 15 d7 3b
       0.034902222 -0.38660637 -0.1441602 0.0065637976
000090 5c 82 2d be 17 5e f8 3c 4a 2f 86 bd b3 be 3a bc
       -0.1694426 0.030318303 -0.065519884 -0.011398005
0000a0 f6 2d 00 be ea a6 54 be 16 cd 7c be a2 22 53 3d
       -0.12517533 -0.20766798 -0.24687609 0.0515467
0000b0 87 9d 1a be 7e 43 c7 3d 2e b3 0c 3e 02 03 fe bd
       -0.15099154 0.0972967 0.13740227 -0.124029174
0000c0 66 c0 a0 bd c7 05 8b bd 27 40 05 3e c9 84 02 be
       -0.07849197 -0.06788211 0.13012753 -0.12745966
0000d0 d4 d4 86 be 2a 98 bb 3c a2 e4 3c bb 60 33 aa be
       -0.2633425 0.022899706 -0.00288228 -0.3324232
0000e0 b7 e7 43 be 3b e2 8a be 4b 6f 95 3e 3e 10 67 bd
       -0.19131361 -0.27125725 0.29186472 -0.056411974
0000f0 8e c0 f4 bd d3 81 0d be fe a5 14 3d b2 4e c8 bd
       -0.119507894 -0.13819055 0.036291115 -0.09780635
000100 dc 4e 4f 3d 98 08 8d bd 0d f2 ed bd 16 67 55 bd
       0.050612316 -0.06886405 -0.11618433 -0.052100264
000110 19 4f 77 3e 6e 50 18 3e 1c b6 09 be 0f 30 38 bd
       0.24151267 0.14874431 -0.13448375 -0.044967707
000120 26 63 84 bd 91 f9 32 3d 80 b0 0c 3d 69 cc b3 3d
       -0.064642236 0.043695036 0.03434801 0.087792225
000130 2d 3c 1c be ce 85 13 be 99 4c c8 bd 54 70 8e 3e
       -0.1525733 -0.14406511 -0.09780235 0.27820075
000140 e2 b1 ec bc c8 49 db bd d3 b1 c2 3d 04 ee 37 bc
       -0.028893415 -0.10707432 0.095065735 -0.011226181
000150 4b a7 01 be a9 4d 08 3e 05 38 ea 3c 42 30 8e bb
       -0.12661473 0.13310875 0.028591165 -0.004339249
000160 25 cf 4b 3b 96 57 ef bd 32 7a b4 3e f7 eb 18 be
       0.003109881 -0.116866276 0.35249478 -0.14933763
000170 80 38 2a 3d 80 a5 d0 3b e7 49 d3 3d c6 5f 22 3d
       0.04155779 0.0063673854 0.1031683 0.039642118
000180 23 e3 5f be 9e 96 2b be bd 47 82 be 22 76 2d be
       -0.2186399 -0.16756675 -0.25445357 -0.16939595
000190 52 c7 5b bd 54 59 17 3e 26 74 b7 3d f6 30 84 be
       -0.053656884 0.1478017 0.089577004 -0.25818604
0001a0 03 f7 bb bd 41 78 6b be bd c3 39 bd 7b 91 0b be
       -0.09177973 -0.22995092 -0.045352686 -0.13629715
0001b0 80 c5 aa 3c 4c 5a 0a be 36 ba b3 3d aa 93 37 3e
       0.020846128 -0.13511008 0.08775751 0.17927423
0001c0 33 03 a3 be 87 b3 7d be 88 79 23 3e ab f2 be bd
       -0.31838378 -0.24775515 0.15964329 -0.09323629
0001d0 c2 a1 a8 bd c8 09 a6 bd f3 8a 3d bd 4b a6 9d be
       -0.08233978 -0.081073344 -0.04627509 -0.30790934
0001e0 3c fa 9f 3d 89 1d d8 bc 51 da 0e 3e 5e a5 92 bd
       0.078114 -0.026381271 0.13950469 -0.071604475
0001f0 bf 5c 65 be 56 31 13 be 3f 66 a3 3d 71 c0 81 be
       -0.22398661 -0.14374289 0.07978486 -0.25342134

lstm.bias_hh_l0 f4 [128]
000000 46 fd 8f be 04 c7 82 be b9 ce 8b bd 70 cc 0d be
       -0.2812292 -0.25542462 -0.068265386 -0.13847518
000010 c7 62 cb 3d cd 8a 01 bd 14 96 a1 3d 81 42 e2 bd
       0.0993095 -0.03162651 0.07889953 -0.11047841
000020 df f4 ac 3d 8a 3f 48 be 7b d2 c1 3d 0f d5 19 b9
       0.08445143 -0.19555488 0.09463974 -0.00014670588
000030 1f cb 29 3e e0 d0 28 3e 27 1b 35 3e 54 9c c1 3d
       0.16581391 0.1648593 0.17686139 0.09453645
000040 ca 03 56 bb 7d b4 30 be a0 6d 7f bd c4 2c 9b bd
       -0.0032656067 -0.17256351 -0.062360406 -0.07576898
000050 cc 8c 6b bc b0 9b 53 be e1 ba 30 3e c8 e1 1b be
       -0.01437683 -0.20664859 0.17258789 -0.15222847
000060 59 ef 0a be c0 8c 45 bd 44 27 9b 3e b5 f0 fd 3c
       -0.13567866 -0.048229933 0.30303395 0.030998567
000070 9f 92 c4 bd 98 67 bf be 40 67 b1 bd 99 f7 c0 bc
       -0.09598278 -0.37383723 -0.086622715 -0.023555564
000080 b2 1a 8c be 81 6b 26 be 3c 97 d5 bd 43 81 3a be
       -0.27364117 -0.16251947 -0.10429236 -0.18213372
000090 45 fb fd bc 03 8f 78 3d 94 4e e2 3d c4 05 04 be
       -0.031003604 0.06068326 0.11050144 -0.12892824
0000a0 6b 9b 25 be ec fd aa 3a 44 47 85 bc fe c2 59 be
       -0.16172569 0.0013045645 -0.016269334 -0.2126579
0000b0 85 0a 93 bc a6 8b 9d 3d ab 05 05 3c 37 7e f4 3d
       -0.017949352 0.076926515 0.008119027 0.11938136
0000c0 e9 aa 66 be ea a6 73 be 09 52 ce 3c 9f 64 17 3e
       -0.22526135 -0.23794141 0.025185602 0.14784478
0000d0 4e b8 5e be b5 79 50 be a4 ba 71 be 2e d0 92 be
       -0.21749994 -0.20358928 -0.23606354 -0.28674453
0000e0 bc 76 a2 3d ec dd 35 be 33 95 53 3e 28 9e a5 bd
       0.07932803 -0.17760438 0.20662384 -0.080868065
0000f0 68 a0 2d be 44 c7 b8 bd 8c 1c a8 bd f1 8b 14 be
       -0.16955721 -0.09022382 -0.0820857 -0.14506508
000100 c8 f5 88 3d 4e 86 97 bc ab 66 bf ba 12 fb 07 bc
       0.06687504 -0.018496659 -0.0014602741 -0.008299606
000110 87 fa 65 3e 04 75 42 bd b4 13 57 bb bd d9 bf bd
       0.2245885 -0.047474876 -0.003281814 -0.09367702
000120 ac a6 e3 3d b1 3e b6 bd 68 38 9b 3d 5b 14 1e be
       0.111157745 -0.08898676 0.07579118 -0.15437452
000130 9c 7e a6 3d 69 32 56 be 51 4b e5 bd 5f 61 58 3e
       0.081296176 -0.20917667 -0.11196006 0.21130894
000140 96 9a db 3d fe 6d c8 3d 8c be 0a 3e 4e e7 e0 bd
       0.10722844 0.09786604 0.1354925 -0.10981618
000150 04 29 dc bd 15 62 bc bd 16 b8 95 3c 69 f3 24 bd
       -0.107500106 -0.09198395 0.018276256 -0.040271197
000160 5c 0f 54 bd 1a 2e be 3d 86 7e b6 3e 7d fa 33 bc
       -0.05177246 0.09286137 0.35643405 -0.010985014
000170 c8 78 d4 bc 63 53 a6 bd 7d 86 3f bc 83 7e 04 be
       -0.0259365 -0.081213735 -0.011689779 -0.12938885
000180 94 aa 48 be ac 6b 28 be 89 02 90 bb df 1d b5 3d
       -0.1959632 -0.16447324 -0.0043948335 0.08843588
000190 f8 98 a2 bc 86 90 59 bc dc 8c 2e be 35 b9 d8 bd
       -0.019848332 -0.013279086 -0.17045921 -0.105822004
0001a0 ad 69 f3 3c 5b 24 b4 bd 9a 46 4f 3e 0d de 72 bc
       0.029713476 -0.08795997 0.20241776 -0.014823449
0001b0 cb 4c 2f 3e 76 4a 0f 3d 8d fd f5 bc eb 63 9a 3d
       0.17119138 0.03498312 -0.030028129 0.07538589
0001c0 69 e7 87 be 64 eb dc bc 01 6a f7 bd 59 fd 9a 3d
       -0.2654374 -0.026967712 -0.120807655 0.075678535
0001d0 98 69 72 be af 24 1d be a3 b6 39 bd 22 24 48 be
       -0.23673093 -0.15346025 -0.04534019 -0.19545034
0001e0 e3 77 55 be 46 e1 b0 be 61 fd 61 3e a0 50 d3 3d
       -0.20846514 -0.3454687 0.22069313 0.103181124
0001f0 34 b3 e8 bc a3 62 99 be 97 56 5b be d8 2b 09 be
       -0.028405763 -0.29958066 -0.2141975 -0.13395631

layer_norm.weight f4 [32]
000000 58 85 47 3f 06 77 64 3f da 3c 5e 3f cf 47 6c 3f
       0.7793784 0.89244115 0.868116 0.9229707
000010 21 07 49 3f 42 2d 6d 3f 43 57 54 3f 11 49 5d 3f
       0.785265 0.9264718 0.8294565 0.86439615
000020 08 92 49 3f ee ea 6a 3f 30 85 87 3f 5c 44 5e 3f
       0.7873845 0.91764724 1.0587521 0.8682306
000030 fb d2 8c 3f 20 fc 47 3f 8c 3f 65 3f 32 21 65 3f
       1.1001886 0.7811909 0.8955009 0.8950378
000040 b0 9d 4d 3f 22 da 5f 3f f8 02 81 3f 79 61 67 3f
       0.8031874 0.8744222 1.0079031 0.90383106
000050 c6 a8 5f 3f 33 96 68 3f a3 4c 91 3f 0a 6e 64 3f
       0.873669 0.90854186 1.1351513 0.89230406
000060 7d 99 69 3f 04 2d 54 3f 1f cd 6f 3f 67 b0 4a 3f
       0.9124983 0.8288119 0.93672365 0.7917542
000070 04 cd 53 3f f7 1e 51 3f 43 e5 6e 3f c2 ed 7a 3f
       0.82734704 0.81687874 0.93318576 0.9801904

layer_norm.bias f4 [32]
000000 b3 d4 51 3e 24 d1 9f bd 45 ce df bd f0 01 17 bc
       0.20491295 -0.07803562 -0.10928015 -0.0092167705
000010 cf 13 46 be 7f 91 f4 3c f7 0e 3f 3e 39 cb d0 3c
       -0.19343494 0.029854534 0.18658052 0.02548753
000020 b6 84 9a bd e1 2b 85 3d cd 33 21 3d f9 3b f4 bd
       -0.07544844 0.0650251 0.03935604 -0.119255014
000030 58 e6 83 3c 70 24 48 3e a4 0e e7 3b fc 26 e3 bd
       0.016101047 0.1954515 0.007051306 -0.1109142
000040 e2 d0 30 bc df 9a a2 39 a7 5e 60 3d 57 a3 13 bd
       -0.010791989 0.00031014436 0.054777768 -0.036044445
000050 aa 19 24 3e d9 2b 60 3d 90 81 9c 3b 11 35 7a 3d
       0.16025415 0.054729316 0.0047761872 0.061085764
000060 77 a4 b5 bd 75 08 64 3d c3 f0 8a bd f3 8c 00 3e
       -0.0886926 0.055672128 -0.06784203 0.12553768
000070 bf 29 03 3e 98 8d 0b 3c 05 75 44 3d a9 2a 96 bc
       0.12808894 0.008517645 0.04796316 -0.018330889

linear1.weight f4 [32, 32]
000000 45 b9 c9 bd ca 2e 95 bd 12 5d 92 be 7a 04 12 be
       -0.098497905 -0.07284315 -0.28586632 -0.1425952
000010 de 36 c9 bd 7b 22 6f bd bf be 2c 3e 92 71 59 3d
       -0.09824918 -0.058382493 0.16869639 0.053086825
000020 a9 db 0e be 42 d8 69 bc af 2d a7 bc 38 e0 a5 bd
       -0.13950981 -0.014272751 -0.020407526 -0.08099407
000030 26 8c cc 3d bf c3 14 3e a6 9d 7d 3c 8b 7a 26 be
       0.09987669 0.14527796 0.015479481 -0.16257684
000040 50 cf 39 be 74 a6 0c bd 97 25 80 bd 31 a2 3d be
       -0.1814549 -0.03433843 -0.0625717 -0.18518902
000050 23 cd 83 bc d1 86 1b 3d 8f 87 64 3e 4e 21 eb 3c
       -0.016089028 0.037970368 0.22317336 0.028702404
000060 9c 8e 61 bc cd 9d 07 bc 40 31 f9 3d cd 22 78 3e
       -0.013766911 -0.008277369 0.12167597 0.24232025
000070 6c c4 d7 bd e8 22 07 3e d4 55 57 3e 27 2c a5 bc
       -0.105355114 0.1319691 0.21028835 -0.020162655
000080 65 55 2f be 71 5e 7a bd 75 27 12 bc 51 6d 28 bd
       -0.17122419 -0.061125223 -0.00892054 -0.041119877
000090 78 e7 b2 bd 8f 48 fa 3d ce 0a bb bd cc 49 10 3e
       -0.087355554 0.12220871 -0.0913292 0.14090651
0000a0 b4 f5 4f 3e 8b 4c d1 bd 24 22 2d be 3c 1a e8 3d
       0.20308572 -0.102196775 -0.16907555 0.11333129
0000b0 7f 40 d7 bd d0 e4 a2 3d b2 ba 94 bc a7 5f c0 3d
       -0.105103485 0.07953799 -0.01815543 0.09393244
0000c0 aa 5c d8 3d 03 cb 51 3d a7 49 24 3e fc 9a 44 3e
       0.10564549 0.051218998 0.16043721 0.19199747
0000d0 d4 cd f9 3d 7f 5b cb bd b8 e8 ef bd 12 dc 51 bd
       0.12197462 -0.09929561 -0.117143095 -0.051235266
0000e0 b8 96 3c bd 54 03 a2 be 96 2a 65 bd 39 4a e3 bd
       -0.046042174 -0.31643164 -0.055948816 -0.11098141
0000f0 30 6c 56 be da 6b 07 3b 49 3b 18 bd 55 e3 9e bd
       -0.20939708 0.002066365 -0.037165914 -0.07758204
000100 50 a4 e4 bc 60 ee e9 bc 1b d1 22 be 07 62 3c bd
       -0.027910382 -0.028556049 -0.1590008 -0.045991924
000110 24 94 9a bd 9c 09 90 3d 17 fa d1 bd f9 8f 16 3e
       -0.07547787 0.07033083 -0.10252779 0.14703359
000120 fc 66 2f be 83 66 75 3d 1c 41 76 be a1 6c b0 3d
       -0.17129129 0.059912216 -0.24048275 0.08614469
000130 9a 96 45 3e 7f df 3c 3d 4b dc e1 3c 55 2e 6d bd
       0.19295731 0.04611158 0.027570864 -0.057905514
000140 13 f4 81 3d 3d 03 9d 3d c5 45 95 3d 57 8f 39 3d
       0.063453816 0.07666633 0.07288698 0.045302715
000150 67 4f 35 be 8f 58 71 bc 0e c4 88 3e 46 3d 1c 3e
       -0.17706071 -0.014730587 0.26712078 0.15257749
000160 87 18 53 bd a8 0e 4e bc 97 7a d3 3d a8 d5 64 bd
       -0.051537063 -0.0125767365 0.103261165 -0.05586782
000170 66 13 99 3c c5 f3 c1 bd 9d 43 a5 bc de d2 d2 3d
       0.018686008 -0.094703235 -0.020173842 0.10294126
000180 ba 70 03 be c7 b5 a5 bd 1e 4a 4a be 65 c6 06 3e
       -0.1283597 -0.08091312 -0.19754836 0.13161619
000190 26 83 1f 3c 3b f2 4c 3d a8 08 c8 bd b3 8a 2b 3d
       0.009735858 0.050035696 -0.09767276 0.04188032
0001a0 79 fc b9 bc ee 3b fb 3c c7 7a 26 bc e0 2a 41 be
       -0.022703396 0.030668225 -0.010161108 -0.18864012
0001b0 a5 f4 37 3e 29 1d 59 3d 3a 66 e0 bd dd 38 aa 3d
       0.17964418 0.053006325 -0.10956998 0.08311627
0001c0 eb 02 45 be 2b ab 34 3d 4d 2e 5a 3c 21 ab 0e 3c
       -0.19239394 0.04410855 0.013316703 0.0087077925
0001d0 2d 7b 07 3e bb 65 64 3e 00 d0 78 bb 90 42 15 bd
       0.13230582 0.22304432 -0.0037965775 -0.036440432
0001e0 d4 eb 14 be c9 ad ad bb ae 28 f9 bd 04 45 be 3d
       -0.14543086 -0.005300258 -0.12165962 0.092905074
0001f0 a5 83 2b 3e fe e6 45 3e 96 69 89 bc 7a aa df 3d
       0.16749437 0.19326398 -0.01677398 0.10921188
000200 1f ed ac 3d f7 8d 25 3e 42 7f 68 bc d8 61 9c 3d
       0.08443665 0.16167437 -0.014190497 0.0763585
000210 2d 73 9d bd 40 ac 98 3e 3a 4c 27 3b e8 35 bc bb
       -0.07687984 0.29818916 0.0025527612 -0.005743731
000220 86 e9 ac 3a f9 56 78 bd 57 2a 2a 3e f2 53 42 3e
       0.0013192154 -0.06062982 0.16617714 0.18977335
000230 a2 a1 34 be f7 ab 28 3d 9f 15 30 be 64 5a 7a 3d
       -0.17639783 0.041179623 -0.17195748 0.06112136
000240 c9 6c de bd e6 fb ec bd a9 65 b6 bd df fb 53 bc
       -0.10860593 -0.11571483 -0.08906109 -0.012938469
000250 13 e5 f8 bc 9f df 18 bd da 7a 9f be 6c 17 27 3d
       -0.030382669 -0.037322637 -0.31148416 0.04079382
000260 6a b7 0b 3e dd e8 3a be a5 fb a5 3c ca 47 b1 3c
       0.13644186 -0.18252893 0.020261595 0.021640677
000270 18 27 22 3e d3 f2 0b be 20 1c 0a 3e 37 95 66 3d
       0.15835226 -0.13666849 0.13487291 0.056294646
000280 77 d4 4b 3e 3e c4 e6 bd ed bc 17 bd fe 3b a8 3d
       0.19905268 -0.11267899 -0.037045408 0.082145676
000290 9c 3c 5f be 99 9a a6 3d ed 2e 46 3d 4a eb bf bd
       -0.21800464 0.08134956 0.048384596 -0.0937105
0002a0 49 f5 6d 3b c7 37 5c bd 62 f0 e3 bd 42 33 9f 3d
       0.0036309531 -0.05376413 -0.11129834 0.077734485
0002b0 d2 4d 7d 3e b7 bf 4d 3d 1f 4e 3f 3e 69 5f 0a bd
       0.24736717 0.05023166 0.18682145 -0.033782396
0002c0 af 0b a4 3d 35 85 92 bd 7a 5b 8d be 2b 85 ac 3d
       0.08010041 -0.071543135 -0.27608854 0.08423837
0002d0 50 13 13 3e 46 bc 86 3e 15 b1 fe 3d dd 0c 4d 3e
       0.14362836 0.26315516 0.124361195 0.20024438
0002e0 f9 d3 53 be 2b f0 cf 3c 5f 9e 10 bd ef 85 90 bd
       -0.2068633 0.025383076 -0.035307284 -0.07056796
0002f0 40 64 01 3d c1 3b d9 3c aa 88 1d bd ee 7c 7d be
       0.031589746 0.02651775 -0.03846041 -0.24754688
000300 a6 2c ee 3b ea 89 07 be 20 4c b6 bc 30 e0 b3 bc
       0.007268506 -0.13236204 -0.022253096 -0.021957487
000310 70 ba a6 3d 4a 01 b3 bd 7f f9 0f 3e da d6 22 3e
       0.08141029 -0.0874048 0.14060019 0.15902272
000320 64 12 a5 3d 82 06 e6 bd 33 b3 92 be d7 86 c6 3d
       0.08060148 -0.1123171 -0.28652343 0.096936874
000330 a2 d4 e6 3d 23 2a 4c be 42 cf 20 be 8d f0 15 3d
       0.11271025 -0.19937949 -0.15704063 0.03660636
000340 f3 29 c5 3c a2 c8 d3 3c 73 40 ab bd 21 4e be 3d
       0.024067855 0.025852505 -0.08361902 0.09292246
000350 9f e2 6c 3d 2e 43 77 3e fc ef 15 3e 4c ca cf 3d
       0.05783331 0.24146721 0.14642328 0.10146007
000360 77 c1 c2 3d 85 49 47 3e 9f f1 e1 bd b1 78 5c 3e
       0.09509557 0.19461639 -0.11032414 0.21530415
000370 75 b7 d9 bd 8b 89 80 bc e2 ab 2a be 7b c0 25 3e
       -0.10630695 -0.015690586 -0.1666713 0.16186707
000380 a4 b7 06 3e d7 4a 44 be e7 46 14 be cd 89 0a 3d
       0.13155991 -0.19169174 -0.14480172 0.033822823
000390 a7 e8 1c bc c0 68 79 be 29 19 9e 3d fb 28 53 bc
       -0.009576953 -0.24356365 0.07719643 -0.0128881885
0003a0 57 e6 98 bd 6c 37 11 3d 15 e0 63 be 8d 44 1c 3e
       -0.07465809 0.035453245 -0.2225345 0.15260525
0003b0 0e c5 4b 3e 1e c2 cf bd 5d 2c 5e 3d 2e 52 72 3d
       0.19899389 -0.10144447 0.054241527 0.059160404
0003c0 47 90 51 bc ef 58 f0 3d fa fe 85 bd 4b f7 25 be
       -0.012790746 0.11735713 -0.065427735 -0.16207616
0003d0 91 53 e2 3d 7a 08 fc 3d f3 c2 e2 3d 29 28 c0 3c
       0.11051095 0.12306304 0.1107234 0.02345665
0003e0 13 fd f2 3c 2c 29 d4 bb 8d fd dd 3b 94 28 a4 bd
       0.02966169 -0.0064746346 0.0067746104 -0.08015552
0003f0 69 15 d9 bd 57 a3 f9 3d 68 0e 9c 3c 9c b8 47 be
       -0.10599787 0.12189358 0.019049838 -0.19504017

linear1.bias f4 [32]
000000 16 e0 17 bc bb 53 ac 3d 87 75 c3 3b 3c b8 d7 3d
       -0.009269735 0.08414408 0.005964938 0.10533187
000010 2c 86 c8 bd 89 f6 d8 bd 72 e4 87 bd 50 28 d5 3d
       -0.09791216 -0.10593898 -0.06635369 0.104080796
000020 80 0a b4 3d b7 d0 98 3d 70 30 68 bd 6f 5b 12 bd
       0.08791065 0.07461684 -0.05668682 -0.03573173
000030 5b 85 20 be d8 e1 8d bd d4 ed 11 3e 37 49 0a 3d
       -0.15675871 -0.06927842 0.1425088 0.03376123
000040 2f f0 a3 3d ac 71 bf 3c cb 55 a6 bd e3 88 18 3e
       0.08004796 0.023369633 -0.081218325 0.14895968
000050 9d b9 22 be 75 ad 52 be aa d4 ca bc 8f d2 7a 3d
       -0.15891118 -0.20573981 -0.02475961 0.06123596
000060 d1 17 81 3b d5 c3 e7 bc 82 f2 86 bd ec e7 41 bd
       0.0039396067 -0.028291622 -0.065892234 -0.04734032
000070 86 66 f6 3d 41 17 16 3e 3b 3c 9f 3d 18 c7 e1 3d
       0.120312735 0.14657308 0.0777516 0.11024302

linear2.weight f4 [1, 32]
000000 57 e0 ec bc 1d 0c ee bc 7b 10 be bd 6d 2d 83 3c
       -0.028915567 -0.02905851 -0.09280487 0.016012872
000010 94 5c b3 3c 79 7e 53 bd 06 af d8 bd 42 b1 0a bd
       0.02189473 -0.051634286 -0.10580258 -0.033860452
000020 b6 e5 06 3d 53 1b 22 3c d6 97 ff 3d 4d 70 a3 bd
       0.032933913 0.00989421 0.12480132 -0.07980404
000030 c9 ff 8d bd 1f bd 5c bc d7 ed cc 3d 7d d4 9f 3c
       -0.06933553 -0.013472824 0.10006302 0.019510502
000040 92 3e 4e bd 25 9f 43 bd 25 51 19 be 1f f8 04 bd
       -0.05035264 -0.047759194 -0.1497236 -0.03246319
000050 cf 9f bc bd a4 fc 0a be cc b6 d4 bd 01 80 e2 bd
       -0.092101686 -0.13572937 -0.10386428 -0.11059571
000060 f6 c8 8c bd 9c 95 ae 3c 58 76 34 bd c0 c3 04 3e
       -0.06874268 0.021311574 -0.044058174 0.12965298
000070 f0 0a 85 3d e2 4e 2a bd 7c 21 8a 3d 2d 17 4a 3c
       0.06496227 -0.041579135 0.06744668 0.012334627
