labml_nn/lstm/LSTM_THz/model_imag.pth (torch, 337575 bytes, 7 tensors)

lstm.weight_ih_l0 f4 [512, 1]
00000000: c2ce a7bb 014d de3c f181 cabb 958c bf3b
00000010: 7f37 96bc 9c8c 1e3d 9525 80bd 218e d5bb
00000020: 6995 c43b 0158 78bc fd6c de3d 3335 81bd
00000030: b085 a53b 8e9a 333d 1a83 5c3c f84b df3b
00000040: 3fad 7bbd 6895 d83c 0db3 683d e520 febc
00000050: c83b a9bd 3e1b aabd 07fe 123d afa8 9b3d
00000060: ff14 72bd 56b6 ea3d 137a 31bd 4836 fd3c
00000070: 66bd cabd 5531 9f3c 2590 503d 6b41 cbbd
00000080: 80b1 073d 4fac 44bc 3dee 613d dfe3 5c3c
00000090: ac5c c0bd ce24 adbc f432 d33d 0927 90bd
000000a0: 807f a53d 0ac9 83bb e0be 26bd 5259 553d
000000b0: 3ee7 abbc fc41 383c 7147 e93d d58a 1dbe
000000c0: 440b 783d 49e0 013e cee2 c5bd 2781 fd3c
000000d0: 43a0 a8bd f30e 833d 8960 a23c ec5b 3b3d
000000e0: 07d7 373d 36ad b63c 3a70 113d e008 f8bd
000000f0: 458e 8e3d d363 87bd c530 c3bd 7e0d 993d
00000100: 08c7 35bd 69b5 c53d d937 d03d e63d 21bd
00000110: 86cb fc3c d707 6a3d eb7a 5ebc fbda eabb
00000120: afee d1bd 0a17 90bd cdcc 393c e305 c4bb
00000130: 4816 203d db63 ee3c 81cc 63bd bda3 98bd
00000140: 4580 2b3d 8278 9dbd 61e4 f1b9 0ea0 153c
00000150: f6ea 8e3d 9180 f23c cade 273d 6854 703d
00000160: d017 79bc 5f33 3dbc f4bf e73d d694 f43c
00000170: 8170 d23d 22f2 263d 6976 e83d 6d0d 2dbb
00000180: fccc 083c 3272 8cbd d00a 013d e31b 973c
00000190: d40e 4b3d 7e30 94bd 028e 813d 066b e13d
000001a0: 7e9a 353c 1128 d8bd f8cb 49bd fb04 9f3d
000001b0: 107a 45bd 11f7 d73c b9f8 7dbd 74f7 843d
000001c0: 8a2b ebbc af0c 1abd 9f51 743d 53d5 b4bb
000001d0: 18c1 c4bd 85f5 a93c a38d 033b 1292 fe3b
000001e0: d1f5 4c3b 0638 f03c 1f21 a33c c0dd 0dbb
000001f0: 9a81 293d 9c2a 9abc 24ac 9f3b 135a 713d
00000200: 24ca c9bc 4ef8 633d 0f3a afbc e901 a7bd
00000210: fcf7 ed3b d2ab d1bd 61e2 f73c 264c 513d
00000220: 4d03 96bd a0b7 68bd dad1 31bd f36d 33bd
00000230: a642 573d f779 4bbd 0b6c cb3c 5948 aabb
00000240: 8cfd d03d 2f88 393d c994 893d 1297 1d3d
00000250: c6f1 f7bd a6fb 80bd 66ea 0bbd b519 793d
00000260: 0cfd 073d c3e8 903d 6539 64bb 248d 033c
00000270: 7e13 8abb d8a3 2a3d ccf4 ccbd e134 8dbd
00000280: a00b 343c 8a27 9d3c bc2b cbbc 00a3 8ebd
00000290: ecd8 1f3d b5c5 b33b 60a1 5d3d ac6f 98bd
000002a0: 7fa1 6a3c ecc2 4ebc 0c0c 8d3d df92 b2bd
000002b0: 673b 943c 56c1 8a3d 897c 78bd f7e0 1abe
000002c0: 2de1 1fbb 81b5 073d f2c0 d3bd cca5 85bd
000002d0: 527f 50bd fb8e 88bd 61af 613c 513d afbd
000002e0: d77c 8abd cfb7 f63c 7a2a 923d 150e 51bc
000002f0: 23f9 ff3d 39ee 613d 4aa9 8cbd 6541 b33d
00000300: 9d07 43bd 572c b5bc f6bd e33d f8ff 8abc
00000310: 7124 cfbd b1ab 39bd 6ff7 77bd 22ca 7c3d
00000320: 3005 debd 8260 0a3d 6f1f ebbc 0ccd 4a3c
00000330: ee71 203d ff63 48bd 9803 333d a9de 48bc
00000340: 09a1 493b 0bf3 a2bd 51d2 833d a0cd 49bd
00000350: e48e cd3d 24ca 16bd a6d6 7e3b 55b6 623d
00000360: 7410 d13d deb6 f1bd 85b3 d63d 2f91 0abd
00000370: f9bf 913c 60a8 0a3d 593b f7bc fc4f 53bd
00000380: 04e6 b6bd bc47 a33c 9fab fc3c a0ee a23d
00000390: b5b8 cbbc eeec 8a3d 7e81 343d c66e 66bd
000003a0: 3c5e abbd 7d42 97bd 78c5 4f3d 97b6 c63d
000003b0: db13 94bc b08d c8bd a55f 263d a699 9cbc
000003c0: ff80 94bd 9238 d3bc 1f5c 2fbd 9562 8cbd
000003d0: 200f 3abd cb59 e6bc 260e d0bc e061 dabd
000003e0: c404 d2bd 19a8 de3d 50be f03a 3f90 94bd
000003f0: 0ddc c3bd 0d93 a8bd b5a9 56bd 91e4 86bb
-0.005121083 0.027136328 -0.006180041 0.005845616 -0.01833701 0.038708314 -0.06257168 -0.006517187
0.0059992564 -0.0151577005 0.108606316 -0.06308975 0.005051337 0.043848567 0.013458991 0.006814476
-0.061444517 0.02643843 0.05681138 -0.031021545 -0.082633555 -0.08305977 0.03588679 0.07600533
-0.059102055 0.11460559 -0.04332931 0.030909672 -0.09899406 0.019432703 0.050918717 -0.09924587
0.03312826 -0.012003972 0.055158842 0.013482063 -0.09392676 -0.021135714 0.10312453 -0.07038695
0.08080959 -0.0040217685 -0.040709376 0.052087136 -0.020984288 0.011246201 0.113905795 -0.15384991
0.06055762 0.12683214 -0.096624 0.030945374 -0.082336925 0.06399336 0.019821422 0.04574196
0.0448828 0.02229939 0.03550742 -0.12111068 0.069607295 -0.06610837 -0.095307864 0.074732766
-0.044379264 0.09653742 0.10166902 -0.03936567 0.030858766 0.057136383 -0.013579111 -0.007167218
-0.102506034 -0.07035644 0.011340332 -0.005982147 0.03908375 0.02910035 -0.055614952 -0.074531056
0.041870374 -0.07689001 -0.00046137258 0.009132398 0.06978409 0.02960232 0.040983953 0.058674246
-0.015203431 -0.011547892 0.11315909 0.029856127 0.10275365 0.04075826 0.1135071 -0.0026405707
0.008349653 -0.068577185 0.031504452 0.018445915 0.049574688 -0.07235812 0.06325914 0.11006741
0.011084197 -0.10554517 -0.049266785 0.07764622 -0.04821211 0.026362928 -0.06200478 0.064925104
-0.028707284 -0.037609752 0.059648152 -0.0055185943 -0.09607142 0.020746956 0.0020073436 0.007768878
0.0031274448 0.029323589 0.019913254 -0.0021647066 0.041383363 -0.018819146 0.0048728157 0.058923792
-0.024632521 0.055656724 -0.02138999 -0.08154661 0.007262228 -0.1023785 0.030259313 0.05109801
-0.07324848 -0.056815743 -0.04341302 -0.043806028 0.052553795 -0.04967686 0.024831792 -0.005196613
0.1020461 0.04529589 0.06717832 0.03847415 -0.121066615 -0.06297998 -0.034159087 0.06081553
0.03320031 0.07075646 -0.003482425 0.008029256 -0.0042137494 0.04166016 -0.10007629 -0.068948515
0.0109891 0.019183893 -0.024801128 -0.069646835 0.039025232 0.005486215 0.054108977 -0.07443175
0.01432073 -0.012619715 0.068870634 -0.0871942 0.018094731 0.06775157 -0.06066564 -0.1512488
-0.002439569 0.03313208 -0.10339536 -0.06525764 -0.050902672 -0.06667896 0.013774724 -0.08556617
-0.067620926 0.030116944 0.07137008 -0.012759705 0.12498691 0.055158827 -0.06868227 0.087527074
-0.047614682 -0.02211587 0.111202165 -0.016967759 -0.101143725 -0.045329753 -0.060538705 0.061716206
-0.10840833 0.033783443 -0.028701512 0.012377989 0.03917115 -0.04892349 0.0437046 -0.012260118
0.003076615 -0.07956513 0.06436599 -0.049268365 0.1003702 -0.03681387 0.0038885265 0.055349667
0.10208216 -0.11802457 0.104834594 -0.033829864 0.017791735 0.03385198 -0.030179666 -0.05158995
-0.08930591 0.019931667 0.030843554 0.0795567 -0.024868349 0.06783472 0.044068806 -0.056257986
-0.08367583 -0.073857285 0.05072543 0.09702795 -0.018075874 -0.0979265 0.040618557 -0.019116234
-0.072511666 -0.02578381 -0.042812463 -0.068547405 -0.04542458 -0.028118988 -0.025397372 -0.106631994
-0.10254815 0.10871906 0.0018367264 -0.07254075 -0.09563456 -0.08231173 -0.05240794 -0.0041166027

lstm.weight_hh_l0 f4 [512, 128]
00000000: de86 90bc 7705 81bd ae99 743d 943a 97bd
00000010: 465c 413d d24f 79bd 797b 513d 6939 3d3d
00000020: c9f0 9b3d fb9d 58bd 7e58 10bb 0add 543d
00000030: 7384 5ebd 0435 6a3d 5166 bd3d 5385 d7bc
00000040: 539e 183d 7824 1d3d e730 bb3d e57d 173d
00000050: 355b 4f3d 1fb5 63bb 5a6f 953d b14f 3d3c
00000060: 494f 9c3c d477 2e3d c8d7 33bd fe09 5e3b
00000070: e98f 213d e97c e33c 3652 40bd 0be0 6ebd
00000080: 16ba abbd 96a4 39bd 7eb7 493c f499 d5bd
00000090: ed72 753c fe0b 613c dbb4 adbd 0f5a b63c
000000a0: 302e 87bd 6d96 9e3d 5bc6 9d3c 3ecf 21bc
000000b0: 1c35 973c 9747 643d d781 693c e521 d23c
000000c0: 3f82 2ebd f9d9 973d 52a5 2cbd 94bb 09bd
000000d0: d330 ac3c 75f8 833d 024d 423d 61f3 073c
000000e0: 7b93 94bd a7ca 7a3d 0758 9e3b de83 99bd
000000f0: 2770 b93c 4b1f 49bd 8867 8b3d 17f7 9bbd
00000100: d603 583c f99a 813d 0750 42bb 32aa 073b
00000110: ad8c 9d3c fbc9 96bd 763d 6c3d 376b eb3c
00000120: 19cd 3f3d 7e1a d93d c50c 2d3d 4963 3a3d
00000130: 1117 f0bc d578 5c3d e906 c23b 27d0 44bc
00000140: af1b 80bd 9f45 04bd d712 ab3d 75fb 6fbd
00000150: 9e85 a53c 95d5 873c c090 67bc 5240 81bd
00000160: 3f6f 85bd c84c 60bd b7d3 8b3d d07b 11bd
00000170: c698 293c ec87 cabd 9863 9d3c a649 3e3d
00000180: d69b e2bc efcb 35bc d182 67bd 2213 2fbd
00000190: b250 b9bd 208b 84bd 8346 c73d 883c a6bd
000001a0: 4c72 053d 04b6 b0bd dd90 ddbc 1ab3 3b3d
000001b0: c71f 873d 03b2 59bc 639a e1b9 c573 da3b
000001c0: 1d2a 343c a70f 24bd 4583 903d f7a7 aabd
000001d0: bc0c 4fbd 7ec0 af3c f211 04bd 80cc 8ebc
000001e0: 85e4 a63c 2992 8f3d 5540 313c 5d11 b8bd
000001f0: 5cd0 3bbc 66b5 40bd f1bd 71bd 6fae 19bd
00000200: 089b ac3c 65d4 2dbd ff23 5b3d 3238 933c
00000210: 2795 aa3d 914f 9abd 1dc4 8dba 964b 83bd
00000220: bacd 89bc f9d9 9abd 3f22 b5bd 1bf3 02bd
00000230: 573a cabc ebcc 133d c484 63bc c9b4 973d
00000240: 197b 68bd d57a c13d 7161 f9bc 8bfb 7bbd
00000250: b6a8 48bc 20c9 06be 78d3 41bd 1371 a23d
00000260: e112 99bc 4af0 a63c e998 3d3c 3511 78bc
00000270: ae98 38bb 908e 5c3c 728c 6a3c d60c 493d
00000280: 30ec 543c 6204 b0bd ac1b 99bd 02ed 293d
00000290: aef2 4c3d 9011 08bd e7e8 c7bd 0226 233d
000002a0: c412 b8bd dc67 bbbc 33aa b73c b9ea 833d
000002b0: 69af 5e3d cdcb c03d ab98 213d d1b7 e03d
000002c0: 9ebc b03d b920 b9bc 6f08 d43c cea8 02bd
000002d0: 3257 9a3d a5a1 7e3d 03eb 003c 54e0 483d
000002e0: 7e42 313d c9ed 0e3d 7c23 18bd 9f70 023c
000002f0: 9062 e8bd e676 6c3d 0aca b63d c666 8bbd
00000300: 93ac 67bc 1679 0c3e ae13 85bb 4a64 efbd
00000310: 31d4 833c 8fbb 95bd afa4 81bd c01b 013d
00000320: c3e3 51bd 93be 83bc f490 333d c934 7c3d
00000330: ed13 cfbd 1fd5 063d 0478 f6bd 1674 aebd
00000340: c209 18bd ae3b d23c 27af 11bd 2efe 81bd
00000350: 3978 d63a a595 803d c262 05bd 3e30 fdbc
00000360: 0276 f1bd a678 31bd 5107 72bd 8c79 9e3d
00000370: d45f 69bd 0932 cbbb 771c cfbd 3663 963d
00000380: 6e1e 0fbd 3cb6 5cbd 5e07 0cbc 61cb 24bd
00000390: f0ac ee3c 6d0b 59bd 0589 3b3c f841 9f3b
000003a0: e760 983d f5e7 823c 9dc4 dcbd f053 fa3c
000003b0: ebfa ccbd 2e21 953d 0392 b73b 9f55 b13d
000003c0: 1257 afbd 524d a53d 8ef7 b73d 63a7 b9bd
000003d0: 21cc 743d 77c4 babd 23c7 16bd dd07 01be
000003e0: 2f9a 5ebc 76ae 2fbd 517d c5bb ebfe 743d
000003f0: a1d8 0abc 4506 823d 97e7 33bd acb5 d03d
-0.017642435 -0.062998705 0.059716873 -0.0738422 0.04720714 -0.06086714 0.051143143 0.04619733
0.076142855 -0.052885037 -0.0022025402 0.05196861 -0.054325532 0.057179466 0.09248031 -0.026308691
0.037260365 0.038364857 0.09140187 0.036985297 0.05062409 -0.0034745408 0.07296629 0.011554644
0.019080775 0.042594746 -0.043906957 0.0033880468 0.039443884 0.027769523 -0.046953402 -0.058319133
-0.083851025 -0.045322977 0.012311814 -0.10429755 0.014981014 0.013735769 -0.08481761 0.02225974
-0.066006064 0.07743535 0.019259622 -0.009876071 0.018457942 0.055732336 0.014252148 0.025650928
-0.04260468 0.07414622 -0.04214985 -0.033626154 0.021019375 0.06443874 0.04743672 0.008297772
-0.07254692 0.06122842 0.004832271 -0.07495855 0.022636486 -0.04910211 0.068068564 -0.07615488
0.013184508 0.06328387 -0.002964975 0.002070081 0.019232119 -0.073627435 0.0576758 0.028737647
0.046826456 0.10600756 0.042248506 0.045504842 -0.029307874 0.053826172 0.005921234 -0.012012518
-0.0625528 -0.03229296 0.08353203 -0.058589417 0.020205315 0.016581336 -0.014133632 -0.06311096
-0.06515359 -0.054760724 0.06827491 -0.035518467 0.010351365 -0.09889206 0.019212529 0.046456955
-0.027662199 -0.011095985 -0.05652124 -0.042742856 -0.090485945 -0.064718485 0.09730246 -0.08117014
0.032579705 -0.08628467 -0.027046615 0.0458251 0.06597858 -0.01328707 -0.0004303037 0.006666633
0.010996369 -0.04005399 0.07056288 -0.08332818 -0.050549254 0.021454092 -0.032243676 -0.017431498
0.020372638 0.070103 0.010818561 -0.08987687 -0.011463251 -0.047047995 -0.059019033 -0.03751987
0.021070018 -0.042438883 0.053501125 0.017971132 0.0832923 -0.07534707 -0.0010815893 -0.06410901
-0.01682173 -0.07561106 -0.088444225 -0.031970125 -0.024686022 0.036084097 -0.013886634 0.07407529
-0.05675802 0.094472565 -0.030441971 -0.061519187 -0.012247255 -0.1316266 -0.047320813 0.079317234
-0.01868576 0.02037825 0.011572101 -0.015140821 -0.0028167176 0.013461724 0.014315711 0.049084507
0.012995765 -0.08594586 -0.07475981 0.041485794 0.050036125 -0.033219874 -0.097612195 0.03983117
-0.08987954 -0.022876672 0.022420024 0.06441254 0.054366503 0.09413872 0.039452236 0.1097256
0.08629726 -0.022598611 0.025882928 -0.031899266 0.075361624 0.062165875 0.007868531 0.04904206
0.043276303 0.03489474 -0.037143216 0.007961421 -0.11346924 0.057730578 0.08925255 -0.06806712
-0.014140266 0.13718066 -0.004061184 -0.116890505 0.016092392 -0.073111646 -0.06330239 0.031520605
-0.0512426 -0.016082084 0.04383941 0.061573777 -0.101112224 0.032918092 -0.1203461 -0.085182354
-0.03711868 0.025663223 -0.03556743 -0.06347309 0.0016362733 0.062785424 -0.032564886 -0.030906793
-0.11790086 -0.04332795 -0.05908901 0.07738027 -0.056976154 -0.006201033 -0.10112851 0.07343142
-0.03494113 -0.05388473 -0.008546678 -0.04023302 0.029135197 -0.052989412 0.011446242 0.004860159
0.07440358 0.015979746 -0.107796885 0.030557603 -0.10008796 0.07281719 0.0056021228 0.08658909
-0.08561529 0.08071388 0.08982764 -0.090651296 0.059764985 -0.09119504 -0.036811005 -0.12600656
-0.013586565 -0.04289099 -0.006026902 0.05981342 -0.0084745 0.06348852 -0.043922033 0.10190901

lstm.bias_ih_l0 f4 [512]
00000000: a16f 35bb 35a7 e63d 8e74 963d 823e afbd
00000010: ee64 723d 3e01 643d 6882 2dbd 56b6 2c3d
00000020: 89b5 8a3d 13da bd3d f196 7ebc fef6 1c3c
00000030: bc17 9a3d 130b 42bd 77ce 8bbd cf88 a03d
00000040: 8015 b0bc 2304 2ebd 9c5e 013d 65b9 ba3d
00000050: 7210 b53d 558a d43c d74a 0ebc c85e 363d
00000060: 5cfe b6bd a523 3fbd ab52 9a3c 9186 f83c
00000070: 114a 9e3d b227 363a ba16 69bd 9469 b2bc
00000080: 6084 9bbc d574 793d e8d2 993d 00cc 713d
00000090: 73ea c03c cae0 99bd ebd3 4ebd 9c93 98bd
000000a0: 3cf4 173d 16df e73d a3cb bc3d 5aee b3bd
000000b0: 9ec1 0dbd f833 34bd a5ae 8dbb 7faf cc3d
000000c0: 6b5a 763d 2919 883d 824f 5cbc 8fc5 e2bc
000000d0: dbb8 55bb e2af 763c 3301 80bd ed37 8c3d
000000e0: 3348 0dbd a4bc c33c fbba 2d3d de17 39bd
000000f0: d17d b8bb e507 923d f3bd 833d 8e3c 4dbd
00000100: d2ec ad3c 3d70 60bd dd9e e33d 7c02 2c3d
00000110: 1193 9dbd 6511 dd3d 278c 85bd 2436 a23c
00000120: 4741 b7bd a330 1ebd 5f85 59bb 80ad f63c
00000130: adc8 14bd 0ffa acbd ec93 203d 1316 6ebd
00000140: d1fa 7bbd 9694 a2bd 55dc 50bd e46f d83d
00000150: a6de 9c3d c99c edbc 9764 773c 100c 7e3d
00000160: 3844 e53d ae77 c63d 826e 703c 006b 0bbd
00000170: a1a0 8e3d be44 81bc b33d f13c eed3 b93c
00000180: 93a8 623d 1347 00bd 8ce9 70bd 62ed cb3d
00000190: a825 283d 7122 b53d 84e5 463c cb4f 1abd
000001a0: bc70 fbbc aada f4bc 4486 0f3d 3273 e23c
000001b0: 6585 ad3d eb33 71bd 48ac 5abc 35c4 a23d
000001c0: 039e 13bd 07e3 86bd aa82 8bbd 63e5 a2bc
000001d0: b4d7 a53d 3ada 083c b0b8 bc3d 8a59 2fbd
000001e0: f39c 88bd b055 dc3d bd08 f53c 155b 9f3d
000001f0: 2a0f 193c bd56 72bc 84d4 113c debd 03bd
00000200: 436f 1a3c c2e9 5ebd 15fd 463d 9401 41bd
00000210: 1413 a63d fa12 b2bb 0286 4abd 9987 c63d
00000220: c981 b93d be4d 98bd 1804 32bd 83e6 693d
00000230: ca70 75bd 49a2 2fbd 8097 be3c f2bd 993d
00000240: 9396 b13d b843 b13d 58d1 b3bc 411b 82bc
00000250: 08fe cb3d caba a43c d328 21bd 3f42 9e3d
00000260: 316d 3b3d 8d63 0d3d 0f25 283d 0128 c7bc
00000270: 29ad 7abc 9cc7 cc3a 933d ff3b 231c aa3d
00000280: 3dfa 65bd 1ec7 65bd b29c 113c 1d04 0c3c
00000290: 8e6e 983d d84a 91bd a8cb 78bd df72 0dbd
000002a0: cd44 9abd 3db6 5dbd 822b 013c 62ec c43b
000002b0: c825 44bc 0363 473c 808b 8abd fed2 d13d
000002c0: 6c41 333b 4d0d 6c3d 7244 25bd 849d 9a3b
000002d0: cffa 8ebd a548 76bd 5dad 393c 9218 b73d
000002e0: 11d6 853d 8fa9 f83b ca4f 863c f9b4 013d
000002f0: 9b2f 773d f484 7fbd 6e5b dfbc 9b9a 093d
00000300: 5db8 dd3c 39f0 803d f31a db3b 6cb9 9e3d
00000310: c034 573c 2301 123c 8fc4 28bd 33e8 863b
00000320: c63a 92bd 861a a13c f70d 68bd 7d76 a33d
00000330: 7b4f a93d 8bd7 9d3a df27 203d 0fdf 143d
00000340: e2b8 43bd 3df8 ca3d 4c4a 8fbd bf8d 433d
00000350: 04b5 423d 09eb 673c f148 803b 9df2 483b
00000360: 6127 3dbd 6b3d c8bc 6aef 8a3d f677 ff3c
00000370: bbae ae3d 3455 6f3d 4983 553c 69bc 1fbc
00000380: 7d31 d03d 9cf4 593d 2a93 91bd c70a 1ebd
00000390: 6039 7abc 5d66 5cbd 283c d63d 4946 dc3c
000003a0: 8393 0f3d 793b 413d 6d41 d9bc 540e 71bd
000003b0: 9e87 573d 1202 08bd 7f48 8dbb 553c 043c
000003c0: e910 113d 0eb6 83bc 9e29 793d 74fa 4ebd
000003d0: f913 72bd 531e 81bd d7ad 4bbd 23fa 99bc
000003e0: 0bdc a23d 6774 ed3c 60d2 be3c 164b 863d
000003f0: e6cd 0bbd 42f2 d2ba 1a11 d13d b02d a4bc
-0.0027684944 0.11262361 0.0734645 -0.08556844 0.059178285 0.055665247 -0.042360693 0.042166077
0.06772906 0.0927011 -0.015538917 0.009580372 0.07524058 -0.047373842 -0.068264894 0.07838594
-0.021494627 -0.042484414 0.031584367 0.091173925 0.08841027 0.025944868 -0.008684835 0.044523984
-0.08935234 -0.046664853 0.018838247 0.030337604 0.07728971 0.0006948664 -0.05690644 -0.02177886
-0.01898402 0.060902435 0.0751093 0.05903244 0.023549294 -0.07513578 -0.05049507 -0.07450029
0.037098154 0.11321847 0.09218528 -0.08785696 -0.034608476 -0.043994874 -0.0043237978 0.09994411
0.060144823 0.06645424 -0.0134466905 -0.027682094 -0.0032611403 0.015056582 -0.06250229 0.068466045
-0.034492683 0.023893662 0.042414647 -0.045188777 -0.005630233 0.07130412 0.06432714 -0.050106578
0.021231089 -0.05479454 0.11114285 0.041994557 -0.07694066 0.10794333 -0.065208726 0.019801207
-0.089479975 -0.038620602 -0.0033191068 0.030112028 -0.03632419 -0.084461324 0.03920357 -0.05812652
-0.061518494 -0.07938497 -0.050991375 0.105682164 0.07659654 -0.029005425 0.015099666 0.062023222
0.11194652 0.09690796 0.014674785 -0.03403759 0.06964231 -0.01577985 0.029448366 0.022684064
0.055336546 -0.03131778 -0.058816478 0.099573866 0.041051537 0.0884446 0.012139682 -0.037673753
-0.030693404 -0.029889423 0.035040155 0.02764282 0.084727086 -0.058887403 -0.013346739 0.0794758
-0.036039364 -0.06586271 -0.068120316 -0.01988477 0.08097783 0.0083528105 0.09214914 -0.04281
-0.06670561 0.10758531 0.029911393 0.077810444 0.009341994 -0.014791188 0.008900765 -0.032163493
0.009425941 -0.054422148 0.0485812 -0.047120646 0.081091076 -0.005434391 -0.049444206 0.09693832
0.09057958 -0.07436703 -0.043460935 0.0571046 -0.059922017 -0.042879377 0.0232656 0.07506932
0.08671298 0.086554945 -0.021950409 -0.015882136 0.09960562 0.0201086 -0.039345574 0.07727479
0.04575843 0.034518767 0.041050967 -0.024311068 -0.015300074 0.0015623453 0.0077893226 0.08306148
-0.05614685 -0.056098096 0.008887457 0.008545903 0.07442962 -0.070943534 -0.060741097 -0.034533378
-0.07532654 -0.054128874 0.007883908 0.0060096243 -0.011971898 0.012169602 -0.06764889 0.10245322
0.0027352227 0.057629872 -0.040348478 0.0047184844 -0.06981432 -0.060127873 0.011332837 0.08940233
0.065349706 0.0075885723 0.016395468 0.03166673 0.060348134 -0.062382653 -0.027265277 0.03359471
0.02706545 0.06295819 0.006686562 0.0775021 0.013135135 0.008911404 -0.041203078 0.004117036
-0.071401164 0.019665968 -0.056653943 0.07981584 0.08267113 0.0012042386 0.039100524 0.036345538
-0.04778374 0.09910629 -0.06996593 0.0477426 0.04753591 0.014155158 0.0039149453 0.0030662187
-0.046180133 -0.024443349 0.06783946 0.031185132 0.08529421 0.058430865 0.013031789 -0.00974951
0.10165689 0.053211793 -0.071081474 -0.038584497 -0.015272468 -0.05380856 0.10460693 0.026888983
0.035052788 0.04717586 -0.026520455 -0.058851555 0.05261957 -0.0332051 -0.0043116207 0.008071025
0.035416517 -0.016078021 0.060830705 -0.05053182 -0.05910108 -0.06304612 -0.049726333 -0.018796032
0.07952126 0.028986169 0.023293674 0.0655729 -0.034131907 -0.0016093927 0.1020834 -0.020041317

lstm.bias_hh_l0 f4 [512]
00000000: b937 ecbb 8889 2abd f8d9 a6bb 5d98 a1bc
00000010: 3d82 993d f9ff 613c 8a6c 6a3c 0851 a6bc
00000020: 0cb3 3f3d 6152 6f3c f155 cb3d 8627 2d3c
00000030: 3cb9 9d3d c424 ed3c 46e5 cb3d 94e4 183d
00000040: e685 093b db59 49bc 3add d43c 9f38 e53c
00000050: 7e24 893c b871 adbb a058 873d 1e61 d23d
00000060: d078 6a3d 9f13 143c e5d3 babc 3eaa 98bd
00000070: 5b8c 31bd d7cb 26bd 3477 c63d d423 13b9
00000080: 5c03 38bd a7df babd 2971 743a 9314 873d
00000090: 1734 9ebd 394c 803c 94fc 7bbc 800e 333d
000000a0: 7791 8d3c ab1b 0dbd ec9e efbb e902 583c
000000b0: 56cb ad3c 6366 573c 2789 303c 922c 1bbd
000000c0: a014 c33c 91c3 a839 3bf0 823c d13b 5cbd
000000d0: 7522 df3c 5478 173d e1a3 b33d 89d8 7b3c
000000e0: 8fff 043d c78c a43d 1331 0d3d 73d1 b83d
000000f0: 062b 5e3d 8e09 97bd b318 0d3d 0158 ac3d
00000100: 638c 663b 3dea af3d 4832 8b3d fa8e 963d
00000110: b1f2 dc3b 0294 923c fee6 813d 3c9b c93d
00000120: 446d b33c 61fe 993d ffaa 86bd c8d5 a23d
00000130: d890 3e3c 25ed 963d 34b5 913c 38d3 903d
00000140: 1240 533d da58 25bc 26ca aa3c a7b0 263d
00000150: 9c5a bbbc 60e8 9b3d 2e8d 6dbd 5270 86ba
00000160: 0838 eb3b 31b7 973d d3a7 8a3d 766e 8d3d
00000170: a594 7b3c 194d 863d 347b 3b3d 0e11 383d
00000180: c06d ccb8 81f0 13bc 69cf 74bc bef8 be3d
00000190: 2792 2fbb 4686 36bd ce61 13bd 47b8 16bd
000001a0: 61ed 58bd 1c9c 80bd 4add 943c 7d6e 50bd
000001b0: 7455 823d 6005 ed3a 4312 8cbc c9f0 92bd
000001c0: e8c7 e0bc b2e6 813d 91f5 92bd a3f6 0a3c
000001d0: 5023 0bbd b0b4 80bd 7439 5b3d e1ee a63a
000001e0: cfe9 933d f1cf 923d de15 b73d c705 d53d
000001f0: d3e2 5abc ae78 c13c c88a 7b3d 1e25 e839
00000200: 2f7f bc3d f991 5d3c 9142 d4bc 6a42 933d
00000210: 5ccf 8c3d 9c85 b83d 3ec3 56bd 1a56 0abd
00000220: 2c9b e13c 68ca a83d eb1c 713d d9a6 363c
00000230: bdcf 30bc 53c3 a6bc 0fec e5bc ec26 9d3c
00000240: 3735 4a3d 0256 a63d a5e0 a7bc 6898 af3c
00000250: 5349 90bd 2053 45bd 6357 473c 88f4 b93d
00000260: 00fc 2dbd 2a3d 89bc 2ef7 9dbd 4632 e6bc
00000270: 8f39 903d 0ab0 5fbd d0c4 37bd 468f 6d3c
00000280: 83d1 b5bd de73 29bd b16c a43c fb4e bc3d
00000290: 7cf7 313c 424c 533d dbf2 19bd fed8 3bbd
000002a0: 73a0 883d ad4a 683d 48f5 d43d ee3c 5f3d
000002b0: d7ad a33d a7ec 623d 4d42 383d f69f 8f3d
000002c0: 7d96 4dbd 8409 9a3d 5eb2 743c cb1e aa3c
000002d0: e01c 9d3d e229 50bd 77b7 793d 512a 45bd
000002e0: 9c73 13bd d139 cebc a77d 1d3c 2f19 21bd
000002f0: 8dab 70bd afdd 6fbc ffde 93bd 4773 55ba
00000300: aaf4 133d f19a babc 6f1e 70bd 3bde abbc
00000310: 20d9 16bd 242f 923d d508 dd3c 074d c53d
00000320: 98e1 3fbd 9577 09bd 72d1 e83c 222a 6e3d
00000330: 3fbc 7ebd f5bb 4abd 2f97 143d 9b6c 50bd
00000340: 36bd 39bd a971 1d3b db9c 733d ee16 a03c
00000350: 99de 5fbd 81cd 32bd 0e5f b3bd 2241 173d
00000360: 3485 49bd 3e76 b23d dc5e 723b 36b5 ff3c
00000370: 0990 f2bc 74b2 bc3d f626 af3c 6554 6a3c
00000380: dd35 33bd 6033 0ebd 1eb9 1f3d 0e37 e1bc
00000390: 8050 783d 186d 90bc de8c 54bd 3f7a e43d
000003a0: a86f 5abd 38f9 72bd 24a3 87bd aef7 a43c
000003b0: 3e23 3f3b a7ee ffbc 6694 9cbd 0333 b83d
000003c0: 1efe b93d 979b 8a3d 2198 8fbd 7c45 223b
000003d0: 9972 8cbd 6203 563c 9866 c3bc bdad df3d
000003e0: d046 623d 0278 60bd 273b 8d3d e531 903b
000003f0: ada9 57bd 9e5d ff3c 0c3b cd3d 81eb 9e3d
-0.007208791 -0.041635066 -0.005091902 -0.019725973 0.07495544 0.013793939 0.014308104 -0.02030231
0.04680161 0.014607043 0.099285014 0.010568505 0.07701346 0.028948195 0.0995584 0.037327364
0.002098435 -0.01228949 0.025984395 0.0279811 0.016741034 -0.0052930973 0.06608701 0.1027243
0.057244122 0.009037881 -0.022806117 -0.07454346 -0.043346744 -0.04072174 0.09690705 -0.0001403236
-0.04492508 -0.091246895 0.00093247235 0.06595721 -0.07724779 0.015661346 -0.015380044 0.043715
0.017281277 -0.034450214 -0.007312646 0.013184288 0.021215122 0.0131469695 0.010774887 -0.037884302
0.023813546 0.00032189165 0.015983691 -0.053767983 0.02723811 0.03697999 0.08771492 0.01537145
0.032470282 0.08034664 0.03447063 0.09024324 0.05424025 -0.07374869 0.034447383 0.08415223
0.0035178892 0.08589599 0.067967 0.07351489 0.0067427983 0.017892841 0.063428864 0.09844062
0.021902688 0.07519222 -0.06575584 0.07950932 0.011631213 0.073694505 0.0177866 0.07071537
0.051574774 -0.010091985 0.020848345 0.040695813 -0.022870354 0.076126814 -0.057995968 -0.0010256863
0.0071783103 0.07407988 0.06770291 0.069058344 0.015355264 0.06557674 0.045771793 0.04493814
-9.7479206e-05 -0.009029509 -0.014942029 0.093247876 -0.0026789994 -0.044561647 -0.035981946 -0.036796834
-0.052960757 -0.062797755 0.018171925 -0.05088662 0.06363955 0.0018083267 -0.017098552 -0.071748324
-0.027439073 0.0634283 -0.07175744 0.008481654 -0.033969223 -0.062844634 0.05352159 0.0012735986
0.0722233 0.07168568 0.08939718 0.104014926 -0.013359743 0.023617115 0.06141165 0.00044278143
0.09203946 0.013523572 -0.025910648 0.07190402 0.06875488 0.09009859 -0.05243229 -0.03377352
0.027539812 0.08241731 0.05886547 0.011148178 -0.010791716 -0.02035681 -0.028066663 0.019183598
0.049367156 0.081218734 -0.020492861 0.021434978 -0.070452355 -0.048174977 0.012166831 0.09079844
-0.042476654 -0.016752798 -0.077131614 -0.028100144 0.070422284 -0.054611243 -0.04486543 0.014499491
-0.08877852 -0.041370265 0.02007136 0.09194752 0.0108622275 0.051586397 -0.03758512 -0.045861237
0.06671228 0.05671184 0.10398346 0.054501466 0.07992142 0.05540147 0.044985104 0.07012932
-0.050192345 0.07521346 0.014935104 0.020766636 0.07671523 -0.050821193 0.06096598 -0.04813606
-0.035998926 -0.025174053 0.009612477 -0.039330658 -0.058757354 -0.014640256 -0.072202675 -0.0008142483
0.036122 -0.02277896 -0.058622774 -0.020979991 -0.03682816 0.071378976 0.02698175 0.096338324
-0.046846002 -0.033561308 0.028420184 0.05814565 -0.062191244 -0.049495656 0.036276992 -0.050884824
-0.04534646 0.0024024046 0.05947576 0.019542184 -0.054655645 -0.043653015 -0.087583646 0.03692735
-0.049199298 0.08713959 0.003698281 0.031214338 -0.029609697 0.09213725 0.021380883 0.014302348
-0.04375254 -0.034716964 0.0389949 -0.027492072 0.060623646 -0.017630145 -0.051892154 0.11156129
-0.05332914 -0.059319705 -0.066229135 0.020137634 0.0029165293 -0.031241728 -0.07645492 0.08994105
0.09081672 0.06767958 -0.07011438 0.0024760654 -0.06857795 0.01306233 -0.023852631 0.1092181
0.055243313 -0.05480195 0.06896048 0.004400479 -0.05265205 0.03117257 0.10021028 0.077597626

linear1.weight f4 [128, 128]
00000000: bfab de3d b0d0 453a ab0b ce3d 0bf1 ad3d
00000010: 4746 5bbd da0b d23a 2954 d4bd 3d27 323d
00000020: a203 7a3d dd64 9cbd 04e7 fb3c 18ca 993d
00000030: 0b02 c7bd 0e93 b83d 0606 0ebc 6425 7e3d
00000040: 3a39 edbc a010 1abd f781 dbbb 00bd 6cbd
00000050: d31d 1b3c c71e 85bd f8fe 1f3c 4001 5bbd
00000060: 28e8 b53d 1db0 2ebd dc2a 8dbc ee89 bc3d
00000070: efbd 2b3d 058b 18bb 8d82 8cbd 76a9 933d
00000080: b41f d53d 2592 273d 9f1e 43bb a6d4 f9bc
00000090: 2ddf 133c c2c3 68bd 17a1 8abc 2985 d3bc
000000a0: bf18 d3bd d3d7 43bc 72aa e6bc b86d 973d
000000b0: e451 743c 6fbe d83b fd2b c7bc 2ffd 7b3c
000000c0: 5796 163c 16cb 17bd 9ae4 83bd 18fe 233d
000000d0: 3fd8 adbd fedd 943d 902e 4ebd 977b 3bbd
000000e0: c89b 273a a9de 92bd 62aa 5c3c a511 803b
000000f0: 4b6d d6bd 5d68 b43d 5548 a53d 97b4 103d
00000100: 8fbb 283c 3d9e b23d 9f38 bfbd 5567 81bd
00000110: 0523 e03c 4e97 acbc 2e71 40bc 9ffb 06bd
00000120: 7c3f 6e3d 4710 88ba 78b3 e73c 7cde babd
00000130: 27b7 9abc 2611 653d 2969 2cbd 75a6 be3d
00000140: 86cc 3abd 68d7 a1bd 1c8f c4bd 1337 e53c
00000150: 66df 27bd b7e0 83bb ac61 29bd 3523 243d
00000160: 2040 82bc 356e a8bd f7b0 883c ecfa d53d
00000170: 7954 08bb b6f4 5abc d517 e2bc d5ac 803d
00000180: 0a93 94bd 9b68 143d 6884 80bd c5a2 d3bc
00000190: 3e04 303d 6b08 a33c 90ac eebc 9319 c33d
000001a0: 97de 823d d21d 1c3d 54a5 bbbd ac21 75bc
000001b0: 15fd 99bb b5d0 683b 0e05 0cbd 98e8 bdbd
000001c0: a2f8 e93c 3cff 9dbb a54a f7bc 962c 903d
000001d0: 8fa6 a83d 2f0a 46bd f84f cdbd 8454 e0bb
000001e0: 8765 91bd 3f23 cb3d 6b0e b3bd ae4d 963d
000001f0: 73dd 77bc 9305 9d3d cb52 b5bc 3ba7 203d
00000200: c0aa c3bd 402a 04bd 4b96 373d 6905 c13b
00000210: fa31 10bc 14d6 04bd 66bd bf3d 9877 583d
00000220: f28e b73d 10a2 a33c 2cd0 5f3d 91ba 65bd
00000230: 7052 ae3d b397 babc aa96 573d 9322 f23c
00000240: ecf9 3ebd b5b7 07bd ae99 b0bd beab 9ebd
00000250: 80b8 473d efd6 4c3d 3a49 0c3d 5aa8 8cbd
00000260: 1f94 a7bd 4f81 b53c d4c1 6cbd ce3e 89bd
00000270: 9fc0 183d c12e a73c 3e25 7e3d 6f6d 07bd
00000280: 134b 6a3d 64c5 273d 9f37 8b3d d66f 7b3d
00000290: 6073 f73b 3e2f 94bd 74be 973d 4589 cd3c
000002a0: c115 263d b41d 06bc 608e 84bc bdff 713d
000002b0: 7a85 d93d 1ebe 863a 6cc0 783d b97b 26bd
000002c0: 51ec 153c e06f cebd 9bb1 5bbb 01dc 86bc
000002d0: c115 97bd 3029 8e3c e90c 823b 3b3f 72bc
000002e0: cc93 33bd 031f b4bc a444 983b d7ad a5bc
000002f0: f86c 653d 9903 753d fb8b 673d dbde 293d
00000300: aa0b 6ebc 6540 0b3d 733b fabc 1982 863c
00000310: 8763 aebd 5022 d13c e821 37bb b909 ccbd
00000320: e3a2 a4bd cbee 54bd 34fe dd3d dcb1 27bd
00000330: 7fe9 02bd 992e 68bc d2d5 e33c 4980 babb
00000340: d1d7 9ebd c26d 9fbb 791d 873d 3124 2ebd
00000350: ab21 c33c a84e 8a3d 9740 f43c 9040 efbc
00000360: 6279 673d db64 aabc 6688 4abd b133 1bbd
00000370: dd19 f63c 4468 533d 0b79 cf3d b935 d2bc
00000380: 9339 ba3d 0962 5b3d 8c90 b63c 7ecb 71bd
00000390: d391 ab3d 7d52 5ebd 293d dabd 0fa1 8abd
000003a0: de82 3e3d 7ff2 efbc 9d32 b4ba e99a b43c
000003b0: 86ea ae3c a3b8 0d3c 7883 d43c a807 be3d
000003c0: 0dcf b43c 2a60 bd3d 02a8 383c 140e e63c
000003d0: 34e0 97bc dc6c 833d d971 73bd 307c f63c
000003e0: 86e2 c73c 0c1f b63b 25fd d93d c642 38bc
000003f0: 78a6 2a3d 4fcb 84bd e4b2 8bbd 4eef 2cbc
0.10872602 0.00075460505 0.10060819 0.08493241 -0.05353382 0.001602526 -0.10367615 0.04349445
0.06103862 -0.07636426 0.030749805 0.075092494 -0.097171865 0.090124235 -0.008668428 0.062047377
-0.028957952 -0.03761351 -0.0066988426 -0.057797432 0.00946756 -0.06500011 0.009765379 -0.05346799
0.08882171 -0.042648423 -0.017232351 0.092059955 0.04192918 -0.0023276221 -0.06860838 0.072100565
0.104064375 0.04091086 -0.002977289 -0.030496906 0.009025377 -0.056827314 -0.016922517 -0.025820332
-0.10307454 -0.011953312 -0.028157447 0.07393974 0.014912102 0.0066144983 -0.024312967 0.015380188
0.009191117 -0.037058912 -0.06440087 0.040037245 -0.08488511 0.07268904 -0.050337374 -0.04577216
0.00063937576 -0.07171375 0.013468357 0.0039083534 -0.10470065 0.08808968 0.08070437 0.035328474
0.010298624 0.08721588 -0.093369715 -0.06318537 0.027360449 -0.021068241 -0.011745734 -0.03295481
0.058166012 -0.0010380828 0.02828382 -0.09124467 -0.018886162 0.055924557 -0.042092476 0.09309093
-0.045605205 -0.079024136 -0.095976084 0.027980363 -0.040984534 -0.004024591 -0.041352913 0.04007264
-0.015899718 -0.08224145 0.016685946 0.1044825 -0.0020802303 -0.013364008 -0.027599255 0.06282965
-0.07254608 0.036232572 -0.062752545 -0.02583445 0.042972796 0.019901475 -0.029135019 0.09526362
0.06390112 0.038114376 -0.09162393 -0.014961641 -0.004699359 0.003552479 -0.034184508 -0.09272879
0.02856094 -0.004821686 -0.03018696 0.07039754 0.082348935 -0.048349556 -0.100250185 -0.0068460125
-0.07099443 0.09918832 -0.087429844 0.07339035 -0.015128481 0.07667079 -0.022134205 0.039221983
-0.09554052 -0.032266855 0.044821065 0.0058905375 -0.008800978 -0.032430723 0.09362297 0.05284843
0.089628115 0.019974738 0.054641888 -0.056086127 0.085118175 -0.022777414 0.05263392 0.029557502
-0.046625063 -0.03313418 -0.08623062 -0.07747601 0.048759937 0.050009664 0.03424952 -0.06868048
-0.08182549 0.022156386 -0.057802036 -0.06701432 0.037293073 0.020408036 0.062047236 -0.03306335
0.057200503 0.04095973 0.06797718 0.061385952 0.0075515956 -0.07235573 0.07409373 0.02508987
0.04054809 -0.008185793 -0.016181171 0.05908178 0.10621162 0.0010280048 0.060730383 -0.040645335
0.0091505805 -0.10079932 -0.003352261 -0.016462328 -0.07377196 0.017353624 0.003968824 -0.014785583
-0.043842122 -0.021987444 0.0046468545 -0.020224495 0.056012124 0.059817884 0.05652998 0.041472297
-0.014529148 0.03399696 -0.030545926 0.016419457 -0.08515077 0.025529057 -0.0027943794 -0.09962792
-0.08038881 -0.051985543 0.10839501 -0.040941104 -0.03196096 -0.014171266 0.027811918 -0.0056915623
-0.077560075 -0.004865379 0.06597418 -0.042514984 0.023819765 0.06753284 0.029815955 -0.02920559
0.056512244 -0.020800045 -0.049446486 -0.037891094 0.03004163 0.051613107 0.10130509 -0.025660383
0.09093013 0.05356029 0.022285722 -0.059031956 0.08377423 -0.054277886 -0.106561966 -0.06769001
0.046511523 -0.029290436 -0.0013747994 0.022046523 0.021352064 0.008649978 0.025941595 0.09278804
0.022071386 0.092468575 0.011270525 0.028082885 -0.018539526 0.06417248 -0.059434745 0.030088514
0.024400007 0.0055579003 0.106439866 -0.011246389 0.041662663 -0.064840905 -0.0682123 -0.010555102

linear1.bias f4 [128]
00000000: d2b6 ee3c 3831 76bc e503 753d 26f5 14bd
00000010: 04ef 9abd 396e 5b3c bf68 56bd c5b2 7ebd
00000020: 5728 10bd 994e 5f3d a6d6 933b d1b6 1c3d
00000030: d464 2cbd c646 f33c 70b6 4abd f639 5d3d
00000040: 9c7f 3cbd efea ad3c 1c38 433d 7112 d0bb
00000050: 9341 9abc ece5 d6bc b2d3 abbd 5c41 173d
00000060: 1c7b 3bbc 0e9d cb3c af96 85bd 229d 25bc
00000070: 0f44 59bd 5830 36bd c8d1 1cbd bca1 b03c
00000080: 8c2d 703d 180c af3d 44a2 95bd 22c8 c83c
00000090: bf40 97bd d926 9abb 1140 fdbb 9597 bd3b
000000a0: a278 84bd f5c4 65bd 5b7e 10bd 20b7 043d
000000b0: 05e5 18bd 367d 0a3d b8d5 a73d 7ff6 883c
000000c0: c47c 0b3d b196 653d ada5 023d 49d4 92bc
000000d0: 5cee b4bc 7889 783c 0adb 863d 3bd9 403c
000000e0: e0f8 aabc b6c9 883c 59ba 1c3a f54c aa3d
000000f0: bcc6 ed3c b79f 73bd 5cd6 78bd 104f 9ebd
00000100: d7ab 9e3d f875 89bd 8472 993d 8dc3 943d
00000110: 187f 19bd 337d 0bbd a838 bcbc f384 933b
00000120: ce5a c9bc 8273 b0bb 47f1 b0bb 7d4a 3f3d
00000130: 881d 22bd 390e 9f3d ecee a63d a792 8b3d
00000140: 2d3d 26bd 2df7 73bc dded 193c 8daa 65bd
00000150: 33c5 a3bc 7bae dd3c e136 51bd 3ab5 943d
00000160: b730 193d dc01 28bd 000f 65bd a3b8 533d
00000170: 1dc5 95bd a24b 063d c5a3 c63c 0e07 2cbd
00000180: d0f3 63bc bd30 06bd 39ab 863c 5851 283d
00000190: 603b dbbc fc59 39bc d237 7abd 069f acbd
000001a0: fb45 4fbd 184f fdbb ad78 0e3d c77d 16bd
000001b0: d136 6bb8 9567 85bd f59d d23b bfda 393d
000001c0: 296a 6ebc 4824 87bd 75e0 a03d 9119 4f3c
000001d0: 64e0 4fba 75f9 543d d187 acbc b923 2a3d
000001e0: e261 623c e3a9 9f3d 8abe 81bc bebd a23d
000001f0: aae3 b73c 9ea5 563d 490c a7bd aeac 1b3c
0.02913991 -0.015026383 0.059818167 -0.036366604 -0.0756512 0.013392978 -0.052345987 -0.062182207
-0.03519472 0.054518316 0.004511672 0.038260285 -0.042088345 0.029696833 -0.049490392 0.054010354
-0.046020135 0.02123019 0.047660932 -0.0063498546 -0.018830096 -0.026232682 -0.08389987 0.036927566
-0.011442926 0.024855163 -0.06522881 -0.010108264 -0.05304342 -0.044479698 -0.038286 0.021561496
0.058637187 0.085472286 -0.0730634 0.024509493 -0.07385396 -0.004704338 -0.0077285846 0.0057858923
-0.064683214 -0.056096036 -0.035276752 0.032401204 -0.037327785 0.033810817 0.081950605 0.016719101
0.034054533 0.056051914 0.031896282 -0.017923491 -0.022086315 0.015169494 0.06584747 0.011770542
-0.020870626 0.016697746 0.00059786957 0.0831546 0.029025428 -0.059478488 -0.060751304 -0.07729924
0.077476196 -0.06711954 0.07492545 0.07263861 -0.03747472 -0.034054946 -0.022976235 0.0045019328
-0.024579432 -0.0053848634 -0.0053998563 0.046701897 -0.039578944 0.07766385 0.081510395 0.06815081
-0.040585686 -0.014890474 0.00939509 -0.056070853 -0.019991493 0.027060738 -0.051077727 0.07261129
0.037399974 -0.0410174 -0.05592251 0.051689755 -0.07312987 0.032786973 0.024248013 -0.041998915
-0.01391311 -0.032761324 0.016439067 0.0410932 -0.02676171 -0.011312958 -0.06108839 -0.08428769
-0.050603848 -0.007730376 0.034783054 -0.036741044 -5.6079418e-05 -0.06513897 0.0064275214 0.04537463
-0.014551678 -0.06598717 0.07855312 0.012640373 -0.000792986 0.051995713 -0.021060856 0.041537974
0.013817282 0.07796075 -0.015837926 0.07946347 0.022447426 0.05240404 -0.0815664 0.009501619

linear2.weight f4 [1, 128]
00000000: c09f 813d 0020 ccbc 1a8a 913b 1f9f 533d
00000010: 1cef 45bd 9ada 09bd d87b 53bd 8884 bfbd
00000020: 45f7 dfbd 1fdb 94bd 905d 343d 4025 8d3d
00000030: 1da2 8ebd 3d12 92bd 6183 b8bd f777 aa3d
00000040: 2f26 a6bd 0e7b 8e3d 83be 69bc 8763 123d
00000050: 9d0b dfbd cb9e 15bd ffb9 c7bc 7e20 dd3b
00000060: 4811 d03c a762 1f3d b3cb ac3d 92f2 bfbd
00000070: 9b20 31bc 4159 bf3d 143d 7abc 5ca3 c73c
00000080: 5275 a4bd 3a4c 503c a8ae d9bd e3c7 4a3d
00000090: 2d0f b6bd 08a7 b3bd 4a1b 55bd 6cad 933d
000000a0: 46a0 523c 37c9 61bd 6981 abbb f84c c93d
000000b0: 864d e9bd 0b5d 843d 516a 843d bae2 043d
000000c0: fd5a 11bd b11c 4b3d a2a8 813d 71a1 a0bd
000000d0: 0187 c8bd 34d2 66bd 6338 14bd aa7d 043d
000000e0: 9697 c43d 79a6 9cbd 0ac2 f33c 5942 b8bd
000000f0: 553d 81bd 1e0b b3bd 3b3a f2bc 61a5 96bd
00000100: a5bd 42bd 7bdf b73d e764 13bd 95c8 97bd
00000110: 9cdd 12bd fb52 29bd 75fe a13d e413 3d3d
00000120: 9122 863d 508f 833d aa82 a93c 7e18 2d3d
00000130: 3a19 8e3d 0cf2 e33d cdf6 0fbd ebcb c4bc
00000140: 2a19 a1bd aa0a b03d ecb6 f1bc 6eeb 8ebd
00000150: 9ad8 993d beb0 97bc 889b 88bd a15a 91bd
00000160: 66de 32bd 3225 b53d 5212 ddbd dbff c6bd
00000170: 816d a43d 4d41 75bd 7166 55bd 6260 9bbd
00000180: ed7b 81bd 255f dc3d c54d adbd a93b 9dbd
00000190: 4460 e7bd 70f9 0cbd 48c0 c93d a929 debd
000001a0: 1be1 e93c fadf 403d 2d3b 47bd a37d c33c
000001b0: 3615 703d 4f28 133d 759b 363d 6302 8a3d
000001c0: 8326 413d 9e3a fa3c f847 613d 5cf9 473d
000001d0: 9a1c adbd ee0a 753d a064 803d 3b56 38bb
000001e0: eac2 66bd 68ed 0cbc 823c c6bd 7d85 963d
000001f0: 1e55 963d 0f70 d7bd 2f11 debd f213 cf3d
0.06329298 -0.024917603 0.004441512 0.05166542 -0.048323736 -0.03365574 -0.05163178 -0.0935145
-0.10935835 -0.072683565 0.04403454 0.068918705 -0.069645144 -0.07132385 -0.090094335 0.08323663
-0.08112752 0.069570646 -0.014266613 0.035739448 -0.10890887 -0.03652839 -0.024380682 0.006748258
0.025398865 0.03891244 0.0843729 -0.093724385 -0.010810996 0.09343196 -0.015273351 0.024369888
-0.080301896 0.012713486 -0.10629016 0.049507033 -0.08889613 -0.08772093 -0.052027978 0.07210812
0.012855595 -0.055123534 -0.0052339328 0.09829134 -0.113917395 0.06463059 0.06465591 0.032442786
-0.035487164 0.04958791 0.06330992 -0.078432925 -0.09791375 -0.05635281 -0.036186587 0.032346405
0.09599225 -0.0764894 0.029755611 -0.0899703 -0.06310526 -0.08742355 -0.029568782 -0.07355762
-0.04754414 0.089781724 -0.0359849 -0.07411305 -0.035855874 -0.041338902 0.07909862 0.046161547
0.06549562 0.06423819 0.020692188 0.042259686 0.06938405 0.11130151 -0.035147477 -0.024023017
-0.07866128 0.08595784 -0.02950617 -0.069784984 0.075120166 -0.018516894 -0.0667029 -0.07097364
-0.043669127 0.08844985 -0.1079451 -0.09716769 0.08028699 -0.05987673 -0.05209965 -0.07586743
-0.06322465 0.10760335 -0.08462099 -0.07677395 -0.11297658 -0.03441757 0.09851128 -0.1084779
0.028549721 0.0470886 -0.04864042 0.02386362 0.05861398 0.035927113 0.04458185 0.067387365
0.04715587 0.030545529 0.055000275 0.048821792 -0.08452721 0.059824876 0.06269193 -0.002812757
-0.05633823 -0.008601524 -0.0967951 0.073496796 0.073404536 -0.1051942 -0.10843121 0.10111226
