labml_nn/lstm/LSTM_THz/model_combine_318r1_11.pth (torch, 26025 bytes, 9 tensors)

lstm.weight_ih_l0 f4 [128, 1]
0.050209787 0.03798294 0.16472356 -0.16869529 -0.10159316 0.16894715 0.038346976 0.113057986
-0.079690576 0.11015269 -0.17569198 -0.18393748 0.013982617 -0.14635696 -0.24801938 0.2706532
-0.14357388 0.090800405 -0.13381559 -0.020234514 -0.16979663 -0.02033473 -0.010773178 -0.20120518
0.11648135 -0.257095 0.042816848 0.006826721 0.10605407 0.22019373 0.09382686 0.2721445
0.062202167 0.18554667 -0.060722683 -0.17971656 0.02654963 0.018415265 0.33751246 0.03422207
0.09600003 0.11700568 -0.21227483 -0.2988064 -0.076477356 -0.25326267 -0.14692959 0.34468374
-0.0849457 -0.0048066047 -0.24892451 0.16211408 0.07292525 0.1539692 0.095898636 -0.16942854
0.029231524 -0.018189391 -0.026407037 0.10013243 -0.15261842 0.3235955 0.1382291 0.1504336
0.04745253 -0.19817731 -0.27107617 -0.24833596 0.017968995 -0.15234219 -0.22503275 0.0062344694
-0.25442946 0.27033663 -0.12386245 -0.26660296 -0.016479786 0.13048816 -0.02734768 0.14401776
-0.2721174 0.02030018 0.21042567 -0.019464064 0.36145654 -0.1254534 0.25395092 -0.29418585
-0.31497326 0.20990178 -0.05999278 -0.32940385 -0.21976583 0.12483596 -0.10772143 0.35629064
-0.22225669 -0.31080335 -0.08142807 -0.1947132 0.06124059 0.215299 0.28615227 -0.067173965
0.15580967 0.31602046 -0.19926302 -0.31583685 -0.19067127 -0.38457134 -0.059536424 0.32102597
-0.19404343 -0.06143049 -0.33575037 0.28618535 -0.1164562 -0.052381743 0.025152044 -0.19332057
-0.0046591386 -0.052018195 -0.17286463 -0.02963211 -0.03931589 0.3861759 0.19164984 0.330374
00000000: c7a8 4d3d 0094 1b3d 4bad 283e 75be 2cbe
00000010: 1310 d0bd 7b00 2d3e b811 1d3d f28a e73d
00000020: d034 a3bd bc97 e13d 99e8 33be 1b5a 3cbe
00000030: 5917 653c 99de 15be cbf8 7dbe 0e93 8a3e
00000040: 0805 13be 90f5 b93d f406 09be dac2 a5bc
00000050: 2bdf 2dbe 0595 a6bc fc81 30bc bb08 4ebe
00000060: c68d ee3d f5a1 83be b860 2f3d b0b2 df3b
00000070: e032 d93d 777a 613e 4c28 c03d 8656 8b3e
00000080: b3c7 7e3d f2ff 3d3e 59b8 78bd 9e07 38be
00000090: 9c7e d93c 9cdb 963c 6fce ac3e 712c 0c3d
000000a0: aa9b c43d ada0 ef3d 935e 59be 27fd 98be
000000b0: 29a0 9cbd a5ab 81be b674 16be 637a b03e
000000c0: 03f8 adbd b980 9dbb 11e6 7ebe 3c01 263e
000000d0: d559 953d 1aaa 1d3e 8166 c43d ad7e 2dbe
000000e0: f376 ef3c eb01 95bc 9253 d8bc 3b12 cd3d
000000f0: 0148 1cbe 4fae a53e ee8b 0d3e 440b 1a3e
00000100: 965d 423d feee 4abe 7fca 8abe c84b 7ebe
00000110: b733 933c 97ff 1bbe fc6e 66be 854a cc3b
00000120: 9444 82be 9069 8a3e 99ab fdbd 2f80 88be
00000130: 9e00 87bc b09e 053e 3e08 e0bc 6479 133e
00000140: f952 8bbe 904c a63c d479 573e 1a73 9fbc
00000150: d510 b93e db76 00be db05 823e 879f 96be
00000160: 2d44 a1be 7ef0 563e fdba 75bd 9fa7 a8be
00000170: 4b0a 61be ffa9 ff3d 0e9d dcbd ba6b b63e
00000180: 4297 63be 9e21 9fbe c3c3 a6bd e662 47be
00000190: 6ad7 7a3d 5777 5c3e 8d82 923e 8192 89bd
000001a0: 928c 1f3e 6fcd a13e 9b0b 4cbe 5eb5 a1be
000001b0: 543f 43be 89e6 c4be 77dc 73bd 845d a43e
000001c0: 52b3 46be 8a9e 7bbd 79e7 abbe e386 923e
000001d0: 9780 eebd 3d8e 56bd a90b ce3c d4f5 45be
000001e0: b0ab 98bb 0811 55bd 6d03 31be 0abf f2bc
000001f0: b309 21bd d9b8 c53e db3f 443e c826 a93e

lstm.weight_hh_l0 f4 [128, 32]
-0.008834116 -0.007606139 0.18435416 -0.2281992 0.059932023 -0.25594988 0.19864152 0.019782554
0.21892324 -0.115072414 0.20282046 -0.134541 -0.02652993 -0.012247539 -0.16226111 -0.32914555
-0.18744135 -0.21697895 0.028258685 -0.21425475 0.058007836 -0.006796312 0.023296395 -0.1564315
-0.024678467 0.26718515 -0.4173201 0.38385984 -0.21749477 0.1635968 -0.20675354 -0.61786604
-0.03639403 0.22170101 0.17239493 0.06788027 0.2340696 0.20356703 0.11336811 -0.29264367
0.044860415 -0.11813572 0.01401382 0.11236184 -0.23352133 -0.06315844 -0.016685426 -0.1472058
-0.23163128 0.058899797 0.13480705 0.09546032 0.0012470679 -0.25087366 0.06200727 -0.061488286
-0.036015227 -0.08703425 0.082880005 0.012338001 0.12065541 -0.007726199 -0.00496323 0.03658888
-0.21157153 0.008650159 0.015096139 0.074394055 0.017333962 0.019469524 0.03085438 0.18120232
-0.16845648 0.23353584 -0.029911846 0.16369055 -0.044420566 -0.12073001 0.077104606 0.27092275
0.04550903 0.3109263 -0.25823805 0.18515082 0.10399186 0.15476488 0.020593341 0.17523855
-0.1589711 -0.059135005 0.32258052 0.009460961 -0.084564164 -0.013162435 -0.18068579 0.2171528
0.09365673 -0.15549093 0.055375632 0.06877263 0.0026429936 -0.110777505 0.0734169 0.026382921
-0.09313132 0.0686788 -0.3018939 0.078068495 -0.064076155 -0.076641314 0.019066496 -0.05597121
0.04912458 0.004184778 -0.09748744 0.00019916576 0.30967075 -0.007874178 0.30247664 -0.19081107
-0.08354573 0.060683668 -0.13763283 0.059637744 -0.18179564 0.1315889 0.059051245 0.0336749
0.12058951 0.19260809 0.115158364 -0.063562624 0.07323937 0.00017738937 0.22022963 -0.33295557
-0.06545997 0.037589666 0.16195251 -0.2547972 0.21081638 -0.21947953 -0.16072714 0.07193292
0.24403329 -0.22405878 0.23948862 -0.29001573 0.20886625 -0.1883035 0.44052798 -0.053702816
-0.29390907 0.3238774 -0.2649584 0.108787574 0.07952419 0.07373166 -0.03494089 -0.25449935
0.11385728 0.0028727972 0.16519426 -0.0075372257 0.22149931 0.026503742 -0.030502954 -0.019248253
0.16665801 -0.10607185 0.14552635 0.06846532 -0.28977063 0.10286998 -0.287356 -0.087891534
-0.006057337 -0.19551311 0.03006364 -0.02440714 -0.32728758 0.07709727 -0.08852576 -0.10013932
-0.06310345 0.07639524 -0.0023636913 0.12006188 0.2672674 -0.13117734 -0.0076186047 -0.33409667
-0.14712988 -0.16043143 -0.26321077 -0.04138968 -0.06048374 0.038399067 0.0157652 -0.11331571
-0.15291974 -0.022011556 0.023219457 0.03452027 -0.23242967 0.030750282 -0.12754042 -0.018309152
-0.14442565 0.13224486 -0.06995431 0.10863597 0.19828574 0.11108585 -0.042458147 -0.27429184
-0.16823566 0.09265015 -0.01315247 -0.34096184 -0.32572985 0.08229678 -0.085468635 -0.11924955
-0.28348842 -0.19993594 0.1077282 -0.3302515 -0.44016302 -0.36596966 0.017571222 0.02103722
0.13605528 0.061792303 0.021866737 -0.18598865 -0.21890523 0.20095575 0.029585076 -0.10987982
-0.20211719 -0.17098042 0.17643252 -0.053007618 -0.11194703 -0.26601085 0.114593476 -0.14097045
-0.06792948 0.17594694 -0.021071224 0.052394066 -0.21317889 -0.025334857 -0.41284162 -0.103019886
00000000: f8bc 10bc eb3c f9bb 56c7 3c3e 0dad 69be
00000010: 487b 753d dd0b 83be af68 4b3e 060f a23c
00000020: 6a2d 603e 16ab ebbd 2bb0 4f3e 1ec5 09be
00000030: 4c55 d9bc e7a9 48bc c727 26be c485 a8be
00000040: a0f0 3fbe bb2f 5ebe c27e e73c 9965 5bbe
00000050: a099 6d3d 99b3 debb 15d8 be3c 942f 20be
00000060: 7f2a cabc 7ecc 883e fbaa d5be 4789 c43e
00000070: f3b6 5ebe eb85 273e 33b7 53be 782c 1ebf
00000080: e811 15bd 9705 633e 4c88 303e d004 8b3d
00000090: f1af 6f3e e073 503e 8a2d e83d 64d5 95be
000000a0: 8ebf 373d 24f1 f1bd 399a 653c f71d e63d
000000b0: 3720 6fbe 3659 81bd e0af 88bc 1ebd 16be
000000c0: c030 6dbe ea40 713d dc0a 0a3e b380 c33d
000000d0: a874 a33a 8372 80be 56fb 7d3d 24db 7bbd
000000e0: b484 13bd 033f b2bd febc a93d 5425 4a3c
000000f0: 2f1a f73d 0e2c fdbb 97a2 a2bb 39de 153d
00000100: 35a6 58be 66b9 0d3c cc55 773c e95b 983d
00000110: f4ff 8d3c 8d7e 9f3c 53c2 fc3c 1a8d 393e
00000120: db7f 2cbe 0524 6f3e b009 f5bc 7f9e 273e
00000130: 57f2 35bd 4c41 f7bd 05e9 9d3d 63b6 8a3e
00000140: ad67 3a3d bb31 9f3e c737 84be 2d98 3d3e
00000150: aff9 d43d af7a 1e3e 5eb3 a83c bc71 333e
00000160: 52c9 22be 8c37 72bd 4629 a53e 2602 1b3c
00000170: fa2f adbd 41a7 57bc b205 39be 4e5d 5e3e
00000180: 1acf bf3d 0439 1fbe 8fd1 623d aad8 8c3d
00000190: 1336 2d3b 51df e2bd 9a5b 963d ff20 d83c
000001a0: a2bb bebd 78a7 8c3d d691 9abe 60e2 9f3d
000001b0: 5c3a 83bd 1ff6 9cbd 5731 9c3c 1142 65bd
000001c0: db36 493d 7620 893b 7fa7 c7bd 27d7 5039
000001d0: 2a8d 9e3e b202 01bc 38de 9a3e fa63 43be
000001e0: 061a abbd 708f 783d 9fef 0cbe b546 743d
000001f0: a328 3abe 3ebf 063e b8df 713d b1ee 093d
00000200: a2f7 f63d 0e3b 453e 26d8 eb3d 1f2d 82bd
00000210: 86fe 953d 9901 3a39 e083 613e 2779 aabe
00000220: e00f 86bd 9ff7 193d e1d6 253e c774 82be
00000230: 40e0 573e 3ebf 60be a895 24be 9151 933d
00000240: dde3 793e aa6f 65be 813c 753e f17c 94be
00000250: 09e1 553e a2d2 40be e28c e13e 7cf7 5bbd
00000260: 407b 96be 42d3 a53e a1a8 87be 05cc de3d
00000270: 94dd a23d a000 973d 2e1e 0fbd bd4d 82be
00000280: 012e e93d 8a45 3c3b af28 293e d5fa f6bb
00000290: b7d0 623e 601e d93c 55e1 f9bc 83ae 9dbc
000002a0: 66a8 2a3e 333c d9bd dc04 153e 8c37 8c3d
000002b0: d15c 94be 7fad d23d 5320 93be 7a00 b4bd
000002c0: a07c c6bb 9734 48be 0648 f63c 7cf1 c7bc
000002d0: 3d92 a7be 2ce5 9d3d fe4c b5bd d815 cdbd
000002e0: 623c 81bd 1c75 9c3d 29e8 1abb 01e3 f53d
000002f0: 46d7 883e 5a53 06be 7da5 f9bb b80e abbe
00000300: 37a9 16be 2348 24be 90c3 86be 3a88 29bd
00000310: ccbd 77bd 5748 1d3d 0526 813c 1112 e8bd
00000320: fe96 1cbe 9451 b4bc bb36 be3c 2065 0d3d
00000330: 0b02 6ebe 04e8 fb3c f599 02be 13fd 95bc
00000340: 51e4 13be 326b 073e 3544 8fbd 897c de3d
00000350: 6b0b 4b3e fa80 e33d 98e8 2dbd fb6f 8cbe
00000360: f845 2cbe 5dbf bd3d 757d 57bc 8d92 aebe
00000370: 10c6 a6be 378b a83d 2e0a afbd 1c39 f4bd
00000380: 6525 91be 02bc 4cbe 9aa0 dc3d b916 a9be
00000390: 0c5d e1be 6060 bbbe 86f1 8f3c 3f56 ac3c
000003a0: 1352 0b3e ed19 7d3d df21 b33c cf73 3ebe
000003b0: b128 60be 58c7 4d3e 675c f23c ac08 e1bd
000003c0: cff7 4ebe 7e15 2fbe baaa 343e 841e 59bd
000003d0: 7c44 e5bd 9332 88be fcaf ea3d 8f5a 10be
000003e0: 9c1e 8bbd 6f2b 343e 8f9d acbc 299b 563d
000003f0: 914b 5abe 0c8b cfbc fa5f d3be 17fc d2bd

lstm.bias_ih_l0 f4 [128]
-0.22357228 -0.10597129 0.307255 -0.026070638 -0.07016993 -0.009566139 -0.109773666 -0.017377395
0.08024521 -0.18890399 -0.071353436 -0.11436456 -0.06406999 -0.15645319 -0.2994059 -0.004909267
0.08529841 -0.12627366 0.18709576 -0.005387507 0.16127461 -0.01509026 -0.07814946 0.097773194
-0.04904122 0.04404049 0.053714015 0.11360285 -0.22554761 -0.010758536 -0.018473074 0.28260857
-0.27686238 0.02479201 0.1510062 0.038775634 -0.24297403 -0.031393744 -0.03324587 -0.021253724
-0.2152326 -0.2056989 -0.18919761 -0.12866192 -0.050197862 -0.15090598 -0.36932284 -0.09860469
-0.12117116 -0.02847139 0.11167619 0.10846428 -0.13547893 -0.3461518 0.08622474 0.10020713
-0.15349977 0.20619994 -0.0075543197 -0.21325552 -0.12444914 -0.15963374 -0.2873014 -0.089377835
-0.0772451 -0.1009546 0.061070506 0.18739952 0.033094462 -0.055593114 0.109889835 0.12075772
0.09406251 0.0684167 -0.031374305 0.0500191 0.10222986 0.03592296 -0.07965294 0.119444594
0.16428907 0.15646699 0.111656 0.17278665 0.07077822 -0.084059566 -0.08794093 -0.101069815
-0.043340247 -0.19303422 0.046396583 -0.13439842 -0.0019331898 -0.104023755 0.05305704 0.2036403
-0.34993896 -0.21477944 -0.016820662 0.093377315 -0.26943555 -0.119687624 -0.19131199 -0.24781255
0.17792645 -0.1939838 -0.24832417 0.012959145 -0.07866375 -0.16122133 -0.12724586 -0.047153737
0.079199955 -0.0009884968 -0.11130949 0.04819983 0.1742196 -0.34885794 0.032318514 0.031323116
-0.09630595 0.11967817 -0.0010529384 0.14510538 -0.017769577 -0.0790793 -0.13553935 0.21885866
00000000: 22f0 64be 7a07 d9bd 8750 9d3e 1792 d5bc
00000010: 41b5 8fbd 4cbb 1cbc 04d1 e0bd 0a5b 8ebc
00000020: 9a57 a43d 0c70 41be c021 92bd f737 eabd
00000030: 2037 83bd 4435 20be bb4b 99be ebdd a0bb
00000040: efb0 ae3d e24d 01be 0896 3f3e af89 b0bb
00000050: 2c25 253e 233d 77bc d30c a0bd 503d c83d
00000060: 72df 48bd cd63 343d 3a03 5c3d 9ca8 e83d
00000070: f4f5 66be 9244 30bc d854 97bc 12b2 903e
00000080: e8c0 8dbe 9d18 cb3c 5fa1 1a3e 33d3 1e3d
00000090: 2fce 78be ba96 00bd d22c 08bd 4a1c aebc
000000a0: ef65 5cbe bca2 52be 05bd 41be f3bf 03be
000000b0: 469c 4dbd 1987 1abe e217 bdbe 41f1 c9bd
000000c0: 9628 f8bd d53c e9bc 7cb6 e43d 8522 de3d
000000d0: fdba 0abe cf3a b1be 9996 b03d 6539 cd3d
000000e0: 0b2f 1dbe 1426 533e 3a8a f7bb a85f 5abe
000000f0: 31df febd 0777 23be 2b19 93be ba0b b7bd
00000100: ae32 9ebd 49c1 cebd 1125 7a3d a9e5 3f3e
00000110: 0f8e 073d 9bb5 63bd ec0d e13d d34f f73d
00000120: d8a3 c03d 0e1e 8c3d 5882 00bd d4e0 4c3d
00000130: e45d d13d f423 133d 1521 a3bd 5e9f f43d
00000140: 653b 283e e238 203e e7ab e43d fcee 303e
00000150: 2cf4 903d 6c27 acbd 601a b4bd b1fd cebd
00000160: 8b85 31bd c3aa 45be 580a 3e3d bd9f 09be
00000170: 1663 fdba 680a d5bd 5752 593d 1587 503e
00000180: 332b b3be 24ef 5bbe 7ccb 89bc 9b3c bf3d
00000190: 75f3 89be c91e f5bd 4ae7 43be 93c2 7dbe
000001a0: 5a32 363e b0a3 46be b148 7ebe 9852 543c
000001b0: 761a a1bd 3417 25be bd4c 02be 4724 41bd
000001c0: 9633 a23d 7390 81ba 3bf6 e3bd 2f6d 453d
000001d0: 9f66 323e 829d b2be 6b60 043d ab4c 003d
000001e0: 0e3c c5bd d419 f53d c002 8aba 8196 143e
000001f0: 8191 91bc 54f4 a1bd d4ca 0abe 7c1c 603e

lstm.bias_hh_l0 f4 [128]
-0.30364972 -0.1247384 0.15345034 0.09026275 -0.05151071 -0.12412561 -0.05254442 -0.015083213
0.11013137 -0.09840998 -0.22966282 0.0023102998 -0.19594948 -0.052931074 -0.23772945 -0.028937811
0.072991714 -0.08021123 0.0359505 0.16966185 0.11003488 -0.28393692 -0.099922396 0.24934074
-0.0068434244 -0.0269349 -0.23260683 0.040455278 -0.1289213 -0.30178937 -0.2839433 0.23866865
-0.4343222 -0.01150686 -0.06658004 -0.0993072 -0.15048583 -0.03769733 -0.07960031 -0.06535332
-0.10334304 0.10966113 -0.2708352 -0.08400881 -0.23408371 -0.15563314 -0.19113897 -0.14770955
0.02674057 -0.16330566 0.17286205 0.006401308 -0.09288105 -0.09411498 -0.17465459 0.058910742
0.11572041 -0.06897966 -0.0120651135 -0.04333812 -0.26116246 -0.20811914 -0.30878446 -0.08922851
0.21891905 0.15445472 -0.20293261 0.18737806 0.034182817 0.030986262 -0.14952919 -0.11001485
-0.13463435 0.10758099 0.028673504 0.14282846 -0.16204177 -0.1776573 -0.012478759 0.12165125
-0.084144376 0.11695627 -0.20069943 0.19432172 -0.11101688 0.051052205 0.11087524 0.07504835
0.07489677 -0.14947182 0.015005805 0.06495188 0.11121988 0.026762892 0.051238954 0.2542112
-0.165597 -0.18017097 0.098664306 0.10434874 -0.009085795 -0.05123449 -0.20360784 -0.18810743
0.18025535 -0.13484807 -0.034039754 0.12030408 -0.23086657 -0.2650889 -0.254836 0.0016715449
-0.006109813 -0.2297475 -0.15506229 -0.0015790436 0.0015866779 -0.3467598 -0.043216504 0.25101787
0.15731919 0.010293765 0.018847624 0.060406707 -0.3293866 -0.16788353 -0.348435 0.117612
00000000: fa77 9bbe d976 ffbd 1622 1d3e addb b83d
00000010: e5fc 52bd 9135 febd d138 57bd 951f 77bc
00000020: 8e8c e13d 2c8b c9bd bb2c 6bbe 6668 173b
00000030: fba6 48be 41ce 58bd 596f 73be fd0e edbc
00000040: ae7c 953d c945 a4bd d540 133d d6bb 2d3e
00000050: f859 e13d 2e60 91be 1da4 ccbd 2e53 7f3e
00000060: ce3e e0bb 94a6 dcbc 7c30 6ebe 6fb4 253d
00000070: f203 04be 2384 9abe 0461 91be 8e65 743e
00000080: 7b5f debe 4587 3cbc 1e5b 88bd 9361 cbbd
00000090: f518 1abe 8468 1abd 7d05 a3bd f6d7 85bd
000000a0: 84a5 d3bd 0496 e03d e9aa 8abe d00c acbd
000000b0: a4b3 6fbe 4b5e 1fbe efb9 43be 2c41 17be
000000c0: 0a0f db3c 9939 27be c002 313e 10c2 d13b
000000d0: 6c38 bebd 5bbf c0bd a7d8 32be 644c 713d
000000e0: d3fe ec3d 3545 8dbd c1ac 45bc 5083 31bd
000000f0: 16b7 85be 2f1d 55be ff18 9ebe 70bd b6bd
00000100: 512c 603e 6129 1e3e 91cd 4fbe 09e0 3f3e
00000110: 4803 0c3d e7d6 fd3c 2e1e 19be 774f e1bd
00000120: 96dd 09be 6c53 dc3d b2e4 ea3c a041 123e
00000130: 47ee 25be cceb 35be b573 4cbc 4a24 f93d
00000140: e353 acbd c586 ef3d 2784 4dbe 46fc 463e
00000150: d15c e3bd 1e1c 513d 8f12 e33d f3b2 993d
00000160: 7a63 993d 240f 19be e8da 753c 7e05 853d
00000170: 40c7 e33d da3d db3c f0df 513d f827 823e
00000180: 4392 29be bd7e 38be 8310 ca3d cbb4 d53d
00000190: 96dc 14bc 42db 51bd 937e 50be 3c9f 40be
000001a0: dc94 383e 9d15 0abe 456d 0bbd fc61 f63d
000001b0: 4968 6cbe bbb9 87be dd79 82be bd17 db3a
000001c0: d434 c8bb ee42 6bbe a6c8 1ebe e9f7 ceba
000001d0: 13f8 cf3a 808a b1be ca03 31bd 6a85 803e
000001e0: 4818 213e 2ea7 283c 5566 9a3c 066d 773d
000001f0: 5ca5 a8be a9e9 2bbe 1366 b2be 8fde f03d

layer_norm.weight f4 [32]
0.8362225 0.9431253 0.9518892 0.9856845 0.8052333 0.9257696 0.90407485 0.7484272
1.0114802 0.95328623 0.8700791 0.922867 0.7792004 0.9107838 0.77660453 0.97330475
0.90123063 0.8457916 0.973869 0.94910324 1.034638 0.70007926 0.9486867 1.1484481
0.94823366 0.8069919 0.86161166 1.0292995 0.8486084 0.87164885 0.85277164 1.064745
00000000: ae12 563f a970 713f 03af 733f d255 7c3f
00000010: c523 4e3f 3dff 6c3f 7371 673f ed98 3f3f
00000020: 2f78 813f 910a 743f 81bd 5e3f 0341 6c3f
00000030: ad79 473f 2129 693f 8ecf 463f 802a 793f
00000040: 0db7 663f cc85 583f 7b4f 793f 6ef8 723f
00000050: 056f 843f 6538 333f 22dd 723f 5900 933f
00000060: 71bf 723f 0597 4e3f 9592 5c3f 16c0 833f
00000070: 663e 593f 6124 5f3f 3e4f 5a3f 9049 883f

layer_norm.bias f4 [32]
-0.014523045 0.02346823 0.05706908 -0.004757357 0.14201698 0.055928037 0.12588507 -0.12562668
-0.0045661065 -0.03489096 0.06731103 -0.062577255 0.010364974 0.0135147385 -0.11962354 -0.014495599
0.0058317864 0.0027236857 -0.0075746337 -0.022872044 0.010286938 0.03779907 0.06421878 0.008563607
-0.011442024 0.07350865 -0.13535021 0.006391324 0.080242 -0.07669965 0.11178684 0.0034645172
00000000: 11f2 6dbc 7240 c03c 45c1 693d 9ae3 9bbb
00000010: e66c 113e cc14 653d 04e8 003e 48a4 00be
00000020: 479f 95bb d3e9 0ebd 5eda 893d 8128 80bd
00000030: dad1 293c ec6c 5d3c 30fd f4bd f37e 6dbc
00000040: 9218 bf3b dd7f 323b a234 f8bb 275e bbbc
00000050: 8c8a 283c 33d3 1a3d 2385 833d 5f4e 0c3c
00000060: 5477 3bbc b48b 963d 3f99 0abe 506e d13b
00000070: eb55 a43d b514 9dbd 80f0 e43d f40c 633b

linear1.weight f4 [32, 32]
-0.10791761 -0.18788266 -0.12143977 -0.10076829 0.009036921 -0.15263635 -0.15165938 0.15002763
-0.2730637 -0.089360386 -0.13283582 -0.071328714 -0.07349783 0.0016831881 -0.057131056 0.19311291
0.07864564 0.17374997 -0.05114996 0.1999397 0.123631865 0.087708876 0.09510182 0.09086972
-0.005933433 -0.11937982 0.11507438 -0.24921414 0.055024836 -0.18928772 -0.20243381 0.109012306
-0.09335633 -0.097203024 0.042438384 -0.02075526 0.13438596 0.07343356 -0.07256782 0.030046728
-0.13917492 -0.016812269 0.19604442 0.21160746 0.050192416 -0.24686277 -0.05308135 -0.12674399
0.006194 -0.09932458 -0.13923207 0.1787076 -0.40230536 -0.20126395 -0.1935055 0.012072952
0.36527535 -0.20052741 -0.05900191 0.12823395 0.1054533 -0.13482517 0.09246652 -0.05337482
0.09860295 -0.012671781 0.2170251 0.070454836 -0.10697485 -0.12009063 -0.017425813 -0.04363083
-0.026408253 -0.096420035 -0.05121123 0.123575844 0.13494554 -0.06829678 0.03284963 -0.18327254
0.14838095 -0.21959028 -0.05144487 -0.002675337 -0.15112157 0.087188296 0.117658794 0.357344
0.046907626 -0.10599396 0.06353212 0.15570998 -0.10376813 -0.068909936 0.041139685 -0.23801737
0.10475648 -0.009851682 -0.22463326 -0.034929916 -0.092454106 0.13408537 -0.09853372 0.16953231
0.025660641 0.08177852 -0.21766885 -0.12581848 0.06299243 0.09028728 0.026985668 0.0464262
0.103436194 0.039584104 0.17191818 0.043102458 0.037098274 0.13232164 0.097006895 -0.25949168
0.046095934 0.076294504 0.119841605 -0.13978852 -0.06818707 -0.103943735 0.13754393 0.2366889
0.14678593 -0.068378314 0.11328233 -0.0011428266 -0.11482654 0.105393864 -0.14610624 -0.05022912
0.103148475 0.049619097 -0.1938047 -0.03681847 -0.021663193 0.038266186 0.0130053535 0.077437416
-0.15289931 0.24405658 0.17678155 -0.047082763 0.0857429 -0.10366028 -0.005366556 -0.29992834
-0.22617574 -0.001093307 0.09909921 -0.1227632 0.18066695 -0.062819146 -0.024169773 0.18025032
-0.25814438 -0.006549871 -0.042540528 -0.0193624 -0.006268768 -0.036800947 -0.039390955 0.19064252
0.24290529 -0.3117398 -0.02125177 0.14449567 0.037692547 -0.098248035 -0.045057993 0.11144755
0.11883371 0.15573862 -0.047110077 -0.10430262 -0.21442889 0.35389757 -0.015396053 0.15412045
0.29332954 0.050603405 0.28163326 0.0761059 0.0013928168 -0.2189863 0.032451022 -0.07129825
-0.03865345 0.008519251 0.1261999 -0.2199136 -0.086043395 0.012939593 -0.15771598 0.10552906
0.085275255 0.046653647 -0.044893395 -0.07929636 -0.12436347 -0.10431044 0.07420472 0.044012614
-0.113191016 0.1264566 0.07351462 -0.13879971 0.014640624 0.033391207 0.1240748 0.08232684
-0.11650767 0.02036068 0.024643699 0.13565728 0.13362 -0.0127038825 0.18613458 -0.093838856
-0.04426998 0.04122987 0.06354353 0.025564004 0.002632611 0.017179387 -0.048290204 0.0673282
-0.20007934 -0.026796773 -0.20021346 -0.02037071 -0.10815884 -0.06674618 -0.03866539 0.09836803
-0.00013634234 0.19735385 0.025209568 0.0750302 0.058894724 -0.018409362 0.09055755 -0.16500352
0.063456744 -0.0458197 0.0624004 -0.17287576 -0.07507005 -0.16471021 0.085540466 0.20243943
00000000: e803 ddbd 5064 40be 6ab5 f8bd 9b5f cebd
00000010: 980f 143c b44c 1cbe 994c 1bbe d8a0 193e
00000020: 01cf 8bbe 9402 b7bd 1d06 08be ca14 92bd
00000030: 0886 96bd 6c9e dc3a 4102 6abd 64bf 453e
00000040: f710 a13d 83eb 313e 9f82 51bd febc 4c3e
00000050: b432 fd3d b6a0 b33d bec4 c23d e719 ba3d
00000060: 3e6d c2bb 687d f4bd 1eac eb3d fe31 7fbe
00000070: b961 613d a4d4 41be cf4a 4fbe d841 df3d
00000080: 9b31 bfbd 6112 c7bd dfd3 2d3d ef06 aabc
00000090: 799c 093e 5664 963d 709e 94bd 8e24 f63c
000000a0: df83 0ebe e2b9 89bc debf 483e a0af 583e
000000b0: 9096 4d3d 98c9 7cbe d46b 59bd 2dc9 01be
000000c0: 0af7 ca3b af6a cbbd da92 0ebe 20ff 363e
000000d0: f8fa cdbe 2318 4ebe 4e26 46be a2cd 453c
000000e0: 5f05 bb3e 0f57 4dbe fdab 71bd c34f 033e
000000f0: e6f7 d73d 9c0f 0abe 165f bd3d 8e9f 5abd
00000100: 58f0 c93d 4d9d 4fbc d43b 5e3e a04a 903d
00000110: a115 dbbd 14f2 f5bd 94c0 8ebc 3eb6 32bd
00000120: 1f56 d8bc de77 c5bd dec2 51bd 5515 fd3d
00000130: 2a2f 0a3e 2fdf 8bbd 558d 063d ccab 3bbe
00000140: 2df1 173e 46dc 60be dbb7 52bd b554 2fbb
00000150: 9dbf 1abe c78f b23d 18f7 f03d cbf5 b63e
00000160: 3622 403d 5c13 d9bd 211d 823d 7072 1f3e
00000170: 6384 d4bd a720 8dbd 1682 283d d3ba 73be
00000180: 918a d63d f368 21bc 4306 66be ac12 0fbd
00000190: 9458 bdbd ad4d 093e 0ccc c9bd e199 2d3e
000001a0: 4436 d23c 7f7b a73d 95e4 5ebe 8fd6 00be
000001b0: 2d02 813d 8ae8 b83d 0c11 dd3c 6629 3e3d
000001c0: 5bd6 d33d f122 223d 520b 303e 348c 303d
000001d0: 5cf4 173d 537f 073e 8dab c63d 18dc 84be
000001e0: 17cf 3c3d 4b40 9c3d 846f f53d b924 0fbe
000001f0: aaa5 8bbd 74e0 d4bd 51d8 0c3e 935e 723e
00000200: 0d4f 163e ee09 8cbd 9100 e83d e6ca 95ba
00000210: 2d2a ebbd bdd8 d73d e09c 15be 0dbd 4dbd
00000220: 823f d33d 653d 4b3d bd74 46be f7ce 16bd
00000230: 0277 b1bc 01bd 1c3d 6814 553c 8297 9e3d
00000240: a391 1cbe f8e9 793e 3906 353e dbd9 40bd
00000250: f999 af3d d74b d4bd efd9 afbb 3590 99be
00000260: 9d9a 67be 4c4d 8fba 87f4 ca3d 466b fbbd
00000270: c200 393e 53a7 80bd b0ff c5bc 8a93 383e
00000280: 802b 84be 4da0 d6bb fa3e 2ebd e59d 9ebc
00000290: 3d6a cdbb 97bc 16bd 6958 21bd cb37 433e
000002a0: 2abc 783e 5c9c 9fbe 3118 aebc acf6 133e
000002b0: 8063 1a3d 4436 c9bd bb8e 38bd 9d3e e43d
000002c0: 175f f33d f279 1f3e 7ff6 40bd 9d9c d5bd
000002d0: 3f93 5bbe 1032 b53e ba3f 7cbc c0d1 1d3e
000002e0: 4a2f 963e 8445 4f3d 3c32 903e 69dd 9b3d
000002f0: 2d8f b63a f23d 60be 5deb 043d d104 92bd
00000300: 1453 1ebd 5494 0b3c 8c3a 013e 0831 61be
00000310: 8537 b0bd 9600 543c 4c80 21be 9f1f d83d
00000320: cba4 ae3d e517 3f3d 23e2 37bd 2166 a2bd
00000330: 46b2 febd b6a0 d5bd a5f8 973d 9246 343d
00000340: b1d0 e7bd d77d 013e d58e 963d 8321 0ebe
00000350: 3adf 6f3c 38c5 083d ee1a fe3d f99a a83d
00000360: 939b eebd 71cb a63c 95e1 c93c bee9 0a3e
00000370: aed3 083e f223 50bc 109a 3e3e 962e c0bd
00000380: 7054 35bd a7e0 283d 1c23 823d 9a6b d13c
00000390: e287 2c3b c9bb 8c3c f3cb 45bd 5ee3 893d
000003a0: 99e1 4cbe e884 dbbc c204 4dbe 7ae0 a6bc
000003b0: 6282 ddbd 39b2 88bd 9a5f 1ebd 2d75 c93d
000003c0: 1ef7 0eb9 2117 4a3e 4c84 ce3c 6fa9 993d
000003d0: 983b 713d 3bcf 96bc 3d76 b93d aff6 28be
000003e0: 9cf5 813d 70ad 3bbd 9097 7f3d 5806 31be
000003f0: 54be 99bd cba9 28be d72f af3d 484c 4f3e

linear1.bias f4 [32]
0.19352138 0.16597418 -0.1507429 0.064281404 0.1227333 0.22017758 0.11260402 0.104702145
-0.16138853 0.007933229 -0.05957681 0.09599339 -0.029702472 0.03170915 0.06834019 -0.14164516
-0.14891805 0.019730497 -0.14219573 -0.030143352 0.09733789 -0.060497247 -0.05646792 0.045634646
0.010947225 0.024896977 0.023020145 0.083669506 -0.05254868 -0.10382014 -0.13751271 -0.177509
00000000: 782a 463e 23f5 293e 595c 1abe f8a5 833d
00000010: 995b fb3d 3b76 613e f09c e63d 146e d63d
00000020: 0943 25be 60fa 013c d006 74bd 2f98 c43d
00000030: 9952 f3bc 74e1 013d f1f5 8b3d 6e0b 11be
00000040: f97d 18be daa1 a13c c29b 11be 31ef f6bc
00000050: 1659 c73d f6cb 77bd e84a 67bd 65eb 3a3d
00000060: fd5b 333c bff4 cb3c be94 bc3c eb5a ab3d
00000070: 493d 57bd a79f d4bd 22d0 0cbe ebc4 35be

linear2.weight f4 [1, 32]
0.07298121 -0.14611639 -0.06450941 0.064040236 0.037937917 -0.15640104 -0.0023424095 0.037354138
0.048737157 -0.009115764 0.08861187 0.133252 -0.040081643 0.03786998 0.024665484 -0.09643463
0.004876764 0.044196293 -0.049263533 -0.02086402 0.018473491 0.04340327 0.041659664 0.013264514
0.08580007 0.019769307 -0.03709583 -0.15794426 0.033142008 0.002029137 -0.12463989 -0.06530608
00000000: 2c77 953d 899f 15be 821d 84bd 8727 833d
00000010: ca64 1b3d 9827 20be 1c83 19bb a700 193d
00000020: 9da0 473d 495a 15bc 247a b53d 3673 083e
00000030: a62c 24bd 8d1d 1b3d 450f ca3c 857f c5bd
00000040: 43cd 9f3b 2c07 353d 8fc8 49bd 05eb aabc
00000050: b855 973c a1c7 313d 53a3 2a3d 6753 593c
00000060: f2b7 af3d 3ef3 a13c ccf1 17bd 24bc 21be
00000070: eabf 073d 45fb 043b 3343 ffbd 32bf 85bd
