labml_nn/lstm/LSTM_THz/model_combine_319r2_13.pth (torch, 26025 bytes, 9 tensors)

lstm.weight_ih_l0 f4 [128, 1]
000000 78 19 c6 bb 84 34 32 be 80 5c a5 3e d7 61 a5 3e
       -0.0060455166 -0.17402846 0.32297134 0.32301208
000010 34 e9 07 3d 4d 00 7d bd 3d a0 0e 3e 5d 1e 2e be
       0.033181384 -0.061767865 0.13928314 -0.1700377
000020 00 be bd 3d 6c e1 8f 3c 50 6a e9 3d 18 b7 8f 3d
       0.09264755 0.017563544 0.113972306 0.07017344
000030 9e 69 ab be 7b 84 43 be a3 7f 86 bc 4e 0f 8e 3d
       -0.33479017 -0.19093506 -0.016418284 0.06936513
000040 20 7e 4b 3e 67 0d 8e 3e 8e c4 6d 3d e9 07 2f bc
       0.19872332 0.277446 0.058048777 -0.010683038
000050 68 e3 3c 3e 25 c5 ad 3e a4 12 94 bd fb d6 39 3d
       0.18446124 0.33939472 -0.07230118 0.045371037
000060 20 36 6d bd 92 b8 e6 bc f2 4c e2 bc cf 13 36 3c
       -0.057912946 -0.028164182 -0.027624581 0.011113121
000070 29 9d bb bd 23 6e a5 3d a1 fb a9 3c 55 00 bd 3b
       -0.09160835 0.080776475 0.020749869 0.005767862
000080 6b 49 18 3e 19 9d 27 be 59 2e a4 3e 3d 48 a5 3d
       0.14871757 -0.16368522 0.3206661 0.08070419
000090 72 85 83 3e 45 f5 a1 be 12 78 e3 bb f5 2e 8f 3d
       0.25687748 -0.31632438 -0.0069418037 0.06991378
0000a0 80 a8 85 3d 4b 94 af bb f4 1a 5a bd 7b 42 da 3d
       0.065262794 -0.005358254 -0.05324836 0.106572114
0000b0 8f 22 83 be 87 01 99 bd d5 d7 81 be 1c 1a a1 bd
       -0.25612304 -0.074709944 -0.2535998 -0.07866308
0000c0 e2 21 29 3e 1d d9 8b 3d 8a 32 4a 3e d9 18 42 be
       0.16516832 0.068285204 0.19745842 -0.18954791
0000d0 87 99 4e bd 32 62 a5 3e 8d 47 37 3c 0d 8a fa 3d
       -0.050439384 0.3230148 0.011186493 0.12233362
0000e0 f8 5c 0e be 9d c0 6c 3e 86 34 06 be 86 d1 9d 3e
       -0.13902652 0.23120351 -0.13105974 0.30823916
0000f0 5c 34 00 3d af 44 97 3d f5 e8 0b be c6 b1 04 bd
       0.031299934 0.07386147 -0.13663085 -0.0323961
000100 9c 24 66 be 73 6b 6f be 21 94 6a 3b a8 6f 58 3e
       -0.22474903 -0.23380832 0.0035793858 0.21136343
000110 11 1f 3d be 34 db d0 be ee 0b 85 bc 78 d5 87 3d
       -0.18468882 -0.4079224 -0.01624104 0.06632513
000120 43 5a 20 3e 88 a7 25 be 0a c9 0e 3e 1f 9f ab be
       0.15659432 -0.1617719 0.13943878 -0.33519837
000130 83 a9 a2 3d 59 e1 83 be 5f be b7 be 1f 92 bc 3e
       0.07942488 -0.25757864 -0.3588743 0.36830232
000140 ab 75 cc 3e 05 ad 0f 3e ac 4e c0 3e 69 7b 95 3e
       0.39933524 0.14030845 0.37560022 0.29195717
000150 5a 2b 34 3d 87 6e 34 3e 0a 44 02 be ba 23 aa 3e
       0.043986656 0.17620288 -0.12721267 0.33230382
000160 e5 93 1b 3c 81 20 80 3d 83 72 fe 3d f8 ce 81 be
       0.00949571 0.062562 0.12424185 -0.25353217
000170 63 be 05 be 0a 13 34 3e 9c a5 bd 3e ae 6b ca bd
       -0.13060908 0.17585388 0.37040412 -0.098838195
000180 b6 ad 09 3c b2 96 0a be 76 0b 5a 3d a9 09 94 3e
       0.008403232 -0.13534048 0.053233586 0.2891362
000190 26 ca 0d 3e 64 19 bb be 4e 6c 19 3e a4 84 39 3e
       0.13846645 -0.3654281 0.14982721 0.18117005
0001a0 26 69 0d 3e 29 e2 b1 3d fb 8a 0e be a5 c1 58 be
       0.13809642 0.08685715 -0.13920204 -0.2116762
0001b0 d8 0f 81 be d9 21 93 3b d5 61 76 be ba 84 cd bd
       -0.252074 0.004490119 -0.24060757 -0.10035081
0001c0 17 91 90 3e 2a ed aa 3d 39 f9 8a 3e 90 c2 b3 3d
       0.28235695 0.08346017 0.27143267 0.08777344
0001d0 d0 4a 25 3e 0e fc d2 3e 6f f1 90 3c 01 e6 89 3e
       0.1614182 0.41207927 0.01769325 0.26933292
0001e0 99 48 26 3e fa 3b 5b 3d 36 a1 1e 3c d0 da b3 3d
       0.16238631 0.053523995 0.00968199 0.087819695
0001f0 70 a6 70 3e 0d 6f a6 3d 0a 7a 70 3d 2f 36 45 bd
       0.23500991 0.0812665 0.058710136 -0.048147377

lstm.weight_hh_l0 f4 [128, 32]
000000 c3 63 94 bd 23 83 d4 3d 9e 01 ec 3c 2f f8 26 3d
       -0.072455905 0.10376575 0.028809365 0.04076403
000010 09 a5 7f 3e 5d 68 28 be a4 1a e7 bd fd 29 1c bd
       0.249653 -0.16446061 -0.11284378 -0.03812598
000020 90 4b 4a be 17 2b be bd 9a 62 ff 3d f8 64 a0 3e
       -0.19755387 -0.092855625 0.12469979 0.31327033
000030 b3 ca 0f be 19 23 36 3d 11 d9 01 be 30 f1 82 be
       -0.14042167 0.044467065 -0.1268046 -0.25574636
000040 8e 18 af be 1c e3 9a bd 83 e0 5a 3d d7 6f 20 be
       -0.3419842 -0.07562849 0.053436767 -0.15667664
000050 86 58 d1 bc ce d1 98 bd 24 90 57 3e db 5a 2f 3c
       -0.025554907 -0.07461892 0.21051079 0.010702814
000060 25 30 4d 3d 52 01 37 be 9c 6d 2b 3d 82 2b 25 3e
       0.050094742 -0.17871597 0.04185258 0.16129878
000070 bf 6b 5f 3e 2c fb a0 bc fc ed 31 3e 7c 80 bf bd
       0.21818446 -0.019651018 0.1737594 -0.09350678
000080 5a b7 83 3e 13 1f 4e be bc 99 f4 3d 0d 77 07 be
       0.25725824 -0.20129041 0.11943385 -0.13229008
000090 70 91 9f 3d 54 b3 ad bb ab 0e 7d be fa 2e 41 3e
       0.07791412 -0.0053009186 -0.24712627 0.18865576
0000a0 87 6b 54 be 4c 06 0a 3e 84 98 4e be 87 76 eb bd
       -0.20744143 0.13478965 -0.20175368 -0.11497217
0000b0 3a 0f 53 be 1b 1e 53 3d 4b 62 2a be db c2 43 be
       -0.20611277 0.051542383 -0.16639058 -0.191173
0000c0 07 26 5d be dd 1c 83 bd 7b 63 42 be b0 b3 67 3e
       -0.21596538 -0.064019896 -0.18983261 0.22627139
0000d0 ae d7 ec bd 44 b5 c8 bd 90 81 5a bd bf 0c 3b be
       -0.11564575 -0.09800199 -0.053346217 -0.18266581
0000e0 2a b9 57 bd 2e 7f ff bd 9b e1 93 3e 8f e5 98 3e
       -0.05266682 -0.124754295 0.2888306 0.2986264
0000f0 6f 88 49 3e 13 82 a3 bc c5 ad 23 be 5f 7c 4d bc
       0.19680952 -0.019959485 -0.15984257 -0.012541859
000100 be 81 79 3d bc 8c 5a bd e1 9a ad bd d7 26 3d bd
       0.060914747 -0.05335687 -0.084768064 -0.04617962
000110 65 0b 5f 3d 5d a8 bf bd c0 89 f9 bd f3 78 3a 3c
       0.054454226 -0.093582846 -0.12184477 0.011381376
000120 e0 a5 ac 3d f8 b7 7a 3d fa 71 1f 3b 39 b1 e1 3d
       0.08430076 0.061210603 0.002432941 0.11020131
000130 de ca da bd d2 09 07 be eb 78 8e be 21 7c ce bc
       -0.10683225 -0.1318734 -0.27826628 -0.025205674
000140 c2 19 52 be e5 12 8c be be 22 91 bd 26 52 48 3e
       -0.20517638 -0.27358165 -0.07086705 0.19562587
000150 9f bc 74 bc 34 7f 10 be 4a 4b 83 3e b8 6c 03 bd
       -0.014937549 -0.14111024 0.25643378 -0.032086104
000160 39 0c 1f bd 76 c9 08 be d2 35 85 3d 87 04 e7 3d
       -0.038830016 -0.13358101 0.06504406 0.112801604
000170 1d 3b 94 3e 42 68 b2 3e ce 90 b3 3d 5d 86 ff bd
       0.2895135 0.34845167 0.08767854 -0.124768
000180 30 4b d8 3c 6e 53 1e 3b be 2d ff bd e3 d6 25 be
       0.02640304 0.0024158615 -0.124598965 -0.16195254
000190 14 62 18 3e 97 43 49 be 8d dd 3e be eb e1 5c 3d
       0.14881164 -0.1965469 -0.18639202 0.05392639
0001a0 27 3a 70 3d fe 08 bb 3d ae e7 38 be 09 55 ad 3d
       0.05864921 0.091325745 -0.18057129 0.08463485
0001b0 b9 4a d5 bd ad ed 6e 3b 2c 79 ec 3d cd b8 fd bd
       -0.10414643 0.0036457584 0.11546549 -0.123887636
0001c0 08 ce fa bd 9e de 6e be 42 f8 64 be e8 a5 22 3e
       -0.122463286 -0.23327109 -0.22360328 0.158836
0001d0 4f f2 62 3d fa d5 9f 3d 28 3e e3 bd 40 85 95 3c
       0.055406865 0.07804485 -0.1109584 0.018252015
0001e0 24 b9 dc 3c e5 5d f5 bd 25 fc 7c 3a 8d 8a ce bd
       0.02694375 -0.119807996 0.00096506096 -0.1008502
0001f0 cf cb 37 3e 9d d7 2e 3e 35 7b 6d bd 20 3c dd bd
       0.1794884 0.17074437 -0.057978828 -0.108024836
000200 9c 6a d8 bc 05 10 f4 bd 7d 94 ca bd fc 6a 67 bd
       -0.026418023 -0.11917118 -0.09891603 -0.056498513
000210 4d 69 5f 3d a7 22 07 be d7 96 24 3e 83 b2 34 3e
       0.054543782 -0.13196813 0.16073166 0.17646222
000220 b4 08 07 be 4b 20 64 bd 5f 76 56 be 3b a1 ee 3c
       -0.13186914 -0.05569486 -0.20943592 0.029129615
000230 b6 55 8f 3e c7 69 98 be 76 27 06 be 31 18 4f 3e
       0.2799508 -0.29768202 -0.1310099 0.20224072
000240 3a 5e 39 bd 54 5d d4 bc 04 b0 04 bd 18 82 20 3d
       -0.045255877 -0.025923409 -0.032394424 0.039186567
000250 7d 78 86 bd 10 d2 1d 3e f7 e3 b2 3c 51 d1 03 be
       -0.0656595 0.15412164 0.021837218 -0.12872817
000260 fe ad 97 be a1 a7 a5 3d 2f 49 59 3e 82 6a 34 be
       -0.29624933 0.08088613 0.21219324 -0.17618755
000270 b6 a9 1b bd 42 e9 9b 3b 37 d7 f3 3d d5 2e 1f be
       -0.038003646 0.004758031 0.11906283 -0.15545209
000280 bd cb 4e 3e d9 73 fa bc 67 f6 fc bd 31 c2 bb 3d
       0.20194907 -0.030572819 -0.12351685 0.091678984
000290 89 31 86 3d fa ef a8 3d dd ee af 3b e3 20 0e 3b
       0.06552417 0.08248897 0.005369051 0.0021687082
0002a0 88 f9 a9 3d 8c 3e b0 3d 9a 83 03 be bf 36 5c be
       0.082995474 0.0860568 -0.12843171 -0.21505259
0002b0 3b e0 da bb 15 9c aa 3d aa f0 39 3d b7 75 39 3c
       -0.0066795624 0.083305515 0.04539553 0.011319569
0002c0 c0 6b 88 3d 84 32 83 3e b2 ad 1e 3e 9f 6d 0c 3c
       0.06661177 0.25624478 0.15495947 0.008571058
0002d0 08 f2 d0 3d bf e0 14 be 2c bf f7 3d 3a b5 4f 3e
       0.10202414 -0.14538859 0.1209701 0.20283976
0002e0 a7 e9 68 3e 35 be 06 3b 7e e3 6f 3d 88 35 fa 3c
       0.22745381 0.002056015 0.058566563 0.030543104
0002f0 9f 93 d7 3d b0 1f 54 be be c5 1c bd e9 f4 6a 3e
       0.10526203 -0.20715213 -0.03827452 0.22944988
000300 d1 12 e5 3e cd ff 34 3e 66 09 37 be e1 9f 67 be
       0.44740918 0.17675705 -0.17874679 -0.22619583
000310 6f 9e c8 3e 92 7a b4 bd ef bc 76 3e f8 33 d9 3e
       0.39183375 -0.08812441 0.2409551 0.42422462
000320 4d c4 9f be da 6d 7d 3e 82 53 3f be 2f ab 51 3e
       -0.31204453 0.24748936 -0.186842 0.20475458
000330 83 26 10 3e de 78 9a be 18 14 4a be 3f 36 91 be
       0.14077191 -0.3017034 -0.19734228 -0.283617
000340 a0 2a 05 be ee 59 6e be d2 f0 6d be 70 30 e7 3d
       -0.13004541 -0.23276493 -0.23236397 0.112885356
000350 d7 26 de be df 8b 1b bd 86 c7 a7 3e b9 7f 9c be
       -0.43389007 -0.03797519 0.32769412 -0.30566195
000360 f1 7b e2 be 97 51 97 be a8 b4 d8 3e d9 20 49 3e
       -0.44235185 -0.29554436 0.4232533 0.19641437
000370 56 36 e1 3e 73 f6 01 3e b4 c9 fc 3c 42 14 d9 bd
       0.43986768 0.12691669 0.030857898 -0.10599567
000380 1a 2e 86 3b 1c c9 0d bc 98 95 94 3c 85 fc 0f 3e
       0.004094851 -0.008653905 0.018137738 0.14061172
000390 48 93 26 3e d0 78 9d bd ba 46 54 bc 02 64 9c 3d
       0.16267121 -0.07689059 -0.012956316 0.076362625
0003a0 77 29 43 be 29 d8 e7 bd 05 82 be bd 10 3e c1 39
       -0.19058786 -0.11320526 -0.09302143 0.0003685807
0003b0 27 82 0b be 95 39 69 be 44 9c 91 be fa 7b 0d bd
       -0.13623868 -0.22775872 -0.28439534 -0.03454206
0003c0 1a 7f dc bb 27 61 b5 bd 79 8f 07 bd 1f 84 47 3e
       -0.006729019 -0.08856421 -0.03309581 0.19483994
0003d0 90 e5 87 be 63 57 2a 3e a3 f5 48 3e f2 40 e2 3d
       -0.2654233 0.16634898 0.19624953 0.110475436
0003e0 d6 3a 8d be c9 c3 f0 bd 50 e4 78 3e e3 02 91 bd
       -0.2758395 -0.11756093 0.24305844 -0.07080629
0003f0 db 1a 1a bd 77 67 34 3e 7c 3b 19 3e 35 f3 cf bc
       -0.037623268 0.17617594 0.14964098 -0.025384525

lstm.bias_ih_l0 f4 [128]
000000 e6 54 32 be ea c2 3c be 55 50 c8 bd 30 da f7 bd
       -0.17415199 -0.18433729 -0.09780947 -0.12102163
000010 e2 ff 86 be fd 3a 01 be ea 0e 49 be 5d b1 c1 3c
       -0.26367098 -0.12620158 -0.19634596 0.023644144
000020 b1 55 07 be 00 98 47 be 9c 04 ac 3c 7a 69 34 3e
       -0.13216282 -0.19491577 0.020998292 0.17618361
000030 86 81 1b be a5 a9 c3 3c c2 c8 d4 bd a6 4c 26 3c
       -0.15186128 0.023884604 -0.10389854 0.01015011
000040 aa dd 27 3e ec b1 89 be 36 de 2c 3e 33 7d 6d 3c
       0.16393152 -0.26893556 0.16881642 0.014495182
000050 71 65 a8 be d9 f2 86 be 33 48 ac be 6d f4 79 3d
       -0.32889894 -0.26357153 -0.33648834 0.06102412
000060 3e 11 99 be 0c d9 75 3d 3a 7c 52 be be 76 9f bd
       -0.29895967 0.060021445 -0.20555201 -0.0778632
000070 a9 09 4c be 54 4e 18 be 16 71 b6 3d cd ad 22 be
       -0.1992556 -0.1487363 0.08908288 -0.15886612
000080 a2 b1 fc bc 0c 06 9d bd 47 55 0e be 5b c9 8e 3d
       -0.03084642 -0.07667169 -0.13899718 0.06971999
000090 4d f7 00 bd 89 db db 3d 3b 6a dc be 8a 07 ed bd
       -0.031485844 0.107352324 -0.43049797 -0.115737036
0000a0 6d 7e 15 be 63 77 7c 3d cf 27 88 3d 6d cf c1 bd
       -0.14599009 0.061637294 0.06648218 -0.094633915
0000b0 d2 f5 4e be 0a cd 00 3c 35 cc 15 be 8b ab 84 be
       -0.2021096 0.007861385 -0.1462868 -0.25912127
0000c0 69 a0 30 be 29 48 83 be f6 7b 44 be 67 d8 7f 3d
       -0.17248692 -0.2564099 -0.19187912 0.062462237
0000d0 d6 c4 5e be 99 f7 1c 3d 52 dd 0b be 0d e9 89 3b
       -0.21754774 0.038322065 -0.13658646 0.00420869
0000e0 a2 60 55 be cb ce 35 bd b1 34 c6 bd d6 8c 7b 3c
       -0.20837644 -0.044386666 -0.09678019 0.015353402
0000f0 93 3f 02 be db ea a3 bd d5 26 36 be 2e ea f3 bd
       -0.12719564 -0.080037795 -0.1778825 -0.119099006
000100 08 8e df bd cf ea 33 3d b4 40 f5 bc ad 7c 1f 3e
       -0.10915762 0.043925103 -0.02993808 0.15574904
000110 02 6b 0a 3e 0c 0a d1 3d bb 94 f1 3b 26 b2 4f bd
       0.13517383 0.102069944 0.0073724664 -0.050707005
000120 75 c7 96 bd 51 cb 1c 3e 38 79 5a 3e 0b 0a dc 3d
       -0.07362262 0.15311934 0.21335304 0.10744103
000130 c9 7c 0a 3e bc a7 33 3e 33 09 32 3d 7d 24 16 bd
       0.13524164 0.17544454 0.043465804 -0.03665589
000140 d4 19 0f be f6 98 73 3d d0 8a ce 3c ce 36 67 be
       -0.13974696 0.059472047 0.025212675 -0.225795
000150 13 59 03 be b3 3c 26 be 84 f0 c0 3d db 84 8d bd
       -0.12826948 -0.16234092 0.09420875 -0.06910106
000160 05 59 1c bd 68 08 b4 bc 7b 1a b5 bd 8c 5e f3 bd
       -0.038170833 -0.021976665 -0.088429414 -0.11883268
000170 73 16 21 be 03 43 aa bc 24 e9 c7 3d 7b 68 40 be
       -0.1573122 -0.020783907 0.09761265 -0.18789856
000180 58 90 a9 3d 12 f2 e4 3c df ee d7 bc b6 b6 e8 3c
       0.082794845 0.02794746 -0.02635902 0.028407436
000190 62 a5 ab bd bc f6 25 3e 55 9f e7 be e0 e8 a3 bd
       -0.08381154 0.16207403 -0.45238748 -0.08003402
0001a0 e5 28 b7 bd 8e c4 6e bd 4b dd 47 3e 16 ef 50 3e
       -0.08943347 -0.058292918 0.1951801 0.20403704
0001b0 30 1c 89 be 8e a2 92 3d e2 31 87 bd 11 77 64 3d
       -0.26779318 0.07159911 -0.06601311 0.055777613
0001c0 0f 7a ae 3c 7a 74 11 3d 8c 57 c0 bd 7a b1 aa 3d
       0.021298436 0.03551147 -0.09391698 0.08334632
0001d0 07 87 81 be 23 b6 7b be 21 db 8f be 35 fa 2a 3e
       -0.2529833 -0.24581198 -0.2809687 0.16697009
0001e0 e2 be 48 bd 4e 88 d0 3b 17 be 6d bd d8 4b 19 3d
       -0.049010165 0.006363905 -0.058042612 0.037425846
0001f0 6e d0 8d 3d ed 20 2e bb e8 94 07 be a9 49 98 3c
       0.069245204 -0.0026569918 -0.13240397 0.018589811

lstm.bias_hh_l0 f4 [128]
000000 1f 16 7f bd 21 80 24 be 89 38 c7 bd ed e5 54 be
       -0.062276956 -0.16064502 -0.0972758 -0.20790835
000010 02 2b 82 be b1 11 04 3e f0 e2 ae be c6 ad 75 3c
       -0.25423437 0.12897374 -0.34157515 0.014995044
000020 3e 0c 47 be 02 b9 db 3d 00 4a 1f 3e 0d 0f f7 3c
       -0.19438264 0.10728647 0.15555573 0.030158544
000030 6e 33 a4 be e2 92 07 3e 38 94 f5 bd 9e ac 9f 3d
       -0.32070488 0.13239625 -0.11991161 0.07796596
000040 df 46 0e 3e f3 34 69 bd bd 9e 53 3d f4 c8 93 3d
       0.13894223 -0.056935262 0.051665056 0.07216063
000050 56 b5 c2 bd 82 ba 0b 3c 72 4f 82 bd a0 86 ad 3b
       -0.09507243 0.008528354 -0.06362809 0.0052955896
000060 45 97 38 be 21 2f 47 3d b7 03 1a bd a9 80 24 be
       -0.18026455 0.04862893 -0.0376012 -0.16064705
000070 2f 8a 3e be 98 3c ba bd 4e 9f b3 3d 3f c9 84 be
       -0.186074 -0.090935886 0.08770619 -0.2593479
000080 42 9d c8 3d 54 25 3f be bb b6 10 be fa e3 fd bd
       0.097956195 -0.18666583 -0.14132206 -0.12396999
000090 36 08 12 be 53 77 2b bd 93 1f 56 be 6e f0 a4 3c
       -0.14260945 -0.041861843 -0.20910482 0.020134177
0000a0 f2 8f d3 3c 43 da 23 bc cf d5 9c 3e 3b 27 0a be
       0.025825474 -0.010000768 0.30631873 -0.13491528
0000b0 c6 70 cd be 90 ea 28 3d e0 45 c0 3d 4d e9 83 be
       -0.40125102 0.04123932 0.093883276 -0.25763932
0000c0 73 21 8d be 2c 1a a1 bb 58 ff 62 3d 46 9e 08 3d
       -0.27564582 -0.00491645 0.055419296 0.033354066
0000d0 88 65 b7 be b7 5a 70 be 5c 83 c6 bd 73 5d 2b be
       -0.3581965 -0.23472105 -0.096930236 -0.16734867
0000e0 7d dd 8f be 91 c3 bc 3d 66 9b e1 bd 8d 64 ba 3d
       -0.2809867 0.09216989 -0.11015968 0.0910121
0000f0 86 a5 64 be f7 90 0e be 24 3e 8d bd 87 1b 5d be
       -0.22328767 -0.13922487 -0.06896618 -0.21592532
000100 50 9a 3f bd 0e 5e c9 bd a3 15 13 3c 24 c9 b1 bd
       -0.046778023 -0.09832393 0.008977327 -0.08680943
000110 50 e1 96 bd 85 ef 0d 3e 57 46 9c bd bc b2 b4 bd
       -0.07367194 0.138609 -0.07630604 -0.088231534
000120 1e 2b 15 bc e7 f7 31 be 9e a1 93 3e 8d b4 0d be
       -0.009104518 -0.17379723 0.28834242 -0.13838406
000130 32 62 d0 bd 60 e8 06 3e bb 5e 0f 3e 10 6e 54 3d
       -0.10174979 0.13174582 0.1400098 0.051862776
000140 ef 90 61 3d 5e e6 90 bd 4f 5d c9 bc ce b2 3c be
       0.05506986 -0.07075189 -0.024580626 -0.18427584
000150 e1 e1 ba 3b 46 4f 91 3d 66 99 7e 3d f2 9c bd bc
       0.0057031964 0.07095198 0.06215801 -0.023146126
000160 74 b0 1c ba 71 1c ef 3d 1e 78 a2 bc e2 4b bf 3c
       -0.00059772213 0.11675347 -0.019832667 0.023351613
000170 7a 5b b6 3d 6c e5 85 bd 20 f5 df bd 95 b9 0c 3e
       0.089041665 -0.065378994 -0.10935426 0.13742669
000180 cf c9 fa 3d 41 5f d4 3c a4 f8 a4 be ba 54 f5 bc
       0.12245523 0.025924327 -0.32220948 -0.029947627
000190 5a de e7 bc 25 1f 15 3d cf 27 cc be 25 44 21 be
       -0.028304268 0.036406655 -0.39874122 -0.15748651
0001a0 56 96 66 be 66 b3 43 be dd da 25 3e fe 0e d1 bd
       -0.22518286 -0.19111404 0.16196771 -0.10207938
0001b0 78 06 40 be a7 c4 8d 3d 53 87 a0 bc 0f 82 00 3d
       -0.18752468 0.06922274 -0.019595778 0.031374034
0001c0 64 57 b2 3c 0f 37 3c be 05 e1 0e bc a4 81 c7 3d
       0.021770187 -0.18380378 -0.008720641 0.09741524
0001d0 d5 7c 2d be 8d 32 50 be 94 97 cf bd a2 f6 8b 3c
       -0.16942151 -0.20331784 -0.10136333 0.017085377
0001e0 95 71 ad bd d7 68 38 bd e2 97 8f bd 89 49 1e be
       -0.0846893 -0.045021858 -0.07011391 -0.15457739
0001f0 fb 00 e2 3c a3 08 24 be 34 bb a6 bd 80 27 5b be
       0.027588358 -0.1601892 -0.08141175 -0.21401787

layer_norm.weight f4 [32]
000000 fd 54 75 3f c7 41 56 3f 65 31 52 3f 53 dd 74 3f
       0.95832807 0.8369412 0.8210662 0.95650214
000010 0a 74 64 3f 3d 5b 80 3f 2d 60 3c 3f 55 cc 5c 3f
       0.8923956 1.0027844 0.7358425 0.86249286
000020 69 b0 6c 3f 75 af 6a 3f 54 04 77 3f 3a aa 84 3f
       0.9245668 0.91673976 0.9649098 1.0364449
000030 b0 e1 65 3f e4 5e 59 3f 0e 10 82 3f e6 69 a8 3f
       0.89797497 0.84910417 1.016115 1.3157318
000040 46 26 8c 3f 8d 42 69 3f a1 cc 88 3f 1b 0e 77 3f
       1.094918 0.91117173 1.0687448 0.965059
000050 4c 0d 71 3f 7d eb 68 3f c9 e1 49 3f c5 22 89 3f
       0.94160914 0.90984327 0.78860146 1.0713736
000060 4e e4 42 3f ec 4c 69 3f 18 7a 71 3f a9 21 6c 3f
       0.76129615 0.91133 0.94326925 0.9223886
000070 d7 0e 72 3f 4e d1 62 3f dd e8 7f 3f 40 e8 47 3f
       0.94553894 0.88600624 0.99964696 0.7808876

layer_norm.bias f4 [32]
000000 1d 39 f1 3a 4d 67 d0 bc b4 51 d5 3c 26 86 48 ba
       0.0018403862 -0.025439883 0.026039936 -0.0007649384
000010 07 6a 50 3d 8c 18 ae bc da be 14 3d fb 52 07 3e
       0.050882366 -0.02125194 0.036314823 0.13215248
000020 9f 54 80 bb 2a 48 a7 3c ae a5 25 ba a8 de 95 3c
       -0.0039163376 0.020420153 -0.00063189387 0.018294647
000030 86 14 ac 3b a1 c7 ec bd f4 a6 74 bb 4b 25 2f bc
       0.00525147 -0.11561514 -0.0037330957 -0.010690044
000040 3e 36 dc bc 95 4f a2 bd ea 24 bf bc 7b b5 32 3d
       -0.026881333 -0.07925335 -0.023333032 0.043630105
000050 e5 73 0c bd 52 2f 9d bc 8c f0 83 3d a2 e2 ce bc
       -0.034290213 -0.019187603 0.06442365 -0.025254551
000060 ea 0d 8b bd a1 a2 ae bc 4e 40 eb 3c da a2 7a bc
       -0.06789763 -0.021317782 0.028717186 -0.015297616
000070 dc 57 02 3d b6 19 dc 3d 7f db 73 3d 5a 2f 6b bd
       0.03182207 0.107470915 0.0595355 -0.057418205

linear1.weight f4 [32, 32]
000000 6f 22 11 3e 9d 3e 88 be 33 51 76 3e 5d 13 25 be
       0.14173292 -0.2661027 0.24054413 -0.16120668
000010 16 0f 03 be 09 93 9f bd fb 05 bc bb b4 57 91 bd
       -0.12798724 -0.077917166 -0.0057380176 -0.07096806
000020 d6 1c 20 3e 8b 67 a5 bb 82 8e 10 3e c7 d2 2f 3d
       0.15636 -0.0050477437 0.14116862 0.042925622
000030 a2 c8 1d bd e6 9d 18 bc dd 85 40 3e da f7 4e be
       -0.038521416 -0.00931499 0.18801065 -0.20211735
000040 61 bc 50 be bd e4 bf 3c 8c 6b 1e be be 91 58 bd
       -0.20384361 0.0234245 -0.15470713 -0.052873366
000050 d2 17 af bd 8e f7 d3 bc 83 b8 21 be 94 0d f1 3d
       -0.08549465 -0.02587488 -0.15793042 0.11770168
000060 69 15 d2 3d 35 94 c9 3d 2f 6c de bd 30 b4 3b 3e
       0.1025799 0.098427214 -0.10860478 0.18330455
000070 ab 87 54 bd 5b cc 10 be 7d c3 31 be 2c fe c8 3e
       -0.051887196 -0.14140455 -0.17359729 0.39256418
000080 69 89 a9 3d 30 c6 b2 3d 48 e9 41 bc 04 6d ad bb
       0.08278162 0.087292075 -0.011835404 -0.0052925367
000090 e3 86 d1 bd 11 3c 0b be 77 c8 31 3d 80 cb 9d 3c
       -0.10230806 -0.13597132 0.04340407 0.019262075
0000a0 a6 08 f2 3c 43 ca 52 3d 56 a6 02 be eb e4 cb bd
       0.02954514 0.051462423 -0.12758765 -0.09955772
0000b0 da a2 3a 3e fa 44 32 3d 28 84 3e be 3b 36 06 bc
       0.18226185 0.043522812 -0.18605101 -0.0081916405
0000c0 d8 88 3b 3e 08 5a 07 3d ac 9d 35 3e 53 64 85 3d
       0.1831392 0.033044845 0.17735928 0.06513276
0000d0 e0 62 15 3d 44 b6 1a 3d b7 73 06 bd 5f d8 5b 3e
       0.036471248 0.03777148 -0.032825198 0.21469258
0000e0 99 e0 3c 3d f6 ad da bc 9a 20 9f bd 83 82 17 3d
       0.04611263 -0.02669428 -0.0776989 0.0369897
0000f0 24 44 31 bd 1e 5e 85 3d 5d b8 a5 3c ba a9 5e be
       -0.043277875 0.06512092 0.020229513 -0.21744433
000100 46 5a a8 3c ad b0 8f bb a6 66 ee bc 4d 04 14 3e
       0.020550858 -0.004385075 -0.029101681 0.14454766
000110 e6 75 6d be 1f 44 b1 3d 74 ab 01 be d1 63 02 3e
       -0.23189506 0.08655571 -0.1266306 0.1273339
000120 a7 17 a5 3d 05 42 b4 3c f4 7c 8f bd 95 af f5 bc
       0.08061152 0.022004137 -0.07006255 -0.02999095
000130 eb 62 ea bc 9f ab c9 bd 20 83 0b 3d d7 db a4 3e
       -0.02861162 -0.09847187 0.034060597 0.32198974
000140 61 57 f7 3d 42 12 dd bd 32 82 07 3e 9a f3 23 bd
       0.12077213 -0.10794498 0.1323326 -0.04002724
000150 99 5f 59 3e ae 65 5c 3e ff bd c9 be 2e 17 98 3e
       0.21227874 0.21523163 -0.39402768 0.29705185
000160 e1 fc 1c 3e 3d 2a 64 3d c7 e0 ae 3d 96 d4 19 3e
       0.1533084 0.055704344 0.085389666 0.15022501
000170 82 a8 64 be e3 fb cd bd ad 80 83 3d 9a 99 cd 3d
       -0.22329906 -0.10057809 0.06421027 0.10039063
000180 5a b2 6c bd d5 93 5f bd f8 44 0e 3d 9a f0 48 3e
       -0.057787277 -0.054584343 0.034733742 0.19623032
000190 e1 65 56 3d 92 9c 2f 3d 3f 4b b6 3c f4 1b 06 bd
       0.052343253 0.042873926 0.022252677 -0.032741502
0001a0 3b c5 cb 3d cc 06 ad bd 8d 00 30 3e 0b 8b 88 3c
       0.09949728 -0.08448562 0.1718771 0.016667863
0001b0 fc 65 c3 3d 5c 42 09 be 84 73 7e 3d 4d 30 8f 3e
       0.09540936 -0.1340422 0.062121883 0.27966538
0001c0 5c ba 0b 3e 7d fd 9a 3d 2d 24 86 3d d7 57 87 bc
       0.13645309 0.0756788 0.06549869 -0.016521377
0001d0 d2 a2 ad 3d 2a 5b 44 3e a3 61 13 3e 3d fc 2e 3e
       0.08478321 0.19175401 0.14392714 0.17088409
0001e0 1f 13 8e 3c d0 15 4d 3c 06 73 d2 bc b5 a4 e9 bc
       0.017343102 0.012517408 -0.025689613 -0.028520921
0001f0 d9 ee 21 be 06 c3 fd 3d 53 12 40 3e 41 3d a2 be
       -0.1581377 0.123907134 0.1875699 -0.31687358
000200 4e f7 5d be 68 d8 aa 3d 71 e2 01 3e fe 15 4f bd
       -0.2167637 0.083420575 0.12684037 -0.050558083
000210 0b 96 09 bd 6e f6 15 bd e4 f2 2c be bb 3b dc 3d
       -0.033590358 -0.036611967 -0.1688953 0.1075358
000220 01 a7 16 3e a4 25 95 3d 2e 17 dc 3d 9e 0a 69 bd
       0.14712144 0.0728257 0.10746609 -0.05689489
000230 4f c6 3b 3e 8d f4 27 bd 81 55 bd 3d 33 b0 57 3e
       0.18337367 -0.041004706 0.09244824 0.21063308
000240 0b 83 65 bd 6b ae 1e bd 77 35 14 3d 0a d8 2a be
       -0.056033175 -0.038740557 0.0361838 -0.16683975
000250 f5 0f 97 bd d5 d4 21 3e ff af df bb 6c 72 50 3e
       -0.073760904 0.15803845 -0.0068264003 0.20356148
000260 78 b6 cc bd c2 37 98 3d ca 66 76 3d 16 4c 47 be
       -0.09995741 0.0743251 0.06015662 -0.19462618
000270 14 6f 84 3d c4 32 19 be d8 9d 15 3e 82 62 a0 bd
       0.06466499 -0.14960772 0.14610994 -0.07831289
000280 e7 59 59 3b 7d 20 0f be 13 48 35 3d fd 9a 1c 3d
       0.0033165158 -0.13977237 0.04425819 0.038233746
000290 a8 77 ce bd fb 11 13 be f2 ce b8 bd 93 7f ac bd
       -0.10081416 -0.14362328 -0.09023847 -0.0842277
0002a0 26 05 d0 3c ff e0 01 be 76 b0 70 3d 26 b7 e7 bd
       0.02539308 -0.12683485 0.058762036 -0.1131423
0002b0 77 54 d2 3d 1c 1d e4 3d 90 13 02 be a6 24 db 3d
       0.10270017 0.11138365 -0.12702775 0.107003495
0002c0 99 e6 09 be b8 c6 53 3d 24 5b 3e 3e a2 3c 36 bd
       -0.13466872 0.051703185 0.18589455 -0.044491418
0002d0 22 46 6f 3d 84 59 db bd 27 7a 3f bd 3d c3 29 3e
       0.058416493 -0.10710433 -0.046747353 0.16578384
0002e0 81 fb 96 3c e1 64 58 3d 78 14 82 3c 71 1c 83 be
       0.018430473 0.05283058 0.0158789 -0.25607637
0002f0 7c 26 fa bd 94 3d de 3d f8 3e 4b 3c 66 69 93 3c
       -0.122143716 0.10851589 0.01240515 0.017994594
000300 a1 da b3 3d 66 12 d2 bd 18 83 a1 3d f5 71 78 bd
       0.087819345 -0.102574155 0.07886332 -0.060655553
000310 cb 24 c9 3d 09 df e2 3d 13 e0 d9 bd d0 73 2c bd
       0.09821471 0.11077697 -0.10638442 -0.042102635
000320 59 0f 2a 3d 60 d4 8e bd 57 1a f0 bd 09 91 7d 3d
       0.041518543 -0.06974101 -0.11723774 0.061905894
000330 dd 1d 48 3c 15 bd 27 3e 57 f3 95 3b 34 50 4e bd
       0.012214151 0.16380723 0.0045761275 -0.050369456
000340 51 fe 50 bd 23 e1 12 3e 0a fd 80 be b8 7b 09 be
       -0.051023785 0.14343695 -0.25193053 -0.13426101
000350 a3 1e 08 bd 45 c8 e6 3d 3f b0 58 3d 50 2a ba 3b
       -0.033232342 0.11268667 0.052902456 0.0056813136
000360 b4 a5 8c 3d fd 0d b2 3d 47 33 06 3e 08 c7 8f 3d
       0.06867543 0.08694074 0.13105498 0.07020384
000370 85 d7 a7 3c 7e 6b c1 3d 2e fa 32 be 49 44 09 3c
       0.02048851 0.09444331 -0.17478248 0.008378097
000380 1e f2 3f 3e 3c 14 d7 bc 2b 7e a9 3d a8 57 54 be
       0.18744704 -0.026254766 0.08276018 -0.20736563
000390 98 2b da 3d 3a c4 2e 3d 72 93 de bd 48 24 1c bd
       0.10652846 0.042667605 -0.10867967 -0.038120538
0003a0 e9 df 69 bd 21 99 45 3e d1 32 71 3d e6 af 05 bd
       -0.057098303 0.19296695 0.058886353 -0.032638453
0003b0 8f e7 12 be 52 8f 38 3e f7 25 04 bc a6 18 52 be
       -0.14346145 0.18023422 -0.008065692 -0.20517215
0003c0 c8 4f 38 bd 50 80 11 3e a2 af 44 be 78 c2 cb 3b
       -0.04499796 0.14209104 -0.19207624 0.006218251
0003d0 76 54 63 bd 3d 11 36 3c 32 0d 73 bd 7d 77 ab 3d
       -0.05550047 0.011112508 -0.059338756 0.083724
0003e0 43 19 c2 3d 0f 58 b9 bd c5 e8 be 3d 20 6d 13 3e
       0.094774745 -0.09049999 0.09321741 0.14397097
0003f0 c2 8a 0a 3c 7f e2 1d 3d b6 58 69 be 58 99 9a bd
       0.008455934 0.03854608 -0.22787747 -0.07548779

linear1.bias f4 [32]
000000 9c 4b 41 bd bb 3a bb bd fd 2a 0c 3e a9 1f 62 3d
       -0.047191247 -0.09142061 0.13688274 0.055205975
000010 a8 6e fe bd 83 54 f1 3d 69 6c f4 3d 39 65 f8 3a
       -0.1242345 0.117836975 0.1193474 0.0018951065
000020 d0 7e fe 3d 6c 6b 12 3e 07 74 9c bc de 11 16 3d
       0.12426531 0.1429879 -0.019098295 0.036638133
000030 f0 95 e0 3d d1 75 38 be c0 de 88 3c e5 80 7e bb
       0.10966098 -0.18013693 0.016707778 -0.0038834151
000040 00 df 7b 3c dc d1 58 3e 76 39 46 be 98 ad f2 3d
       0.015372992 0.21173805 -0.19357857 0.11849517
000050 56 cb 2d 3d 4b 52 74 3e 61 9e 3a 3e ea 4b dd 3d
       0.042430244 0.23859517 0.1822448 0.10805495
000060 39 81 32 be 16 83 09 be 3f e3 fa 3d 98 9b 04 3e
       -0.17432107 -0.13428912 0.12250375 0.1294998
000070 59 64 c3 3d 8a ff db bd ee 1c 07 3e 52 a1 f0 bc
       0.09540624 -0.107420996 0.1319463 -0.029373799

linear2.weight f4 [1, 32]
000000 26 1b 53 bd a4 bf 82 3d 54 88 5b 3d 66 1f 77 3d
       -0.051539563 0.06384209 0.05359681 0.06033268
000010 f1 52 54 3c 21 56 d2 3d 3e 04 64 bc 3a 38 26 bd
       0.012959228 0.10270334 -0.013917027 -0.040580966
000020 50 61 af 3d 83 7f 0b 3c 13 9d fe bd 11 dc b8 bd
       0.08563483 0.008514288 -0.12432303 -0.09026349
000030 59 c8 81 3c b6 63 8e bd d1 91 54 bc 68 0b bf bc
       0.015842604 -0.06952612 -0.012974218 -0.023320869
000040 e4 63 4e bb 2c 96 04 be 0d ee 07 be c1 84 68 bd
       -0.0031492645 -0.12947911 -0.13274403 -0.05676723
000050 4d 57 b6 3b 53 32 9b bd 46 66 a9 3c a2 5c 22 bd
       0.0055646063 -0.07577958 0.02067865 -0.039639123
000060 13 41 0b 3e 22 4a 80 bd 9a 64 5d 3b 4a c8 ea 3d
       0.13599043 -0.0626414 0.0033781887 0.11463983
000070 de 3d 2d bc 93 9e 4e bc 4f e9 77 3d 70 0f ec 3b
       -0.010573832 -0.012611049 0.060525235 0.0072039887
