labml_nn/lstm/LSTM_THz/model_combine_319r2_15.pth (torch, 26025 bytes, 9 tensors)

lstm.weight_ih_l0 f4 [128, 1]
-0.2836393 0.30392754 -0.20128737 0.1451262 0.1484977 0.2181311 0.28522965 0.009787316
0.18477215 0.22842358 0.10371887 -0.2177683 0.05741359 -0.09752369 0.000660504 0.23068582
-0.17994551 -0.13598508 -0.25816554 -0.17538936 0.1225245 -0.071575455 0.13856094 0.14219508
-0.29627407 0.17321134 0.070460446 -0.07389459 0.05884865 0.20903833 0.31769234 -0.24738592
-0.07032958 0.24621923 -0.35865197 -0.07147134 0.331984 0.16341224 0.024701966 -0.06306643
0.057552803 0.26925123 0.19029672 -0.18814643 -0.158265 -0.06731216 0.03524263 0.24830458
-0.09903843 -0.36821228 -0.016925843 -0.15224038 -0.014048349 -0.13460292 0.09062027 0.079743564
-0.19045763 -0.15930736 0.105465986 -0.058259867 0.07179851 0.08377123 0.27061182 -0.23215313
0.31847304 -0.24113773 0.39481702 -0.24505085 0.17078345 -0.36331946 0.3031271 -0.008527661
0.15387447 -0.18335904 0.3221136 0.0138015 0.35165694 -0.14707932 0.17989115 -0.23649865
0.08036224 -0.41594175 0.016610792 -0.070860036 -0.16788778 0.100372255 -0.27515805 0.052154142
-0.33955556 -0.46231368 -0.39712173 0.3231047 0.11881087 0.41882408 -0.35448647 0.2852921
-0.32983276 0.22834082 -0.1598424 0.16899 0.1039104 0.09107117 0.19731927 -0.028378412
0.19730048 -0.05368667 0.3563128 -0.25776756 -0.06882375 -0.095413424 -0.013858516 0.2830173
-0.2345468 -0.102252856 -0.19969873 0.0010021786 0.013879188 -0.16195494 0.30905953 0.10993795
-0.0071932557 0.030144315 -0.08437237 -0.15851271 0.20689878 0.39586967 0.30791318 -0.2815879
00000000: 2c39 91be 649c 9b3e 471e 4ebe f69b 143e
00000010: c80f 183e c25d 5f3e 9f09 923e fb5a 203c
00000020: e934 3d3e dfe7 693e 8f6a d43d a7fe 5ebe
00000030: 832a 6b3d 80ba c7bd ac25 2d3a e738 6c3e
00000040: a343 38be ac3f 0bbe 462e 84be 4599 33be
00000050: 20ee fa3d 2796 92bd ebe2 0d3e 969b 113e
00000060: 3cb1 97be 505e 313e 914d 903d 0c56 97bd
00000070: 480b 713d 250e 563e 92a8 a23e bc52 7dbe
00000080: f408 90bd e520 7c3e 3ba1 b7be 915f 92bd
00000090: cff9 a93e 8a55 273e c75b ca3c f928 81bd
000000a0: 7dbc 6b3d 4cdb 893e 25dd 423e 75a9 40be
000000b0: 3810 22be f5da 89bd 935a 103d 8e43 7e3e
000000c0: a9d4 cabd 5286 bcbe 11a8 8abc e7e4 1bbe
000000d0: 0c2b 66bc 59d5 09be 1f97 b93d 9850 a33d
000000e0: 5307 43be 7821 23be 8dfe d73d e6a1 6ebd
000000f0: 190b 933d 4090 ab3d a28d 8a3e 8db9 6dbe
00000100: e60e a33e cfec 76be 7525 ca3e 9cee 7abe
00000110: dbe1 2e3e 0205 babe 7a33 9b3e 9ab7 0bbc
00000120: 4591 1d3e 79c2 3bbe 13ec a43e b01f 623c
00000130: 610c b43e f69b 16be 6335 383e b42c 72be
00000140: f594 a43d 51f6 d4be 5b13 883c 111f 91bd
00000150: c6ea 2bbe f88f cd3d 84e1 8cbe 959f 553d
00000160: 3ada adbe 61b4 ecbe 8a53 cbbe fb6d a53e
00000170: 1d53 f33d 1c70 d63e 407f b5be ce11 923e
00000180: d7df a8be 2dd2 693e baad 23be b70b 2d3e
00000190: face d43d 8683 ba3d 100e 4a3e d879 e8bc
000001a0: 2309 4a3e 8ee6 5bbd a26e b63e 1cfa 83be
000001b0: 77f3 8cbd 1d68 c3bd d40e 63bc a5e7 903e
000001c0: 092d 70be f269 d1bd d37d 4cbe 895b 833a
000001d0: 8965 633c 84d7 25be 0d3d 9e3e 2627 e13d
000001e0: 67b5 ebbb 36f1 f63c 6ccb acbd 2851 22be
000001f0: 46dd 533e 6eaf ca3e cca6 9d3e 4a2c 90be

lstm.weight_hh_l0 f4 [128, 32]
-0.12267494 0.20850646 -0.10689491 0.18513654 -0.08022683 -0.038376976 0.0010786792 0.111005515
0.049039766 0.011844205 -0.12894556 -0.020552555 0.08794374 -0.09146532 0.06599363 -0.30832088
-0.16925031 0.087246016 0.14677104 -0.1851553 0.022100775 -0.13837202 0.055932548 -0.14512113
-0.011997519 0.20636313 0.100075945 0.022219203 0.0858642 -0.08854119 0.19127956 -0.062085018
0.043928757 -0.019602325 -0.050355002 -0.05388479 0.17454222 0.0077812206 -0.39481905 -0.11250362
-0.19085978 0.04414402 -0.038254447 -0.3220868 -0.24448249 0.36324167 -0.049347553 0.02060831
-0.08393653 -0.013767809 -0.069352634 0.0054438347 0.16339648 0.1015102 0.18779483 -0.017396905
0.09829219 -0.08147318 0.05268574 -0.026288839 -0.09612832 -0.12387531 -0.04549247 0.005526839
0.01641542 0.11345871 -0.01793618 -0.047710232 0.09165822 0.074333556 0.19847365 0.015758956
-0.12308534 -0.025083387 0.1192442 0.12475429 -0.053491816 -0.0034755184 0.08566158 -0.12097315
0.12008817 0.10246091 -0.094542444 0.053869624 0.037639678 -0.19130513 0.050408766 0.13330866
0.13766596 0.09856674 -0.06505459 0.12671049 -0.046947565 -0.15093316 -0.012122296 0.0798378
-0.10405231 0.15115681 -0.030116992 0.0050843856 0.2472441 -0.11104271 0.061709166 0.019162817
-0.19746037 -0.0974976 -0.17105922 -0.14544213 -0.045608774 -0.0015820379 -0.30118275 0.06807188
0.13787323 0.010965242 0.012451574 -0.021741696 0.1271291 0.100985825 0.084440045 -0.095814645
-0.12847696 -0.042488243 -0.14208467 0.17482945 0.08412266 -0.24567069 -0.07660888 0.069791555
0.14875516 0.11513995 0.09165737 -0.22602323 0.17516229 -0.026866376 -0.02376754 -0.21230307
-0.34671816 0.25769833 -0.21081667 -0.14718127 0.12079866 0.1829469 -0.16287869 -0.177459
-0.016126221 -0.13018137 -0.11790342 0.15860838 0.026500542 0.3055049 0.14095072 -0.32011083
-0.13467817 -0.1419423 -0.043474264 0.11940353 -0.23322949 0.016142579 -0.11067096 0.38060874
0.21199338 -0.009750746 0.16611359 0.082778536 -0.024614345 -0.043839023 -0.04862692 0.088512436
-0.02713304 -0.07147847 0.12252204 -0.0076445243 0.122904 0.2129551 -0.22414117 0.111603454
0.13216797 0.015627772 -0.14763598 0.20186925 0.1140031 -0.036744125 -0.00092680485 -0.13766138
0.05217535 0.009639237 -0.18026558 0.0061176177 -0.10637665 -0.13128956 -0.10011418 -0.068439335
-0.019829646 -0.08091994 -0.10909176 0.09414143 -0.08201303 0.16761637 -0.175288 0.29817066
0.036459524 0.085276924 -0.1640682 -0.3436962 -0.11863178 0.1047793 -0.38278475 0.48597512
-0.015575383 0.14959525 -0.040244646 0.29720372 0.12832305 0.13757186 0.27247784 -0.21632032
-0.087777615 -0.06858321 0.1508469 -0.15686463 0.057368588 0.06908385 0.2624618 0.0068605756
0.37725446 0.3344285 0.17247024 -0.14321475 0.40362734 0.14760742 -0.22713447 -0.22067802
-0.07875083 0.052390255 -0.2037772 0.083865575 0.1673178 0.16907603 -0.026639923 0.28420618
0.037880562 -0.25501552 -0.07058933 0.13558635 0.04739428 0.24585731 -0.208631 -0.25810814
-0.2004508 0.059725586 -0.21980372 0.32637522 0.17780288 -0.31314978 -0.12986137 0.04230489
00000000: 003d fbbd b882 553e b8eb dabd 6f94 3d3e
00000010: f74d a4bd 2d31 1dbd 7862 8d3a dc56 e33d
00000020: ecdd 483d 320e 423c 4e0a 04be d55d a8bc
00000030: d91b b43d 2b52 bbbd ab27 873d 3cdc 9dbe
00000040: f44f 2dbe 0aae b23d 264b 163e 5a99 3dbe
00000050: af0c b53c 65b1 0dbe 8719 653d a29a 14be
00000060: 3e91 44bc db50 533e 9ef4 cc3d 0c05 b63c
00000070: 92d9 af3d 1555 b5bd cade 433e dc4c 7ebd
00000080: a4ee 333d 0e95 a0bc 0c41 4ebd 4cb6 5cbd
00000090: 32bb 323e 9cf9 fe3b b925 cabe 4c68 e6bd
000000a0: bf70 43be 5cd0 343d b2b0 1cbd 90e8 a4be
000000b0: 9e59 7abe d0fa b93e a920 4abd c2d2 a83c
000000c0: eae6 abbd 6092 61bc c108 8ebd 3262 b23b
000000d0: 6851 273e 94e4 cf3d 4a4d 403e f483 8ebc
000000e0: 6a4d c93d 69db a6bd 01cd 573d b15b d7bc
000000f0: edde c4bd 57b2 fdbd 5056 3abd 7c1a b53b
00000100: a279 863c 0a5d e83d e5ee 92bc ce6b 43bd
00000110: 4eb7 bb3d 313c 983d ad3c 4b3e ed18 813c
00000120: 2b14 fcbd ad7b cdbc 4e36 f43d 2d7f ff3d
00000130: 3c1a 5bbd 86c5 63bb 576f af3d c5c0 f7bd
00000140: c9f0 f53d 07d7 d13d 789f c1bd 65a6 5c3d
00000150: 102c 1a3d 7ee5 43be 6c79 4e3d 1182 083e
00000160: 4ef8 0c3e 5cdd c93d 573b 85bd 65c0 013e
00000170: 174c 40bd 398e 1abe 989c 46bc 0082 a33d
00000180: 6119 d5bd dac8 1a3e e9b7 f6bc eb9a a63b
00000190: 8f2d 7d3e 5c6a e3bd c0c2 7c3d 57fb 9c3c
000001a0: 0d33 4abe d2ac c7bd 262a 2fbe c8ee 14be
000001b0: 44d0 3abd 625c cfba a034 9abe 4569 8b3d
000001c0: a42e 0d3e 8fa7 333c b001 4c3c a41b b2bc
000001d0: 212e 023e a8d1 ce3d e7ee ac3d 783a c4bd
000001e0: 778f 03be 2708 2ebd a57e 11be 7e06 333e
000001f0: 8048 ac3d 1991 7bbe 1ee5 9cbd e0ee 8e3d
00000200: 4653 183e 7ece eb3d dcb6 bb3d a272 67be
00000210: be5d 333e e016 dcbc 25b4 c2bc fa65 59be
00000220: 0b85 b1be 09f1 833e 53e0 57be b0b6 16be
00000230: 4a65 f73d 6f56 3b3e acc9 26be d0b7 35be
00000240: 231b 84bc 444e 05be 5977 f1bd 3c6a 223e
00000250: aa17 d93c 236b 9c3e 6355 103e 91e5 a3be
00000260: 13e9 09be 5359 11be 1212 32bd d789 f43d
00000270: b6d3 6ebe 713d 843c 75a7 e2bd 26df c23e
00000280: cb14 593e 98c1 1fbc ae19 2a3e cb87 a93d
00000290: 06a4 c9bc 8c90 33bd 052d 47bd 0246 b53d
000002a0: 1c46 debc 4e63 92bd d6ec fa3d eb7e fabb
000002b0: 18b5 fb3d e710 5a3e 4385 65be 5a90 e43d
000002c0: 0a57 073e d005 803c e32d 17be d0b6 4e3e
000002d0: 757a e93d 0281 16bd d2f4 72ba 1bf7 0cbe
000002e0: d2b5 553d e4ed 1d3c 8a97 38be 4c76 c83b
000002f0: 00dc d9bd c570 06be aa08 cdbd ec29 8cbd
00000300: c871 a2bc 5ab9 a5bd 806b dfbd 39cd c03d
00000310: 73f6 a7bd a0a3 2b3e b37e 33be d3a9 983e
00000320: 9556 153d aba5 ae3d 7f01 28be f3f8 afbe
00000330: 38f5 f2bd 8896 d63d 5dfc c3be bbd1 f83e
00000340: e42f 7fbc 7f2f 193e 92d7 24bd 162b 983e
00000350: 1e67 033e a3df 0c3e 3782 8b3e 1383 5dbe
00000360: c0c4 b3bd 5b75 8cbd 9c77 1a3e 1fa1 20be
00000370: 53fb 6a3d d57b 8d3d 6561 863e aece e03b
00000380: 7f27 c13e 363a ab3e 0a9c 303e e3a6 12be
00000390: 3ea8 ce3e 6626 173e f095 68be 6bf9 61be
000003a0: 1d48 a1bd 2a97 563d f8aa 50be b7c1 ab3d
000003b0: 5b55 2b3e 4422 2d3e f83b dabc 7983 913e
000003c0: a628 1b3d 6591 82be 2391 90bd 26d7 0a3e
000003d0: 8120 423d 05c2 7b3e 5da3 55be c026 84be
000003e0: f942 4dbe d1a2 743d 3a14 61be a71a a73e
000003f0: f511 363e 2b55 a0be 61fa 04be e447 2d3d

lstm.bias_ih_l0 f4 [128]
-0.14525767 -0.031863764 -0.06332752 -0.06949895 -0.29290497 -0.1327482 -0.034118164 -0.072575584
-0.05256833 -0.25286317 -0.1286493 -0.19694051 -0.1558551 -0.1755918 -0.1990352 -0.11165429
-0.24950427 -0.08209351 -0.38564995 -0.04255147 -0.17625359 0.059813235 -0.20346603 -0.016282555
0.1575877 0.25406265 0.059456263 -0.15790933 0.041683476 -0.055892058 0.05602432 0.30718186
-0.07663435 -0.11334164 -0.10394711 -0.31224343 -0.34749368 -0.18222913 -0.13060533 -0.213923
-0.09401025 -0.22245315 -0.18001264 -0.017156512 -0.27225897 -0.16231282 0.017584069 -0.22042285
0.0032151914 -0.11956944 -0.030318832 -0.0767354 -0.08508285 0.12976943 -0.1622989 0.09324153
0.03810919 -0.2921516 -0.17122142 0.07875056 -0.14468397 -0.104383826 -0.055992913 0.22817135
-0.0043277615 -0.14945443 0.043653537 -0.18592215 -0.0060611092 0.12030179 -0.022403289 -0.15591139
0.19546774 0.02681823 0.07386714 0.000797248 -0.030572072 -0.060947284 0.13819784 0.11117258
-0.0017065379 0.16650154 -0.13114558 -0.027375689 -0.06368884 0.08689552 -0.071259096 0.17065243
0.114049494 -0.11857267 0.04123583 -0.12340199 -0.027267406 0.21293588 0.0021240336 -0.25215766
-0.15838346 -0.1246348 -0.16259837 -0.26909775 -0.12034577 -0.058400977 -0.032534447 0.0052888426
-0.037111625 0.030571943 0.040395662 -0.03229433 -0.019056862 -0.12855895 -0.24598695 -0.050657734
-0.20391606 0.17351334 -0.3290711 -0.12290368 -0.08638298 -0.22654259 -0.16562848 -0.011389214
0.09009166 0.0944966 0.08771923 0.006798943 -0.00747529 0.12057792 -0.102820344 0.092765875
00000000: 6dbe 14be 9483 02bd dcb1 81bd 7755 8ebd
00000010: a4f7 95be 25ef 07be 7dbf 0bbd 82a2 94bd
00000020: e451 57bd 4877 81be a4bc 03be c6aa 49be
00000030: 7b98 1fbe 56ce 33be e2cf 4bbe 01ab e4bd
00000040: 0c7e 7fbe a420 a8bd e973 c5be 734a 2ebd
00000050: d27b 34be b9fe 743d 6659 50be fe62 85bc
00000060: ac5e 213e 8014 823e 6988 733d fcb2 21be
00000070: 4bbc 2a3d 12ef 64bd c279 653d f146 9d3e
00000080: 78f2 9cbd a91f e8bd 39e2 d4bd 5fde 9fbe
00000090: b1ea b1be 469a 3abe 67bd 05be a20e 5bbe
000000a0: 7288 c0bd c2ca 63be 3c55 38be d08b 8cbc
000000b0: 8765 8bbe 5535 26be 770c 903c 87b6 61be
000000c0: f6b5 523b d3e0 f4bd 335f f8bc 7327 9dbd
000000d0: eb3f aebd 47e2 043e af31 26be 6af5 be3d
000000e0: 6218 1c3d e594 95be ab54 2fbe f947 a13d
000000f0: 0928 14be 30c7 d5bd d358 65bd c0a5 693e
00000100: e5cf 8dbb 950a 19be 0dce 323d 6062 3ebe
00000110: 459c c6bb c960 f63d 1a87 b7bc 3ca7 1fbe
00000120: b228 483e e8b1 db3c a847 973d 68fe 503a
00000130: 4872 fabc dca3 79bd bc83 0d3e 73ae e33d
00000140: e9ad dfba 617f 2a3e 074b 06be fb42 e0bc
00000150: 4b6f 82bd 47f6 b13d 4af0 91bd 83bf 2e3e
00000160: c892 e93d 3ad6 f2bd e7e6 283d 2fba fcbd
00000170: e55f dfbc dd0b 5a3e 5f33 0b3b cf1a 81be
00000180: 462f 22be 8840 ffbd 3080 26be 2ec7 89be
00000190: d877 f6bd dd35 6fbd d742 05bd 074e ad3b
000001a0: 5c02 18bd 0372 fa3c ec75 253d 0f47 04bd
000001b0: 231d 9cbc f5a4 03be 01e4 7bbe 7c7e 4fbd
000001c0: 5fcf 50be 7bad 313e 027c a8be edb4 fbbd
000001d0: 8fe9 b0bd c8fa 67be 839a 29be d399 3abc
000001e0: fa81 b83d 6f87 c13d 24a6 b33d abc9 de3b
000001f0: 47f3 f4bb 8ef1 f63d 7993 d2bd 09fc bd3d

lstm.bias_hh_l0 f4 [128]
0.008389443 -0.08778956 -0.1035817 -0.17726633 -0.21416245 0.11179368 -0.15515244 -0.010991489
-0.013704546 -0.045860726 0.0081132455 -0.2330338 -0.24174792 -0.23210393 -0.13572983 -0.18415779
-0.047411557 0.026820071 -0.15094796 -0.060480423 0.04954879 -0.14830567 -0.03825425 0.042751923
0.19430718 0.22178604 0.14906095 0.06836191 -0.17415926 -0.07250194 -0.16588958 0.27278966
-0.27286217 0.13407414 -0.084377386 -0.30937165 -0.36976907 -0.023208827 -0.16162226 -0.1909973
0.06355881 -0.056297425 -0.11333145 0.07142774 -0.31017426 -0.016373487 -0.14722563 0.07753704
-0.2934926 -0.06352977 -0.32660937 -0.11102543 -0.16435118 0.13766183 0.0010786324 0.1438339
0.13858584 -0.19815367 0.026088322 -0.09966611 0.022504473 -0.005272971 -0.04752547 0.11331894
-0.042339277 0.008186249 -0.12646763 0.013383969 -0.013836462 -0.16420573 0.08615807 0.03825949
-0.0096306 -0.09619789 0.15003893 0.16310398 -0.009345543 -0.009419647 -0.07914095 -0.16775753
0.12451727 0.09772836 0.012688482 -0.12333056 -0.055609953 -0.06036504 -0.09495918 0.22963917
0.16072859 -0.06422279 -0.117567435 -0.0216043 0.11934099 -0.004547661 0.033860896 -0.21721116
-0.18643819 0.055494353 0.020984968 -0.26032624 -0.2263973 -0.05859828 -0.17360865 -0.07094051
-0.07457477 0.0051051257 -0.031811576 -0.04729938 -0.21599884 0.0052826097 -0.27755344 -0.09114706
-0.17190944 0.13950235 -0.29291 -0.2874491 -0.018596139 0.03548646 -0.20804022 0.18522607
-0.04093187 0.2278953 -0.08284439 -0.0597844 -0.1308485 0.07273442 -0.0385355 0.07691934
00000000: e073 093c 03cb b3bd a422 d4bd 4e85 35be
00000010: 674d 5bbe 16f4 e43d 48e0 1ebe a515 34bc
00000020: 0889 60bc 75d8 3bbd 6bed 043c 6aa0 6ebe
00000030: c48c 77be a7ac 6dbe c3fc 0abe dc93 3cbe
00000040: 9f32 42bd c4b5 db3c 1a92 1abe 52ba 77bd
00000050: acf3 4a3d 71dd 17be 7db0 1cbd a41c 2f3d
00000060: 76f8 463e e11b 633e 6fa3 183e 5401 8c3d
00000070: ce56 32be e67b 94bd f5de 29be 16ab 8b3e
00000080: 97b4 8bbe bb4a 093e 0dce acbd f665 9ebe
00000090: 5f52 bdbe 7020 bebc 4e80 25be cc94 43be
000000a0: 1f2b 823d 2198 66bd 521a e8bd b548 923d
000000b0: 29cf 9ebe b121 86bc 51c2 16be bdcb 9e3d
000000c0: a944 96be e51b 82bd 5839 a7be 4d61 e3bd
000000d0: ad4b 28be 39f7 0c3e e660 8d3a 3249 133e
000000e0: 72e9 0d3e cce8 4abe 2db7 d53c bf1d ccbd
000000f0: 4d5b b83c e3c8 acbb 11aa 42bd c313 e83d
00000100: f36b 2dbd 9e1f 063c bb80 01be 6f48 5b3c
00000110: 54b2 62bc 8c25 28be a473 b03d fcb5 1c3d
00000120: aac9 1dbc 6603 c5bd cea3 193e bb04 273e
00000130: 0c1e 19bc dd54 1abc a714 a2bd a1c8 2bbe
00000140: e902 ff3d ce25 c83d 5ae3 4f3c bc94 fcbd
00000150: 43c7 63bd 5541 77bd f579 c2bd 8826 6b3e
00000160: 0996 243e 3d87 83bd 32c7 f0bd 80fb b0bc
00000170: 0d69 f43d 8c04 95bb b9b1 0a3d 9a6c 5ebe
00000180: a7e9 3ebe 0c4e 633d abe8 ab3c 7b49 85be
00000190: b2d4 67be c004 70bd 77c6 31be 4249 91bd
000001a0: a8ba 98bd e648 a73b db4c 02bd ffbc 41bd
000001b0: cd2e 5dbe be19 ad3b 7c1b 8ebe 4fab babd
000001c0: 0709 30be b4d9 0e3e 4df8 95be 872c 93be
000001d0: ee56 98bc 405a 113d 7f08 55be e7ab 3d3e
000001e0: 2da8 27bd 635d 693e 52aa a9bd 7de0 74bd
000001f0: 26fd 05be c9f5 943d 67d7 1dbd e387 9d3d

layer_norm.weight f4 [32]
0.8225249 0.9780272 0.9688235 0.89942217 0.851073 1.0106661 0.91537565 0.9134377
0.9514113 0.86190933 0.9909339 0.90834457 0.85950434 0.89162403 0.8790648 0.96406376
0.9048686 0.978532 0.8331124 0.77643764 0.8383401 0.8498798 0.9630434 0.8709928
0.9685755 1.1882675 1.0112667 0.9615645 0.9246601 1.1094878 0.9201961 0.92823154
00000000: fe90 523f fe5f 7a3f d104 783f 8840 663f
00000010: ecdf 593f 825d 813f 0f56 6a3f 0ed7 693f
00000020: b18f 733f 17a6 5c3f d8ad 7d3f 4589 683f
00000030: 7a08 5c3f 7941 643f 640a 613f e2cc 763f
00000040: 78a5 673f 1381 7a3f db46 553f 9ec4 463f
00000050: 759d 563f b991 593f 038a 763f 62f9 5e3f
00000060: 90f4 773f 2619 983f 3071 813f 1729 763f
00000070: 86b6 6c3f b203 8e3f f991 6b3f 95a0 6d3f

layer_norm.bias f4 [32]
-0.09747598 0.034725785 0.04827183 -0.087800264 0.016301412 -0.032474674 0.02778325 -0.05900849
0.023798438 0.11573317 -0.105885714 0.06818487 0.058910865 -0.0442151 0.028257752 0.028478274
0.07680575 -0.05883923 -0.057094667 -0.097169004 0.2096448 0.13913539 0.041207016 -0.13957743
-0.035753343 0.030801034 0.09876453 0.035806615 -0.03040356 0.030533545 -0.04288722 0.10378492
00000000: 7da1 c7bd a03c 0e3d afb8 453d a0d0 b3bd
00000010: 8a8a 853c 2a04 05bd b399 e33c e3b2 71bd
00000020: f1f4 c23c 8305 ed3d 9cda d8bd 82a4 8b3d
00000030: 854c 713d e51a 35bd cd7c e73c 454b e93c
00000040: 554c 9d3d 6801 71bd 19dc 69bd 8b00 c7bd
00000050: 20ad 563e 8279 0e3e b0c8 283d 63ed 0ebe
00000060: 1972 12bd 7352 fc3c 0f45 ca3d f5a9 123d
00000070: e310 f9bc 7c21 fa3c 82aa 2fbd 308d d43d

linear1.weight f4 [32, 32]
-0.08613347 -0.19830137 -0.039793707 0.10548964 -0.1050643 -0.121565565 -0.09624055 -0.0631183
-0.046443745 -0.049306795 0.0073428755 0.21378946 0.11701384 -0.12694529 0.2915883 0.007281948
0.029932845 0.1532645 -0.049272295 -0.1456288 0.13208738 -0.30315736 0.14855793 -0.023814214
0.0333188 0.1656516 0.27725604 -0.25155511 -0.013881982 -0.13765906 0.18244864 -0.27280807
-0.019705465 0.06266128 -0.057381194 -0.044082202 -0.122971445 0.1363777 -0.03001405 -0.035582434
-0.20445871 0.031599984 -0.02295905 0.008825493 -0.050517697 -0.22195192 0.046664752 -0.15915608
0.1289186 0.058854725 0.009276793 -0.048931725 -0.053945005 -0.05008372 0.1422167 -0.14338632
0.11334357 0.12090051 0.27408597 -0.13285731 -0.09612354 -0.12914053 0.109260984 -0.11939592
-0.10168492 0.26150998 -0.13320838 -0.20638542 0.07229089 0.14320959 -0.08773655 -0.00038268944
-0.14786202 -0.043447893 -0.14717689 -0.067519404 -0.0060173827 0.019655056 0.1516086 0.2340863
0.018093696 -0.03389498 -0.23351185 0.01967316 0.027175322 0.122755125 -0.009265104 -0.07239952
0.0065267812 0.28228095 -0.020517277 0.20663626 0.0043176985 -0.34212098 -0.12673274 0.09997955
-0.17937249 0.07359265 -0.14687417 -0.04366685 0.011007586 0.25866213 -0.20795797 -0.16369165
-0.24164897 0.075476415 -0.24548815 -0.07463222 -0.16276303 0.066643134 -0.063685246 0.24071601
0.02631942 -0.010769294 -0.14742091 -0.088154584 -0.013316732 -0.056298345 0.047311164 -0.22175822
-0.064038366 0.20275898 -0.0048545245 0.16388483 -0.10217827 -0.2729584 -0.028721256 0.13422807
0.017674513 0.010745323 0.083687805 -0.2217159 0.21599464 -0.10809638 0.0058538592 0.08090446
0.29758313 -0.19939782 -0.050308414 0.19330883 0.21323782 0.06854833 0.039940555 -0.027139192
0.054808244 -0.16078101 -0.011778375 0.10202464 -0.15107146 -0.0734344 -0.16847563 0.042026807
-0.016345212 -0.16150594 -0.306195 0.07979778 0.10322323 0.259778 -0.13087119 0.046712402
0.013399734 0.13798824 -0.064688906 0.20266074 -0.16740747 -0.060567535 -0.051799107 0.14438105
0.098405294 0.0558891 -0.008129906 -0.057102803 -0.09118093 0.094535165 -0.26652175 -0.22053401
-0.12222725 0.17849582 0.16385621 -0.1331606 0.0067170016 0.09334968 0.09517217 -0.04896858
0.029022353 -0.08257839 -0.082865044 -0.23173615 0.08549281 0.0411019 0.018226558 -0.13291183
-0.13352218 0.18058531 -0.10327454 -0.061074395 -0.022104664 0.23888062 0.13861188 -0.0704357
0.13557912 -0.082132265 -0.12857234 0.17148423 0.0035196177 -0.12254408 0.2302081 -0.054668467
0.011292932 0.057521496 -0.13094924 0.12810576 0.10421209 0.0796285 0.14205834 0.05166719
-0.059402972 0.3089603 0.16053623 0.0060350923 0.14511131 -0.060871534 0.0121325385 0.053330436
-0.13567895 0.21520863 0.036280088 -0.07515428 0.14960338 -0.10597301 -0.1517455 -0.18465126
-0.20663218 -0.05545865 -0.20857856 -0.07557379 0.16807683 0.1717087 -0.010153098 0.10927087
0.082589686 -0.1567178 -0.054452244 -0.074627765 -0.06967568 -0.047650408 0.28061908 -0.05955016
-0.20096593 0.2112867 0.14403541 0.16087931 -0.22852355 -0.069233224 0.12282681 0.14397344
00000000: bf66 b0bd 840f 4bbe bafe 22bd f40a d83d
00000010: f42b d7bd 5ef7 f8bd c419 c5bd 2b44 81bd
00000020: cc3b 3ebd ecf5 49bd 819c f03b a0eb 5a3e
00000030: f4a4 ef3d f2fd 01be 104b 953e 689d ee3b
00000040: ba35 f53c 5ef1 1c3e bfd1 49bd b71f 15be
00000050: ea41 073e 7137 9bbe 921f 183e 0716 c3bc
00000060: 4b79 083d 93a0 293e 81f4 8d3e d5cb 80be
00000070: 4171 63bc 7ff6 0cbe d1d3 3a3e 80ad 8bbe
00000080: 5b6d a1bc 8f54 803d 8b08 6bbd 8a8f 34bd
00000090: 74d8 fbbd 99a6 0b3e 06e0 f5bc e3be 11bd
000000a0: a05d 51be fc6e 013d 9e14 bcbc cd98 103c
000000b0: a5eb 4ebd 5d47 63be 8a23 3f3d d0f9 22be
000000c0: 3d03 043e a711 713d b1fd 173c a26c 48bd
000000d0: 70f5 5cbd 9624 4dbd 41a1 113e ddd3 12be
000000e0: ac20 e83d b09a f73d ff54 8c3e bf0b 08be
000000f0: 6bdc c4bd 6a3d 04be 39c4 df3d d985 f4bd
00000100: 2f40 d0bd a3e4 853e c767 08be b356 53be
00000110: 3f0d 943d 89a5 123e 38af b3bd b5a3 c8b9
00000120: 2469 17be 6bf6 31bd 8ab5 16be 9d47 8abd
00000130: 772d c5bb a403 a13c 493f 1b3e 52b4 6f3e
00000140: 3b39 943c 76d5 0abd bb1d 6fbe 9b29 a13c
00000150: c89e de3c 0a67 fb3d aacc 17bc 3346 94bd
00000160: 9cde d53b 2187 903e d913 a8bc 7598 533e
00000170: 7b7b 8d3b 7b2a afbe 3ac6 01be 14c2 cc3d
00000180: 6cad 37be beb7 963d 2f66 16be 03dc 32bd
00000190: 2959 343c 5d6f 843e eff2 54be c99e 27be
000001a0: d472 77be 6193 9a3d 3f61 7bbe c7d8 98bd
000001b0: 5aab 26be 327c 883d 696d 82bd 427e 763e
000001c0: d39b d73c b171 30bc 82f5 16be 648a b4bd
000001d0: 6c2e 5abc 1899 66bd 5ac9 413d 9614 63be
000001e0: 8c26 83bd 0da0 4f3e b412 9fbb 6dd1 273e
000001f0: d742 d1bd 34c1 8bbe d748 ebbc 1573 093e
00000200: 24ca 903c 270d 303c 8364 ab3d 7e09 63be
00000210: b32d 5d3e a361 ddbd bbd1 bf3b 3db1 a53d
00000220: d15c 983e f12e 4cbe 3210 4ebd c0f2 453e
00000230: 045b 5a3e 1163 8c3d b598 233d 0353 debc
00000240: 9c7e 603d c7a3 24be 16fa 40bc 4bf2 d03d
00000250: 7ab2 1abe c664 96bd e084 2cbe 4d24 2c3d
00000260: 65e6 85bc d061 25be 97c5 9cbe 056d a33d
00000270: b366 d33d 9f01 853e 1903 06be 8155 3f3d
00000280: 8f8a 5b3c ca4c 0d3e 9e7b 84bd 4c86 4f3e
00000290: dd6c 2bbe aa15 78bd 4d2b 54bd a0d8 133e
000002a0: b788 c93d f8eb 643d 4c33 05bc a1e4 69bd
000002b0: 11bd babd a79b c13d 8a75 88be abd3 61be
000002c0: 4852 fabd 9cc7 363e ecc9 273e 415b 08be
000002d0: 4b1a dc3b 1e2e bf3d a0e9 c23d 4793 48bd
000002e0: 49c0 ed3c dc1e a9bd 26b5 a9bd 3e4c 6dbe
000002f0: db16 af3d 775a 283d dd4f 953c 0a1a 08be
00000300: 0aba 08be 5beb 383e 9a81 d3bd 2529 7abd
00000310: d714 b5bc 1f9d 743e 46f0 0d3e 9840 90bd
00000320: 41d5 0a3e f634 a8bd 78a8 03be 9099 2f3e
00000330: 63a9 663b 64f8 fabd acbb 6b3e 0bec 5fbd
00000340: fd05 393c a99b 6b3d 8f17 06be 282e 033e
00000350: 266d d53d 4414 a33d be77 113e faa0 533d
00000360: 8850 73bd 0b30 9e3e 9c63 243e 06c2 c53b
00000370: 0f98 143e 6e54 79bd 8ec7 463c 0471 5a3d
00000380: 6cef 0abe a75f 5c3e 6e9a 143d 7dea 99bd
00000390: a131 193e 6108 d9bd 2c63 1bbe 3815 3dbe
000003a0: 6397 53be 9c28 63bd 9e95 55be 6ec6 9abd
000003b0: 551c 2c3e 68d4 2f3e 2e59 26bc 68c9 df3d
000003c0: c824 a93d a27a 20be 5109 5fbd 71d6 98bd
000003d0: 1fb2 8ebd 132d 43bd 4ead 8f3e deea 73bd
000003e0: 03ca 4dbe 8a5b 583e 057e 133e 8cbd 243e
000003f0: 1402 6abe 26ca 8dbd 9f8c fb3d c66d 133e

linear1.bias f4 [32]
0.05849074 -0.10696083 -0.1690703 -0.13957219 0.1068458 -0.11980588 0.011528263 -0.047741197
-0.17701375 -0.01148735 0.07251605 -0.21632943 -0.043804172 -0.11130921 0.1707353 -0.03314008
0.14291075 -0.15949968 0.1011346 0.057139274 0.18348244 0.17183244 -0.07492883 0.1719161
0.1499796 0.10058467 0.0025187787 -0.2153309 -0.1539751 0.0008903033 0.03968947 -0.03925496
00000000: fc93 6f3d 480e dbbd c420 2dbe 03ec 0ebe
00000010: f9d1 da3d c95c f5bd 0ae1 3c3c 468c 43bd
00000020: 1843 35be 7035 3cbc 4b83 943d 7685 5dbe
00000030: 016c 33bd 15f6 e3bd 3cd5 2e3e e4bd 07bd
00000040: 3257 123e e253 23be a81f cf3d df0a 6a3d
00000050: d2e2 3b3e d8f4 2f3e 4974 99bd c60a 303e
00000060: 4194 193e 56ff cd3d 1812 253b b47f 5cbe
00000070: a6ab 1dbe 3e63 693a 6d91 223d cfc9 20bd

linear2.weight f4 [1, 32]
-0.05933283 -0.09985405 -0.08180946 -0.10425314 0.0016129039 -0.05987312 -0.07281377 -0.03254219
-0.09697327 0.0528495 0.032906085 0.035127852 -0.11362882 -0.023761101 -0.13479964 0.047706515
-0.07459153 0.05914285 0.059214145 -0.056208625 0.07486063 0.049784057 -0.01461249 -0.018041896
0.06838471 -0.06981336 0.03493983 -0.059770588 0.024113253 -0.023812255 0.06617322 -0.09212036
00000000: fb06 73bd 4880 ccbd b88b a7bd ac82 d5bd
00000010: 1368 d33a 843d 75bd 631f 95bd f64a 05bd
00000020: ec99 c6bd b878 583d 88c8 063d 39e2 0f3d
00000030: 3ab6 e8bd a4a6 c2bc eb08 0abe e867 433d
00000040: 72c3 98bd c63f 723d 888a 723d 043b 66bd
00000050: 8850 993d 5eea 4b3d 3a69 6fbc 99cc 93bc
00000060: 480d 8c3d 4ffa 8ebd 111d 0f3d 01d2 74bd
00000070: 2889 c53c eb11 c3bc d385 873d 99a9 bcbd
