labml_nn/lstm/LSTM_THz/model_combine_318r1_33.pth (torch, 26025 bytes, 9 tensors)

lstm.weight_ih_l0 f4 [128, 1]
0	0x3e9f0921	0.31061652
1	0xbe74892b	-0.2388045
2	0x3e0e3bd3	0.13890009
3	0xbe523392	-0.20527485
4	0xbe2c22ea	-0.16810194
5	0xbe87e5db	-0.26542553
6	0xbed1fbe1	-0.4101248
7	0x3e00dfd5	0.12585385
8	0xbe803823	-0.2504283
9	0x3e9639e2	0.29341036
10	0xbe1ed742	-0.15511802
11	0x3e0ec12f	0.13940881
12	0x3e274214	0.163338
13	0xbea9cb3b	-0.33162865
14	0xbe45a878	-0.19302547
15	0x3e0ed72d	0.1394927
16	0x3e258363	0.16163401
17	0xbb477553	-0.003043492
18	0xbcadbf2f	-0.021209328
19	0x3d9305c3	0.07178833
20	0xbe801fe1	-0.25024322
21	0xbc9d9d09	-0.01923992
22	0xbeacb3f4	-0.33731043
23	0xbe37799e	-0.17917487
24	0x3e1e1d9a	0.1544098
25	0xbdf94da4	-0.12173012
26	0xbb26f1a2	-0.0025473614
27	0xbe65bbd2	-0.22434929
28	0x3e495ea1	0.19665004
29	0x3e852b25	0.2600948
30	0xbe02cb1b	-0.12772791
31	0x3e3bc384	0.18336302
32	0x3ebb363f	0.36564824
33	0xbe895867	-0.26825258
34	0x3c8b240e	0.016984966
35	0xbe634825	-0.2219549
36	0xbdbe4f79	-0.09292502
37	0xbdb779ff	-0.08958816
38	0xbed5c19e	-0.4174928
39	0x3e59b4d1	0.21260382
40	0xbe7b91d3	-0.24567346
41	0x3e8f4519	0.27982405
42	0xbed44b2d	-0.41463605
43	0x3e735e0e	0.23766348
44	0x3e2b8b77	0.1675242
45	0xbeead022	-0.45861918
46	0xbe61cc18	-0.22050512
47	0x3d832457	0.06403416
48	0x3e305f32	0.17223814
49	0x3e2fbefa	0.17162696
50	0xbe412d95	-0.18865044
51	0x3cf8602e	0.0303193
52	0xbe4b25e2	-0.1983867
53	0xbcb67ec0	-0.022277236
54	0xbeb63d9b	-0.35593876
55	0xbe3dd403	-0.18537907
56	0x3d60ed47	0.054913785
57	0xbe9b0f9a	-0.3028534
58	0xbe6db543	-0.23213677
59	0xbdb39027	-0.08767729
60	0x3e8b827e	0.27247995
61	0x3cf4b512	0.029871497
62	0xbe44aa9f	-0.19205712
63	0x3ecbb6de	0.39787954
64	0xbe6970c4	-0.22796923
65	0x3ecb8ac0	0.39754295
66	0xbdae47bc	-0.08509776
67	0x3d893fc0	0.067016125
68	0x3cf4ca7c	0.029881708
69	0xbe23387e	-0.15939519
70	0xbe1f862c	-0.15578526
71	0x3de386a9	0.11109669
72	0xbe92ff38	-0.2871034
73	0x3ece7cff	0.4032974
74	0x3de81ca3	0.11333587
75	0x3d11a9db	0.035562377
76	0xbe8504f0	-0.2598033
77	0xbea027fe	-0.31280512
78	0xbe40b404	-0.1881867
79	0x3f0a7dc6	0.54098165
80	0xbd8562e1	-0.06513
81	0x3df0882a	0.11744721
82	0x3dbdc8d6	0.09266822
83	0x3e25de60	0.1619811
84	0xbeaaf0ca	-0.33386832
85	0x3e86945f	0.26285073
86	0xbea4b25a	-0.3216732
87	0xbd0643ec	-0.03277962
88	0xbee136e5	-0.43987194
89	0x3e6ce746	0.23135099
90	0xbe78cafe	-0.24296185
91	0xbf115cef	-0.5678243
92	0x3edbdfa2	0.42944056
93	0xbe6fdaf4	-0.23423368
94	0x3e17bbb0	0.14817691
95	0x3eef64ac	0.46756494
96	0x3e0e82ab	0.13917033
97	0xbec4a28b	-0.3840526
98	0x3e08df55	0.13366444
99	0xbe1f4585	-0.15553863
100	0xbe723682	-0.23653606
101	0xbee2e922	-0.4431849
102	0xbed7443e	-0.42044252
103	0xbd252530	-0.040318668
104	0xbe058171	-0.13037659
105	0x3e2a85ba	0.16652575
106	0xbeae24d4	-0.34012473
107	0x3de22e46	0.11043982
108	0x3ea6c69d	0.32573405
109	0xbe9e198e	-0.30878872
110	0xbe13b673	-0.14425068
111	0x3d93febd	0.07226322
112	0xbcd62ff0	-0.026145905
113	0x3e9316f9	0.28728464
114	0xbe0dadb3	-0.13835792
115	0x3e843b32	0.25826412
116	0xbe561193	-0.20905142
117	0x3e4b7aeb	0.19871108
118	0xbe4e0ecc	-0.20122832
119	0xbdd90dba	-0.10598321
120	0x3cfb6209	0.030686395
121	0xbd7a4b66	-0.06110706
122	0xbe010159	-0.1259817
123	0xbdfc8cae	-0.1233152
124	0x3e984582	0.2974053
125	0xbd839194	-0.06424251
126	0xbd135ee2	-0.03597916
127	0x3e8a68b4	0.27033007

lstm.weight_hh_l0 f4 [128, 32]
0	0x3e318d94	0.17339164
1	0x3d831488	0.064004004
2	0x3d4f352f	0.05058783
3	0xbce28310	-0.027650386
4	0xbdf47c1c	-0.119377345
5	0x3d8213d8	0.06351441
6	0xbde768b3	-0.11299267
7	0xbcbe6ccc	-0.023245238
8	0x3d348354	0.044070557
9	0x3d769f9a	0.0602108
10	0x3d868b0b	0.06569489
11	0x3df370ee	0.11886774
12	0x3dabe8b6	0.083939955
13	0xbe31ed9e	-0.173758
14	0xbe9fcc5b	-0.31210598
15	0xbdd9f742	-0.10642864
16	0xbe81237e	-0.2522239
17	0x3d81fad4	0.0634667
18	0x3ee56e58	0.44810748
19	0x3d374b91	0.0447498
20	0xbdca6d22	-0.09884097
21	0x3e67e200	0.22644806
22	0xbe2a6bb0	-0.16642642
23	0x3e1769b3	0.14786415
24	0x3be1b142	0.006887586
25	0x3e01193f	0.12607287
26	0x3ba9fc75	0.005187566
27	0xbe3a2b4c	-0.18180579
28	0x3c4e05c9	0.0125746215
29	0x3e0782a4	0.13233429
30	0xbce4a3d9	-0.02791016
31	0xbdb68c92	-0.089135304
32	0xbd806abd	-0.06270359
33	0xbd2b085a	-0.04175601
34	0x3e0230cf	0.12713932
35	0x3c98c936	0.018650632
36	0x3dd809e1	0.10548759
37	0xbd7b6f4b	-0.061385434
38	0x3c496d61	0.012294144
39	0x3e55e2d5	0.20887311
40	0x3e398463	0.18116908
41	0xbcf3f389	-0.029779213
42	0xbe0214ff	-0.12703322
43	0xbd01f5a3	-0.031728398
44	0x3d9add15	0.07561699
45	0x3ce1e12b	0.027573189
46	0x3e3b1d50	0.182729
47	0x3e6d346f	0.23164533
48	0x3e7efbbe	0.2490072
49	0x3d579ea0	0.05264151
50	0x3de70454	0.112801224
51	0x3e4a422c	0.19751805
52	0xbdd3c147	-0.10339599
53	0x3db1e61c	0.08686468
54	0x3d8a7495	0.067605175
55	0xbe3ba30b	-0.18323915
56	0x3d541e08	0.051786453
57	0x3e571eb0	0.210078
58	0xbdcf9144	-0.10135129
59	0xbe004d0a	-0.12529388
60	0x3dc5f13c	0.096651524
61	0xbd5e204d	-0.054230023
62	0x3ddece50	0.10879195
63	0xbca40ba8	-0.02002509
64	0xbd399fb6	-0.045318328
65	0x3e869044	0.2628194
66	0x3d5becc0	0.05369258
67	0x3e4b8d2f	0.19878076
68	0xbdd64d2d	-0.10463939
69	0x3bfcf90b	0.007720118
70	0x393c6067	0.0001796499
71	0xbd2aa945	-0.041665334
72	0xbdd3b3cd	-0.10337029
73	0xbc8c53d8	-0.017129824
74	0xbdf95dd0	-0.121760964
75	0xbe8c73d8	-0.27432132
76	0xbe6d91a5	-0.2320009
77	0x3e15bb99	0.14622344
78	0x3e951fa7	0.2912571
79	0xbe6becbe	-0.23039529
80	0x3e4e390b	0.20138948
81	0xbe889330	-0.26674795
82	0xbda908bb	-0.08253618
83	0x3ccca2dd	0.024980003
84	0x3e0b032b	0.13575427
85	0x3dbb5cef	0.09148585
86	0x3e01039f	0.12599038
87	0x3e0267f2	0.12734964
88	0x3e42a2dd	0.1900744
89	0xbb9a58ee	-0.0047103083
90	0xbe21d3ec	-0.15803498
91	0xbc56314b	-0.013073276
92	0xbe656275	-0.2240084
93	0xbe53b2f5	-0.20673735
94	0x3e9f3df9	0.3110197
95	0xbd83070d	-0.06397829
96	0x3d8505f2	0.064952746
97	0x3ec01ea4	0.37523377
98	0x3ec25bfc	0.37960804
99	0x3cf0d9be	0.029400703
100	0xbdb74415	-0.089485325
101	0xbe3644a7	-0.17799626
102	0xbc1e31dd	-0.009655443
103	0xbddbecd4	-0.10738531
104	0x3e2bfe08	0.16796124
105	0x3dabb52c	0.08384165
106	0x3dca4176	0.09875767
107	0xbecacdfc	-0.3961028
108	0x3e28a531	0.16469266
109	0xbe87c2c0	-0.2651577
110	0x3e5a0708	0.21291745
111	0xbe1ba3b2	-0.15199164
112	0x3e87c0a0	0.2651415
113	0xbe0debae	-0.13859436
114	0x3c9f5cf7	0.019453509
115	0xbe4c2021	-0.19934131
116	0xbdfd98eb	-0.123826824
117	0x3e08e46f	0.1336839
118	0xbc2ece6c	-0.010669332
119	0x3e121497	0.14265667
120	0xbc4786bf	-0.012178122
121	0x3df02d3e	0.11727379
122	0x3d8d1a05	0.068897285
123	0xbf0e9dd1	-0.5570956
124	0xbe6eb905	-0.23312767
125	0xbda5dce7	-0.080987744
126	0x3e6d4e0e	0.23174307
127	0xbd982822	-0.0742953
128	0xbc5ae2c9	-0.013359734
129	0x3e34b5dd	0.176475
130	0xbcd1f3f3	-0.02562902
131	0x3cbcd166	0.023049068
132	0xbe0dc194	-0.13843375
133	0xbd51107d	-0.051041115
134	0x3a616018	0.0008597388
135	0xbd8a4211	-0.067508824
136	0xbc9bb9a1	-0.019009413
137	0xbcbd7676	-0.023127776
138	0x3d8e894d	0.06959782
139	0xbee307e0	-0.44341946
140	0xbcb9ba4c	-0.022671841
141	0x3d367315	0.044543345
142	0x3d21392c	0.039361164
143	0xbd8e5ed8	-0.06951684
144	0x3ccdfd6a	0.025145251
145	0xbe73ac55	-0.23796208
146	0xbe46f6ad	-0.19430037
147	0xbdedd414	-0.11612716
148	0x3b09cee5	0.002102786
149	0x3e1c58e9	0.15268292
150	0xbdeb1bad	-0.11479888
151	0x3e09f997	0.13474117
152	0x3c504f0c	0.012714159
153	0x3d67c68b	0.05658583
154	0xbd074431	-0.033024017
155	0x3d8e0ae9	0.06935675
156	0xbd26ed84	-0.040753856
157	0x3dd29285	0.10281853
158	0x3e1a87cf	0.1509087
159	0x3d828176	0.06372349
160	0x3d055474	0.032551244
161	0x3e23d748	0.16000092
162	0x3dd98bc2	0.1062236
163	0x3d68f72e	0.056876354
164	0xbe4e4441	-0.20143224
165	0xbdfa304d	-0.12216244
166	0x3da620bb	0.081117116
167	0xbe8f5af3	-0.27999076
168	0xbd65feda	-0.05615125
169	0xbd6e9460	-0.05824697
170	0xbb1761f1	-0.002309915
171	0xbe8a4542	-0.27005965
172	0x3dfb8161	0.122805364
173	0xbe08f125	-0.1337324
174	0x3e05ac35	0.13053973
175	0xbda915cb	-0.0825611
176	0xbdda48fa	-0.106584504
177	0x3d695560	0.056966186
178	0xbdc733e0	-0.09726691
179	0xbdf02d51	-0.117273934
180	0x3dc869b0	0.09785783
181	0x3e9c2a3b	0.3050097
182	0x3cdcbf9e	0.026946839
183	0x3c47e734	0.012201119
184	0x3eb8173d	0.3595523
185	0x3d301fa5	0.04299893
186	0x3b9e91bf	0.0048391516
187	0x3e4941b9	0.19653977
188	0xbe433c57	-0.19065987
189	0x3e121fae	0.14269897
190	0x3e9ac1d6	0.3022601
191	0xbe086513	-0.13319807
192	0x3dcc6d5c	0.09981796
193	0x3e6f9b76	0.23399147
194	0xbb03d050	-0.0020113178
195	0xbcd6dd5b	-0.026228597
196	0xbe8170e4	-0.2528144
197	0xbe6dedb3	-0.23235206
198	0x3d316afc	0.04331492
199	0x3d3f5708	0.04671386
200	0xbdf678b2	-0.120347396
201	0xbe58ab05	-0.21158989
202	0x3dd76d35	0.105188765
203	0xbd72a07c	-0.05923508
204	0x3e16add7	0.14714752
205	0x3d4b8ca8	0.049694687
206	0x3d83d95f	0.064379446
207	0xbe415c18	-0.18882787
208	0x3e2efa4f	0.17087673
209	0xbd6cc2e2	-0.057803042
210	0xbed2f763	-0.41204366
211	0xbe7387f4	-0.23782331
212	0xbe82803d	-0.25488463
213	0x3dd370d1	0.103242524
214	0x3d4272ec	0.04747288
215	0x3da01c14	0.078178555
216	0x3dcf54c5	0.101235904
217	0xbd838885	-0.064225234
218	0x3d4198a9	0.04726473
219	0x3e3b9c9a	0.18321458
220	0x3c8b79b9	0.017025815
221	0xbdec6442	-0.1154256
222	0xbc3fb689	-0.011701235
223	0xbe5b55d9	-0.21419467
224	0x3cbd4110	0.023102313
225	0x3e105a06	0.14096841
226	0x3d5dcaec	0.0541486
227	0xbe395dfb	-0.18102257
228	0xbd3d2e05	-0.046186466
229	0xbe2fb99e	-0.17160651
230	0xbeab15ee	-0.3341517
231	0xbd27b753	-0.040946316
232	0xbdb1a752	-0.08674492
233	0xbe05776d	-0.13033839
234	0x3d9e5269	0.07730562
235	0xbcc77356	-0.024346989
236	0x3dee231a	0.11627789
237	0xbde2852a	-0.11060555
238	0x3cd756f6	0.026286583
239	0x3e54d20b	0.2078325
240	0xbd76e2be	-0.060274832
241	0x3b634e76	0.0034684218
242	0xbe3d6567	-0.18495713
243	0xbd5d1a33	-0.053980064
244	0xbd73cc1a	-0.05952082
245	0x3dce5556	0.1007487
246	0xbdc3668f	-0.09541046
247	0xbb34409d	-0.0027504333
248	0xbdff8c96	-0.124779865
249	0x3e93d697	0.28874657
250	0xbce74f3c	-0.028236024
251	0xbe73e512	-0.23817852
252	0x3dacaf27	0.08431845
253	0x3b0cbb87	0.002147408
254	0x3da881c6	0.08227877
255	0x3df4927d	0.11942003

lstm.bias_ih_l0 f4 [128]
0	0x3d3d5408	0.046222717
1	0xbdc9e344	-0.098578006
2	0xbe8292f8	-0.25502753
3	0xbd0884a7	-0.033329632
4	0x3d8e7f7f	0.06957912
5	0xbe0b4f0f	-0.13604377
6	0xbc7e07a3	-0.01550475
7	0xbdc1c2d6	-0.0946099
8	0xbe14f32f	-0.14545892
9	0x3ca53505	0.020166883
10	0xbe0b2763	-0.13589244
11	0xbd312494	-0.043247774
12	0xbd1ea6da	-0.03873334
13	0xbe28ab29	-0.16471542
14	0xbe8b1d74	-0.27170908
15	0x3e10e66d	0.141504
16	0xbec6551d	-0.3873681
17	0xbe8be8ad	-0.27325955
18	0xbd4240e3	-0.047425162
19	0x3c24adba	0.010051185
20	0x3e08ab6c	0.13346642
21	0x3dd3deac	0.10345206
22	0x3c8bbefc	0.017058842
23	0x3d786aa5	0.06064858
24	0xbd6deb3d	-0.05808567
25	0x3c8bbeed	0.017058814
26	0xbdb24b98	-0.087058246
27	0x3e1f7484	0.15571791
28	0x3dfa00c9	0.12207181
29	0x3db5b4a9	0.08872349
30	0xbe12f825	-0.14352472
31	0xbdd20753	-0.10255303
32	0x3dc9cced	0.098535396
33	0x3d56d9cb	0.052453797
34	0xbdca8677	-0.098889284
35	0xbe186cb0	-0.14885211
36	0x3e05d34d	0.13068886
37	0xbe303288	-0.17206776
38	0xbe854b3d	-0.26033965
39	0x3e25386d	0.16134806
40	0x3dc0811c	0.09399626
41	0xbd23a496	-0.039951883
42	0xbdcb4e9f	-0.09927105
43	0xbe2b5afb	-0.16733925
44	0xbe5b32d1	-0.21406104
45	0xbd21d107	-0.039505985
46	0xbd9e27cc	-0.077224344
47	0xbe941cc5	-0.289282
48	0xbea40b67	-0.3203995
49	0xbe6c024b	-0.2304775
50	0x3d6f3eac	0.058409378
51	0xbd87ea2e	-0.06636463
52	0x3d4ed8eb	0.050499838
53	0x3e792863	0.24331813
54	0xbe222810	-0.15835595
55	0xbe0c820b	-0.13721482
56	0x3de8b217	0.11362093
57	0xbd9487b6	-0.07252447
58	0xbedad7a4	-0.42742646
59	0xbe945cb6	-0.28976983
60	0xbabfcf85	-0.0014633989
61	0xbe0a3489	-0.13496603
62	0x3dd19e2e	0.102352485
63	0xbd9ceea3	-0.07662704
64	0x3d915f55	0.07098261
65	0x3d4db8c5	0.050225038
66	0xbe3b5e25	-0.18297632
67	0x3dfb9824	0.12284878
68	0x3e1a699e	0.15079352
69	0x3d419ba2	0.047267564
70	0xbd8f4afe	-0.069967255
71	0x3e4c0cf2	0.19926813
72	0xbe4c5073	-0.19952564
73	0xbd02fcb8	-0.031979293
74	0x3d4f064d	0.05054312
75	0x3dd5245e	0.10407327
76	0x3bb7a97a	0.00560492
77	0xbbc4bade	-0.0060037216
78	0xbdc78dcb	-0.09743842
79	0x3dd6bd75	0.10485355
80	0x3d89049b	0.066903315
81	0x3df8909d	0.12136958
82	0x3e104f79	0.14092816
83	0x3dc958ee	0.09831415
84	0x3e0798a5	0.13241823
85	0xbe80a53d	-0.25126067
86	0xbd52ddd3	-0.05148108
87	0xbd7f1203	-0.062273037
88	0xbddea9d2	-0.108722344
89	0x3d402af2	0.046915956
90	0x3d3b8c3d	0.04578804
91	0x3d3a0716	0.045416914
92	0xbd6de9ac	-0.058084175
93	0xbd6d7ca3	-0.05798019
94	0xbe1a8839	-0.15091027
95	0x3de18605	0.1101189
96	0xbc8fc0c9	-0.017547982
97	0xbd33b2b5	-0.0438716
98	0xbe538d32	-0.2065933
99	0xbeaa35f1	-0.3324428
100	0xbe306186	-0.17224702
101	0xbe9a51b7	-0.30140468
102	0xbe0120bf	-0.12610148
103	0x3d1f7794	0.038932398
104	0xbdd4e895	-0.10395924
105	0xbe1a5287	-0.15070544
106	0xbe0dcbc3	-0.1384726
107	0xbd233ef0	-0.039854944
108	0xbdc4f08e	-0.09616195
109	0x3d170d4a	0.036877908
110	0xbe164446	-0.14674482
111	0x3e1d5ba0	0.15366983
112	0xbec05f7b	-0.37572846
113	0xbdd3c38c	-0.10340032
114	0x3d873070	0.066010356
115	0xbe754d47	-0.2395526
116	0xbcf7bde1	-0.030241909
117	0x3cccc17d	0.024994606
118	0xbd65688d	-0.05600791
119	0x3d1ae65b	0.03781734
120	0x3bfb3537	0.007666256
121	0xbddc2dca	-0.10750921
122	0xbe416f38	-0.18890083
123	0x3cb018c6	0.021496188
124	0xbd738f95	-0.059463102
125	0xbcf0193d	-0.02930891
126	0x3c132c1b	0.0089826835
127	0xbe15f6b9	-0.14644898

lstm.bias_hh_l0 f4 [128]
0	0xbdedd8ac	-0.116135925
1	0xbde3e266	-0.111271665
2	0xbbcd7a39	-0.0062706736
3	0xbe544bd6	-0.20732054
4	0xbe014bb6	-0.12626538
5	0xbe1cf925	-0.15329416
6	0xbe840c6f	-0.25790736
7	0x3d7cc959	0.061715458
8	0xbe94a0fd	-0.29029074
9	0xbe0f546a	-0.13997045
10	0xbe7fc591	-0.2497771
11	0xbdf2ffe3	-0.11865213
12	0xbd0f7ae9	-0.035029326
13	0x3c29ba1b	0.010359312
14	0xbe91ba91	-0.2846265
15	0xbd552c6b	-0.052044313
16	0xbe89f342	-0.26943403
17	0xbe98269b	-0.29716954
18	0xbdb7a904	-0.08967784
19	0x3dd11eef	0.10210978
20	0x3d2a86d5	0.041632492
21	0x3da0f227	0.07858687
22	0x3c39f835	0.011350681
23	0xbd2b3f30	-0.041808307
24	0x3e4210f9	0.18951787
25	0x3d1d96f0	0.038474023
26	0xbe5b2dce	-0.21404192
27	0x3e7828a5	0.24234255
28	0xbd33512d	-0.043778587
29	0xba967c5d	-0.0011481155
30	0xbd568654	-0.0523742
31	0x3e070dc0	0.13188839
32	0xbde63ec2	-0.11242439
33	0xbe170a59	-0.14750041
34	0x3d8ca779	0.068678804
35	0xbd9ed6f9	-0.077558465
36	0xbe5ec220	-0.2175374
37	0x3bbc715d	0.0057508186
38	0xbdc8b79a	-0.09800644
39	0xbd34234a	-0.043978967
40	0xbdfabfee	-0.12243639
41	0xbde9cf96	-0.11416547
42	0xbe025667	-0.12728272
43	0xbdc342c8	-0.09534222
44	0x3c517de9	0.012786367
45	0xbc732ff3	-0.014842975
46	0xbeb9d4a1	-0.36295035
47	0xbe8a5841	-0.27020457
48	0xbe4e25f1	-0.20131661
49	0xbe587629	-0.21138825
50	0xbcf36bd6	-0.029714506
51	0xbe1c13c3	-0.15241913
52	0xbdd4d575	-0.10392276
53	0x3e026c86	0.12736711
54	0xbdb2df8e	-0.08734046
55	0xbe46b527	-0.19405042
56	0x3dd4990b	0.10380753
57	0xbe424957	-0.1897329
58	0xbe9cd2da	-0.30629617
59	0xbe9a1687	-0.30095312
60	0xbd5fd436	-0.05464574
61	0x3cc6c5c1	0.024264218
62	0x3da4f70f	0.08054935
63	0xbe4e59ae	-0.20151398
64	0x3d328732	0.043585964
65	0xbe37a1c4	-0.17932802
66	0x3acd0539	0.0015641815
67	0xbb23a504	-0.0024970183
68	0x3dfd0309	0.123540945
69	0xbd0ac482	-0.03387881
70	0x3aba8d1c	0.0014232728
71	0x3e589484	0.21150404
72	0xbd281a9d	-0.041041005
73	0x3dfba7e8	0.12287885
74	0xbd8195bb	-0.06327387
75	0x3d92e4c8	0.07172543
76	0xbcc562ef	-0.024095027
77	0xbd4df86b	-0.050285738
78	0x3d5d7292	0.05406434
79	0xbd8456b0	-0.06461847
80	0xbe3350dc	-0.17511314
81	0x3e2a986e	0.1665971
82	0x3e1a6a7f	0.15079688
83	0x3dc98e9a	0.09841652
84	0x3e715a56	0.23569617
85	0xbe5ec766	-0.21755752
86	0x3af84bb4	0.001894346
87	0xbdd15a0b	-0.102222525
88	0xbe15b19d	-0.14618535
89	0x3cd61ff0	0.026138276
90	0x3dd60657	0.10450428
91	0x3ddd1320	0.107946634
92	0x3d414b59	0.047190998
93	0xbc44bce9	-0.01200793
94	0xbe4f69a4	-0.20255142
95	0x3e77c022	0.24194387
96	0xbdf3a209	-0.1189614
97	0xbce3ebca	-0.027822394
98	0x3d4af56f	0.04955047
99	0xbdb86fde	-0.09005712
100	0xbde63e24	-0.11242321
101	0xbea8f4c9	-0.32999256
102	0xbd511cd0	-0.05105287
103	0xbb8fe120	-0.0043908507
104	0xbe57b92c	-0.21066731
105	0x3e1c4948	0.1526233
106	0xbe18c6e2	-0.14919618
107	0xbe645812	-0.22299221
108	0xbdd2c427	-0.10291319
109	0x3da2ae62	0.07943417
110	0xbe9aa652	-0.30205017
111	0x3e181afe	0.14854047
112	0xbe2bc5ff	-0.16774748
113	0xbe9e260c	-0.30888402
114	0xbd2877a5	-0.041129727
115	0xbe2f059b	-0.17091982
116	0xbe1082e4	-0.14112431
117	0x3e3d2380	0.18470573
118	0xbd962423	-0.07331111
119	0xbe8565b8	-0.26054168
120	0xbb87fa8c	-0.0041497406
121	0xbe6ed4f6	-0.23323426
122	0xbde016ae	-0.10941826
123	0xbce43608	-0.027857795
124	0x3ddbe7b4	0.10737553
125	0xbe66c790	-0.22537065
126	0xbe21f058	-0.1581434
127	0xbe184ca8	-0.14872992

layer_norm.weight f4 [32]
0	0x3f6b382b	0.9188258
1	0x3f864ab1	1.0491544
2	0x3f5b1007	0.8557133
3	0x3f3d169c	0.73862624
4	0x3f693dca	0.9110991
5	0x3f4b0935	0.79310924
6	0x3f5a4fa4	0.8527777
7	0x3f6d44bb	0.92683
8	0x3f5524bc	0.8325918
9	0x3f7a5f23	0.9780142
10	0x3f5451a5	0.8293708
11	0x3f6687db	0.9005105
12	0x3f6ccd04	0.9250033
13	0x3f64fb17	0.8944563
14	0x3f53e939	0.82777745
15	0x3f921ffe	1.1416013
16	0x3f482f42	0.7819711
17	0x3f5c3951	0.8602496
18	0x3f53c6ee	0.8272542
19	0x3f6aa8d1	0.91663843
20	0x3f7e9a2e	0.9945401
21	0x3f595a5a	0.8490349
22	0x3f639ad2	0.8890811
23	0x3f5ee202	0.8706361
24	0x3f771fec	0.96533084
25	0x3f6ce192	0.92531693
26	0x3f4acf3e	0.79222476
27	0x3f914636	1.1349552
28	0x3f6c922a	0.9241053
29	0x3f6d20ca	0.9262816
30	0x3f5a8d5e	0.8537196
31	0x3f812f4c	1.0092559

layer_norm.bias f4 [32]
0	0x3db1855e	0.08668016
1	0x3cc28fa0	0.023750126
2	0x3d876a57	0.066120796
3	0x3e4bda26	0.19907436
4	0xbd633348	-0.055468827
5	0xbce6f4aa	-0.028192837
6	0xbcff3192	-0.031151567
7	0xbd80ed74	-0.062952906
8	0xbe578390	-0.21046281
9	0xbd4cacfa	-0.04996965
10	0x3d27318a	0.04081873
11	0x3d1bd92c	0.038048908
12	0x3cf3e17d	0.029770607
13	0x3c04103d	0.008060512
14	0x3c88e273	0.016709542
15	0xbd0b2510	-0.033970892
16	0xbd96a1ed	-0.07355104
17	0x3e044ae5	0.12919195
18	0xbd4a75d4	-0.049428776
19	0xbd88cc12	-0.06679548
20	0x3cd1230c	0.025529407
21	0x3dcab593	0.09897914
22	0x3c9aaabb	0.018880239
23	0x3dc0adda	0.094081596
24	0x3d330e56	0.043714844
25	0x3cf68a54	0.030095257
26	0x3d702edf	0.05863845
27	0xbd6d1cd2	-0.057888813
28	0xbe0d59ca	-0.13803783
29	0x3d524de5	0.051343817
30	0x3e271d1e	0.16319701
31	0xbd912656	-0.0708739

linear1.weight f4 [32, 32]
0	0x3e622019	0.22082557
1	0x3df27bc2	0.11840011
2	0xbdd41df0	-0.103572726
3	0x3c33d90e	0.010977043
4	0xbdb5c497	-0.08875387
5	0x3dfbaec6	0.12289195
6	0x3d218fe4	0.039443865
7	0xbdc98579	-0.09839911
8	0xbe4e8dfb	-0.20171349
9	0xbd779e66	-0.060453795
10	0x3e321e13	0.17394285
11	0x3e54e791	0.2079146
12	0x3e797695	0.24361642
13	0xbb91b315	-0.004446397
14	0x3c352f2c	0.01105861
15	0xbd9adb3c	-0.07561347
16	0x3a1bc796	0.00059425214
17	0x3db03fb7	0.08605903
18	0x3e019d10	0.12657571
19	0xbb8ff633	-0.004393363
20	0xbd61de97	-0.05514392
21	0x3e301323	0.171948
22	0x3d398d80	0.04530096
23	0x3e426b5c	0.18986267
24	0xbdbd52fe	-0.09244345
25	0x3d72276c	0.059119627
26	0x3e2b6bb5	0.16740306
27	0xbe309739	-0.17245187
28	0x3e075fe1	0.13220169
29	0xbdbeb6fa	-0.09312244
30	0xbd82cccd	-0.06386719
31	0x3dc4eb9f	0.09615254
32	0x3d95bd54	0.07311502
33	0xbe00b53c	-0.12569135
34	0xbd90ee81	-0.07076741
35	0x3c0e3498	0.0086795315
36	0x3dc23353	0.094824456
37	0x3d8b1b2a	0.067922905
38	0x3d80a354	0.06281152
39	0x3e63ffaa	0.22265497
40	0x3d01eff9	0.031722996
41	0xbd3dbb9c	-0.046321496
42	0xbe4c3e07	-0.19945537
43	0xbe35fac4	-0.1777144
44	0xbd4d451a	-0.05011473
45	0x3e6f8b3c	0.23392957
46	0x3d8d59c1	0.06901885
47	0x3c437b95	0.01193132
48	0x3e3a72cb	0.18207853
49	0x3c82e046	0.015976083
50	0xbe119e49	-0.14220537
51	0x3d5b1236	0.053484164
52	0x3dd8a64e	0.10578595
53	0x3e14903e	0.14508149
54	0x3e19c543	0.15016656
55	0xbd31a833	-0.043373298
56	0x3d0be59b	0.034154516
57	0x3d022fae	0.031783752
58	0xbc20a592	-0.0098051
59	0x3e5cada2	0.2155061
60	0x3d40f67c	0.047110066
61	0xbd405aa5	-0.046961445
62	0x3c3319f9	0.010931485
63	0xbe10d299	-0.14142837
64	0x3e593db5	0.21214946
65	0x3db30b41	0.08742381
66	0xbdcbf4a8	-0.09958774
67	0xbdcec302	-0.100957885
68	0xbdf0c83f	-0.11756944
69	0x3d0a1542	0.03371168
70	0xbd22594b	-0.039635938
71	0xbd2b6128	-0.041840702
72	0x3da14939	0.07875294
73	0xbd2b242e	-0.04178255
74	0x3e3368d5	0.17520459
75	0xbdd1898e	-0.102313146
76	0xbda05a4e	-0.07829724
77	0xbdd37451	-0.1032492
78	0xbe1e8849	-0.15481676
79	0xbe08996e	-0.13339779
80	0xbe534125	-0.2063032
81	0x3e1bf8d8	0.15231645
82	0x3e220c9f	0.15825127
83	0xbc82b718	-0.015956447
84	0xbdce4904	-0.100725204
85	0x3d98eece	0.074674234
86	0xbcfc5908	-0.030804172
87	0x3e242f7d	0.1603374
88	0xbcc18803	-0.023624426
89	0x3b404dce	0.002934325
90	0xbe25d358	-0.16193902
91	0xbe89fb00	-0.2694931
92	0xbbaee46a	-0.0053372877
93	0x3daef0a3	0.085419916
94	0xbd2ffdf1	-0.042966787
95	0xbd2dffe4	-0.042480364
96	0x3e1b399e	0.15158698
97	0xbe598e5f	-0.21245717
98	0xbc801684	-0.015635736
99	0x3e11d196	0.14240107
100	0xbb93a16f	-0.0045053284
101	0x3d016138	0.031586856
102	0x3de03dcd	0.109492876
103	0x3d0539d1	0.03252584
104	0xbd9da8aa	-0.07698186
105	0x3d566a66	0.052347563
106	0xbd60aa6d	-0.05485003
107	0xbe624b78	-0.22099102
108	0x3d74d001	0.05976868
109	0xbd7102a2	-0.0588404
110	0x3e344947	0.17606078
111	0xbe15f080	-0.14642525
112	0x3d8d41b1	0.06897295
113	0x3d12f932	0.035882182
114	0xbd26dcd9	-0.04073796
115	0x3dd6bc1d	0.104850985
116	0x3e58be3c	0.21166319
117	0xbe49e2bd	-0.197154
118	0x3dd1f066	0.102509305
119	0xbde02c7a	-0.10945983
120	0x3df42330	0.11920774
121	0xbdf1dbf3	-0.1180953
122	0x3e281b14	0.1641658
123	0x3e84e9b4	0.2595955
124	0xbe317d96	-0.17333063
125	0xbca73000	-0.02040863
126	0xbdfea401	-0.12433625
127	0x3e0302d1	0.12794043
128	0xbe2aec22	-0.1669164
129	0xbd46de3a	-0.048551776
130	0x3cf3f12e	0.02977809
131	0xbd4f2f11	-0.050581995
132	0x3d08312e	0.033250026
133	0xbca7d6fb	-0.020488253
134	0x3deb8595	0.11500088
135	0xbcf4b2fc	-0.029870503
136	0x3dff5bde	0.12468694
137	0xbb7fdc81	-0.0039041343
138	0xbe1928b6	-0.14956936
139	0x3d6f952b	0.058491867
140	0xbdf28159	-0.11841077
141	0x3db62e95	0.088956036
142	0x3d88909c	0.06668207
143	0x3df2bacf	0.11852037
144	0xbd2fa60d	-0.042882968
145	0xbd38ea23	-0.045145165
146	0xbeaf5c44	-0.3425008
147	0x3c0c78f3	0.008573758
148	0x3e397216	0.18109927
149	0xbe2d1b55	-0.16904958
150	0x3d09c0b4	0.03363104
151	0x3d530829	0.051521454
152	0x3d540f97	0.05177268
153	0xbbb4bac0	-0.0055154264
154	0x3ea6b9ff	0.3256378
155	0x3edb9a9d	0.42891398
156	0x3e1d91bc	0.15387625
157	0xbb9f1b51	-0.0048555513
158	0xbe326e41	-0.17424871
159	0xbd395594	-0.04524763
160	0x3c670123	0.014099392
161	0xbd6982a3	-0.05700935
162	0x3b8c60d6	0.0042840047
163	0x3e0dab97	0.13834988
164	0xbe06f6da	-0.13180104
165	0xbd22d944	-0.039757982
166	0xbd24c826	-0.04022994
167	0x3d0f9607	0.035055187
168	0x3e5f3707	0.21798335
169	0xbacec559	-0.0015775367
170	0xbd369048	-0.04457119
171	0xbe3893ab	-0.18025081
172	0x3dd4ff6f	0.104002826
173	0x3e37e06f	0.17956708
174	0xbcecd82e	-0.028911676
175	0xbe74a366	-0.23890457
176	0xbcaf6337	-0.021409614
177	0x3deb6fff	0.11495971
178	0x3d4d5246	0.05012729
179	0x3cb8e7a1	0.022571387
180	0x3c91d4dd	0.017801696
181	0x3de8adf7	0.11361306
182	0x3e2670a5	0.16253908
183	0x3d50ef50	0.051009476
184	0x3da5c64b	0.08094462
185	0x3d96cfc8	0.0736385
186	0xbbbfe09e	-0.005855634
187	0x3d022351	0.03177196
188	0xbe8ef7db	-0.27923474
189	0x3d8cab4c	0.0686861
190	0xbbef6b29	-0.0073064757
191	0xbe0c6d6a	-0.13713613
192	0xbe2c199f	-0.16806649
193	0xbe7f1294	-0.2490943
194	0xbd3b73f5	-0.045764882
195	0x3e047aaa	0.12937418
196	0x3de68afd	0.11256979
197	0x3e0ac79f	0.13552712
198	0x3e37ea95	0.1796058
199	0xbdd1498b	-0.10219105
200	0xbd227eef	-0.039671835
201	0xbde090f1	-0.109651454
202	0x3d0cca2a	0.034372486
203	0xbe071f88	-0.13195622
204	0xbba11366	-0.0049156426
205	0x3dd937d0	0.106063485
206	0x3db1df0c	0.08685121
207	0xbd1a2b6e	-0.037639074
208	0x3e39bd9d	0.18138738
209	0xbba24cc5	-0.0049529993
210	0xbd88d0d0	-0.06680453
211	0x3d06f0a0	0.03294432
212	0x3e5d9821	0.21640064
213	0xbe06d2eb	-0.13166396
214	0x3db8d2d4	0.09024587
215	0x3cddb985	0.027066002
216	0x3d9baef9	0.07601733
217	0xbe358e8f	-0.17730163
218	0x3d04c2db	0.03241239
219	0xbd5b5e8c	-0.053556964
220	0xbe3a48ca	-0.1819183
221	0xbcf090ca	-0.029365916
222	0xbdf50b59	-0.11965055
223	0xbe472b4a	-0.19450107
224	0xbcec6a3a	-0.028859247
225	0x3d9bcb70	0.07607162
226	0x3dc35fec	0.0953978
227	0x3bc70dd3	0.006074646
228	0xbe168f9f	-0.14703225
229	0x3e07ed9c	0.13274235
230	0xbd5f5012	-0.05451972
231	0xbe3c6a54	-0.18399936
232	0xbea5c29b	-0.32375035
233	0xbd7ce742	-0.061743982
234	0x3e179ecc	0.1480667
235	0x3d887eeb	0.06664833
236	0xbcac94f5	-0.021067122
237	0xbe762962	-0.24039224
238	0xbe20ee16	-0.15715823
239	0xbe3b9e0e	-0.18322012
240	0xbd4314cd	-0.04762726
241	0x3dfeec8e	0.12447463
242	0x3d52d71a	0.051474668
243	0xbc5d9270	-0.013523683
244	0x3d296f1a	0.04136572
245	0x3e7f5d70	0.24937987
246	0xbcb397a5	-0.021922896
247	0x3e5b8fd7	0.2144159
248	0x3e2ce679	0.16884793
249	0x3e4d2a80	0.20035744
250	0x3d8b28fd	0.06794927
251	0xbe7134dc	-0.2355532
252	0xbdfd999e	-0.12382816
253	0x3d45003f	0.048095938
254	0x3e18519a	0.14874879
255	0xbe0b3e72	-0.1359804

linear1.bias f4 [32]
0	0xbd3bfae7	-0.045893576
1	0x3c013180	0.007885337
2	0x3db7c6ee	0.0897349
3	0xbe21f55f	-0.15816258
4	0x3d8d276c	0.06892285
5	0x3db4f3c4	0.08835557
6	0xbe05a76f	-0.13052152
7	0x3bfe031e	0.0077518364
8	0xbe00766c	-0.12545174
9	0x3d393fcd	0.04522686
10	0xbd8bea31	-0.06831778
11	0xbd89b72f	-0.067243926
12	0x3cf89d18	0.030348346
13	0xbd8a4e75	-0.06753246
14	0x3d24ad86	0.040204547
15	0x3d852b99	0.06502456
16	0x3d483770	0.048880994
17	0x3d608b67	0.054820444
18	0x3dd36742	0.10322429
19	0xbd86d46b	-0.06583484
20	0xbd8281c9	-0.06372411
21	0x3e09994a	0.13437381
22	0x3e1c574b	0.15267675
23	0xbe269a08	-0.16269696
24	0x3c95fde9	0.01830955
25	0x3cce1c2a	0.025159914
26	0x3e366a49	0.17813982
27	0x3d6a79e3	0.057245146
28	0xbd3bb1b8	-0.045823783
29	0x3dc78fe7	0.09744244
30	0xbc818d2b	-0.015814384
31	0xbbd89f25	-0.0066107684

linear2.weight f4 [1, 32]
0	0x3d27f7e6	0.0410079
1	0xbd156539	-0.036473487
2	0x3c250da3	0.010074052
3	0xbde099ba	-0.10966821
4	0xbc8885c9	-0.016665356
5	0xbd4e28f4	-0.050332025
6	0xbcd00f42	-0.0253979
7	0x3bbff9b0	0.0058586225
8	0xbd712d73	-0.058881234
9	0x3dc036da	0.09385462
10	0xbcc1a748	-0.023639336
11	0xbde26f4f	-0.11056387
12	0x3d357eb0	0.04431027
13	0x3cdf8362	0.027284328
14	0xbca437db	-0.020046165
15	0xbd005f6d	-0.031341005
16	0x3cde8642	0.027163628
17	0x3cff248c	0.031145357
18	0xbd7c0bab	-0.061534565
19	0xbdc03947	-0.09385925
20	0x3e03fc82	0.12889293
21	0xbcd572f0	-0.026055783
22	0x3d875d72	0.0660962
23	0x3c7acf35	0.015308191
24	0x3b13b9f0	0.0022541247
25	0xbc8ed237	-0.017434223
26	0x3dcc1454	0.09964815
27	0xbe17ce5d	-0.14824815
28	0x3db1d18d	0.08682547
29	0x3e055c25	0.13023432
30	0xbc739b9c	-0.014868643
31	0x3cd189a7	0.025578333
