labml_nn/lstm/LSTM_THz/model_combine_318r1_35.pth (torch, 26025 bytes, 9 tensors)

lstm.weight_ih_l0 f4 [128, 1]
000000 da 8f b3 3d cc 05 6f be 52 fe e1 3d ed 7b 85 3e
       0.08767672 -0.23342055 0.11034836 0.2607111
000010 be 00 37 3e 36 fc a7 bd 02 9d c2 3d a5 65 0b bd
       0.17871377 -0.08202402 0.09502603 -0.034032483
000020 7c 9d ef 3d 54 4f 5b be 49 43 82 be 06 9f 15 3e
       0.1169996 -0.2141698 -0.2544196 0.14611444
000030 cb 4e c6 3d cf 90 bd 3e 8f e7 9a 3d 14 d3 9f bd
       0.09682997 0.37024543 0.075636975 -0.07803932
000040 db 16 59 3d 84 3a 8e be 59 e3 31 be d9 89 c7 be
       0.053000312 -0.2777902 -0.17371882 -0.38972357
000050 1f 4b 4b 3e a2 f0 46 bd ca 6e 8b be f5 08 43 be
       0.19852875 -0.04856933 -0.27232963 -0.19046386
000060 9e c3 69 3e 91 3e 9f bc 1e 61 b0 bd 20 b7 5e 3d
       0.22828528 -0.019439014 -0.08612274 0.05437386
000070 51 60 08 3e 49 38 b6 bc 82 f1 b3 be ab 91 6d be
       0.13317992 -0.022243636 -0.35145193 -0.23200099
000080 da d9 97 bc 87 ac 55 be b1 6c 6d 3e 94 bb 00 3e
       -0.018536497 -0.20866595 0.23185994 0.12571555
000090 40 7b 83 3e 9a d3 95 3d 39 87 a9 bd fd b6 8b be
       0.2567997 0.073157504 -0.08277745 -0.27288046
0000a0 0e 7c bc 3d df fe 0a be ed 43 4e be 1e 6d 7a 3e
       0.09203349 -0.13573788 -0.20143099 0.24455687
0000b0 36 5a d6 bd ea a5 a9 3e 05 e8 d2 3e ef 36 c5 bc
       -0.10466425 0.33134395 0.41192642 -0.024074046
0000c0 bd b2 a7 3d 39 11 ac be 6c da c6 be e7 4a 71 be
       0.081883885 -0.3360689 -0.38838518 -0.23563729
0000d0 86 63 02 3e 0c cb 6b be e9 d7 52 be db ae 79 be
       0.12733278 -0.23026675 -0.20590176 -0.24383108
0000e0 1b e3 81 3e c2 85 42 be 4b 92 87 3e 40 72 56 be
       0.2536858 -0.18996337 0.264788 -0.2094202
0000f0 57 bf 0e 3e f2 65 a4 3e c1 ef b7 be 9e 24 12 be
       0.13940178 0.32109028 -0.35925105 -0.14271781
000100 bb 95 65 3e 78 31 da bd 4e 97 2c 3e 09 d2 ba bc
       0.22420399 -0.10653967 0.16854593 -0.02280523
000110 0e e2 e2 be 3d 16 68 3d c7 2d 96 3d e0 ff ca 3c
       -0.4431309 0.056661833 0.0733295 0.024780214
000120 36 dc 24 3e 73 a2 cb 3d a8 ed a9 3d 6c 3c c3 3e
       0.16099629 0.09943094 0.082972825 0.38132036
000130 82 35 d2 3d 3e 7a 75 be 0c ae a1 be a9 8f d0 bd
       0.10264112 -0.23972413 -0.315781 -0.10183651
000140 e6 69 ea be 6b 8a cb bd 4a 25 b8 be 02 fd 4c be
       -0.4578392 -0.099385105 -0.3596595 -0.2001839
000150 bb bf e6 3e 6f 0b 73 be 00 90 be be 93 6c dc bd
       0.45068154 -0.2373483 -0.37219238 -0.107628964
000160 a0 49 4e 3e bb 46 00 3f 6c 87 a9 3e dc 82 86 bd
       0.20145273 0.50107926 0.3311113 -0.06567928
000170 f3 9b 0d be 13 5d c2 be fb 05 3c 3e 4e e8 11 3d
       -0.13829021 -0.37961635 0.18361656 0.035621934
000180 2e 72 a7 bd b5 e2 07 3b ad 27 5a 3d 47 3c a3 3e
       -0.08176075 0.0020734493 0.053260494 0.31881925
000190 f4 65 24 3e 1c 11 1f be d0 18 16 be 22 37 44 be
       0.16054517 -0.1553387 -0.14657903 -0.19161656
0001a0 8b 87 1e 3e 01 ad 76 bd b3 30 bb be 08 f1 d8 3e
       0.15481393 -0.060223583 -0.36560592 0.42371392
0001b0 4a 90 e3 3d e3 88 1e 3e de d8 60 3e 4a 6c 0a be
       0.11111505 0.15481906 0.21957728 -0.13517871
0001c0 62 cb 9a 3d 83 54 b4 be db f5 f0 bd 80 ab 0a bf
       0.075583234 -0.35220727 -0.11765643 -0.5416794
0001d0 e0 22 bf 3d e0 08 4a bb 88 22 86 be da 91 ab bc
       0.09332824 -0.0030828044 -0.2619822 -0.02094357
0001e0 8c d0 43 3e 7f 3c c6 be 85 09 37 3e e9 c9 86 3d
       0.19122523 -0.3871803 0.17874725 0.0658148
0001f0 c6 8f da 3e ba 97 3c bd 13 57 68 bd 18 6b 4c 3d
       0.42687815 -0.046043135 -0.056723665 0.04990682

lstm.weight_hh_l0 f4 [128, 32]
000000 0a f6 51 be a8 1f b9 3d e0 52 e9 bd 16 af 56 be
       -0.20504013 0.09039241 -0.1139276 -0.20965227
000010 01 b0 39 3e 77 d1 b6 3d d4 b6 ea 3d f4 14 ab 3c
       0.18133546 0.08926671 0.11460653 0.020884015
000020 98 c3 62 be f7 f1 c0 bd 2d 2d 27 be 48 a2 90 3c
       -0.22144926 -0.09421151 -0.16325827 0.017655507
000030 02 81 fc 3d da 0a 37 3d 53 ff 39 3e bc 92 91 bd
       0.12329294 0.044688083 0.18163805 -0.071080655
000040 b5 ff 81 3e 37 b0 ee 3d 94 b0 ff 3c bd 19 6f 3e
       0.253904 0.11654704 0.031212129 0.23349662
000050 b8 8c 9d 3c 81 83 ce 3d 3e e9 71 3e 25 53 27 3d
       0.019232139 0.10083676 0.23624131 0.040850777
000060 03 18 a5 bd a2 06 86 be 98 92 79 be 54 c0 e6 3d
       -0.080612205 -0.26176935 -0.24372327 0.112671524
000070 9e a7 cd 3d 9b 21 01 3e 20 84 33 be 51 ff 91 3d
       0.10041736 0.12610476 -0.1753087 0.07128776
000080 c4 14 a1 bd 84 31 5f 3e f3 f4 2d bd 25 42 9f 3d
       -0.07865289 0.21796232 -0.04246993 0.07776288
000090 62 0e 01 3e 05 bb 9a 3d 61 8a c1 be 15 fb e6 bd
       0.12603143 0.075552024 -0.37800887 -0.11278359
0000a0 84 c9 c3 bd 9d 18 48 be 15 e3 83 3d b1 6a bb 3c
       -0.095599204 -0.19540639 0.06439797 0.022878023
0000b0 a3 ed 81 3d dc b0 c0 3d 57 b3 e0 3d d5 dc 9c bd
       0.06344154 0.09408733 0.10971706 -0.07659308
0000c0 ac 0c 66 3e 37 2e d3 bc 38 99 8b be 26 2b 99 3d
       0.22465771 -0.025778873 -0.27265334 0.07478933
0000d0 b5 72 0e be 82 54 93 be cf fa 61 bb cc 94 9e 3c
       -0.13910945 -0.28775412 -0.003448177 0.019358061
0000e0 eb 42 af 3c 32 7e 38 3d 25 5f 9e 3c 76 ae 6b be
       0.021394214 0.045042224 0.019332478 -0.2301577
0000f0 69 3b 27 3e b7 5d 4e 3e 97 98 aa bd 36 f5 47 3e
       0.16331257 0.20152937 -0.083298855 0.19527134
000100 3f 19 25 bd 00 5f 15 3e aa 78 17 3d 86 3e ac 3c
       -0.04030728 0.14587021 0.03698031 0.021025907
000110 5b 91 be 3d 16 d8 da 3d 73 c6 d8 3d b4 88 9b be
       0.09305068 0.10685746 0.10584726 -0.30377734
000120 63 81 4e bd 37 bb 44 be 5a 94 8e 3e 8f 22 87 be
       -0.05041636 -0.19212042 0.27847558 -0.26393554
000130 97 74 88 bd 57 02 b1 3d ef 46 81 3d 13 0b f8 bd
       -0.06662863 0.086430244 0.06312358 -0.12111487
000140 0c 53 87 bd 00 00 28 3e 90 62 4c bb f2 9b 7d 3d
       -0.06607637 0.1640625 -0.0031186678 0.0619163
000150 a8 6d 83 ba 91 e4 8c bd 94 f5 82 bc f7 70 7f be
       -0.0010027187 -0.06879533 -0.015986241 -0.24945436
000160 89 8a b4 bd f3 34 e2 bc 5e b5 77 3d ca 31 67 be
       -0.08815486 -0.027613139 0.0604757 -0.22577587
000170 6a 8e 85 3e 5b 52 93 3e 94 dc b0 3c 69 39 74 bd
       0.26085216 0.2877377 0.021589555 -0.059625063
000180 2a b0 dd bd 69 8b 67 3e 3d 2f ae bd bd 06 c4 bc
       -0.10824616 0.22611775 -0.08505104 -0.023928994
000190 7b 0d 8f 3e 77 19 d6 3c 58 36 09 be 10 8b a4 bd
       0.27939972 0.02613519 -0.13399637 -0.080343366
0001a0 b0 a9 4e be b4 01 a3 be 14 38 95 3e 9c 96 2d be
       -0.20181918 -0.31837237 0.29144347 -0.16951984
0001b0 75 66 1d 3e ef 59 91 3e f9 62 c2 3d 9e 9b 4f be
       0.15371116 0.28388926 0.09491534 -0.20274207
0001c0 6c ae 4b 3e d0 0f b4 3d 41 2d 82 be e4 90 47 bc
       0.19890755 0.087920785 -0.2542515 -0.012180541
0001d0 75 a8 26 bc d6 18 02 3c 9a fe 62 3b 10 7a 5c be
       -0.010171999 0.007940492 0.0034636618 -0.21530938
0001e0 3c 39 c6 bb 10 3a 69 3d 70 fa 84 bd 2f 87 55 3d
       -0.0060493033 0.05694014 -0.0649308 0.052130874
0001f0 af 6c 80 3e 41 e5 1c bc 33 14 82 3e a2 7c 84 3e
       0.2508292 -0.009576143 0.25406036 0.25876337
000200 38 24 c0 3d 06 c3 bc 3d 9e 1d ba 3e 0a 96 d5 3e
       0.09381908 0.09216885 0.3635072 0.41716033
000210 77 72 82 bc 82 d9 50 be 06 2c 37 bd 9d fc 2f be
       -0.015923722 -0.20395473 -0.04471972 -0.17186208
000220 bf e1 81 3d 7b d1 74 bd 05 0d 9c 3c 74 a4 88 3b
       0.06341886 -0.05977009 0.019049177 0.004169995
000230 e3 a3 47 be af bd 40 3d b7 ba 1c 3d e0 0c e3 bd
       -0.19496112 0.047055896 0.038264003 -0.1108644
000240 64 78 d8 bd aa f5 89 be 33 7a 12 3e 48 bb 76 3d
       -0.10569838 -0.2694524 0.14304428 0.0602372
000250 a6 eb c9 3d ca 62 72 3c 3b 11 be be ba 6e 91 3e
       0.098593995 0.014794061 -0.3712252 0.2840479
000260 da 1b bc 3e 03 6b ef 3e 2f f0 b6 3e 2b 49 79 3e
       0.3674 0.4676133 0.3573012 0.24344318
000270 00 1e 3d be 88 b3 d0 3d 22 df ee 3c c8 32 30 3d
       -0.18468475 0.10190493 0.029159132 0.04301718
000280 49 aa ef bc 77 79 cd bd a4 94 d0 bd 36 ab 40 3e
       -0.029256003 -0.10032933 -0.10184601 0.18815312
000290 90 40 f9 bc 3c b1 e2 3c 3e e3 15 be 01 b2 1f 3e
       -0.030426294 0.027672403 -0.14637467 0.15595247
0002a0 c5 3f ed 3d 09 8f 19 3e e8 35 67 be 35 69 65 be
       0.11584429 0.1499597 -0.22579157 -0.22403415
0002b0 b9 4d 58 3c f6 01 bf 3d 64 cc 0e 3e 42 66 11 be
       0.013202124 0.09326546 0.13945156 -0.14199165
0002c0 03 8d 89 bd 51 f6 62 3c 56 ed 31 3d a6 6d 9a be
       -0.06716349 0.013852672 0.04343923 -0.3016178
0002d0 0e 61 e0 bd 4e be 26 3c b0 ac 3d 3d a4 98 81 bd
       -0.10956012 0.010177208 0.046307266 -0.06327942
0002e0 87 77 db 3d 0d 3f 0c 3e 99 dd 53 bd f9 12 6e be
       0.107161574 0.13695927 -0.051725004 -0.23249425
0002f0 dc 7d 09 be 28 63 09 3e 03 59 c1 3c 67 9d 58 3e
       -0.13426918 0.13416731 0.023602014 0.21153794
000300 7d 7c f2 3c ea 37 cb bd 51 af a9 3d 82 40 88 3e
       0.029600376 -0.09922774 0.08285392 0.26611716
000310 e5 12 34 3e 81 dd 27 3e 04 3f 4a 3d 20 7e 8a 3c
       0.17585333 0.16393091 0.049376503 0.016905844
000320 08 03 90 bc 8a 11 3d 3e f4 aa 45 be d4 db 57 3c
       -0.01757957 0.18463722 -0.19303495 0.01317497
000330 78 92 9d 3d 43 ee 30 3c 04 e0 93 bb 52 e0 8b bd
       0.07693952 0.0107989935 -0.0045127887 -0.06829895
000340 26 ae 4f bc 9e 7f 37 bd 06 cb 9e 3d 91 33 2b be
       -0.012675798 -0.04479944 0.077535674 -0.1671889
000350 b9 62 ac bd 87 1b 1c 3d 93 c8 7b 3d 55 1e ed 3d
       -0.08417267 0.03811219 0.06147058 0.11578051
000360 94 39 cd bd 81 34 ac bc 8e 81 97 bd 54 d5 83 bd
       -0.10020748 -0.02102113 -0.073977575 -0.064371735
000370 97 71 35 3e 66 6a 41 3e 6c 4f 74 be ff 07 fb 3d
       0.17719112 0.18888244 -0.23858422 0.122573845
000380 ad 53 84 be b9 a3 2d bc c6 65 0b bd 67 d5 47 be
       -0.2584509 -0.010598117 -0.034032606 -0.19515
000390 e2 e1 a3 3d 4f a7 d3 3d 95 40 af 3c be b7 f8 3d
       0.08002068 0.10334646 0.0213931 0.12144421
0003a0 4e 73 90 be 7c b4 0c 3e d3 82 8c be 77 f1 e8 bd
       -0.2821297 0.13740724 -0.2744356 -0.11374181
0003b0 04 fa 2e 3e 85 4f 1b be 88 69 73 3e 70 93 ac 3c
       0.17087561 -0.15167053 0.23770726 0.021066397
0003c0 2d 6a 8c bc a7 f8 4f 3e 10 f3 2f be ff 28 a3 bd
       -0.017140472 0.20309697 -0.17182565 -0.07966804
0003d0 a8 ce 5e bd 18 45 03 3e 03 a1 76 3d 2e 5d 00 3c
       -0.0543963 0.12819326 0.060212146 0.007834716
0003e0 14 39 1d bd ca fd a4 be a2 e1 38 be 14 f2 1c 3d
       -0.038384512 -0.32224876 -0.18054822 0.0383168
0003f0 b2 4f 6c 3e 39 f1 aa bd 3d f1 89 bd 5c 07 dc 3d
       0.23077276 -0.08346791 -0.06735466 0.10743591

lstm.bias_ih_l0 f4 [128]
000000 25 be 15 3e 55 32 8f bb 6a e5 e8 3c 2a f3 82 be
       0.14623316 -0.0043700137 0.028429706 -0.25576144
000010 b3 be 0f 3d 15 96 73 bd b4 fe 90 bc 78 33 af bb
       0.035093974 -0.0594693 -0.017699577 -0.0053467117
000020 2a 65 10 3e 11 69 71 be aa c8 55 be a0 0f e9 3b
       0.14101091 -0.23575236 -0.20877329 0.0071124583
000030 2c 01 0e be 8a 48 09 3e 83 06 a4 3d 85 67 d3 bd
       -0.13867635 0.13406578 0.080090545 -0.10322479
000040 03 e1 9e 3d 48 14 e5 bd 07 4f bb bd 80 8f 02 bd
       0.07757761 -0.11185509 -0.09145933 -0.031875134
000050 ce bc ba bd 42 9a ea 3d 3f 29 8e bd b1 21 7f be
       -0.09118043 0.114552036 -0.06941461 -0.24915196
000060 ee c6 d8 bd b9 e7 84 3e dd 75 01 3e 7f db ca bd
       -0.10584818 0.2595804 0.12642618 -0.09905147
000070 e8 1c c5 3d 17 a9 98 3e 8c 16 ab 3d 43 ff 38 be
       0.09624654 0.29816505 0.0835391 -0.18066125
000080 16 10 9a 3d 6e fd a3 be 4e 0d 38 3d 1d 8e 5f 3d
       0.075225994 -0.3202929 0.044934563 0.05457889
000090 c0 7b bd bd 94 36 40 be 20 c9 14 be 0f f6 14 3d
       -0.09252119 -0.1877082 -0.14529848 0.036367472
0000a0 2e 9f 99 3d e1 19 7d be c1 d6 61 bc ab 54 ce bc
       0.07501064 -0.24716903 -0.0137841115 -0.025186857
0000b0 b9 34 74 bd 3f e6 2b 3e a9 05 dc 3d 3d 38 22 3e
       -0.059620593 0.1678705 0.10743267 0.15841766
0000c0 ca 87 2a 3e 0f 6d ae bc 3c d5 2a 3e a5 e0 5b bd
       0.16653362 -0.021292238 0.16682905 -0.053681035
0000d0 6b 3a 32 3d 6f e8 10 3e c0 d4 88 3c 78 67 11 be
       0.043512743 0.14151166 0.01670301 -0.14199626
0000e0 aa 12 3a bd c0 79 b4 3c c8 2a 57 be 97 ac 36 3c
       -0.045427956 0.022030711 -0.21012414 0.011149547
0000f0 2c 1b 5f be 46 4a 93 3e 0b 8b 34 be f9 f1 d2 bd
       -0.21787709 0.28767604 -0.17631166 -0.10300059
000100 d9 2f 58 3e 26 1c 3f bd 3d ee 35 bc 8a 39 9c 3d
       0.21112002 -0.046657704 -0.011104164 0.07628162
000110 7a ce a1 3d e4 61 d0 bd 18 42 84 3d e3 71 7d 3d
       0.079007104 -0.10174921 0.06457919 0.06187619
000120 f2 0a 0f 3e 81 28 3b 3e f8 88 26 be 2a d7 4c 3e
       0.13969019 0.1827717 -0.16263187 0.20003954
000130 05 de ba bd fd f3 70 be 3f d3 15 be be 2f 92 3e
       -0.09124378 -0.23530574 -0.14631365 0.2855205
000140 bd f6 4b 3d 6a 84 e6 3d 2c 0d 1d 3e 67 b0 3f be
       0.049795855 0.11255725 0.15337056 -0.18719636
000150 2f 84 02 3e 06 c1 68 3e d6 2f 5b 3e b1 76 77 3e
       0.12745737 0.22729883 0.21404967 0.24166371
000160 62 41 85 3d 10 52 07 be 11 d0 20 be 8b a7 9b bb
       0.065066114 -0.13214898 -0.15704371 -0.0047501973
000170 c9 5a 2e bd ca 80 87 be 46 6c 32 be 78 45 81 bd
       -0.04256705 -0.26465446 -0.17424116 -0.06312078
000180 31 ac e9 bd 2a 26 23 be 40 a2 d8 3c 9c d8 84 be
       -0.11409796 -0.15932527 0.026444554 -0.2594651
000190 7e 78 8a 3d 9a 04 04 3c fc a3 66 3d 2e 23 02 be
       0.06761263 0.008057738 0.05630873 -0.12708732
0001a0 6d 07 4c 3d 75 34 04 be d0 ae 7b be cd d0 45 3e
       0.04981177 -0.12910636 -0.24578404 0.19317932
0001b0 4b 30 b1 bd aa 76 82 3e 82 ae 6d 3e 61 fe 33 3e
       -0.08651789 0.25481158 0.232111 0.17577507
0001c0 a5 28 4e 3e d1 1e 42 be b1 1d c1 bb 80 12 9b be
       0.20132692 -0.18957068 -0.005893432 -0.30287552
0001d0 62 8b 5f 3d f8 2a a7 3d 53 b2 53 3d 78 8e 83 3d
       0.054576285 0.081624925 0.051683735 0.06423658
0001e0 7c 5c eb 3b 8b 87 ab 3d 6e 7d 2f be 67 aa db bd
       0.007182656 0.08375462 -0.17137691 -0.10725861
0001f0 f8 4f 2c be fc bf 59 3e 58 46 3a be 41 a8 36 bd
       -0.1682738 0.21264642 -0.18190897 -0.044594053

lstm.bias_hh_l0 f4 [128]
000000 8e 18 11 3e ad aa 79 be 4b 59 70 be b5 2e 6a be
       0.14169523 -0.24381514 -0.23471563 -0.2286938
000010 24 10 31 3e 85 98 07 3d 38 29 60 be 9b 2c a9 3d
       0.17291313 0.03310444 -0.21890724 0.08260461
000020 05 a0 08 be 09 d4 f5 bc 43 63 1e bd 01 36 2c 3e
       -0.13342293 -0.030008333 -0.038668882 0.16817476
000030 19 6b e6 bd 04 29 9b 3e 8b 93 c4 bd 5f 47 4c bc
       -0.11250896 0.3030473 -0.09598454 -0.012468188
000040 4a 19 12 3e 30 0a c8 b9 45 61 1d 3e 96 86 2c bd
       0.1426746 -0.00038154563 0.15369137 -0.04212054
000050 65 f8 68 bd 0e f3 90 bd 4d 6d 72 bc 6e d6 5b be
       -0.056877512 -0.07077609 -0.014796567 -0.21468517
000060 59 d4 9f bd 09 d9 13 bc 3d 97 c6 3c 0d ca 62 3d
       -0.07804174 -0.009023913 0.024242038 0.055368472
000070 c5 f2 8e bd 95 a1 15 3e ea b8 25 be bb 42 38 be
       -0.06979898 0.1461242 -0.1618382 -0.17994206
000080 6d ba 77 bd af c8 8c be 48 d5 5f be 23 5a 82 3d
       -0.060480524 -0.2749686 -0.21858704 0.063648485
000090 be 9b 15 3e 90 6e 86 bd d8 5d 03 be ee fc b0 3c
       0.14610192 -0.06564057 -0.12828767 0.021604981
0000a0 68 90 28 be 74 42 88 be dc d3 93 be b1 82 11 3e
       -0.16461337 -0.266132 -0.28872573 0.14210011
0000b0 3c 7a 18 bd 63 9a bb 3d 52 ab 3e 3d 76 f5 1c be
       -0.037225947 0.09160306 0.046550103 -0.15328011
0000c0 0f c6 ab 3b 58 d4 cf bd 82 c2 8b 3d 19 82 65 be
       0.0052421163 -0.10147923 0.06824209 -0.2241291
0000d0 80 53 cc 3d 86 57 d4 3d c8 fe ce 3d b5 35 a6 bd
       0.09976864 0.10368256 0.101071894 -0.081157126
0000e0 de d4 65 3d eb 70 c2 3c 00 9a 13 be 99 f7 1c be
       0.05611121 0.023735484 -0.14414215 -0.15328826
0000f0 f2 35 1a be 72 c9 b1 3d 80 e4 1c bd ae 79 f1 3d
       -0.15059641 0.08681001 -0.038303852 0.11790787
000100 e5 2a 8e 3c 3b 07 0d be 3f 0d 2f 3d 62 4c bc bd
       0.017354438 -0.1377229 0.04273724 -0.09194256
000110 2c 49 03 be 24 db b8 bd fe a5 15 3e 03 4e cf 3d
       -0.12820882 -0.09026173 0.14614102 0.101223014
000120 9b 8e 7e 3d 4d 91 d0 3d b5 f4 31 3c d8 9d 34 3e
       0.062147718 0.10183964 0.010861565 0.17638338
000130 27 79 1f be 54 83 ab be 0c 1e 4f bd 89 9e 08 3d
       -0.1557356 -0.33498633 -0.050565764 0.033354316
000140 60 82 06 be 0f 65 82 3c ad 88 9b 3d 24 19 bb bc
       -0.13135672 0.01591733 0.07594428 -0.022839136
000150 50 f0 b9 3d 9b 91 82 3e 7a fa ec bd d9 20 94 bc
       0.09079039 0.25501713 -0.11571212 -0.01808207
000160 11 f8 92 3c 2e c0 d5 3d cf 72 db 3d b1 94 aa 3d
       0.017940553 0.10437046 0.107152574 0.08329142
000170 5b e0 16 be 33 36 87 be fa 7f 08 bc a1 de 57 bd
       -0.14734022 -0.26408538 -0.008331293 -0.05270255
000180 32 62 ce bd f1 a1 63 be 76 ce c8 bd ee d3 91 3c
       -0.10077323 -0.22229744 -0.09805004 0.017801251
000190 ad 1d 6b 3e 62 48 73 bd 47 e9 ef bd 8a f2 4f 3d
       0.22960539 -0.0593952 -0.11714416 0.050768413
0001a0 4b a5 15 3c 8e f0 88 be d0 d2 17 be f5 e7 20 3e
       0.009133647 -0.2674603 -0.14826512 0.15713485
0001b0 71 97 84 3d 80 1e 3e bd c4 cf fa bc 13 cf 0d 3e
       0.06474198 -0.046415806 -0.030616648 0.13848524
0001c0 79 25 b4 bc 0f 44 f7 3d 5e a5 b4 3d 4e 69 33 be
       -0.021990525 0.12073528 0.08820604 -0.1752064
0001d0 00 c2 d8 bc 58 27 c7 bc 44 57 7c bd 2e b6 51 be
       -0.026459694 -0.024310753 -0.06160666 -0.20479652
0001e0 d3 ee 14 be f5 95 64 3c c9 77 4e be 10 1a 52 be
       -0.14544229 0.013951768 -0.20162882 -0.20517755
0001f0 e7 c4 b2 bc 72 ed 4f 3d 60 64 f5 bd 8a 20 83 bc
       -0.021822406 0.050763555 -0.11982036 -0.016006727

layer_norm.weight f4 [32]
000000 ee 43 6c 3f aa bc 50 3f f3 9a 68 3f 62 94 65 3f
       0.9229115 0.8153788 0.90861434 0.8967954
000010 7d 8c 7c 3f ca ef 69 3f 43 0a 68 3f 10 eb 56 3f
       0.9865187 0.91381514 0.9064066 0.83952427
000020 02 b2 70 3f 0f 3e 52 3f dd 8d 4b 3f e9 40 74 3f
       0.9402162 0.82125944 0.7951334 0.95411545
000030 c0 aa 50 3f ea 09 6c 3f 50 6d 80 3f 14 81 6e 3f
       0.81510544 0.9220263 1.003336 0.9316571
000040 9f 9a 83 3f 89 6e 54 3f c9 9a 5f 3f 11 c2 55 3f
       1.0281562 0.82981163 0.8734556 0.83499247
000050 0d fd 84 3f 23 3e 74 3f c9 3f 6a 3f 39 60 48 3f
       1.0389725 0.95407313 0.9150358 0.78271824
000060 68 a7 69 3f 65 87 93 3f b8 2e 73 3f a1 82 67 3f
       0.91271067 1.1525694 0.9499316 0.904337
000070 ed 02 6c 3f 68 06 67 3f be 9e 65 3f 40 c1 2f 3f
       0.92191964 0.9024415 0.89695346 0.6865425

layer_norm.bias f4 [32]
000000 01 42 d5 bc 47 15 65 bd 55 9d 37 bd 24 2a 4d bd
       -0.02603245 -0.055928495 -0.044827778 -0.050089017
000010 b9 a5 8b 3d 4e a5 ef 3c 2b d5 e3 3c 9f 67 9b 3d
       0.068187185 0.029253628 0.027811607 0.075881235
000020 3c 8d 0e bd 92 74 84 3c 51 55 4e 3d f9 6a 7b bd
       -0.03480266 0.016168866 0.050374333 -0.061381314
000030 af 28 48 3e 9d 0d 85 3d b0 b4 3c bc 28 35 aa 3d
       0.1954677 0.06496737 -0.011517689 0.0831092
000040 0a d7 cd 3b 26 fc e7 3d 49 0e df bd 06 1b 90 3b
       0.006281738 0.113273904 -0.108913966 0.0043977527
000050 bd de 46 3c 16 1b 48 bc fe 38 0a 3d 72 71 72 3d
       0.012138066 -0.012213489 0.03374576 0.05919022
000060 d5 c5 98 bd 5f 3c 63 3d 12 89 71 bd 30 2d 03 bd
       -0.074596085 0.055477496 -0.05896861 -0.032025516
000070 d8 d5 ea 3c 2d 94 cf 3d 29 1d 7d 3b f7 a0 af 3d
       0.028666422 0.10135684 0.0038622117 0.085756235

linear1.weight f4 [32, 32]
000000 48 54 0e be c7 56 11 3e b3 0f 06 be 1f 57 d1 bd
       -0.13899338 0.14193259 -0.13091926 -0.10221695
000010 1f 3c 12 be 5d 31 07 3d 03 e0 60 3d 48 5f 2b bd
       -0.14280747 0.03300606 0.054901134 -0.041838914
000020 08 d6 24 be 45 53 b9 3c ab dd a9 3c c6 7a ba 3d
       -0.16097271 0.022622714 0.020735582 0.091054484
000030 8b b2 17 bc 12 c4 49 bd 86 52 29 bd 63 a7 69 3d
       -0.009258877 -0.049259253 -0.041338466 0.057044398
000040 ff a9 10 be 4c cf 0a bd 04 98 68 be 44 c1 c5 bd
       -0.14127348 -0.0338891 -0.2271424 -0.09656003
000050 be bd 1b 3e b4 ad 17 3b 8d 00 59 3d 38 67 27 bc
       0.152091 0.0023144307 0.05297904 -0.01021748
000060 3e 28 64 3c d7 9e af 3e 2c f8 28 3e 1d 18 73 3b
       0.01392561 0.34300873 0.1650092 0.003709323
000070 83 07 68 3e 2b d0 80 3d d1 e7 89 3e 5d 35 1f 3e
       0.22659115 0.06289705 0.26934674 0.155477
000080 07 5a 35 3b 01 6d 7e 3d 8a f5 92 3d 55 da 27 be
       0.0027672069 0.062115673 0.07175739 -0.16391881
000090 81 08 52 bd 0d f8 29 3e e8 06 d1 3c 0c 6c 13 bd
       -0.05127764 0.1659853 0.025515988 -0.035991713
0000a0 53 fe 0b be ac 77 26 3e 43 87 5a 3d 20 e4 1d bd
       -0.13671236 0.16256589 0.053351652 -0.038547635
0000b0 ef 20 60 3e 0f b2 50 bd 9c 74 25 3e 3c 06 6c be
       0.21887563 -0.05095106 0.16157764 -0.23049253
0000c0 88 98 37 3e 17 d6 e6 bd f7 4c 8f 3d b4 9d 60 3e
       0.1792928 -0.11271303 0.06997102 0.21935159
0000d0 62 25 71 be 5f 6a 76 be d2 39 64 bd b8 3a e7 3d
       -0.23549417 -0.24064015 -0.055719204 0.112904966
0000e0 e5 40 6d be d2 d9 c6 3e a3 ba 32 3d de 76 b8 bd
       -0.23169287 0.3883806 0.043635022 -0.09007047
0000f0 dc 9e 5d 3c 86 f3 56 3e 0a fe 13 3e 42 9b 63 3e
       0.013526645 0.20991334 0.14452377 0.22227195
000100 9a 84 3d 3b 62 5c 70 bd b8 e0 8b 3c a4 30 1d be
       0.0028918148 -0.058681853 0.017074928 -0.15350586
000110 bf 1e e0 bd 2c b6 9b 3d 5d 8e bf 3d f8 57 26 be
       -0.10943364 0.07603106 0.093533255 -0.16244495
000120 93 f2 3f 3e 45 6c 68 3d 91 1f 11 3d fb 0a d3 3d
       0.18744878 0.05674388 0.035430495 0.10304829
000130 93 66 ce bc 49 51 3f be a5 54 d6 bd 85 ce 54 3d
       -0.025195396 -0.18683352 -0.104653634 0.051954765
000140 4f 38 0f be b6 0a 12 be a1 fa d2 3d 4f 72 df 3c
       -0.13986324 -0.14261898 0.1030171 0.027276186
000150 30 0e 01 3e fd 1c 87 bd 25 87 d5 3a af 6a 06 be
       0.12603068 -0.06597326 0.0016290887 -0.13126634
000160 1a 5a 6b 3d 92 a2 42 3e ba ab 4c 3e 20 8d 9a bc
       0.057458974 0.19007328 0.19987383 -0.018866122
000170 59 8d 22 bd 23 6a dc 3c 90 45 5d 3e b1 8c 91 bd
       -0.03968558 0.026906079 0.21608567 -0.07106913
000180 97 7b f2 bd 5a 08 34 3e b6 0a 2a be 5f cd 9e bd
       -0.11839979 0.17581311 -0.16605648 -0.07754015
000190 92 49 ec 3d 1b 6f dc 3d 72 33 d9 bd 8b 6e d9 3c
       0.1153747 0.10763379 -0.106055155 0.026541969
0001a0 8a 89 2f be 60 ec c8 be 09 5e 80 3e 53 77 55 be
       -0.1714231 -0.3924284 0.25071743 -0.208463
0001b0 1f 9f b5 bd 23 d9 66 3e 3d e2 d7 bc 7f 5d 85 be
       -0.088682406 0.22543769 -0.026352996 -0.26047894
0001c0 95 31 a2 bc f7 0e 52 bd ef 3c 9d 3b 7a 9a a9 3e
       -0.019799033 -0.051283803 0.0047985236 0.3312567
0001d0 7a 55 11 bd 79 06 d7 bb a2 d3 86 3c 56 81 19 be
       -0.035481907 -0.006562051 0.016458336 -0.14990744
0001e0 82 4d ec 3a 2c 19 bb be af 5f c8 bd e1 50 dd 3d
       0.001802847 -0.36542642 -0.09783875 0.10806442
0001f0 32 19 05 3e ce d5 d0 3d f7 62 16 3e f4 15 50 bd
       0.12997892 0.1019703 0.1468619 -0.050802186
000200 e4 2d 90 3c 90 51 b6 3d 1d 8c 51 bd 7f 49 ee 3d
       0.017600007 0.089022756 -0.051159013 0.11635112
000210 10 51 0d bb ad 6a 84 be b5 ad d4 3d 21 b0 76 bd
       -0.002156321 -0.25862637 0.103846945 -0.060226563
000220 7a 02 6e 3e 02 57 82 3e b6 b9 da 3d e4 65 17 3e
       0.23243132 0.25457007 0.10679953 0.14784962
000230 7c 96 1b be fe 1a a1 bd c8 e8 66 be 9d fe 3e 3e
       -0.15194124 -0.078664765 -0.22549736 0.18651815
000240 da e0 90 be 57 ee ea bd 03 36 47 3d e1 bb d3 bd
       -0.28296548 -0.11471241 0.048635494 -0.103385694
000250 c4 2b d0 3d b8 31 09 3e 4e 84 60 be fd da df bd
       0.10164598 0.13397872 -0.2192547 -0.109304406
000260 22 11 d3 bd 67 42 ac 3d e1 74 30 bd ee 84 fc 3d
       -0.10306002 0.08411103 -0.043080214 0.12330042
000270 69 2b c9 bd 93 1f 4c be 01 3c a4 3c 00 65 43 3d
       -0.09822733 -0.1993392 0.020048143 0.047703743
000280 7d ee 95 3d b9 82 3e bd ec da 78 bd 4a 52 b1 bd
       0.07320879 -0.046511386 -0.060755655 -0.086582735
000290 9c 6c 2d be f7 ef d8 bd 9d 61 75 3e 60 b7 59 3d
       -0.16935962 -0.10592645 0.23963018 0.053153396
0002a0 c9 1e ed bd ed 48 c2 3d 9a 0e a4 bd f2 21 63 3d
       -0.115781374 0.09486566 -0.080105975 0.055452295
0002b0 e6 1f 2e bd 8f 4e e1 3d 07 22 25 bd f7 55 c7 bc
       -0.04251089 0.11001312 -0.040315654 -0.024332983
0002c0 d3 28 bb bd 23 29 f6 3d 16 9e c6 bc 6e 93 21 3d
       -0.09138646 0.12019565 -0.024245303 0.03944724
0002d0 ec d0 b6 3d 81 75 ca 3b 19 0b 48 bd 09 de a4 3d
       0.089265674 0.0061785583 -0.04883871 0.08050162
0002e0 f2 04 54 bd 4c 05 d1 3d 63 77 43 3d 0e 17 7a 3d
       -0.05176253 0.102060884 0.047721278 0.061057143
0002f0 1e 61 8f bd 98 bd c6 bd 0f 58 04 3d c3 e8 1a be
       -0.070009455 -0.09704131 0.03231054 -0.15127854
000300 87 9c 3b bd 67 1a 93 3d ac 19 eb bd 9d 8c 6e 3d
       -0.045803573 0.0718277 -0.11479506 0.058239568
000310 b4 c7 4d 3d f9 7b 5b 3d 59 40 87 3e ee b6 9f 3c
       0.05023928 0.053585026 0.2641628 0.019496407
000320 d7 2e 00 3e a6 28 c9 3d e3 3e 80 3e d2 40 3c bd
       0.12517868 0.09822206 0.2504798 -0.045960255
000330 2f d2 c6 bd 3f 1a 64 be 05 35 82 bd 54 91 04 3e
       -0.09708058 -0.22275637 -0.06357769 0.12946063
000340 79 3d 80 be 01 97 20 be df 2a 96 3a ea 3b 8c bd
       -0.250469 -0.15682603 0.0011456868 -0.06847365
000350 ee 5d 5a bd 9f 87 27 3e 4c f5 57 be 08 53 0e 3e
       -0.053312235 0.16360329 -0.21089667 0.13898861
000360 f8 02 90 3d fd 92 29 3e 5f 8e 3b 3e bc 4c e8 3d
       0.07031816 0.16559978 0.18316029 0.11342761
000370 d5 6f eb bd 14 f7 79 be d0 ee 29 bd 9c 23 c9 3d
       -0.1149594 -0.24410659 -0.041487515 0.09821245
000380 4a 23 50 be 95 26 3d bd ec 3a 36 be 93 3e 08 be
       -0.20325962 -0.046179373 -0.17795914 -0.1330512
000390 b1 ea 14 be 5e 5b 8e 3d e9 e9 f6 3d 47 9a 8e bd
       -0.14542653 0.06951021 0.120563336 -0.0696302
0003a0 80 6e 0f be a8 f8 19 3d 93 0d 8b 3d 1c 5c e5 bd
       -0.14006996 0.037590653 0.067896985 -0.11199209
0003b0 34 80 32 bd bd dd be bd ce 29 03 be 8d bc fd bc
       -0.043579295 -0.09319637 -0.12808916 -0.030973697
0003c0 8e b1 1c 3d 7a 45 85 3b 9e 0f e5 3c 53 36 8d 3e
       0.038255267 0.00406712 0.027961548 0.2758051
0003d0 83 8d d6 bd 9f 53 d6 bd 8f 8b b3 3d 17 60 98 3d
       -0.1047621 -0.10465168 0.08766853 0.07440203
0003e0 4c 03 a1 bb 84 0a 4e 3d 2a 9d 15 3e f5 35 ed 3d
       -0.004913723 0.050302997 0.14610735 0.11582557
0003f0 9c 15 25 3e ae 33 1b 3e a8 fc e1 3d 9b cf c9 bd
       0.16121525 0.15156433 0.110345185 -0.09854051

linear1.bias f4 [32]
000000 76 87 09 3e ed 9f 55 be b1 34 0d bd 27 62 06 be
       0.1343058 -0.20861788 -0.03447408 -0.1312338
000010 1d 50 82 3e 55 af 91 bc e2 65 82 3e f3 b8 1d bd
       0.25451747 -0.0177838 0.25468355 -0.03850646
000020 d6 59 ea bd ba a0 8d 3e 6f 48 37 be 2d 71 18 3d
       -0.11442916 0.27661687 -0.17898725 0.037217308
000030 3a 67 54 3e a0 74 39 bd 73 2d b6 bd 36 d8 f1 bd
       0.20742503 -0.045277238 -0.088953875 -0.11808817
000040 98 72 8f bb 93 c0 30 be 12 fa 83 3d 6e 6b 8a bd
       -0.0043776743 -0.17260961 0.064441815 -0.06758772
000050 82 af 85 3d f2 69 9f 3d 7d 83 9e 3d 06 83 2b 3d
       0.06527616 0.07783879 0.07739923 0.041873
000060 11 91 79 3d e5 41 77 3d 5d d7 27 3e b8 bb 21 be
       0.06092936 0.060365576 0.16390748 -0.15794265
000070 f9 4f 04 3e 7e 93 f2 3d ea 01 ad 3c 99 67 af bd
       0.12921132 0.11844538 0.021119077 -0.085646816

linear2.weight f4 [1, 32]
000000 45 c1 9f 3d 42 1a 74 3c 18 78 a7 3d 01 f2 2b be
       0.07800535 0.0148988385 0.08177203 -0.16791536
000010 79 0a a8 3d 9a 58 68 bc f1 dc a4 3d 5a 88 5d bd
       0.082051225 -0.0141812805 0.08049954 -0.054085113
000020 f3 50 a3 bd 3f a1 61 3d 41 f1 cd bc 40 87 07 3d
       -0.07974424 0.055085417 -0.025139453 0.03308797
000030 fc 14 f6 bc 6e 88 6c 3d 3c 69 c7 bb 66 6c 4f bd
       -0.030039303 0.057747297 -0.006085543 -0.050640486
000040 a1 08 24 3d 64 f3 69 bd 76 d9 9d 3d 74 0c 6d bd
       0.04004729 -0.05711688 0.07707493 -0.057873204
000050 b3 14 1f bd fa 75 f2 bd ba 8c d0 3d 17 2f 0f bd
       -0.0388381 -0.118389085 0.101830915 -0.034957018
000060 0b cf 37 bd 55 3b b4 3d 47 dd 0b 3d e4 1c e7 bc
       -0.044875186 0.08800379 0.034146573 -0.028212018
000070 e6 42 04 3e 1d 69 d3 bd 30 da 47 bb dd e6 31 3d
       0.12916145 -0.10322783 -0.003049504 0.04343306
