labml_nn/lstm/LSTM_THz/model_combine_319r2_3.pth (torch, 25950 bytes, 9 tensors)

lstm.weight_ih_l0 f4 [128, 1]
00000000: ff30 533d e59a 983d 0258 71be 4fc6 1abe
00000010: 73d9 f4bd 802a 46be 0233 473d 9a65 8d3e
00000020: ddaa 1fbe ce7b cbbe 2291 e6bd c285 8f3e
00000030: 6773 7a3d e5e6 8b3e 617d 4fbc 1793 8d3d
00000040: 6645 16be fb2e e43d d2d8 63be ba56 a3be
00000050: 5b78 1f3e aa0c 2a3e 955a 933e 5249 c9bd
00000060: 855a 9dbe 0e25 d83d cf19 e8bc 1399 1fbe
00000070: a71f 15be 137d 0dbd cf65 cf3c 775b 953e
00000080: 72d7 34bd baac 943e 5b29 14be 5e09 093d
00000090: 813c 4fbe a712 50be 1d48 df3d db22 c23c
000000a0: 7f2e 11be d5f7 53be 2c3d 9d3c eb8d 8c3e
000000b0: a64b 27bc ae53 b13d 67a6 4c3e a1d6 0abd
000000c0: 47b5 413e d4e4 383e 9fe8 4e3d aaff 83bd
000000d0: 876b 0b3c d33f 433d 0f17 353d 83f2 c73c
000000e0: a307 c1bd 78df c43d 20ed dfbc 68bb 8dbd
000000f0: 1773 98bd 8ab9 20be 9a5a 243e a6f2 a03e
00000100: d3b3 b7be 4237 6ebc 6876 8cbe 48a5 bd3e
00000110: 4243 2ebe 01b6 2e3d 24de cbbd df66 37bd
00000120: 7f0a 833c 9c0f 9f3d 75a9 04be 5059 4fbe
00000130: 693b a83e ba8a db3c 86a3 dabe 6b76 57bc
00000140: 2dfc bd3e 971a 883e 4308 42be 8bd7 973e
00000150: be3c 72be be91 51bc a148 5cbe f2f0 ac3e
00000160: bf75 0b3e 4d72 1abd 6f8c 1abe 1aeb 273e
00000170: 94ac 6abe 5da2 773e 9e2b 723e ee19 b4be
00000180: c095 7c3d 5af0 093d a1ce 6bbe 6c0b 57bc
00000190: b734 743d 01eb 78bd 17ca 88bd c34f 3f3e
000001a0: 3ef3 8e3d d118 39be a2ae 273d 9d59 a73e
000001b0: edf0 0dbe 6fe7 8f3e c2e8 05be b47c b43d
000001c0: c164 923c bd95 653e 82cf c6bd a9d5 2fbe
000001d0: 5fef 543e 14d0 223d 2904 1b3e acb8 a93c
000001e0: 788a 6abd 682d 5c3e 2435 dc3b 55eb 663e
000001f0: 805b dcbd 7967 76be d182 823e be92 803e
0.0515604 0.07451419 -0.23568729 -0.15114711 -0.11955538 -0.1935215 0.04863263 0.27616578
-0.15592523 -0.39742893 -0.11258151 0.28031737 0.061145213 0.27324596 -0.01266417 0.06912821
-0.14674911 0.11141773 -0.22250679 -0.31902105 0.15573256 0.16606393 0.28780046 -0.09828438
-0.30733123 0.105539426 -0.028332619 -0.15585737 -0.14562856 -0.03454311 0.0253171 0.29171345
-0.044150777 0.2903803 -0.14468901 0.0334562 -0.20237924 -0.20319615 0.109024264 0.023698261
-0.14177893 -0.20700009 0.019194208 0.27452025 -0.010210907 0.08658539 0.19985352 -0.033896092
0.18916808 0.18056041 0.050514814 -0.064452484 0.008509523 0.04766829 0.044211444 0.02440763
-0.09425285 0.09612936 -0.02733475 -0.069205105 -0.07443827 -0.15695778 0.16050187 0.31435126
-0.35879382 -0.014539542 -0.27434087 0.37040162 -0.17017844 0.04265404 -0.09954479 -0.04477584
0.015996216 0.07766649 -0.12955268 -0.20248914 0.32857826 0.026799548 -0.42702883 -0.013150792
0.37106457 0.26582786 -0.18948464 0.29656634 -0.23655984 -0.012791095 -0.2151208 0.33777577
0.13619135 -0.037706662 -0.15092634 0.16398278 -0.22917396 0.2418303 0.23649451 -0.35176033
0.06166625 0.033676483 -0.23028041 -0.013125282 0.059620585 -0.060770992 -0.066791706 0.1868277
0.069799885 -0.18075873 0.040938027 0.32685557 -0.13861437 0.28106257 -0.13077071 0.08812848
0.017870309 0.22420402 -0.09707548 -0.17171349 0.20794438 0.03974922 0.15138306 0.020717941
-0.05726096 0.21501696 0.006720202 0.2255071 -0.1075964 -0.24062909 0.2549043 0.25111955

lstm.weight_hh_l0 f4 [128, 32]
00000000: dd50 24bd f54f 83bd 9d2a 013e 5bbf 183e
00000010: 0fdd c5bc 6e26 6ebe 185c 90bd 7530 85be
00000020: a13f 43bd 6a50 913d ddb7 cf3c ede8 003b
00000030: 4fd2 073e 8421 2cbe 3a93 2fbe 82d6 503d
00000040: 2451 2c3c 0e7c 123e e181 d5bd 87c6 a23c
00000050: 01bd 04be caa9 7e3e 9fb9 55be d5e6 babd
00000060: 5577 c43d 3f14 44bd c5a2 c9be 50a1 e43d
00000070: 3d37 89be dae0 34bd ef95 7d3e 7615 e6bd
00000080: 36df 26be 2d08 133e 81c4 4b3c e076 4c3e
00000090: 5f7a 883d 6158 eabd 3c42 a3bd 4fda 0d3d
000000a0: 484f 813b 09f7 873d e3e0 493d 7a42 46bd
000000b0: b622 8dbd 06f0 0ebd 96be 94be 90b8 6a3d
000000c0: d8cd 6e3e da6c 183e 3a74 91be a008 f63c
000000d0: 5d61 fe3d 0817 61bd bb2e 93be 7b4a 8d3e
000000e0: d947 0f3e 4f42 2ebd af76 e8bd 82df 3e3e
000000f0: 3d52 15be a82d 6f3d ee64 503e b0bb 17be
00000100: fbfb 0e3e cdc4 453e 6bfd 5a3e 3ded 6bbe
00000110: ec1d 87bc 017a a33d a676 29be 7506 00be
00000120: 7c28 34bd d3c1 d4bd aa59 0e3e 0e07 023e
00000130: 3003 063d f35c 1fbe b117 12bd a405 5dbe
00000140: dc33 67bd f7f8 8cbd a1bf c4bd 5073 03be
00000150: f61a b0bd d0e7 3bbd 5c1b f73d 4f40 7abd
00000160: 932b 1fbe f0a4 ab3d b712 833e 9dc9 123e
00000170: fa27 1c3e d4fb b3bd 9df9 933d 1d6b 373e
00000180: e58e 8b3e 125e 413e 98f9 ea3e f216 f33d
00000190: 2e77 fcbc 6c46 7dbc 0ba0 183e e282 07be
000001a0: 3582 62be 5057 28be 0ddc 24bc ed4d 513c
000001b0: 9a0c 39be f760 0dbe daa2 a23e a29f 63be
000001c0: f5ea 733c 39a7 683e ecca 8fbc 16f3 e8be
000001d0: 03eb 59be 8024 113e 8f88 493c 3a2b 713e
000001e0: 8a0a fe3c 576e f83c ee0d 85be f7c8 6ebd
000001f0: c64c adbe 4a20 dabe 29cb d6bd 747c 60bd
00000200: 3215 03be 970a 94be 652a 94be b368 6bbe
00000210: a9c5 2cbd 785a 6a3e 2671 42be 77f8 193d
00000220: e640 433e ef89 873e d428 8cbe f606 173e
00000230: f585 813e ac60 833e d8f7 e5bd 3006 eebe
00000240: 0cc4 98be c549 8ebe cd23 4a3d 659d 693d
00000250: 8d8c 543e 57d5 b1be 3ac1 133e 959e d33d
00000260: ad4e 7b3e b3e1 c33e 46cd ad3e 69e0 313c
00000270: 5356 31bd d707 02bd 6078 47be cda0 a43d
00000280: 8f89 94be 1da9 0e3d efbf 4c3c e3c9 7fbe
00000290: 6a0a 0fbc b91a 56bd d0fa 673d fd72 5cbb
000002a0: 31ca 7bbc 57d9 263e 89d8 0fbe 791f 8d3d
000002b0: d5ed 4c3e ed75 613d 0830 993c c83b 84be
000002c0: a79a 7fbe 26c5 0cbd ea50 46bd 2f83 613e
000002d0: 9dfe 823e 2cc7 94be 3b95 d83d 7962 3ebe
000002e0: 9c17 13bd 4ba3 c73c 48df 9a3e c6a2 3b3e
000002f0: 5f4d 153e 40c7 b53c 3d71 10be 77e3 4e3e
00000300: 4447 483d b000 92bd 8f4d ac3c ee00 dcbb
00000310: c1ad cfbd 24ca 2f3e c6d9 f73d c4d9 dc3c
00000320: 85e0 e43b 2176 713e cb7b d4bd f287 4dbd
00000330: ac0e c53d 8119 8fbd 8b4b e23d 7185 103d
00000340: ad8f f0bd 9331 0ebe 1715 2e3e 6b04 fe3c
00000350: 77bf 11bd 25b0 833d 4e5b 483e 7669 8f3d
00000360: 9157 9dbc 5a9c 29bb b685 48be e11e 6dbe
00000370: e3d1 7b3e ac32 b5bd 9671 3ebe 890c 733e
00000380: c325 4dbe 8543 b6be 0d34 83be 5c40 6ebe
00000390: f4ff 9abe 9e4c b63e 8159 39be b4c7 fe3d
000003a0: 0a71 d0be 3a69 b93e aaed cabe c4df 9a3e
000003b0: 803e 2a3e a117 953e 22e9 673b 8ad2 eabb
000003c0: e4dc 40be d649 10be 9cd0 3a3d fe20 313e
000003d0: 614e cd3d 8a30 bbbe 58c4 853e 5731 16be
000003e0: e990 cd3e bd26 173e 4c23 223e d0e4 8ebe
000003f0: 83d0 493e c036 733e c5fe 9dbe cc79 243e
-0.04011618 -0.06411735 0.12613912 0.14916746 -0.02415326 -0.23256847 -0.070488155 -0.26013532
-0.047668103 0.07095416 0.025356228 0.0019670085 0.1326382 -0.1680966 -0.17146006 0.05098582
0.010517392 0.14305136 -0.10425163 0.019870056 -0.12962724 0.24869457 -0.2087159 -0.09126059
0.09593073 -0.04787087 -0.39381996 0.111635804 -0.26799956 -0.044159748 0.24764226 -0.11234562
-0.16296086 0.14358588 0.012436987 0.19967222 0.066639654 -0.11442638 -0.079716176 0.034632023
0.0039462186 0.06638915 0.049286734 -0.04840324 -0.06891386 -0.034896873 -0.29051656 0.05730492
0.2332071 0.14885274 -0.28408986 0.03003341 0.12420914 -0.054953605 -0.2874659 0.27595887
0.13992251 -0.042543706 -0.11350762 0.18639949 -0.14582153 0.05839315 0.20351002 -0.14817691
0.1396331 0.19313355 0.21385734 -0.23039718 -0.01649376 0.07982255 -0.16549167 -0.12502463
-0.04398392 -0.103885315 0.13901392 0.12698004 0.032717884 -0.15562801 -0.035667125 -0.21584183
-0.05644594 -0.06883424 -0.09606863 -0.12836957 -0.085988924 -0.04587537 0.12065765 -0.061096486
-0.15543966 0.08381069 0.25600216 0.14334722 0.15249625 -0.08788267 0.07225344 0.17911954
0.27257457 0.18883541 0.4589355 0.11869611 -0.030818548 -0.015458684 0.14904802 -0.13233522
-0.22119983 -0.16439557 -0.01006223 0.012774927 -0.18071213 -0.1380652 0.3176487 -0.22228864
0.014887561 0.2272004 -0.017552815 -0.4549796 -0.21281056 0.1417408 0.0123006245 0.23551646
0.031010885 0.030326052 -0.2598719 -0.058297124 -0.33847636 -0.4260276 -0.104879685 -0.054806188
-0.12801054 -0.2891433 -0.28938594 -0.22989158 -0.04218069 0.22886074 -0.18988475 0.03759047
0.19067726 0.26472422 -0.273749 0.14748749 0.25297514 0.25659692 -0.11228913 -0.46489096
-0.29837072 -0.27790657 0.04935055 0.05703487 0.20756741 -0.34733078 0.14429179 0.103329815
0.24541731 0.38258132 0.33945674 0.010856726 -0.043295216 -0.031745758 -0.19479513 0.08038483
-0.290112 0.034829248 0.012496932 -0.24979357 -0.00873051 -0.05227158 0.056635678 -0.0033637874
-0.01536803 0.16293846 -0.14047445 0.068907686 0.200126 0.055044103 0.01869966 -0.2582686
-0.24961339 -0.034367703 -0.04841701 0.22022699 0.2558488 -0.29058206 0.105753385 -0.18592252
-0.035911188 0.024369856 0.30248475 0.18323812 0.14580296 0.022189736 -0.14105697 0.20203958
0.04889609 -0.071290374 0.021033077 -0.006713978 -0.10140563 0.17166954 0.12102084 0.026959307
0.0069847726 0.23580219 -0.10375174 -0.050178476 0.09621939 -0.06987286 0.11049565 0.03528351
-0.11746154 -0.13886099 0.17000233 0.031007966 -0.035582986 0.06430081 0.1956608 0.07002537
-0.019206794 -0.0025880546 -0.19582257 -0.2315631 0.24591784 -0.088475555 -0.18598017 0.2373525
-0.20033936 -0.35598388 -0.2562565 -0.23266739 -0.30273402 0.3560533 -0.1810055 0.12440434
-0.40711242 0.36213094 -0.39634448 0.30248845 0.16625404 0.2911959 0.003538676 -0.0071662115
-0.18834263 -0.14090666 0.0456091 0.17297742 0.10024715 -0.3656047 0.2612636 -0.14667259
0.4014962 0.14760871 0.15833777 -0.27908945 0.19708447 0.23751354 -0.30858436 0.16062087

lstm.bias_ih_l0 f4 [128]
00000000: 39d7 d93d 2049 d23d 1653 babd e59b 893d
00000010: 34ca 9cbe 72ae 87be bbf7 1b3d 16a3 f1bd
00000020: ca9d 5ebe 332f f2bb d99c 4c3d 5705 dc3c
00000030: 3184 7f3c 9174 e9bd 9b5a c2bd beea 36be
00000040: 663c 96bb 6072 35be 249d 93bd 3155 8bbd
00000050: d987 673d 6e1d 88be 326b 51bb 4372 d7bd
00000060: d17c 80bd fe12 b23d ced9 d7bd 5bb5 c5bd
00000070: bf53 04be bd01 4bbe df36 9d3d 42a1 c8bd
00000080: 2868 51bd 9fac acbc ef89 85bd cf5b a43d
00000090: a05e 1cbe 6601 a1be 6721 2f3e fe14 1fbe
000000a0: 2394 45bd 6ba1 a1bd 39ec 9f3c 4c62 18be
000000b0: 217c ab3c 9cdd cdbd e9dc 9bbd 0f94 8dbd
000000c0: 5471 89be 924f 37be 13ed bdbe 9a85 183e
000000d0: 681d 903c 5d79 6bbe f905 57be 189e 0d3d
000000e0: a53e 72be ea6f 5abd 52d6 80bd 9512 f7bd
000000f0: e61f e2bd 7b5d bfbe 396e a739 9229 88bd
00000100: 2348 1e3d 3822 713e 8637 223c a4e9 7c3c
00000110: 6721 7a3d 91ab 803b e4cb a23e 1598 403d
00000120: 3a3a c3bd ea7a 06bc 9d55 ac3d cea1 35be
00000130: 582c 80bc 0186 c9bd f1e7 26bb fae8 5bbd
00000140: a9e7 28bb 30da 95bd 560a cabc 2ee0 ef3d
00000150: 8594 2a3d 81f3 55bd 2679 5f3c a5d4 883d
00000160: 4a7e 9fbd 7824 34be 50c7 b2bd 67db a7bd
00000170: b404 293e 5299 2c3e e3bb 523d a777 3c3d
00000180: d269 a1bd 1b24 20bd 8e1a 15bd beab 223c
00000190: 7494 b7be 363f d23c 037e 973c a0d1 0ebe
000001a0: d7b6 00be 9baf 98bd d799 863d ffc6 34be
000001b0: 8f6d dfbd c6ed 80be ff10 b03c acab 8ebe
000001c0: 2dab 2ebb 8235 17be b90f dbbd 955c 093e
000001d0: 6108 943d 6df3 a2be 833b e3bc 63d5 80bd
000001e0: 5ae8 30bd e843 3cbb a306 43bc 7d62 77bd
000001f0: b2d5 3ebe 7d3a 51be 2dc7 f63d 74ad 963c
0.106367536 0.10267854 -0.09097879 0.06719188 -0.3062302 -0.2650028 0.03807805 -0.11798684
-0.21739879 -0.0073908805 0.04995427 0.026858015 0.015595482 -0.113991864 -0.09489938 -0.17862985
-0.004584837 -0.17719412 -0.072077066 -0.06803358 0.05652604 -0.26584953 -0.0031954763 -0.105198406
-0.06273807 0.08695029 -0.1053959 -0.096537314 -0.12922572 -0.19824882 0.076764815 -0.097963825
-0.05112472 -0.021078406 -0.06520449 0.080253236 -0.15270472 -0.3144638 0.17102586 -0.15535352
-0.048236977 -0.07892116 0.01952182 -0.14881247 0.020933213 -0.10052034 -0.07610495 -0.069130056
-0.26844275 -0.17901447 -0.37094936 0.14894715 0.017592147 -0.22995515 -0.20998372 0.034574598
-0.2365671 -0.053329386 -0.06290878 -0.12064091 -0.110412404 -0.37376007 0.00031934844 -0.06648554
0.038643014 0.2354821 0.009900933 0.015436564 0.06106701 0.0039267023 0.3179618 0.047020037
-0.0953259 -0.008208016 0.08414767 -0.17737505 -0.015646145 -0.09840012 -0.0025467838 -0.05368898
-0.0025772846 -0.073170066 -0.024663132 0.11712681 0.041645546 -0.052234177 0.013639724 0.06681184
-0.077877596 -0.17592037 -0.08729422 -0.081961446 0.165057 0.16855362 0.051448714 0.046012547
-0.07881512 -0.039096933 -0.036402278 0.009928642 -0.35855448 0.025664907 0.018492704 -0.13947153
-0.12569748 -0.07455369 0.06572311 -0.17654036 -0.109095685 -0.25181407 0.02149248 -0.2786535
-0.0026652322 -0.14766505 -0.10696358 0.13414223 0.07228161 -0.31826344 -0.027738338 -0.062907
-0.043190338 -0.0028726999 -0.011903438 -0.06039666 -0.18636206 -0.20432468 0.120497085 0.018393256

lstm.bias_hh_l0 f4 [128]
00000000: bb8b 743e 0de3 593e 0297 cb3d 095a 453d
00000010: 61b4 38be afb1 83bc bc57 c83d 3e78 c1be
00000020: 05e6 8bbe 87b1 99be ecc9 7abe 5d52 29be
00000030: 3471 2a3e 396c 28be 2323 273e ab28 14be
00000040: 07b0 b7bd 2602 afbd 51f5 9dbe 6886 2abd
00000050: 0603 acbd 46e5 1abe 2a4a dabc 4cc8 64bd
00000060: 5a8f 49be 5785 09bd 8afa 86be fef4 993d
00000070: fe7b 9fbd 4adc d0bd 1495 b3bd b33d 613e
00000080: 2d60 c5bc 6d8c 023d 27d1 ec3c 7388 de3d
00000090: 773c d3be a1cb 80bc aa47 5c3e 1f75 80be
000000a0: 9470 b83b ba8f 37bc faaf f7bb 1572 09be
000000b0: ab5a 753d 3596 9d3c e531 053e 1137 92be
000000c0: c065 86bd 2fd4 9dbd 2f01 52be 0df1 9e3d
000000d0: 3f55 b5bd 9a9b 4ebe 5b61 82be 6b8d ee39
000000e0: 12c2 90be a053 b63d acb6 d8bd 1979 073c
000000f0: 3620 26bd f4e7 8abe de33 8d3d b57c fd3d
00000100: ef3c dcbc cec7 903e 6f94 05be 1cbf 02bc
00000110: b773 6d3d 7e40 6cba 2a4b a83e ca45 fa3d
00000120: 56fa 033e 4e13 103d ead4 5c3d 9834 cabd
00000130: f6eb a4bd ad1a d9bd 0cbc 82bd b2bf 103e
00000140: 08c9 433d 2189 553d 0ec1 af3d 973c 0dbe
00000150: 6cb1 a93d b5ac 213b 8812 d1bd b012 b1bd
00000160: cb2f 273d 1922 acbd 2345 c23b 916d 0cbc
00000170: f8db 813d 6afc df3c adc9 1d3e 3105 a6bd
00000180: aa1e d3bd 0d46 6c3e 7c4e b73d 8aa4 243e
00000190: f601 3cbe 7e5d 6fbe c8a1 843e 29b8 a7be
000001a0: c20f 88be 7945 67be 18ee 63be 3946 523d
000001b0: bb30 5d3e 826e f6bd 29db ebbc 877d adbe
000001c0: 35d3 543d 6b69 e53d 67bf dcbd 0be3 083e
000001d0: 28e4 5b3d d249 a2bd 75e8 1d3c cf7e bebd
000001e0: f29c 9ebe a16d e13d 6e0e 51bd 53ab ba3c
000001f0: 6ada 01be a876 09be e329 a83d 87a8 9639
0.23881428 0.21278019 0.09940912 0.048181567 -0.18037559 -0.016075937 0.09782359 -0.3778705
-0.27323928 -0.30018255 -0.2449109 -0.16535325 0.16644746 -0.16447534 0.16321997 -0.14468639
-0.089691214 -0.08545332 -0.30851224 -0.041632086 -0.08399014 -0.15126523 -0.026646692 -0.05585508
-0.1968359 -0.03357443 -0.2636302 0.07517432 -0.077873215 -0.10198267 -0.08768669 0.21996193
-0.024093712 0.0318722 0.028908325 0.108658694 -0.4125707 -0.015722098 0.21511713 -0.25089356
0.0056286547 -0.011203701 -0.00755882 -0.13422425 0.05990092 0.019236663 0.13007315 -0.28557637
-0.06562376 -0.077064864 -0.20508264 0.077608205 -0.0885415 -0.20176545 -0.254649 0.00045500262
-0.28273064 0.08902669 -0.10581717 0.008268618 -0.040558062 -0.2713009 0.068946585 0.123773016
-0.026884524 0.2827744 -0.13044904 -0.007980134 0.057971682 -0.00090122956 0.32869846 0.122203425
0.12888464 0.03517466 0.05391399 -0.09873313 -0.080528185 -0.10600791 -0.06383523 0.14135626
0.04779914 0.05213273 0.08581744 -0.13792644 0.08285794 0.0024669592 -0.10208613 -0.086461425
0.040817063 -0.08404941 0.005928652 -0.008571045 0.06340784 0.02734204 0.15408964 -0.08106459
-0.10308583 0.23073597 0.089505166 0.16078392 -0.18360123 -0.23375508 0.2590468 -0.3275769
-0.26574522 -0.22585095 -0.22258794 0.0513365 0.2160062 -0.120327964 -0.028791027 -0.33884832
0.051959235 0.112017475 -0.107786946 0.1336786 0.053684384 -0.07924236 0.009637942 -0.093015306
-0.30979115 0.11007238 -0.05103915 0.022786772 -0.12680975 -0.1342417 0.08211114 0.00028735792

layer_norm.weight f4 [32]
00000000: f136 8b3f 200b 763f e6f2 523f 620b 963f
00000010: c43e 423f b131 483f c3d0 6b3f 56c6 4f3f
00000020: 3646 5e3f 772c 603f 3716 553f f858 753f
00000030: 512f 783f 6ad0 6c3f 4e08 783f 9d61 5e3f
00000040: b3aa 8c3f 5cc5 783f 813d 663f 60a0 563f
00000050: 0825 753f 47ef 6a3f 5ce1 733f 44b7 843f
00000060: 87a2 5d3f 7841 733f b0ad 643f 6b98 6b3f
00000070: b8d6 723f 23f7 603f abac 7a3f 6b9d 893f
1.0876142 0.96110725 0.82401884 1.1722224 0.7587702 0.78200823 0.9211542 0.8116201
0.86825883 0.8756785 0.8323702 0.9583888 0.969472 0.92505515 0.9688767 0.86867696
1.0989593 0.97176147 0.899376 0.8383846 0.9575963 0.9177136 0.95265746 1.0368428
0.8657612 0.9502177 0.89327526 0.92029446 0.94858885 0.878771 0.9791972 1.0751165

layer_norm.bias f4 [32]
00000000: 559b 70bd 0cca e6ba 4ab4 64be 4ac4 d23c
00000010: 60bb b33b c4e6 8d3d 348b a0bd d557 123e
00000020: 2144 8abd 45c1 833c 7de9 67bd 0d18 243d
00000030: 2c9c 0f3e c8d7 883d c60e 9cbd 9b6b b53d
00000040: 080e a7bc 820c 05bd 13ff d73d 64a8 183e
00000050: 6303 3a3d 3d42 8dbd 42aa 0b3d 432b febb
00000060: 51a1 f13c 52f3 4f3d 2f9f 163b 1896 8ebc
00000070: b48f 053d c1b4 4c3e 77f8 fdbb 0a30 0d3c
-0.058741886 -0.0017607822 -0.223344 0.025728364 0.0054849833 0.06928781 -0.07839051 0.14291318
-0.06751276 0.016083369 -0.056619156 0.040062 0.14024419 0.06681782 -0.07620005 0.08858415
-0.020392433 -0.03248263 0.105466984 0.14907986 0.045413386 -0.068973996 0.034097917 -0.007756622
0.029495867 0.050769158 0.0022983064 -0.017405555 0.03260775 0.19990827 -0.0077505666 0.00861741

linear1.weight f4 [32, 32]
00000000: b7b3 30bd d757 1b3e 0f37 413e a2a9 ea3d
00000010: de2b 3b3d 9dad 79bd 368f 67bd 3699 263d
00000020: f1fb c0bc 7f78 183e 7cd5 b53d e9d8 56bd
00000030: 511c abbc db29 fbbd e87e 9cbd b80c 13bb
00000040: be1e ce3c 8f62 3b3d 83c0 ba3b a7b8 3abe
00000050: fc47 1e3e 9563 243e 4b11 d3bd 24c6 85bb
00000060: 7584 3cbc 38ef babd 9ef4 563d e7ed c53d
00000070: e2d2 5bbd 2536 12bd b3a9 0cbe 5ed0 b9bd
00000080: c077 583d 712d f7bc cc2a 5dbc 8547 e23d
00000090: 8e75 03be 044f b2bd 875e ccbd 415e 14bd
000000a0: 60e1 063d e73c 283d 83b6 36bd ae14 de3d
000000b0: fac1 3bbe 0347 49be 2b82 f6bd 4050 b1bd
000000c0: d2a2 af3d 4843 4f3e 6e55 783e 40c3 6fbd
000000d0: 5d50 a9bc 104e 1fbd 3987 a6bd adba 113e
000000e0: fe12 3cbd 7685 8dbd 3c84 82bd e589 1a3d
000000f0: c8d2 25bd 77a5 7fbe 1e03 b8bd 5d3f 02be
00000100: d5d6 5ebe b846 aebd 3572 c3bd 621e ad3d
00000110: 6717 a8bd 01de 29bd 4088 723d 9128 a6bd
00000120: 7b19 83bd 34a5 82bd 779b 9cbd 8c07 09be
00000130: 2842 283e 8408 553d 96a9 78be aba7 e23d
00000140: 95c7 2e3d c9b5 d63d 84eb 92be fa44 25bd
00000150: b8ae 66bc 8718 d7bd f8ba 06be 5e07 293e
00000160: cbf8 97bb c34b 1a3c 1c36 56be 7560 3cbb
00000170: 76ff 13be 0192 4e3d d909 0f3d 8397 94bd
00000180: b851 7c3e de0d b6bd 0260 e5bd c808 95be
00000190: 837d 56bd 0ac1 973d 7ed0 c5bd 3ef3 00bd
000001a0: fed7 1a3d 9c90 f53c a0fe 223e 16a4 053e
000001b0: 2778 2fbe 2cd2 f5bd d8e0 d13d 4d81 a0be
000001c0: adef cbbc fabc aabc 18e4 5a3e f978 0f3d
000001d0: 3f47 9abd 66c5 373e a82f b5bd 1e14 56be
000001e0: fda2 14be b19a ed3d bc40 e43d 3de4 73bd
000001f0: 8b80 6a3e 2118 973d a47a 663d c322 3d3d
00000200: df7c 80be f9a5 b6bd 04f5 57be 1b89 083e
00000210: 8661 c6bd a1f7 243e 4683 b8bc d9a3 063e
00000220: 1844 22be 6144 1cbd be99 9cbb 49d0 b2bd
00000230: c37f f13c 59b9 8c3d cbe5 58be 801a 523e
00000240: 761b 803e abff a1bd 097a 59be 5862 a33d
00000250: 2c18 e6bd 564a 473d 823f cf3d ec97 debd
00000260: a82d 813e 7676 15be 3092 5dbe ff8f 0bbe
00000270: a3dc 03bc 9778 723e 6ece 113e 5e15 15be
00000280: 02b6 55be 5eae 853c 2fd1 b63d 4245 6e3e
00000290: 95e1 033e 5086 243e ae4d c9bd 12da 433d
000002a0: 5b95 083d 0651 9abb 15b1 f0bd 128b f2bd
000002b0: 6729 053e c5e2 12be 138e 993d 9d44 a13c
000002c0: bfb3 643e dd0b 70bc b93c b0be 5fca 133e
000002d0: fd3f 4ebd f62f 333e d110 d1bd 05f4 783c
000002e0: 79cb 2d3e 899e 2dbe df8a 55be f8fa 7b3d
000002f0: a373 22be 60de 98bb 10d5 783d 411d 6fbe
00000300: 362d af3e a349 a2bd 5f64 6abd 6f1c 743a
00000310: 1388 7b3e 8ca1 8a3c f327 4f3e 762b 5e3e
00000320: 3b3e 98bd 843f 803d 2180 2bbd 2452 133d
00000330: 28f6 b2be 966f d03d 87e2 d33d 73db 4c3e
00000340: 9f8a 45be d2f4 5dbe 11da cf3e 3182 83be
00000350: 7aa0 9a3e c416 56be 3b06 5c3e 22f6 f1bd
00000360: c9c5 ab3c bc7e cf3d d70f 54b9 2e46 79be
00000370: 4a3b d13e a4d7 0f3e 18b8 b73d cda8 f33c
00000380: df89 41be a480 2bbd c420 bebc 5d35 093e
00000390: aeb1 24be e97f 13bd 5bce f1bd 863b a7bc
000003a0: 0610 10bc d940 18be 729e ab3d 90fe ccbd
000003b0: acf3 383e 72bb 09be 170f eb3d c194 76be
000003c0: 4a7c 4f3d 6940 6e3d b2af 7cbe 7860 ecbc
000003d0: 2c17 9c3d 5693 8dbd 61e1 48bd 1f30 3abd
000003e0: 70cd c4bd 7efe 3ebe 12cf cdbc 8d2d 1d3e
000003f0: 4576 a6be f32f 03be 37fc 9bbc f2bb 993d
-0.04314014 0.15170227 0.1886866 0.11458136 0.045696132 -0.060956586 -0.05653306 0.040673457
-0.023557635 0.14889716 0.088786095 -0.052452955 -0.020887526 -0.12263843 -0.07641393 -0.0022438
0.025161143 0.04574829 0.0056992187 -0.18234502 0.15457147 0.16053613 -0.10306033 -0.004082458
-0.01150619 -0.091276586 0.05247938 0.09664517 -0.05366791 -0.035696167 -0.1373661 -0.09072946
0.052848577 -0.030173035 -0.013498973 0.110487975 -0.12837812 -0.08706477 -0.09978967 -0.0362227
0.032929778 0.041073706 -0.04460765 0.10843788 -0.18335715 -0.19655995 -0.12036546 -0.086578846
0.085759774 0.2024051 0.24251339 -0.058535814 -0.020668203 -0.038892806 -0.081312604 0.14231367
-0.04591655 -0.06910221 -0.06372878 0.037729163 -0.04048422 -0.24965464 -0.089849696 -0.12719484
-0.2176164 -0.08509582 -0.09543268 0.08453061 -0.08207589 -0.041471485 0.05921197 -0.08113206
-0.064013444 -0.06379166 -0.0764684 -0.13381785 0.16431487 0.052010074 -0.24283442 0.110671364
0.042670805 0.104838915 -0.2869531 -0.040348984 -0.014079742 -0.10502725 -0.1315726 0.16506717
-0.0046378127 0.009417477 -0.20919079 -0.0028744016 -0.1445292 0.05043221 0.0349215 -0.07255461
0.24640548 -0.08889364 -0.11199953 -0.29108262 -0.05236579 0.07409866 -0.09658907 -0.031481974
0.037803642 0.029976182 0.15917444 0.13050875 -0.17135678 -0.12002978 0.10247964 -0.3134865
-0.02489456 -0.020842064 0.21376073 0.035027478 -0.0753312 0.17946395 -0.0884698 -0.20906112
-0.145153 0.11601771 0.111451596 -0.059543837 0.22900598 0.07377649 0.056269303 0.04617573
-0.2509527 -0.089183755 -0.2108956 0.13333552 -0.0968657 0.16110088 -0.022523534 0.1314844
-0.15846288 -0.03815115 -0.0047790697 -0.087311335 0.029479867 0.0687129 -0.21181409 0.20517921
0.2502095 -0.07910093 -0.21237959 0.07977742 -0.11235079 0.048654877 0.10119535 -0.108688205
0.25230145 -0.1459597 -0.21637797 -0.13629149 -0.008048209 0.23678814 0.14238903 -0.14558932
-0.20870212 0.016318496 0.08926617 0.23268607 0.12879021 0.16066861 -0.09829269 0.04781539
0.03334556 -0.004709366 -0.11752526 -0.11842932 0.13004075 -0.14344318 0.07497802 0.019686038
0.22334193 -0.014651266 -0.34421328 0.14432667 -0.050353993 0.17498764 -0.102082856 0.015194898
0.1697215 -0.16955008 -0.20853756 0.06151864 -0.15864424 -0.004665181 0.060750067 -0.23351003
0.3421418 -0.07924201 -0.057224628 0.0009312098 0.24563627 0.016922735 0.20230083 0.21696267
-0.074337445 0.06262115 -0.04187024 0.035967007 -0.34953427 0.10177533 0.10345941 0.20005588
-0.19291161 -0.21675423 0.4059606 -0.25685266 0.3020056 -0.20907122 0.21486752 -0.11814524
0.020968335 0.101315945 -0.00020223796 -0.24343178 0.40865546 0.14047104 0.0897066 0.029743576
-0.1890025 -0.041870728 -0.023208983 0.13399263 -0.16083404 -0.036010657 -0.11806937 -0.020414125
-0.008792883 -0.14868487 0.083798304 -0.100094914 0.18061703 -0.13450411 0.114774875 -0.24080183
0.05065564 0.058166895 -0.24676397 -0.028854594 0.07621607 -0.06912868 -0.049043063 -0.045456048
-0.096094966 -0.18651769 -0.025123153 0.15349407 -0.32512107 -0.1281126 -0.019041164 0.07506551

linear1.bias f4 [32]
00000000: 6ac4 44bd 41a2 96bd 01bb 24be a2f0 07bd
00000010: bb0b cebc c2d9 cc3d 2131 ef3d 78bd b8bc
00000020: 7edd 19bd 5681 4e3d 6d3d 393e d329 39bd
00000030: ae2e c4bd e725 2fbe 420d 46be e699 b43d
00000040: bdf6 0ebd d0f6 4fbb 46b1 c43c 68a5 583e
00000050: 5142 483e 13df e93d 2c8b 76bd 366a 0fbd
00000060: 434a 0fbd 9698 88bb c562 b3bd 68a2 303d
00000070: 481a 803d e433 00be fa67 103e b0b8 11be
-0.048038878 -0.07355166 -0.16086961 -0.03318847 -0.025152078 0.100024715 0.116792925 -0.022551283
-0.037564747 0.050416313 0.18089838 -0.045205902 -0.09579216 -0.17104302 -0.19340995 0.08818416
-0.034903277 -0.0031732805 0.024010312 0.21156847 0.19556548 0.11419501 -0.06019132 -0.0350134
-0.03498293 -0.0041685803 -0.08759073 0.043123633 0.06255013 -0.12519795 0.14102164 -0.14230609

linear2.weight f4 [1, 32]
00000000: 2aaa 01bd 2e21 b13d 9a87 8c3d c37d 0dbd
00000010: 990d a13d 5ea1 673d 4737 0fbe e31a 4d3d
00000020: 87fe babd cc1e 4bbd 97a9 8f3c 8e1c ca3d
00000030: ea97 423d de73 b3bd 0b6d 48bd 7ade 79bc
00000040: bc89 b7bc 6d44 143e ab79 c33c b1b1 ed3d
00000050: 2782 673c 1ab0 863c a47a 8d3d 9675 443d
00000060: d9d2 f9bd 671c 3bbd a129 f03c 3b60 47bc
00000070: 62f4 c7bc 38dd 3a3e 40b1 90bd a123 9f3c
-0.03165642 0.08648907 0.068618014 -0.034543764 0.07863922 0.056550376 -0.1398593 0.05007447
-0.091305785 -0.049589917 0.017536921 0.098687276 0.047508158 -0.08762334 -0.048932116 -0.015250796
-0.022404544 0.14479227 0.023861727 0.116061576 0.014130152 0.016441394 0.069081575 0.0479637
-0.12198419 -0.045681383 0.029316725 -0.012168939 -0.024408523 0.18248451 -0.07065058 0.019426169
