labml_nn/lstm/LSTM_THz/model_combine_318r1_8.pth (torch, 25950 bytes, 9 tensors)

lstm.weight_ih_l0 f4 [128, 1]
000000 71 fc 9b bd 7a c0 3c be 4e 0b 5c be fd fe fd 3c
       -0.07616509 -0.18432799 -0.21488687 0.031005377
000010 e3 28 e5 bd fd 71 18 be 7b ed 4f be fd 0e e8 3d
       -0.11189439 -0.14887233 -0.20305435 0.11330984
000020 2f 2d 0c bd 69 79 19 3e b3 6e ca bd 59 40 04 3c
       -0.034222778 0.1498772 -0.098843955 0.008071982
000030 b3 1c 7c 3e 93 7c 4a 3e d0 3b 26 be b7 31 45 be
       0.24620323 0.19774084 -0.16233754 -0.19257246
000040 8f 54 0a 3e aa 59 44 bc 1e d8 0a 3e 8c 45 12 3d
       0.13508819 -0.011984268 0.13559005 0.035710856
000050 b4 18 2e 3e 40 de 57 3e 50 5a 7c 3e b6 2e 12 3e
       0.17001611 0.21080875 0.24643826 0.14275631
000060 bf 85 0c 3e 3f 63 d1 bd b4 fd dd 3d cb fb 21 be
       0.13722895 -0.10224008 0.10839406 -0.15818708
000070 d3 74 8b be 29 9c 11 be 29 04 24 3e da 3c f8 bd
       -0.27237567 -0.14219727 0.16017212 -0.121209815
000080 62 0d 60 3d 6e bc ee 3d 2f 4c 8c be ce 05 f0 3d
       0.054700263 0.11657034 -0.27401873 0.11719857
000090 1f 64 5d be 7c e9 83 be 06 cb 8c be 6b fb 89 3e
       -0.21620224 -0.25764072 -0.27498645 0.2694963
0000a0 90 fb 4d 3d ae 19 ba 3e a9 d4 f3 bc 47 9f 14 3d
       0.050288737 0.36347717 -0.02976449 0.03628471
0000b0 c7 9b 94 3d 54 1f 8e 3e 2a 6b d1 bd 41 01 18 be
       0.07256275 0.27758276 -0.10225518 -0.14844228
0000c0 4a 01 30 be 78 bd a6 3d 02 be 60 bd 92 7e 64 3e
       -0.17187992 0.08141607 -0.054868706 0.22313908
0000d0 a1 6c ea bd d0 90 45 3c 36 18 9f 3d e2 86 93 3e
       -0.114465006 0.012058452 0.0776829 0.28813845
0000e0 3e fd aa bc 9e 16 ad bd fe 0b c8 bd 88 38 cd bd
       -0.020872708 -0.084515795 -0.09767912 -0.10020548
0000f0 5a 34 90 be 48 31 b8 3d 29 85 ac 3c 98 27 cc 3d
       -0.2816494 0.08993775 0.02105959 0.099684894
000100 88 6a 57 be 5e bf ae be 79 8d 91 3e f6 7d 43 be
       -0.21036732 -0.34130377 0.28428248 -0.19091019
000110 ac f2 69 3e 3e 91 cb be c9 98 b3 3e f1 49 a6 be
       0.22846478 -0.39759248 0.35077503 -0.32478288
000120 d2 32 a9 3d d3 f3 6e 3e 04 e6 ca 3e a1 8c 9c 3d
       0.08261646 0.23335199 0.39628613 0.0764401
000130 ad 76 a6 bc 60 79 4f be 42 7c 88 bb 57 54 5d 3e
       -0.02032026 -0.20261145 -0.0041652033 0.21614204
000140 31 f6 7b 3c 02 43 ee 3c 85 34 90 bd ee 8b 3b be
       0.015378521 0.029084686 -0.07041267 -0.18315098
000150 09 62 c9 3d 56 d7 30 3e 0b c9 ab be e0 6f 0d be
       0.09833152 0.17269644 -0.3355182 -0.13812208
000160 9f 21 ac 3d df 3e da bd be fa a8 3e e7 2a c9 be
       0.0840485 -0.10656523 0.330038 -0.39290544
000170 24 23 87 bd b5 4a c0 be 92 d2 e2 bd 5f 1f 93 3c
       -0.065984994 -0.37556997 -0.11075319 0.017959295
000180 8d ce b0 3d d5 4b c7 3c 50 02 a2 bd a5 1d bb 3d
       0.086331464 0.024328152 -0.07910597 0.091365136
000190 9a f8 36 3d e8 0e b0 be fd fa 1e be f4 36 3b 3e
       0.04467068 -0.34386373 -0.15525432 0.18282682
0001a0 ed fd 8a bd 9b 11 c7 3e 4f 90 a6 be fd 1b 05 3d
       -0.06786714 0.3888062 -0.32531974 0.032497395
0001b0 27 f7 55 3e 55 61 9a 3e 22 22 db 3c f9 ba 5e be
       0.20895062 0.30152383 0.026749674 -0.21751012
0001c0 67 cc ef 3d 77 9e 39 3e f7 38 7f 3e 0d 20 13 bd
       0.117089085 0.18126856 0.24924074 -0.035919238
0001d0 43 8f 9b bc f7 b7 88 bd 16 3a 2c 3e f0 aa fc 3d
       -0.018989211 -0.066757135 0.16819033 0.12337291
0001e0 f3 9c 0e 3e 11 79 cc 3d 4f 43 01 3e e8 3b a1 be
       0.13927059 0.09984029 0.12623332 -0.31491017
0001f0 53 b2 15 be 77 88 1a be eb c8 16 bd 6a ab 53 3e
       -0.14618807 -0.1509112 -0.036812704 0.20670858

lstm.weight_hh_l0 f4 [128, 32]
000000 78 74 36 3e 73 84 cf 3c cb cd ee bd 47 59 01 be
       0.17817867 0.025331711 -0.11660346 -0.12631713
000010 aa 9c 33 3e dd 14 dc bd c5 60 25 be f4 2c 8f 3d
       0.17540231 -0.10746167 -0.16150196 0.06990996
000020 bc 4f 29 be f1 5e 42 be b1 e0 c2 bd 46 71 07 3d
       -0.16534323 -0.1898153 -0.09515513 0.03306701
000030 e8 94 43 3e 72 b7 63 bd 6f bb d1 bd e3 df ba bd
       0.19099772 -0.05559487 -0.10240828 -0.09124734
000040 18 5b ad 3c 9e a2 69 3e de 06 8e 3d 32 9b 15 be
       0.021161601 0.2281594 0.069349036 -0.14609984
000050 23 4b a8 bc 3e 0b 57 be bb 21 ca 3d 59 f1 7f 3d
       -0.02054364 -0.21000382 0.09869715 0.062486026
000060 dc 88 02 3e 13 93 62 3c c5 9d 3c be 48 e4 c8 bd
       0.1274752 0.013829011 -0.1841956 -0.09809166
000070 39 2e 85 bd e8 55 d5 bd ec eb 11 be f7 da af bd
       -0.06502957 -0.10416776 -0.14250153 -0.08586686
000080 49 42 b6 bc 77 3d bf bd 8b fa 17 3e fa 8f 37 bd
       -0.022248404 -0.09337895 0.14841668 -0.04481504
000090 d2 84 57 3b ff ff 9b bd 35 2e ed 3c c6 9c 68 be
       0.0032885564 -0.07617187 0.028952697 -0.22716054
0000a0 c5 82 de 3c de 22 36 3e ea 41 63 3e 89 df ba 3d
       0.027161965 0.17786738 0.22193113 0.09124667
0000b0 8e b9 01 be 7a 7a f2 3c 9e 99 c1 bd 01 ba 2d 3e
       -0.1266844 0.029599417 -0.09453128 0.16965486
0000c0 a2 55 a5 3d c4 d4 ed bd 0b 0e de bd 99 93 36 be
       0.08072974 -0.116128474 -0.10842522 -0.17829742
0000d0 86 3f a7 bd 5f d1 30 3e 1e 23 78 be ef 34 0c be
       -0.08166413 0.17267369 -0.24232146 -0.13692068
0000e0 aa 2b 19 3e e2 5b 59 3c 83 14 38 3d fd 93 45 3d
       0.14958063 0.0132665355 0.044941436 0.048236836
0000f0 8c a9 16 bc 69 17 0f be fc 76 fd 3d ba 9a f3 bd
       -0.009195697 -0.13973774 0.1237621 -0.11894746
000100 05 73 6d 3d 3d de 1f be 09 10 22 3d 2e 20 2c bd
       0.05797102 -0.15612121 0.039566074 -0.042022876
000110 0a 92 dc bd 4a f5 12 3e 3c 9c ed bd 4d 92 f7 bd
       -0.10770042 0.14351383 -0.11602065 -0.120884515
000120 e5 ba 45 be 49 3c a4 3c f6 30 db bd 49 bc 1a be
       -0.19309576 0.020048277 -0.10702698 -0.15110888
000130 57 05 c9 3c 44 a9 b5 bd 51 b5 e3 3d a0 7b 84 bd
       0.024538679 -0.088701755 0.11118568 -0.06468892
000140 ec a0 e4 3d 90 5a 26 be 53 01 44 be 6e 06 c0 3d
       0.11163506 -0.16245484 -0.1914113 0.09376226
000150 ea a4 f4 bc 4c 7d 0b 3e 71 fe ba bd 0b 9a 9f bd
       -0.029863793 0.13622016 -0.09130562 -0.07793053
000160 dc 30 1f bd 32 df 1b be 4f 2e 51 3e 50 3c fa bc
       -0.038864955 -0.15221861 0.20427822 -0.030546337
000170 87 04 ca 3d ad 8c e9 bd 49 fb ce bd f1 15 be 3d
       0.09864145 -0.11403785 -0.101065226 0.09281529
000180 67 25 65 3e 63 75 c9 bd 4b 15 68 bb 75 db 48 be
       0.22377549 -0.09836843 -0.0035413082 -0.19614966
000190 d2 d7 35 3e be 98 29 bd cf 49 a1 bd ba 25 3f be
       0.1775811 -0.041405432 -0.07875406 -0.18666735
0001a0 cc c7 f7 3c 3e e4 8c be d7 80 a8 bd 6d 7d 53 3b
       0.030246638 -0.27517885 -0.08227699 0.0032270805
0001b0 d8 5d 4f bd 62 93 92 3c c4 61 1e 3e 64 f1 aa 3d
       -0.050626606 0.017892543 0.15466982 0.08346823
0001c0 53 0f fa bc 7f 9a f2 bd 98 97 12 3e f2 f0 08 3e
       -0.030524885 -0.11845874 0.14315641 0.13373163
0001d0 f5 70 e1 bd fa ac 54 bd 7b 40 0a 3d 8d d5 2d 3e
       -0.11007873 -0.051922776 0.0337529 0.16975994
0001e0 ff 98 fc 3d 4c 62 e6 bc bf f4 54 3d bb 79 42 3d
       0.12333869 -0.028123043 0.05199122 0.047479372
0001f0 fb ef 2d 3e 12 9f c6 bd bf a8 54 3d 12 06 bd bd
       0.16986077 -0.09698309 0.05191874 -0.092296734
000200 08 2c 44 be 80 ce 14 3e 17 77 82 bd 73 f6 3f 3e
       -0.19157422 0.14531898 -0.06370371 0.18746357
000210 51 2d e7 bd 87 02 4b 3e 0e 46 a5 be d8 c5 e7 bd
       -0.1128794 0.19825183 -0.3228001 -0.113170326
000220 0a 72 da bc 02 6e 37 bd 6d 0f 7a bd 7e 82 bb bd
       -0.026665706 -0.044782646 -0.061049867 -0.09155749
000230 4d 92 f3 bd d5 67 19 3d 29 40 ab 3d 60 3c 49 be
       -0.11893139 0.037452538 0.08361847 -0.19651937
000240 40 e1 f9 3c df ae 7a 3c 9e 51 a7 bd 36 af df bd
       0.030502915 0.015300482 -0.08169864 -0.10922091
000250 52 c1 dc bd 65 ac 72 3d e3 c2 14 be 19 96 15 3e
       -0.107790604 0.05924644 -0.14527468 0.14608039
000260 e0 2e 0e 3d 7b 50 96 3d 3b 49 be 3d 1d 0b 85 3e
       0.034712672 0.07339569 0.09291311 0.2598504
000270 15 01 e9 bd 03 e9 4a 3e 2c c7 1d bb c5 ba cf 3d
       -0.113771595 0.1981545 -0.0024075015 0.10143045
000280 0a fe 06 be 26 3a a4 bd 1a 23 f3 3d 75 3d 93 3a
       -0.13182846 -0.080189034 0.118719295 0.0011233526
000290 30 ce 2a be a2 e3 0f be ae 24 55 bd 9b b6 7b bd
       -0.16680217 -0.14051679 -0.052036934 -0.061453443
0002a0 cc d8 09 3d f5 06 e1 3b 97 4b 88 bd 5a f3 c9 3d
       0.03365402 0.0068672844 -0.066550426 0.09860869
0002b0 21 08 a4 3d 47 fd 9a bc 2d 1c 30 be ff 7d 3e 3d
       0.08009363 -0.0189196 -0.17198248 0.046506878
0002c0 ae a9 30 bc 0e a9 12 be 87 0f be 3d b4 16 8e 3c
       -0.010782642 -0.14322302 0.09280305 0.01734481
0002d0 de 90 64 be 55 64 0c 3e 71 7e eb 3d 05 d2 c7 bd
       -0.22320887 0.13710149 0.11498726 -0.09756855
0002e0 b2 b1 49 be 95 05 c5 3d a2 2a 09 3d 2f b8 8c bd
       -0.19696692 0.09620205 0.033487923 -0.06871068
0002f0 16 f5 20 3e 91 94 35 3d c1 82 ed bb 32 80 e0 3d
       0.15718493 0.044331137 -0.007248253 0.10961951
000300 69 44 a0 3d a4 34 5a bd 03 65 0a be dd 6e f9 bd
       0.07825548 -0.05327286 -0.13515095 -0.121793486
000310 cd 22 28 3e 35 ba 29 3e 44 a9 19 3e 82 27 30 be
       0.16419525 0.16574939 0.15005976 -0.17202571
000320 ef 55 ae bc 9d 23 d8 bd e4 bc 27 be 1f f8 29 be
       -0.02128121 -0.10553668 -0.1638065 -0.16598557
000330 78 27 4f bd 98 57 06 3e 62 f8 58 3d 72 1c 0f 3d
       -0.05057475 0.13119352 0.05297125 0.034939237
000340 18 83 8b bd 4e 55 14 be 0d 11 fa bd 33 dd 4a bd
       -0.068121135 -0.14485666 -0.122102834 -0.04952736
000350 9c 8f 74 3c 4d 0f 08 3e a6 34 87 bd 7b 1d 56 be
       0.014926817 0.13287087 -0.06601839 -0.20909683
000360 38 0b d0 3d 87 2d 05 3d 18 44 18 bd 2d fd 18 3b
       0.1015839 0.03251412 -0.037174314 0.0023344264
000370 cd d6 3d 3e b1 d6 87 3d e2 91 30 3d 6b 4a ba 3d
       0.18538971 0.06632746 0.043107875 0.09096225
000380 61 e5 ac 3c 9b 02 34 3d e4 af 53 bd 4a 5d 2c be
       0.02110547 0.043947797 -0.051681414 -0.16832462
000390 6c 84 aa 3e 87 df 20 3d 16 68 3a 3e 11 df 03 be
       0.33304155 0.039275672 0.18203768 -0.12878062
0003a0 1a 39 e4 3c cd 11 04 3e 46 f9 a0 bc e9 c3 ed 3d
       0.02785926 0.12897415 -0.019650113 0.116096325
0003b0 fd 42 c6 bd fb a1 d6 3d e3 3d 1c be 08 6a 2f bd
       -0.09680746 0.10480114 -0.15257983 -0.04282573
0003c0 55 68 02 bc d1 81 19 be 82 10 b1 3c 02 c2 73 3c
       -0.007959445 -0.14990927 0.021614317 0.014877798
0003d0 1b 0f 64 3c ad a2 cf 3c a4 47 1d be be d6 f9 bd
       0.013919617 0.025346125 -0.1535936 -0.12199162
0003e0 ae 9c a5 3d 42 3a 25 bd 82 e6 c6 bb a3 a0 94 3d
       0.08086525 -0.040338762 -0.006069959 0.072572015
0003f0 43 6b 50 bd a9 2f 3d bd a0 34 3e be 7c ab 1f be
       -0.050883543 -0.04618803 -0.18574762 -0.1559276

lstm.bias_ih_l0 f4 [128]
000000 3f 47 bd 3d e2 18 12 be d5 3e d0 3c 69 d4 e1 bd
       0.09242105 -0.14267305 0.025420586 -0.11026842
000010 6c be 17 bc c2 d9 e5 bd 67 47 df 3d f0 6d 10 3d
       -0.009261709 -0.11223175 0.10902291 0.035261095
000020 4d 0d b0 3d aa 81 8b 3e 22 d7 ba 3d d2 1b 96 be
       0.08596287 0.27247363 0.091230646 -0.293181
000030 c4 7b bf be 68 bd 19 be 5f 4d 23 be 1b 8b 52 be
       -0.37399113 -0.15013659 -0.15947483 -0.20560877
000040 90 00 4c bd 66 c6 75 3c ff 36 c5 3d 45 cd 0d 3d
       -0.049805224 0.015000915 0.0962963 0.03461959
000050 80 40 68 be fe 04 29 be 7d 97 b2 bd 9e 8a 3d 3c
       -0.22680855 -0.1650581 -0.087203 0.011568693
000060 3c a5 2f be 98 45 1f 3d e6 6d 4a 3d 85 9b fe 3d
       -0.17152876 0.03888473 0.049421214 0.12432007
000070 e8 38 80 bd 89 49 33 3e 9c 76 d6 bd bb 49 1a be
       -0.06260854 0.1750852 -0.10471842 -0.15067188
000080 36 90 4d be 07 d9 11 be 01 c5 22 3e 0f ff a7 3c
       -0.20074543 -0.14242946 0.15895464 0.020507364
000090 06 72 39 3e 7b 2d 8a bd e5 d5 23 bd c4 e4 37 bc
       0.18109903 -0.06746956 -0.039998908 -0.011223976
0000a0 66 a3 c9 bd 3a 2b 35 3e 52 ea 93 be bf a2 c2 be
       -0.09845619 0.17692271 -0.2888971 -0.3801479
0000b0 d1 91 4a be 44 2c 91 bd b6 9e 84 be 65 fe 84 be
       -0.19782187 -0.07088521 -0.25902337 -0.25975338
0000c0 1e 9e 52 be 5d 32 4a be fd b1 c8 3d 47 85 80 3d
       -0.2056813 -0.19745775 0.097995736 0.06275421
0000d0 32 c2 f8 bc fe c7 4e be 5e ab de bd c9 79 74 be
       -0.030366037 -0.20193478 -0.108725294 -0.23874582
0000e0 a1 79 05 bd 42 bb 56 be ff 61 30 bd fb ab 9d bd
       -0.032586697 -0.2096987 -0.043062206 -0.07698818
0000f0 29 09 6f be ac f2 37 be ec 10 b7 bd 6d c8 67 3d
       -0.23343338 -0.17963666 -0.089387745 0.056587625
000100 61 c7 09 be 8f 1d 39 bd 53 c6 a2 bd 51 ef c4 3d
       -0.13454963 -0.045194205 -0.079479836 0.096159585
000110 76 25 fc 3d 78 11 9e 3d e6 69 54 bd 4c b5 05 be
       0.123118326 0.07718176 -0.051858805 -0.1305744
000120 79 e7 51 3e 84 93 5b 3e 9f da f3 bb dd 34 ec ba
       0.20498456 0.21442991 -0.007441833 -0.0018021126
000130 a8 56 15 bc 60 76 90 3d bd 96 b2 3d ba 67 08 be
       -0.009114899 0.07053828 0.08720157 -0.13320819
000140 2a 8d 7b be 8e 32 e5 bc 6b 61 6b be 09 ab 4a be
       -0.24565569 -0.027978208 -0.22986381 -0.19791807
000150 92 b2 87 3d fb 6e a5 bd 67 80 be bd b7 66 f1 3d
       0.066258565 -0.080778085 -0.093018346 0.117871694
000160 52 57 0e be 59 1c 5f bd d5 16 6e bb 85 b1 ae 3d
       -0.13900498 -0.054470394 -0.0036329527 0.08529953
000170 a8 d3 0c 3c 27 de 8f bd 12 98 5b be b9 c6 34 3e
       0.008595385 -0.07024794 -0.21444729 0.17653932
000180 8e c8 3d be e2 29 8a bd 60 29 71 bd 14 f7 bf bd
       -0.18533537 -0.0674627 -0.05887735 -0.09373298
000190 56 a0 06 be 15 3c 19 be 6e ad 08 be 87 12 cb bc
       -0.13147101 -0.14964326 -0.13347408 -0.024789108
0001a0 5c 6d 90 bd 85 be 08 bd d4 d7 3f bd c5 f7 a7 be
       -0.07052109 -0.03338482 -0.04683669 -0.3280622
0001b0 e1 55 9a bd 85 5d 21 be 7c 67 82 3c 4f e4 a5 3d
       -0.07535911 -0.15758331 0.015918486 0.08100187
0001c0 bf 62 4d be cc be b6 3c 38 84 b6 bc 3c 6d 04 3e
       -0.200572 0.022307776 -0.022279844 0.12932295
0001d0 5a 60 f8 bd c3 35 8e 3d df b5 b5 bd 7f d4 33 be
       -0.121277526 0.06943848 -0.0887258 -0.1756153
0001e0 e1 45 cc bd 7c 84 4f be 2b 5f 20 3e 42 5d fb bd
       -0.09974266 -0.20265383 0.15661304 -0.12273647
0001f0 ae 17 4e be f2 e5 4c 3e 96 03 4b be f6 12 08 be
       -0.2012622 0.20009592 -0.19825587 -0.13288483

lstm.bias_hh_l0 f4 [128]
000000 f8 28 d8 3d ac f3 c6 3b 75 3a 14 be 81 a2 93 bd
       0.10554689 0.0060715284 -0.14475425 -0.072087295
000010 fc 3e 78 3d b5 cb 05 3e f4 12 94 3d c6 e6 26 3d
       0.06060694 0.1306599 0.072301775 0.040747426
000020 e9 15 1a be 60 3f 95 3e 69 4e 97 bd 56 0b a7 bd
       -0.1504742 0.29149914 -0.073880024 -0.08156459
000030 9b a5 27 be 48 f5 76 be 88 e2 3e be 5a 1d 1c be
       -0.16371767 -0.24117005 -0.18641102 -0.15245572
000040 1e 79 b2 3d 0f b4 7b be 27 69 63 3c e5 d4 06 3c
       0.087145075 -0.24580406 0.013880051 0.008229469
000050 dd 14 1d 3d 46 8a 16 3e 0c 24 71 bd c6 bb 3d be
       0.038349975 0.14701185 -0.058872268 -0.18528661
000060 54 d4 55 be f7 97 db bc 05 6b ae 3b 5e 8b fd bc
       -0.20881778 -0.02680586 0.0053228163 -0.030950245
000070 1f c0 a5 bd 3d d5 55 3e 1c 71 12 3d 64 74 7e 3c
       -0.08093285 0.20882125 0.0357524 0.015530679
000080 c8 2b 01 bd 8f 61 6c bd 8e 91 40 be 24 42 49 bd
       -0.031535894 -0.057710227 -0.18805525 -0.049135342
000090 c1 b7 cf 3e e4 1d f3 3c 66 c5 e8 3d 77 7a b5 3d
       0.4056988 0.029677339 0.11365776 0.08861249
0000a0 75 42 2a bd 71 41 77 3d 1e 5e 9c be 2f 72 42 bd
       -0.041567285 0.060365144 -0.30540556 -0.047472175
0000b0 08 96 9e be e1 17 33 bc 06 cb 7b 3d e8 51 97 be
       -0.3097384 -0.010930986 0.061472915 -0.29554677
0000c0 76 7d 58 3d 61 3a 3e bd c6 8a 01 3e c2 75 d8 bd
       0.052854024 -0.046442393 0.12650594 -0.105693355
0000d0 4d 91 96 bd 58 bd 65 3d 31 1b 8f bc 09 d0 a2 be
       -0.07351933 0.056088775 -0.01746902 -0.31799343
0000e0 1a a3 aa 38 3d 6a d2 bd 85 f3 49 be 69 c6 e5 bd
       8.136612e-05 -0.102741696 -0.19721802 -0.11219484
0000f0 dc 14 a5 be 65 9b b3 be 76 d9 c1 3d 2c 61 4a be
       -0.32242477 -0.35079494 0.094653055 -0.1976363
000100 7b c8 6e bc f9 d7 0e 3e 4f a7 06 be ca b4 0f 3d
       -0.014574165 0.13949575 -0.1314976 0.035084523
000110 d9 66 29 be 43 d7 0d 3e 18 53 ed bd 32 05 f3 3d
       -0.1654314 0.13851647 -0.115881145 0.11866225
000120 c4 23 4f 3d 4a 6d 54 3e 40 f2 11 be 0c 77 4c bd
       0.050571218 0.20744815 -0.14252567 -0.04991822
000130 5f 85 86 bd 54 7b 8d bd 25 a1 56 be eb 2e c7 3b
       -0.06568407 -0.069082886 -0.2095991 0.006078591
000140 3a 52 62 be 13 23 c3 3d 9c db be bc c4 ba 55 be
       -0.2210168 0.09528174 -0.023298077 -0.20872027
000150 19 73 72 bc 7d 00 18 bd 16 38 dc 3a 72 36 6d be
       -0.014797949 -0.03710984 0.0016801383 -0.231653
000160 d8 e8 72 bd 7d 56 80 3c 4c d0 24 3d 37 51 24 3e
       -0.05930409 0.01566624 0.04023771 0.16046606
000170 44 05 1e 3e 61 e0 25 3d e0 2f 19 bd 4e bc d4 bd
       0.15431696 0.040497188 -0.037399173 -0.10387479
000180 db ff d5 3d d8 ef 4e 3c c3 2f 10 3e 4e 46 70 3d
       0.10449191 0.012630425 0.1408072 0.058660798
000190 32 79 02 be c8 39 99 bd 97 51 2c be e7 cf d4 3d
       -0.12741545 -0.07481724 -0.16827999 0.10391217
0001a0 4b 6e 8d bd 19 56 99 3e 6c 80 0e 3e f2 d9 f8 bd
       -0.06905802 0.299485 0.13916177 -0.12150945
0001b0 8f 0a ab be f9 df 50 bd ac 11 9a bd 1e 09 64 be
       -0.33406493 -0.050994847 -0.07522902 -0.22269103
0001c0 fe fd 95 3d 15 1e 89 be 24 b4 55 bd d9 28 d7 bd
       0.07323836 -0.26780763 -0.05217375 -0.10505838
0001d0 ff 42 23 bd 3c d8 01 3c 8f 5a 10 3d 3b b4 83 bc
       -0.039858814 0.007925089 0.035242613 -0.016077152
0001e0 95 f6 5e be a1 66 e7 bc 80 87 1d be d3 aa 39 3e
       -0.21773751 -0.02824718 -0.1538372 0.1813157
0001f0 62 dd 64 be 6f 6e 94 3d 70 1d fc ba 5c b2 7d bd
       -0.22350076 0.07247626 -0.0019234847 -0.061937675

layer_norm.weight f4 [32]
000000 55 e4 6d 3f 3e 36 6d 3f 44 19 7e 3f 75 b2 73 3f
       0.9292653 0.9266089 0.992573 0.9519418
000010 e2 13 79 3f d1 0c 78 3f 6b 46 71 3f 74 cd 71 3f
       0.97295964 0.96894556 0.94248074 0.9445412
000020 f0 e4 6f 3f 41 e7 87 3f 94 2e 98 3f db 98 5f 3f
       0.93708706 1.0617448 1.1889215 0.87342614
000030 da 40 7c 3f 10 67 47 3f 75 2c 54 3f 48 40 71 3f
       0.98536456 0.77891636 0.82880336 0.9423871
000040 c0 de 57 3f c3 bc 54 3f 63 47 77 3f da 5a 6e 3f
       0.84324265 0.8310053 0.965933 0.9310738
000050 8c 40 66 3f c5 01 65 3f da 40 79 3f d0 c5 65 3f
       0.8994224 0.89455825 0.9736458 0.8975496
000060 e1 f9 4f 3f fe 8b 51 3f 77 54 75 3f 68 f8 83 3f
       0.8124066 0.81854236 0.9583201 1.0310183
000070 9f b2 4f 3f 8b c6 7f 3f ac 29 5d 3f 94 80 69 3f
       0.8113193 0.9991233 0.8639171 0.9121182

layer_norm.bias f4 [32]
000000 1f a3 1d 3d 38 c3 40 3c 49 73 a4 bc 31 c3 93 3a
       0.038485643 0.011765294 -0.020074503 0.0011273382
000010 72 c4 c1 bd 39 18 01 bd 21 55 27 bd 04 1f 2c 3d
       -0.09461297 -0.03151724 -0.04085267 0.042021766
000020 76 2d 70 3c 24 c3 2a bb 10 3b 2f bd dc 40 d6 bc
       0.014659276 -0.0026056254 -0.042780936 -0.026153974
000030 cc 80 e4 3c b9 fc 23 3e ee 49 a7 bd a7 4c c4 3c
       0.027893446 0.16014375 -0.08168398 0.023962332
000040 28 c1 13 3c 51 86 39 bc e0 c9 81 bd 97 da 65 3d
       0.00901822 -0.011323527 -0.06337333 0.056116667
000050 44 7e 6e 3d bd 63 b8 bd 89 84 1d 37 09 d4 c7 bd
       0.058225885 -0.090033986 9.3887875e-06 -0.09757239
000060 86 06 b3 3d 83 32 e4 3c 9c 3f ad bb 94 46 17 3d
       0.087414786 0.027856117 -0.005287124 0.036932543
000070 53 02 9d 3c 40 46 ad 3c 06 72 98 bd 96 a8 8b 3b
       0.019166147 0.021151662 -0.07443623 0.0042620404

linear1.weight f4 [32, 32]
000000 39 41 9f 3d c7 53 11 be 42 9c c0 bd b7 a2 c6 bd
       0.07776112 -0.14192115 -0.09404804 -0.09699004
000010 ea a1 08 be 71 6a ca bd 6a da 34 3e 54 60 37 be
       -0.13343015 -0.09883583 0.17661443 -0.1790784
000020 81 6d a4 bd eb 91 a0 bd 6f 98 91 3d 5d a9 7c bd
       -0.08028699 -0.07840332 0.071091525 -0.061684955
000030 36 32 26 be e7 3c 45 be 86 0e 86 bc cf 93 d7 3c
       -0.16230091 -0.19261514 -0.016364347 0.026315598
000040 32 cf c8 3d 69 79 44 3d b3 b3 53 3e e2 64 a0 3d
       0.09805144 0.04796735 0.20674019 0.07831742
000050 f7 ad 26 3d 49 c4 30 3e 2a 95 dd bd 4c 90 64 3e
       0.04069325 0.17262377 -0.108194664 0.2232067
000060 56 bf 6f bd 35 c5 1a bd 7f 5c ba bd 5b dd 86 bd
       -0.05853208 -0.037785728 -0.090996735 -0.06585189
000070 a5 7f fb bd 02 62 d0 3d ba 5e ea 3d c4 5d 91 bd
       -0.12280206 0.101749435 0.11443849 -0.070979625
000080 f1 ad 38 be 1a 2a 19 3e 40 e9 71 3d 96 4c bc bc
       -0.18035103 0.14957467 0.059060335 -0.022985738
000090 67 f7 f4 bd a5 78 94 bd fc bf 98 bc e0 40 bb bd
       -0.11961251 -0.072495736 -0.018646233 -0.09143233
0000a0 0e af bc bc 7c 49 84 3e 50 6f 2a be 86 8d a0 3c
       -0.023032691 0.25837314 -0.16644025 0.019598734
0000b0 9f 36 45 be d2 b5 12 be 82 80 96 bd b2 fb 23 be
       -0.19259118 -0.14327171 -0.0734873 -0.16013983
0000c0 a9 f0 10 3c 9f 63 27 bd 42 56 68 be 0e f4 82 be
       0.00884644 -0.04086649 -0.22689155 -0.25576824
0000d0 30 58 17 be 84 26 74 3e 03 96 24 be f6 ba 5f bd
       -0.14779735 0.23842818 -0.1607285 -0.05462166
0000e0 ed 58 2d be f2 d0 35 bd 1a 09 38 be e6 57 49 3d
       -0.16928454 -0.04438872 -0.17972222 0.049156092
0000f0 50 af 71 be a6 00 60 3d 40 ad 68 be f0 29 0c 3e
       -0.23602033 0.05468812 -0.2272234 0.13687873
000100 4b 7d 5b 3e 85 00 95 bc 6a fe c8 bc 6a 63 0b be
       0.21434514 -0.018188724 -0.024535377 -0.13612142
000110 9e 38 64 3e b1 6f 5e 3d 62 01 fe 3d d6 c0 66 bd
       0.22287223 0.054305736 0.124026075 -0.056336246
000120 11 6f 7d 3d 9c d9 89 3b c3 e9 fe bc 0b 75 24 3e
       0.0618735 0.0042068493 -0.031117326 0.16060273
000130 bd 2f be 3d c7 d2 2b 3e 48 d3 91 be d0 39 1c 3e
       0.09286449 0.16779624 -0.28481507 0.15256429
000140 5c c2 7a 3d a1 93 9e bd 22 4f 01 be 2d df 06 3e
       0.06122051 -0.07743002 -0.12627843 0.13171072
000150 0d 66 9f 3d b0 b8 df 3d f9 5a 16 bd 27 c9 60 be
       0.077831365 0.10923898 -0.036707852 -0.21951734
000160 a4 c8 f6 bc e0 dd 2c 3e 5a 1e d1 bc 1a 90 49 bc
       -0.03012497 0.16881514 -0.025527168 -0.012302423
000170 e8 23 ff bc 6a 5f 2e 3d 72 32 92 3c 51 f2 cf 3b
       -0.031145051 0.042571463 0.01784632 0.006346025
000180 30 e6 85 3d 2e 80 17 3e 84 1e 45 be 09 8c 58 3d
       0.065380454 0.1479499 -0.19249922 0.052867923
000190 22 fe a4 be 5b 72 82 3d 06 ca 81 3d 9f 1f 24 3e
       -0.32225138 0.06369468 0.06337361 0.16027687
0001a0 49 ae 29 be 14 aa 69 bd 52 e6 a5 be 51 56 3e 3c
       -0.16570391 -0.057046965 -0.32402283 0.011617259
0001b0 63 ad 40 3e 1f d6 04 3e 07 48 2b be 9a 7e 2d be
       0.18816142 0.12972306 -0.16726695 -0.16942826
0001c0 f7 b9 bf 3d 38 08 01 be 5f f6 c3 3d 3f ee 00 3e
       0.09361642 -0.12600791 0.09568476 0.12590884
0001d0 2e ae cd bc ac 84 a5 bc 07 63 79 3e c7 a1 8a 3b
       -0.02510747 -0.020204864 0.24354182 0.004230711
0001e0 8d dd f3 ba b7 af de bd 1b 57 af bd c9 e4 0a 3e
       -0.0018605456 -0.10873359 -0.08561536 0.13563837
0001f0 11 18 62 bd 50 ef f4 3d d3 85 59 3d 89 cd 7d 3c
       -0.055198733 0.11959708 0.05310614 0.015490898
000200 06 11 3c bc 13 20 68 3d 88 b8 42 3e a9 e0 02 3e
       -0.011478668 0.056671213 0.19015706 0.12781014
000210 58 44 53 be 51 f8 35 bd 8a dc 00 3e d2 a3 33 be
       -0.2063154 -0.044426266 0.12584129 -0.17542961
000220 a4 53 5b bc 8d b0 4f 3e f4 fa 62 3d a8 74 25 bd
       -0.013386641 0.20282193 0.05541511 -0.040394455
000230 88 6d 8a bc 4f a2 a0 3d 9a 5b 09 3e f8 a6 07 be
       -0.016897932 0.07843458 0.1341385 -0.13247287
000240 18 31 03 be 51 73 68 bd 46 42 1a be fc 8a d9 3d
       -0.12811697 -0.0567506 -0.15064344 0.10622212
000250 10 34 52 be ba da 86 bd 9b 47 13 3e b2 53 9c 3d
       -0.20527673 -0.065846875 0.14382784 0.07633151
000260 aa 27 51 be 7c 32 c9 3d 0a 33 13 3e db 65 69 3d
       -0.20425287 0.09824082 0.14374939 0.056981903
000270 48 b5 90 3a 03 06 4c 3d c7 73 21 3d 9d 8e 26 bd
       0.0011040354 0.04981042 0.039417055 -0.04066335
000280 3b 6d 91 3d b0 ce 79 3b ed 72 06 bc cf ab 93 bd
       0.07100912 0.003811758 -0.008206111 -0.07210504
000290 4f 8b 19 3e d8 30 ee bd 44 f2 10 be 77 f3 37 bd
       0.14994548 -0.1163041 -0.14154917 -0.04490992
0002a0 67 0e a0 bc d8 0f 0a 3e b2 90 ef 3c c3 ed 52 3d
       -0.019538118 0.13482606 0.0292438 0.05149628
0002b0 5c 7a fe 3d 74 f0 3e 3e 5e fe 50 be 68 38 07 be
       0.12425682 0.18646413 -0.20409533 -0.13205111
0002c0 06 f6 80 3d e6 44 ba 3d 5e 2a fb 3d 7c 81 e7 bd
       0.06296925 0.090951726 0.1226394 -0.11303994
0002d0 a3 98 02 3e b5 1b b0 3d cb 9f 45 3d c5 21 dd 3d
       0.12753539 0.08599035 0.048248094 0.10797457
0002e0 e7 96 35 3e 24 98 8f 3d 4e eb f6 bd d7 65 a4 3c
       0.17733346 0.070114404 -0.120565996 0.020068092
0002f0 81 e9 5e bd 0f 3e e2 3d c0 7d d2 bc 6e 49 f9 bd
       -0.054421905 0.11046993 -0.025694728 -0.12172209
000300 d3 5e ac bd 44 0a 13 be 88 f0 eb 3d 24 98 8a bc
       -0.08416524 -0.14359385 0.11520487 -0.01691825
000310 48 77 ae 3e fc 17 8e bd e4 40 8f 3e 23 32 c4 be
       0.3407538 -0.069381684 0.27979195 -0.383195
000320 04 ae ed 3d ed c5 2a be 63 fc df 3e ca 68 5c 3e
       0.116054565 -0.16677065 0.43747243 0.21524349
000330 f1 37 14 3e c7 77 a7 3c 91 25 bb 3e bf bf 80 3e
       0.14474465 0.020442856 0.36552098 0.2514629
000340 00 39 1e bc 5a 69 44 3e 26 82 98 3d 31 57 9c bc
       -0.009657145 0.19180813 0.07446699 -0.019084545
000350 f8 09 55 3e 0d d4 2f bb ea b2 32 be 98 45 09 3e
       0.20804584 -0.0026829273 -0.17451063 0.13405454
000360 71 2f 93 3e f7 55 88 be 0d 65 a5 3e 7b f0 85 bd
       0.28747132 -0.26628086 0.32303658 -0.06540009
000370 36 d8 69 be 0d b1 cd bc 0f 7f 1e 3d 69 93 1b be
       -0.22836384 -0.025108838 0.03869539 -0.15192951
000380 43 a1 59 3e d4 de 5f bc 7e d7 c5 bd 92 96 b9 bd
       0.21252923 -0.013663966 -0.096602425 -0.09061922
000390 c6 b4 0a 3e 6f 3e 05 3d 82 b4 1e 3d 6b a9 00 3e
       0.13545522 0.032530244 0.038746364 0.12564628
0003a0 88 50 c5 bd bb 11 1b bd d0 41 e0 bd d9 05 14 be
       -0.09634501 -0.037858706 -0.10950053 -0.14455356
0003b0 b9 cc d9 bd ff 63 6a 3c df 9d b7 bd c5 2d de 3c
       -0.10634751 0.0143060675 -0.089656584 0.027121434
0003c0 e9 72 e6 bd 84 90 11 3d 6d 3f 34 3d 12 48 43 3e
       -0.11252386 0.03553821 0.0440058 0.19070461
0003d0 bf d1 f8 bc e3 a8 15 be 10 dc 66 bd 39 9b db 3d
       -0.030373452 -0.14615206 -0.05636221 0.10722966
0003e0 0b 88 06 3e 4b 7e 55 3d c4 24 17 be 1f c8 1a 3d
       0.13137834 0.052122395 -0.14760119 0.037788507
0003f0 2e 27 93 be 4c 8a 3b bc cb 5b 01 bc f8 fe c5 b8
       -0.2874083 -0.011446547 -0.00789542 -9.441184e-05

linear1.bias f4 [32]
000000 91 24 36 be a4 f2 42 3e 60 f3 82 3d af 5c ce 3d
       -0.17787386 0.19037873 0.06394076 0.10076272
000010 e9 6a 87 3d de a8 a1 3d bf 9a 7c bc 7e 08 d7 bd
       0.06612188 0.07893537 -0.015417754 -0.10499667
000020 a3 03 27 3d f2 41 2b 3e a4 26 0b 3e ad c7 e2 bd
       0.040774953 0.16724375 0.13588959 -0.110732414
000030 71 32 1f 3e af 4a 96 3d 85 54 bc bd c0 a7 d9 3d
       0.15546586 0.073384635 -0.09195808 0.10627699
000040 77 f8 7b 3d e0 89 f1 3d 75 30 ae 3c 39 51 39 be
       0.06151625 0.11793876 0.02126334 -0.1809739
000050 0f 26 0f 3e a6 47 f5 3d 2d 2f ad bd 4c 46 a5 bd
       0.13979362 0.119765565 -0.08456264 -0.08070049
000060 c8 39 f2 3d 07 c4 5e 3e 3f 5e e4 3d 65 60 4e 3c
       0.11827427 0.21754466 0.111507885 0.012596224
000070 61 d6 80 3d 64 90 f5 3d d4 4e 08 3d 3c fc 48 be
       0.062908895 0.11990431 0.0332783 -0.1962747

linear2.weight f4 [1, 32]
000000 a3 9d 34 bc 10 3e 34 3d a0 8b 5f bc 46 90 02 be
       -0.011023912 0.0440045 -0.013644129 -0.12750348
000010 2a 8d 81 3d 21 ae 08 bd 49 44 ac 3d 8d 5e a1 bd
       0.06325753 -0.033369187 0.08411462 -0.07879362
000020 cd cb dc 3d c3 17 b7 3d c9 07 f4 3d 57 89 22 3d
       0.107810594 0.08940079 0.119155474 0.03968176
000030 1b 2c 4e bc ee b9 a1 bd 8a 3c e6 3d f0 6d 15 3d
       -0.012583758 -0.078967914 0.11242016 0.036481798
000040 a5 66 1c bd ab 01 67 bc 31 b2 3c bb c7 7a 4f bd
       -0.038183827 -0.014099519 -0.0028792734 -0.0506542
000050 54 06 00 3c e1 c1 0b 3e 59 b2 68 3c 4b ec e2 3a
       0.007814009 0.13648178 0.014202678 0.0017312852
000060 07 b1 d9 bd 5f c8 81 bd 7f 86 07 be 3b b2 80 b8
       -0.106294684 -0.06337046 -0.132349 -6.136714e-05
000070 22 6e bf bd f4 1e 0a be ed bd 9e bd ac 1d a7 3d
       -0.09347178 -0.1348837 -0.07751069 0.08159956
