labml_nn/lstm/LSTM_THz/model_combine_318r1_26.pth (torch, 26025 bytes, 9 tensors)

lstm.weight_ih_l0 f4 [128, 1]
0.25295666 0.0036213403 -0.2367234 -0.11293549 0.29486972 0.24917266 0.029414097 -0.07615945
-0.18485866 0.12462488 -0.17193581 0.078247204 -0.23570758 0.11875646 0.12077136 0.19720806
-0.20466878 0.12724812 0.2651949 0.1270701 0.25068808 -0.1616776 -0.095516935 0.048600428
0.4261113 -0.014869571 0.24591193 0.20495114 -0.33101848 -0.03794614 -0.27879733 -0.30345836
0.30317214 -0.062141288 -0.1462972 0.06780334 0.19006787 0.3460907 -0.057643987 0.037493676
-0.18380328 -0.13428101 -0.18363656 -0.06663926 0.01868243 0.124936655 -0.052036732 0.092139445
-0.03096831 0.17840253 0.16781585 -0.10461433 0.31103027 -0.021783205 -0.20461996 0.32281932
0.39412478 -0.11892497 0.40171427 0.24092695 -0.16308929 0.22207156 -0.28565103 -0.3222177
0.033641446 0.051679403 0.37281078 -0.13728207 0.33552304 -0.2912 0.071695134 -0.007568941
0.34076545 -0.075226076 -0.24708395 0.07211786 -0.08847148 0.3678161 0.0005068222 0.35593325
0.2715998 -0.14512777 -0.4290279 0.012309728 0.3806098 0.007996493 0.08627928 -0.20866606
0.19141027 -0.046183642 -0.1709889 0.017061723 -0.13679098 0.301307 0.3418993 0.33449733
0.10896929 0.22452529 -0.14404377 -0.14943324 0.17584427 0.39111757 -0.20419838 0.14298117
-0.14402999 -0.05089984 -0.1548123 -0.036136016 -0.1446481 0.2791485 0.16283727 0.40333834
-0.19195873 0.2568644 0.18809348 0.108528495 0.36233962 -0.16311918 -0.34595156 0.13141477
0.21449299 -0.15393764 0.065757476 0.11877364 -0.19473219 0.2070389 -0.10367439 -0.3517453
00000000: 8983 813e 0254 6d3b 9e67 72be b94a e7bd
00000010: 2af9 963e 1e27 7f3e d5f5 f03c 7cf9 9bbd
00000020: 974b 3dbe 543b ff3d f10f 30be 1240 a03d
00000030: 545d 71be 9636 f33d fa56 f73d e9f0 493e
00000040: b194 51be 554d 023e a0c7 873e aa1e 023e
00000050: 305a 803e d08e 25be 629e c3bd 3e11 473d
00000060: 432b da3e 809f 73bc 56d0 7b3e b6de 513e
00000070: 417b a9be 696d 1bbd 86be 8ebe e55e 9bbe
00000080: 6139 9b3e dd87 7ebd efce 15be 7adc 8a3d
00000090: 27a1 423e cd32 b13e 1a1c 6cbd f892 193d
000000a0: ed36 3cbe f680 09be 390b 3cbe 2a7a 88bd
000000b0: e50b 993c cade ff3d 7824 55bd 9bb3 bc3d
000000c0: 41b1 fdbc 27af 363e ebd7 2b3e 0a40 d6bd
000000d0: 5c3f 9f3e b172 b2bc e587 51be 9348 a53e
000000e0: b9ca c93e ef8e f3bd 7ead cd3e 8eb5 763e
000000f0: e100 27be ba66 633e da40 92be b8f9 a4be
00000100: 9dcb 093d c8ad 533d 0ee1 be3e ac93 0cbe
00000110: adc9 ab3e 2b18 95be e6d4 923d e104 f8bb
00000120: cf78 ae3e 2110 9abd 9303 7dbe 87b2 933d
00000130: 8930 b5bd 6452 bc3e 43dc 043a e23c b63e
00000140: 210f 8b3e 609c 14be 8ba9 dbbe beae 493c
00000150: 4adf c23e b903 033c 31b3 b03d 8eac 55be
00000160: 0e01 443e 0f2b 3dbd b717 2fbe 07c5 8b3c
00000170: ef12 0cbe e944 9a3e 6d0d af3e 3c43 ab3e
00000180: 4b2b df3d f5e9 653e 3680 13be 0705 19be
00000190: 8510 343e 9040 c83e 6119 51be a869 123e
000001a0: 997c 13be 5a7c 50bd 1e87 1ebe 5c03 14bd
000001b0: a21e 14be 8dec 8e3e d0be 263e 5d82 ce3e
000001c0: d490 44be bb83 833e 949b 403e 3044 de3d
000001d0: 9484 b93e b708 27be 9020 b1be 9891 063e
000001e0: 0da4 5b3e d4a1 1dbe dbab 863d 983f f33d
000001f0: e067 47be 0102 543e 3d53 d4bd f617 b4be

lstm.weight_hh_l0 f4 [128, 32]
0.12542231 0.05728866 0.13942598 -0.1705676 0.21431181 0.07031689 -0.13411115 0.016250396
0.123434626 -0.16466732 -0.23220842 0.08206296 -0.16650845 0.16281056 0.14350542 0.30006388
-0.12878697 -0.05046178 -0.14685635 -0.0656265 -0.0885684 -0.049527857 0.15123865 -0.15045796
0.23777506 -0.016067384 -0.0036192322 -0.13204916 -0.2920488 -0.009576722 0.06170715 0.173671
0.22045706 -0.18060645 0.05208886 0.23568092 0.009139674 0.13536364 0.08442565 -0.06479368
0.083349116 -0.3041718 0.15796857 -0.016589047 0.2600189 0.076004714 0.3083438 -0.14639865
-0.3686109 0.013534183 0.31262785 -0.056959327 -0.1747069 -0.09498444 0.07983598 0.1448253
0.068149626 0.18891087 0.23442172 0.29354686 -0.12771782 -0.047581848 -0.12018098 -0.080445625
-0.1544704 -0.1253848 0.12511285 0.039243203 -0.04506989 -0.19974044 -0.17550461 -0.068820395
-0.21298958 0.10226439 -0.09783367 -0.09441765 0.102951124 -0.07364282 0.0074398583 0.12481334
-0.013885758 0.052834634 -0.10623661 0.017691476 -0.11695446 0.0012354471 0.05450629 -0.20097911
0.071788564 0.0732672 -0.1783733 -0.19487914 -0.19019085 -0.033782203 0.12657583 0.03406237
-0.19456163 0.12570822 0.19562678 -0.42701292 0.08875394 -0.09284207 0.29772335 -0.02972198
-0.08577437 0.09433278 -0.6397253 -0.008674457 -0.10534003 -0.12652478 -0.3288843 0.006501066
0.35000753 -0.05262134 -0.4254165 -0.086177334 0.06459265 -0.28732818 -0.1069993 0.022294415
-0.24027772 -0.23872906 -0.6066632 -0.013755457 -0.059265107 0.11265595 0.0065314043 0.11536969
-0.10231196 -0.03689928 -0.22471125 0.365305 0.17938809 0.045692373 -0.32861727 -0.0053005614
-0.19685343 -0.025934791 0.44237286 0.057041828 0.34828183 -0.18765736 2.2729826e-05 -0.11750562
-0.35759476 -0.015510943 0.18088137 0.18504015 -0.085115574 0.020270983 -0.09835234 0.08418296
0.23988406 -0.025513867 -0.022205865 -0.06642298 0.062461283 0.052312907 -0.06861063 -0.21268739
-0.0681953 0.1594203 0.053115338 0.050246187 0.060801007 -0.15695018 0.03861038 -0.14274462
0.1585495 0.1124367 0.09087563 -0.01802743 0.20647357 0.17558719 0.13750455 -0.07320451
-0.19906732 -0.017497014 0.1180199 0.056884736 0.090442084 0.026597645 -0.003357983 0.06737674
0.16315866 0.11210701 -0.08762691 0.008861842 -0.17390788 0.15839489 0.14686677 -0.087332584
-0.0119852 -0.16676468 0.084683694 -0.16594891 -0.025838602 0.22220202 -0.06494434 0.26047343
-0.29454195 0.027904045 -0.10551073 -0.10283721 -0.1989718 -0.029428253 0.009089931 -0.092415035
-0.40047148 -0.0018118004 0.16278383 0.16435148 -0.20987645 -0.045756035 0.025884867 -0.08817967
0.0010485619 -0.07264838 0.060079407 -0.2807322 0.121594146 0.16196781 0.016392961 -0.24429172
0.43530256 -0.30804273 0.3152292 -0.106499925 -0.36366785 0.18535025 0.17374441 -0.20975623
0.302536 -0.37392366 0.10627317 -0.3503079 -0.16163285 -0.24097086 0.15256938 -0.017904226
-0.116428085 0.11829095 0.23810685 -0.13149203 -0.3649685 -0.3416615 0.24890606 0.29791877
0.026408432 -0.31394538 0.102837995 0.3508618 -0.08519989 -0.08979373 0.11650095 0.20872667
00000000: b56e 003e 84a7 6a3d afc5 0e3e 46a9 2ebe
00000010: 8e74 5b3e 4d02 903d 6f54 09be 8d1f 853c
00000020: 4bcb fc3d 8d9e 28be 0bc8 6dbe a010 a83d
00000030: 3181 2abe d0b7 263e 16f3 123e f9a1 993e
00000040: bbe0 03be 03b1 4ebd 8361 16be 3067 86bd
00000050: 5963 b5bd b9dd 4abd 4ede 1a3e a711 1abe
00000060: 4e7b 733e bf9f 83bc a430 6dbb e537 07be
00000070: 6c87 95be afe7 1cbc a3c0 7c3d d0d6 313e
00000080: 7fbf 613e e6f0 38be 215b 553d 5756 713e
00000090: 92be 153c c49c 0a3e 5be7 ac3d 8db2 84bd
000000a0: f1b2 aa3d 68bc 9bbe 83c2 213e c1e5 87bc
000000b0: 3221 853e 5ca8 9b3d 3ddf 9d3e 87e9 15be
000000c0: 91ba bcbe 7abe 5d3c c210 a03e 2f4e 69bd
000000d0: 5ee6 32be 3487 c2bd 0c81 a33d 154d 143e
000000e0: 0892 8b3d da71 413e 3f0c 703e c64b 963e
000000f0: 76c8 02be 2fe5 42bd 7221 f6bd adc0 a4bd
00000100: 7d2d 1ebe df64 00be 951d 003e 7bbd 203d
00000110: 349b 38bd c288 4cbe 7bb7 33be b5f1 8cbd
00000120: f119 5abe fe6f d13d 055d c8bd 0a5e c1bd
00000130: 0ad8 d23d 0cd2 96bd 0eca f33b 239e ff3d
00000140: 1781 63bc 2169 583d 9492 d9bd b7ed 903c
00000150: d285 efbd baee a13a fd41 5f3d 78cd 4dbe
00000160: e205 933d 1d0d 963d 7ea7 36be 668e 47be
00000170: 64c1 42be 355f 0abd 189d 013e fc84 0b3d
00000180: 2a3b 47be a8b9 003e 6352 483e 70a1 dabe
00000190: a0c4 b53d fc23 bebd 326f 983e 837b f3bc
000001a0: 79aa afbd 8b31 c13d 0ac5 23bf 4f1f 0ebc
000001b0: 83bc d7bd b68f 01be 8663 a8be e506 d53b
000001c0: 3034 b33e 7989 57bd 31d0 d9be be7d b0bd
000001d0: 2749 843d ae1c 93be 7322 dbbd c7a2 b63c
000001e0: 5d0b 76be 6475 74be 484e 1bbf 915e 61bc
000001f0: f8bf 72bd 2ab8 e63d 6405 d63b f246 ec3d
00000200: ef88 d1bd b323 17bd b51a 66be 4209 bb3e
00000210: 83b1 373e ed27 3b3d 8640 a8be 55b0 adbb
00000220: f293 49be 3375 d4bc b27e e23e b1a4 693d
00000230: ff51 b23e 4029 40be eeab be37 c9a6 f0bd
00000240: a916 b7be 9c21 7ebc f738 393e 2a7b 3d3e
00000250: 1351 aebd 550f a63c f46c c9bd 1e68 ac3d
00000260: 2ba4 753e 7502 d1bc 13e9 b5bc c508 88bd
00000270: 67d7 7f3d 0f46 563d bb83 8cbd b9ca 59be
00000280: faa9 8bbd 133f 233e 788f 593d f2ce 4d3d
00000290: 7a0a 793d 8cb7 20be eb25 1e3d a52b 12be
000002a0: cd5a 223e 3645 e63d 011d ba3d 43ae 93bc
000002b0: cf6d 533e 21cd 333e fecd 0c3e 3fec 95bd
000002c0: 4ed8 4bbe e655 8fbc 6bb4 f13d f8ff 683d
000002d0: b339 b93d 4ee3 d93c 9b11 5cbb d1fc 893d
000002e0: 1013 273e 5c98 e53d bd75 b3bd 4231 113c
000002f0: e814 32be 4532 223e 3e64 163e 6ddb b2bd
00000300: 935d 44bc 5cc4 2abe a56e ad3d 83ee 29be
00000310: 7aab d3bc ed88 633e 8a01 85bd c65c 853e
00000320: 34ce 96be 0697 e43c 0216 d8bd 519c d2bd
00000330: 43bf 4bbe 8513 f1bc efed 143c 1844 bdbd
00000340: 990a cdbe ef79 edba ceb0 263e c14b 283e
00000350: dae9 56be ae6a 3bbd 800c d43c 8b97 b4bd
00000360: e66f 893a adc8 94bd d315 763d 22bc 8fbe
00000370: 5a06 f93d e4da 253e 884a 863c 9c27 7abe
00000380: fadf de3e c7b7 9dbe b965 a13e a21c dabd
00000390: ac32 babe 75cc 3d3e 0eea 313e 56ca 56be
000003a0: 00e6 9a3e ec72 bfbe bfa5 d93d 8f5b b3be
000003b0: 1583 25be 11c1 76be 263b 1c3e e2ab 92bc
000003c0: d971 eebd 8742 f23d 48d2 733e d9a5 06be
000003d0: 27dd babe 42ee aebe 3be1 7e3e cf88 983e
000003e0: 7f56 d83c 73bd a0be ba9c d23d 28a4 b33e
000003f0: 487d aebd c6e5 b7bd 0d98 ee3d 72bc 553e

lstm.bias_ih_l0 f4 [128]
0.105159365 0.17068394 0.058431923 -0.18783392 -0.048968904 -0.07991108 -0.1743316 -0.23625426
0.07876169 -0.23240176 -0.0062591154 -0.21204741 -0.1948244 -0.10606537 -0.20106536 -0.009125898
-0.11883901 0.20877464 0.081850335 0.13383059 -0.14276387 0.03812012 -0.21656236 0.010852924
-0.19450042 -0.22671321 -0.03221341 -0.3020622 -0.1999811 0.07838248 -0.025948415 0.17530899
-0.071648225 0.07487021 -0.17532213 0.016876599 0.084710985 -0.07764305 0.022347445 -0.2685236
-0.096653536 -0.06636577 -0.011107158 -0.033987183 -0.04446771 0.11822825 -0.009522769 -0.13645706
-0.1431117 0.09725604 0.056710962 0.03170684 0.13191761 -0.084699586 -0.29185113 -0.09014171
0.03375718 -0.17589065 -0.053751856 -0.31538108 -0.22304897 -0.18050958 -0.022813747 -0.16889814
-0.2461305 0.27241957 0.02033947 -0.026043778 0.10362766 -0.06354269 -0.1613363 -0.08054521
0.06345386 0.13351034 -0.013284193 -0.04850393 0.009904056 0.17289463 -0.083009236 0.13808018
0.05923862 -0.27709275 0.07526715 0.17237248 0.11130463 0.21806154 -0.012335037 0.11376368
-0.15943657 0.14786977 -0.10633586 -0.17863895 -0.12975265 -0.103040434 -0.09706235 -0.18295754
0.028883513 -0.18594061 0.1262336 -0.13154157 0.257647 0.050311837 0.06682273 -0.2555503
0.08515713 -0.05162765 -0.07198715 -0.03527693 -0.0078023532 0.10781292 -0.18205804 -0.13881983
-0.03620081 0.24452075 0.29355484 -0.15902331 0.10552817 -0.02150156 -0.00019374391 0.05064084
-0.03522584 -0.029243035 0.033695623 -0.2032608 -0.27814558 -0.23180234 -0.006971892 0.1533533
00000000: cb5d d73d c5c7 2e3e 5056 6f3d 8957 40be
00000010: 9e93 48bd 6ca8 a3bd fc83 32be a3ec 71be
00000020: cf4d a13d bafa 6dbe 4419 cdbb f522 59be
00000030: 0c80 47be cd38 d9bd 14e4 4dbe ca84 15bc
00000040: de61 f3bd 05c9 553e 26a1 a73d e30a 093e
00000050: b130 12be d823 1c3d 86c2 5dbe 76d0 313c
00000060: 1e2b 47be 8227 68be 35f2 03bd e6a7 9abe
00000070: d8c7 4cbe fe86 a03d c591 d4bc 3384 333e
00000080: 4ebc 92bd 8d55 993d a587 33be cb40 8a3c
00000090: f47c ad3d 5203 9fbd fd11 b73c ed7b 89be
000000a0: 4af2 c5bd c7ea 87bd ccfa 35bc 2536 0bbd
000000b0: c623 36bd a721 f23d 6305 1cbc 66bb 0bbe
000000c0: e08b 12be 2d2e c73d c149 683d 08df 013d
000000d0: 6915 073e fa76 adbd 836d 95be 389c b8bd
000000e0: f844 0a3d ae1c 34be e82a 5cbd a179 a1be
000000f0: f366 64be 81d7 38be e5e3 babc a2f3 2cbe
00000100: a209 7cbe 947a 8b3e f69e a63c c359 d5bc
00000110: bd3a d43d ab22 82bd 5835 25be e3f4 a4bd
00000120: 19f4 813d efb6 083e f2a5 59bc 0fac 46bd
00000130: 9f44 223c 4a0b 313e bf00 aabd e464 0d3e
00000140: 32a4 723d 1adf 8dbe aa25 9a3d 6982 303e
00000150: aff3 e33d 864b 5f3e e518 4abc effc e83d
00000160: 5743 23be 2c6b 173e 9ec6 d9bd 21ed 36be
00000170: e1dd 04be dd06 d3bd a0c8 c6bd 3959 3bbe
00000180: 1e9d ec3c 3767 3ebe 6143 013e d5b2 06be
00000190: 4fea 833e c913 4e3d 5bda 883d 7dd7 82be
000001a0: dd66 ae3d 8477 53bd 006e 93bd 8b7e 10bd
000001b0: e2aa ffbb 05cd dc3d 6c6d 3abe c926 0ebe
000001c0: 4d47 14bd a663 7a3e d24c 963e 02d7 22be
000001d0: 271f d83d 0a24 b0bc bc27 4bb9 c56c 4f3d
000001e0: f848 10bd 178f efbc 6c04 0a3d 9923 50be
000001f0: 1969 8ebe 985d 6dbe 7874 e4bb a608 1d3e

lstm.bias_hh_l0 f4 [128]
-0.048345696 0.058691423 0.1256413 -0.18533665 0.1306768 -0.10692033 0.036810853 -0.13222088
0.086100094 -0.2099563 -0.09208772 -0.030001927 0.0035457162 -0.05603614 -0.105508864 0.1707616
-0.012714495 0.21782206 0.17271678 -0.08219691 -0.056596797 0.14629789 -0.29487917 -0.1381617
-0.1246121 -0.23198152 -0.20106792 -0.2729198 0.014964306 -0.034279235 -0.2002005 -0.09428368
0.070588686 -0.19642538 -0.078454256 -0.021542327 0.15534785 0.13899432 0.03375927 -0.15451863
-0.14466245 -0.26158363 -0.3102694 0.0011677003 -0.049589433 -0.012422449 -0.23095277 0.08835865
-0.026554212 0.09496191 -0.25329536 -0.041262977 -0.100630626 -0.09139599 -0.15274885 -0.040117227
-0.0033119807 0.027723502 -0.16104499 -0.17055252 -0.19276771 -0.06520663 -0.12471357 -0.042371996
-0.20364471 0.107456416 -0.14226206 0.033127397 0.22778955 -0.1222906 -0.1527207 0.10655705
-0.015513101 0.084302776 0.010814042 0.034930125 -0.12383444 -0.0008718339 0.046277292 -0.1728513
-0.09254415 -0.27306244 -0.11058373 0.18375346 0.053465832 0.18052205 -0.052488696 -0.16013534
0.112603456 -0.027578915 -0.07525752 -0.06406485 0.15526742 0.08478024 0.0030649197 0.07211271
0.0892633 -0.19894545 0.09278879 -0.07885686 0.079501145 0.059492614 -0.22147678 -0.28836343
0.045291357 0.037129276 0.044333536 -0.15290858 -0.28082886 0.13542512 -0.09906895 0.0059556514
0.0020980327 0.003228465 0.104812175 -0.1035747 0.10647728 0.026728887 0.01967164 0.04638551
-0.009465496 -0.120205685 -0.06274741 -0.21280956 -0.043007955 0.03274661 0.13457385 0.15795141
00000000: 2306 46bd 6b66 703d 1da8 003e e4c8 3dbe
00000010: 24d0 053e 0cf9 dabd fac6 163d e964 07be
00000020: 3f55 b03d c9fe 56be 7d98 bcbd 9ac6 f5bc
00000030: 3f5f 683b 2786 65bd 0815 d8bd 21dc 2e3e
00000040: 7550 50bc bf0c 5f3e abdc 303e db56 a8bd
00000050: 0bd2 67bd 1dcf 153e 67fa 96be 437a 0dbe
00000060: a134 ffbd 908c 6dbe c0e4 4dbe 25bc 8bbe
00000070: d92c 753c 6268 0cbd 5c01 4dbe cd17 c1bd
00000080: cd90 903d bc23 49be a0ac a0bd 8979 b0bc
00000090: 8213 1f3e 8754 0e3e 2947 0a3d 223a 1ebe
000000a0: 6522 14be 4aee 85be a1db 9ebe 850d 993a
000000b0: 4a1e 4bbd 8787 4bbc e27e 6cbe 61f5 b43d
000000c0: 3888 d9bc 647b c23d eeaf 81be 5e03 29bd
000000d0: 6e17 cebd d22d bbbd 326a 1cbe f651 24bd
000000e0: d10d 59bb 661c e33c fae8 24be 52a5 2ebe
000000f0: e664 45be 0e8b 85bd d469 ffbd 428e 2dbd
00000100: 3d88 50be 1c12 dc3d 25ad 11be 98b0 073d
00000110: aa41 693e 7e73 fabd d162 1cbe 953a da3d
00000120: a92a 7ebc efa6 ac3d 612d 313c e412 0f3d
00000130: e99c fdbd c88b 64ba 428d 3d3d eeff 30be
00000140: ca87 bdbd d7ce 8bbe b979 e2bd de29 3c3e
00000150: fdfe 5a3d c6da 383e 63fe 56bd 85fa 23be
00000160: a49c e63d 2ded e1bc 9d20 9abd 6f34 83bd
00000170: 6cfe 1e3e 43a1 ad3d d2dc 483b d4af 933d
00000180: adcf b63d 5bb8 4bbe 0d08 be3d b57f a1bd
00000190: 7fd1 a23d 87ae 733d cfca 62be 5fa4 93be
000001a0: 6e83 393d de14 183d 1597 353d 1194 1cbe
000001b0: cdc8 8fbe e2ac 0a3e a9e4 cabd a027 c33b
000001c0: 267f 093b a894 533b c4a7 d63d f91e d4bd
000001d0: c310 da3d 8af6 da3c 6b26 a13c bcfe 3d3d
000001e0: 2b15 1bbc 662e f6bd b781 80bd c0ea 59be
000001f0: 1c29 30bd 4f21 063d bacd 093e 04be 213e

layer_norm.weight f4 [32]
0.7218817 0.9160108 1.0140252 0.981641 0.7986101 0.987177 0.8892402 0.83639145
0.8696584 0.86676353 0.9928297 0.8422495 0.8362933 1.0318867 0.7640524 1.0145035
0.78056127 0.89124423 1.2363762 0.8253614 0.9373216 0.90381473 0.856561 0.98001236
0.90086985 0.8459496 0.9695137 0.91953874 0.9271173 0.88947904 0.98032594 1.0242901
00000000: 3dcd 383f af7f 6a3f 94cb 813f d34c 7b3f
00000010: b671 4c3f a2b7 7c3f 3fa5 633f c01d 563f
00000020: efa1 5e3f 37e4 5d3f 162a 7e3f aa9d 573f
00000030: 5117 563f dd14 843f f098 433f 40db 813f
00000040: ddd2 473f 9528 643f 9341 9e3f e24a 533f
00000050: 4ff4 6f3f 6760 673f 9547 5b3f 17e2 7a3f
00000060: 689f 663f 2790 583f 0d32 783f e466 6b3f
00000070: 8f57 6d3f e6b4 633f a4f6 7a3f f01b 833f

layer_norm.bias f4 [32]
-0.015674409 0.0049645575 0.056000777 -0.027450314 -0.2230343 0.03576819 0.06541856 -0.004472603
0.069951415 -0.021986393 0.005963434 -0.13605608 -0.1990428 -0.012885716 -0.0409203 -0.023129078
0.11688153 0.13737404 -0.02971887 -0.02969938 -0.076914474 -0.102390274 -0.0031120835 0.013656811
-0.027830377 -0.09947391 0.025202347 0.060290363 0.01240195 -0.09887207 0.0330868 0.05662333
00000000: 9e67 80bc baad a23b 1261 653d 7bdf e0bc
00000010: 1b63 64be aa81 123d 2afa 853d ea8e 92bb
00000020: b042 8f3d cf1c b4bc e968 c33b 4952 0bbe
00000030: e0d1 4bbe 9c1e 53bc 0b9c 27bd 3179 bdbc
00000040: 955f ef3d c8ab 0c3e fd74 f3bc 1d4c f3bc
00000050: 5685 9dbd feb1 d1bd 19f4 4bbb d1c0 5f3c
00000060: 88fc e3bc fab8 cbbd 2775 ce3c 07f3 763d
00000070: 8c31 4b3c 717d cabd 0686 073d dded 673d

linear1.weight f4 [32, 32]
0.14246441 0.19460455 -0.13845707 -0.024156338 0.09705166 0.055690818 0.19728296 0.040364746
0.023389464 -0.010247701 0.13216227 0.03000563 0.090221286 0.043823227 -0.017107323 -0.08947192
-0.017624764 0.14908975 0.2860528 -0.09625366 -0.2127541 -0.009377332 -0.06010414 0.18503885
-0.20287968 -0.08042027 0.16592154 -0.06675885 0.24465832 0.13039689 0.017241476 -0.14198975
0.02666157 -0.0013312508 -0.13025548 0.20145093 -0.012169579 0.15890361 0.012117062 0.11739767
-0.24135597 -0.045092113 0.26849294 -0.22053713 -0.13000156 -0.20528357 -0.22380461 -0.12913428
0.0007985405 -0.14813322 0.08373145 0.21799542 -0.07954458 -0.090723395 -0.050395977 -0.063278094
-0.06943831 0.03579331 0.12881833 0.114880234 0.0026768032 -0.18277603 -0.04671803 -0.2520625
-0.07889798 0.14033344 0.04307349 -0.32094052 0.17522119 0.020323211 -0.1738929 0.04925132
0.13173316 -0.12052049 -0.03468416 0.1765565 -0.13049091 0.15560967 -0.025561707 -0.08271899
0.09334497 0.05738435 -0.20716661 0.08636542 -0.096577145 -0.04457564 0.16815375 0.031960316
-0.05727068 0.028792344 -0.16444229 -0.08070312 -0.17338252 -0.12282331 0.14409468 0.18841319
0.0046616253 0.063958436 -0.20419125 0.0894245 0.13063383 0.05040685 0.11284891 0.16257547
-0.021171754 0.009681843 0.17082435 -0.01263274 -0.05728501 0.06485319 0.012794106 0.16404948
-0.030781867 0.08169605 -0.0013270755 0.13168117 -0.0022312265 0.0769551 0.13007048 0.043776914
0.04950811 -0.114067 0.09138384 -0.10121554 0.27452868 -0.022178344 0.11174434 -0.16300999
0.10000823 -0.23205991 0.25731188 -0.30737722 -0.059846293 0.09577707 0.13255116 -0.0005303435
0.039844755 -0.009561534 -0.08748521 0.022484325 -0.14118929 0.13557333 0.040876 0.030445429
0.17689113 0.07693429 -0.07896153 -0.09190669 0.10685727 -0.14661933 0.100838974 0.16670021
-0.05035401 -0.06414756 0.091225006 0.015091454 0.0040844185 0.030223204 -0.091483295 0.034968365
-0.1688895 0.023234615 0.04984721 0.2970162 0.10194871 0.13527708 -0.016262231 0.11910944
-0.028213559 0.014917863 0.08621289 0.0010186892 -0.05600683 -0.21051218 -0.031629656 -0.013483763
0.09210739 0.058150187 -0.028661195 0.07256976 -0.1149392 -0.12092626 -0.016287535 0.041713312
-0.059099875 -0.08613741 -0.12886383 -0.078148946 0.24886167 -0.1619866 -0.048184447 0.07775985
0.12831622 -0.085524805 0.075700894 0.27211052 -0.004794401 0.06020225 0.08669307 0.23502024
0.03592507 0.13734552 0.20112646 0.014559187 -0.0019899965 -0.072864644 0.1890482 -0.16677223
0.024878941 -0.119177476 0.17689978 -0.12705617 -0.110563844 0.088265784 -0.07464178 -0.14518678
0.06950493 0.074208125 -0.12552354 -0.12942487 0.14029565 -0.057376992 0.06599026 -0.12656069
-0.07069291 0.03462144 -0.12779197 0.18980728 -0.039884236 0.20231548 -0.0031761818 0.19405894
0.073673174 0.2150119 -0.017001664 -0.14729908 -0.12691431 -0.13664056 -0.10616938 -0.07845793
-0.11404953 -0.13412543 0.19846314 0.122444674 -0.14064337 -0.06408459 -0.028414154 0.011079929
-0.0006910236 0.013400443 0.12690252 0.003593876 0.105047494 0.13891065 0.07650275 0.06161024
00000000: 31e2 113e 6a46 473e b1c7 0dbe 83e3 c5bc
00000010: 05c3 c63d 0e1c 643d 8b04 4a3e 8155 253d
00000020: 439b bf3c f9e5 27bc 8c55 073e 5ece f53c
00000030: f0c5 b83d fc7f 333d a824 8cbc 0e3d b7bd
00000040: cf61 90bc fcaa 183e 8375 923e a420 c5bd
00000050: 36dc 59be 62a3 19bc c22f 76bd d37a 3d3e
00000060: b1bf 4fbe 62b3 a4bd 56e7 293e ddb8 88bd
00000070: b687 7a3e c386 053e ff3d 8d3c c365 11be
00000080: 5d69 da3c 5d7d aeba b161 05be 2749 4e3e
00000090: ea62 47bc a1b7 223e a486 463c 316e f03d
000000a0: 0526 77be 82b2 38bd e877 893e 7cd4 61be
000000b0: 211f 05be db35 52be 092d 65be c73b 04be
000000c0: 2555 513a 3cb0 17be 657b ab3d 313a 5f3e
000000d0: 45e8 a2bd 30cd b9bd 036c 4ebd f297 81bd
000000e0: ac35 8ebd 019c 123d f4e8 033e 5446 eb3d
000000f0: 4e6d 2f3b a429 3bbe 685b 3fbd 560e 81be
00000100: 4495 a1bd 92b3 0f3e d46d 303d 5152 a4be
00000110: 2f6d 333e dd7c a63c fb10 32be c1bb 493d
00000120: 0fe5 063e 72d3 f6bd fa10 0ebd 3acb 343e
00000130: 699f 05be 2458 1f3e c966 d1bc 9368 a9bd
00000140: a62b bf3d da0b 6b3d 7c23 54be 5ae0 b03d
00000150: 3dca c5bd f294 36bd 7f30 2c3e d2e8 023d
00000160: a994 6abd ecdd eb3c 8f63 28be ad47 a5bd
00000170: 308b 31be ca8a fbbd 8e8d 133e 63ef 403e
00000180: 8cc0 983b a4fc 823d 8317 51be 3124 b73d
00000190: e0c4 053e 6a77 4e3d 541d e73d 2f7a 263e
000001a0: 6370 adbc 98a0 1e3c 94ec 2e3e 8df9 4ebc
000001b0: b0a3 6abd c0d1 843d 5f9e 513c 96fc 273e
000001c0: 412a fcbc 4250 a73d 44f1 adba 6ed7 063e
000001d0: c539 12bb a39a 9d3d 3231 053e 6c4f 333d
000001e0: 04c9 4a3d f69b e9bd 7327 bb3d 184a cfbd
000001f0: 068f 8c3e 5caf b5bc 37da e43d 17ec 26be
00000200: 1dd1 cc3d 1da1 6dbe 62be 833e 8c60 9dbe
00000210: 6321 75bd c526 c43d 7ebb 073e c006 0bba
00000220: 4134 233d fba7 1cbc 722b b3bd 0c31 b83c
00000230: ed93 10be bcd3 0a3e 986d 273d b168 f93c
00000240: f322 353e ba8f 9d3d 95b6 a1bd 9339 bcbd
00000250: fcd7 da3d 6123 16be aa84 ce3d 76b3 2a3e
00000260: 0240 4ebd cc5f 83bd 2dd4 ba3d 2542 773c
00000270: 96d6 853b a796 f73c 985b bbbd fd3a 0f3d
00000280: 5ef1 2cbe 8556 be3c 972c 4c3d 8212 983e
00000290: 7cca d03d 1386 0a3e 5f38 85bc a6ef f33d
000002a0: 1f20 e7bc 0d6a 743c 6290 b03d 8a85 853a
000002b0: 6b67 65bd 8190 57be 198e 01bd 00eb 5cbc
000002c0: cda2 bc3d e42e 6e3d e2ca eabc 749f 943d
000002d0: 3e65 ebbd 30a8 f7bd 706d 85bc 94db 2a3d
000002e0: b612 72bd cf68 b0bd e1f4 03be 8e0c a0bd
000002f0: 98d5 7e3e d1df 25be 0e5d 45bd 8e40 9f3d
00000300: 5465 033e a127 afbd 1209 9b3d 1252 8b3e
00000310: 5a1a 9dbb a296 763d 238c b13d 25a9 703e
00000320: 2b26 133d 4ea4 0c3e 18f4 4d3e a889 6e3c
00000330: 9a6a 02bb 0f3a 95bd da95 413e 57c6 2abe
00000340: ecce cb3c 5213 f4bd 3725 353e 031b 02be
00000350: 4c6f e2bd b1c4 b43d cadd 98bd d8ab 14be
00000360: 9a58 8e3d 6efa 973d 3e89 00be f487 04be
00000370: aaa9 0f3e 2304 6bbd e725 873d 2099 01be
00000380: 72c7 90bd 36cf 0d3d e6db 02be d75c 423e
00000390: a75d 23bd ca2b 4f3e 7d27 50bb 63b7 463e
000003a0: f6e1 963d 142c 5c3e 1347 8bbc 92d5 16be
000003b0: d3f5 01be 81eb 0bbe 556f d9bd 8dae a0bd
000003c0: cd92 e9bd 2d58 09be ec39 4b3e 46c4 fa3d
000003d0: d104 10be c83e 83bd cdc4 e8bc 9788 353c
000003e0: cf25 35ba 888d 5b3c bcf2 013e 3c87 6b3b
000003f0: 2423 d73d 983e 0e3e 79ad 9c3d 055b 7c3d

linear1.bias f4 [32]
0.05485555 -0.034239046 0.017250346 0.06930221 0.096744515 -0.15426198 0.13028805 -0.052674655
0.12619026 -0.040971808 0.077726 -0.1797758 0.08273635 0.13191116 0.11328011 -0.0121928975
-0.105450116 0.04836055 0.110962994 0.05400406 0.14619198 0.052719343 -0.03962406 0.04897164
-0.15390182 -0.11265384 0.022686113 -0.05549342 0.00047639868 -0.040652104 -0.14130539 0.1844413
00000000: 37b0 603d 3e3e 0cbd 9950 8d3c 51ee 8d3d
00000010: fd21 c63d daf6 1dbe 3b6a 053e 61c1 57bd
00000020: 0538 013e 0ed2 27bd cf2e 9f3d 2617 38be
00000030: ad71 a93d b813 073e 67ff e73d b8c4 47bc
00000040: 3bf6 d7bd b615 463d 9140 e33d 5c33 5d3d
00000050: 5ab3 153e 3df0 573d d74c 22bd 7d96 483d
00000060: 7098 1dbe 0eb7 e6bd 3ad8 b93c 124d 63bd
00000070: 26c5 f939 d282 26bd 5cb2 10be 2ede 3c3e

linear2.weight f4 [1, 32]
-0.058275074 -0.104735695 0.055522416 -0.0039709997 0.030390883 0.0015139396 -0.042184416 -0.053641617
-0.02750927 0.06437844 0.06334303 -0.01821831 0.056383703 -0.13520779 0.14926878 0.077836186
0.05419972 0.020457305 -0.16142121 0.08227952 0.09323826 0.061102677 -0.07498552 0.050374437
0.0010154279 -0.0032041892 -0.09809559 -0.012146841 -0.02673378 0.009458483 -0.048725143 0.006844091
00000000: d8b1 6ebd ab7f d6bd 796b 633d 291f 82bb
00000010: 4df6 f83c 626f c63a 91c9 2cbd 50b7 5bbd
00000020: 1f5b e1bc d8d8 833d feb9 813d 913e 95bc
00000030: 99f2 663d e973 0abe ead9 183e 9468 9f3d
00000040: 8700 5e3d 1496 a73c 9a4b 25be 2a82 a83d
00000050: b3f3 be3d cd46 7a3d 0292 99bd 6d55 4e3d
00000060: 1b18 853a 60fd 51bb 57e6 c8bd 8b03 47bc
00000070: cd00 dbbc c1f7 1a3c 0494 47bd 6644 e03b
