labml_nn/lstm/LSTM_THz/model_combine_319r2_12.pth (torch, 26025 bytes, 9 tensors)

lstm.weight_ih_l0 f4 [128, 1]
0	0xbe6ccba9	-0.23124565
1	0x3da20cbf	0.079125874
2	0x3c8b8ac8	0.01703395
3	0xbd1ffdf5	-0.03906055
4	0x3dc69d13	0.09697928
5	0xbe648347	-0.22315703
6	0x3de65714	0.112470776
7	0x3e8fba8f	0.2807202
8	0x3d297c80	0.041378498
9	0xbd636fca	-0.055526532
10	0x3ea31d7f	0.3185844
11	0xbcad7b76	-0.021177035
12	0xbcc1cce1	-0.023657264
13	0xbb0b16fc	-0.0021223417
14	0xbe8e2738	-0.27764297
15	0x3d8c60a2	0.06854369
16	0xbd9ef7a9	-0.07762081
17	0xbe466cd3	-0.1937745
18	0x3c6160d0	0.013755992
19	0xbe132039	-0.1436776
20	0x3d5fffc0	0.05468726
21	0xbdbc7064	-0.09201124
22	0xbe83c068	-0.25732732
23	0x3d936d40	0.07198572
24	0xbe43654d	-0.19081612
25	0xbdda455b	-0.1065776
26	0x3df2e636	0.118603155
27	0x3d746a24	0.059671536
28	0xbdfa768f	-0.122296445
29	0x3dbf936f	0.093542926
30	0x3d93e7c7	0.072219424
31	0x3e78542d	0.2425086
32	0xbe16b064	-0.14715725
33	0x3dd01c5a	0.10161658
34	0xbe20d153	-0.15704851
35	0x3db5d7e4	0.088790685
36	0x3da37fcd	0.079833604
37	0x3d1391ed	0.036027838
38	0x3e87947e	0.26480478
39	0x3df456b1	0.119305976
40	0x3e5827db	0.21108954
41	0x3d3c8fe0	0.046035647
42	0x3e6eae1a	0.23308602
43	0xbbc1c2bb	-0.0059131063
44	0xbe497556	-0.19673666
45	0x3d716d35	0.05894204
46	0xbe8f0319	-0.2793205
47	0x3e0ccd93	0.13750295
48	0x3e1a54a1	0.15071346
49	0xbe2afa22	-0.1669698
50	0x3e589d82	0.21153834
51	0xbe7c0b7d	-0.24613757
52	0x3d4dace5	0.050213713
53	0x3d8fd9b9	0.07023949
54	0xbe121b4a	-0.14268222
55	0x3e1b71ae	0.15180084
56	0xbd2a2306	-0.041537307
57	0xbd98c4fd	-0.074594475
58	0x3e8c485c	0.27398956
59	0x3dc07c1b	0.09398671
60	0xbe1da2cf	-0.15394138
61	0xbc795b72	-0.015219556
62	0xbb0b2a8d	-0.002123508
63	0x3e8eb49e	0.27872175
64	0xbe1cd00f	-0.15313743
65	0x3bb8c076	0.0056381775
66	0x3e9f2690	0.31084108
67	0x3e4c6a65	0.19962461
68	0xbda2bd2d	-0.07946239
69	0xbd9db987	-0.07701402
70	0x3eac3623	0.33635053
71	0xbe27d1d0	-0.16388631
72	0xbe444140	-0.19165516
73	0x3de5e032	0.112244025
74	0xbe7014fb	-0.23445503
75	0xbe8d45b1	-0.27592233
76	0xbe217b23	-0.15769629
77	0xbbe93df3	-0.0071179806
78	0x3df8fd0a	0.12157638
79	0x3d4f09bd	0.050546397
80	0x3da25af1	0.07927502
81	0xbe3d9d81	-0.18517114
82	0xbdbffa5a	-0.09373923
83	0x3e80c9cb	0.25153956
84	0x3da052de	0.07828306
85	0x3ce276a8	0.02764447
86	0x3ea32c16	0.31869572
87	0xbe36a5b2	-0.17836645
88	0x3e0a683f	0.13516329
89	0xbe7c13a7	-0.24616872
90	0x3dce2f48	0.10067612
91	0xbe2e7d5e	-0.17040011
92	0xbd564875	-0.052315194
93	0xbd5baeff	-0.053633686
94	0xbb54c316	-0.0032464913
95	0xbe65fc6a	-0.2245957
96	0x3cf431fd	0.029808993
97	0xbdfa7a58	-0.122303665
98	0xbda01329	-0.078161545
99	0x3d8f7b44	0.07005933
100	0xbe3507df	-0.17678784
101	0x3da123cc	0.07868156
102	0x3e00a176	0.12561592
103	0x3e51c062	0.20483544
104	0x3dae16cb	0.08500441
105	0xbe16e481	-0.14735605
106	0x3ed85b8c	0.42257345
107	0x3e8a7075	0.27038923
108	0x3c82634d	0.01591649
109	0xbdd524e6	-0.104074284
110	0xbf074ebc	-0.52854514
111	0x3df0dcb0	0.11760843
112	0xbb007b9c	-0.0019604927
113	0xbe30af4b	-0.17254369
114	0x3d0e9b72	0.034816213
115	0xbed2bffe	-0.41162103
116	0x3e016f67	0.12640153
117	0xbd763206	-0.0601063
118	0xbead3c2b	-0.33834967
119	0x3e4ab5f7	0.19795977
120	0xbe440103	-0.19141011
121	0x3e340467	0.17579804
122	0x3e95fe08	0.29295373
123	0x3d861a13	0.06547942
124	0xbe36ed45	-0.17863949
125	0x3cb16e23	0.021658963
126	0x3dbcbd49	0.09215791
127	0x3ef2dcdd	0.4743413

lstm.weight_hh_l0 f4 [128, 32]
0	0xbe3af74c	-0.18258399
1	0x3e177f23	0.14794593
2	0x3d199da8	0.03750387
3	0xbe11bc3b	-0.1423196
4	0x3ce69895	0.028148929
5	0x3dba004d	0.090820886
6	0x3dfa6193	0.12225642
7	0x3dfb1e1e	0.12261604
8	0xbccef595	-0.025263587
9	0x3db6f261	0.08932949
10	0xbdff4e57	-0.12466114
11	0xbe345ba5	-0.17613085
12	0xbd5c69a5	-0.053811688
13	0x3d4f06c5	0.050543565
14	0x3da934fa	0.082620576
15	0xbd9bca27	-0.07606917
16	0x3d48f525	0.049061913
17	0x3ca630d8	0.020286962
18	0x3de55549	0.111979075
19	0xbd258924	-0.04041399
20	0x3d827ba9	0.063712426
21	0x3e19f1eb	0.1503369
22	0x3e0da3b5	0.1383198
23	0xbe43b335	-0.19111331
24	0x3e08b54d	0.13350411
25	0xbc8f55fd	-0.017497057
26	0xbe286ab0	-0.16446948
27	0xbe424509	-0.18971647
28	0x3e1cebe1	0.15324356
29	0xbe1bb9f6	-0.15207657
30	0xbdb3c551	-0.087778695
31	0xbe322303	-0.17396168
32	0xbe118430	-0.14210582
33	0x3e246678	0.16054714
34	0x3c7ccbc8	0.015429445
35	0xbda41eb2	-0.08013667
36	0xbd362097	-0.044464674
37	0x3defa6bc	0.11701724
38	0xbe1d35b4	-0.15352517
39	0x3e59e420	0.21278429
40	0x3e37be0e	0.17943594
41	0x3ba7d3fd	0.0051217065
42	0x3c568b9c	0.013094809
43	0x3e17a9c3	0.14810853
44	0x3ce5a2db	0.028031757
45	0xbd861869	-0.065476246
46	0x3c89e1b2	0.016831253
47	0xbe3d12e4	-0.18464237
48	0xbde1e34e	-0.11029683
49	0xbdfb8c45	-0.12282614
50	0x3e526d45	0.20549496
51	0x3e0e1634	0.13875657
52	0x3dfa5a99	0.122243114
53	0x3caadadb	0.020856312
54	0xbd976eb9	-0.073941655
55	0xbc85083a	-0.016239274
56	0x3d600bf0	0.054698884
57	0x3c63476b	0.013872008
58	0xbdbd4617	-0.09241884
59	0xbdb23f24	-0.08703449
60	0x3cd61471	0.026132794
61	0x3ddcc42e	0.10779606
62	0x3d84d22b	0.06485399
63	0x3e6a27fd	0.22866817
64	0x3da719dd	0.0815923
65	0xbe0bae4e	-0.1364071
66	0xbe7048c0	-0.23465252
67	0x3e392844	0.18081766
68	0x3d594b4c	0.053050324
69	0x3e69ac8c	0.22819728
70	0xbb9e4ef1	-0.004831188
71	0x3b97fb2c	0.0046380963
72	0xbe6649a7	-0.22489034
73	0xbe4c5bc2	-0.19956878
74	0x3e3a98aa	0.18222299
75	0xbdd86b88	-0.10567385
76	0x3e979f92	0.2961393
77	0xbe054cef	-0.13017629
78	0xbeac1ef0	-0.33617353
79	0xbe35c675	-0.17751487
80	0x3e1d42a7	0.15357457
81	0x3d7fd85a	0.06246219
82	0xbe4cee49	-0.20012774
83	0xbe0a25b0	-0.13490939
84	0xbdb78db0	-0.089625716
85	0x3dbd0e49	0.0923124
86	0xbd0c10a9	-0.034195576
87	0xbd42c5c9	-0.047551904
88	0xbe85d91d	-0.26142207
89	0xbe7454cf	-0.23860477
90	0x3d02aa20	0.031900525
91	0xbe4513be	-0.19245812
92	0x3e42ee4b	0.19036214
93	0x3dd59b05	0.10429958
94	0xbd1ab2fb	-0.037768345
95	0xbdc58e03	-0.09646227
96	0xbcd3aeef	-0.02584025
97	0xbddc43b2	-0.10755099
98	0xbda1ea94	-0.0790607
99	0x3d2ea48e	0.0426374
100	0x3dd337e8	0.10313398
101	0x3e889582	0.26676565
102	0xbe23e90d	-0.1600687
103	0x3e191814	0.14950591
104	0xbd9acb62	-0.075583234
105	0x3de01527	0.109415345
106	0x3d5ce5fd	0.05393027
107	0x3e402d2b	0.1876723
108	0xbda4a344	-0.08038953
109	0xbcdfbf0d	-0.02731278
110	0xbd87ebb9	-0.066367574
111	0x3cf089ba	0.029362548
112	0x3dc3a057	0.09552067
113	0x3d721ffa	0.059112526
114	0xbd9109ac	-0.07081923
115	0x3e41d381	0.18928339
116	0x3e5450ed	0.20733996
117	0xbce8855c	-0.028383903
118	0x3e61f887	0.22067462
119	0xbd41f2ba	-0.047350623
120	0xbe6104d6	-0.21974501
121	0xbcedcc34	-0.029028036
122	0xbdcb8c73	-0.09938898
123	0xbdfcb56f	-0.12339293
124	0xbe94b7c4	-0.29046452
125	0x3ce897be	0.028392669
126	0xbdef8ce9	-0.11696798
127	0x3dd7c168	0.10534936
128	0xbcf784f4	-0.030214764
129	0xbaa8c58a	-0.0012876254
130	0xbdc70e0a	-0.097194746
131	0x3dd5b1a0	0.1043427
132	0xbe0ed449	-0.13948168
133	0x3d30e94d	0.043191243
134	0xbcf776f8	-0.030208096
135	0xbd6b50a1	-0.05744994
136	0xbbeec3a2	-0.007286505
137	0xbddd9cd6	-0.1082093
138	0x3ce303ed	0.027711833
139	0x3c1cf9c8	0.009581037
140	0xbe15097a	-0.14554396
141	0xbe26da1d	-0.16294141
142	0xbbcd040c	-0.006256586
143	0xbd51bed9	-0.051207397
144	0xbdbf99ad	-0.09355483
145	0x3d6a2810	0.057167113
146	0xbd8548c6	-0.06508021
147	0x3c02fcab	0.007994811
148	0x3d61b7f6	0.05510708
149	0x3d0f9604	0.035055175
150	0xbcaa6ae6	-0.020802926
151	0xbd10cff1	-0.03535456
152	0x3dc69255	0.09695879
153	0xbe47e1be	-0.19519708
154	0x3d1cfb9f	0.038325902
155	0xbea5cce7	-0.3238289
156	0xbd0147db	-0.031562667
157	0x3d36f5d7	0.044668045
158	0x3d50e6a0	0.05100119
159	0x3e347d3c	0.17625898
160	0xbdf8cb7f	-0.12148189
161	0x3e0dfa6f	0.13865064
162	0x3c154f2e	0.009113116
163	0xbae1be83	-0.0017222915
164	0xbe08ebb5	-0.13371165
165	0xbd2c43c9	-0.042056832
166	0xbe78c685	-0.24294479
167	0x3e0e1fb2	0.13879278
168	0x3e1fb64c	0.15596884
169	0x3cc562e1	0.024095
170	0x3e35ae01	0.17742158
171	0x3da34b88	0.07973391
172	0xbe2134e2	-0.1574283
173	0x3df95fb7	0.12176459
174	0xbcd2e08f	-0.025741844
175	0x3da7527f	0.08170032
176	0xbe255356	-0.16145071
177	0xbd9bc2e9	-0.076055355
178	0x3e33841a	0.17530861
179	0xbdd18a16	-0.10231416
180	0x3bd29a4c	0.006427085
181	0xbe9c0b7a	-0.30477506
182	0xbd2f914a	-0.042863168
183	0x3caef47e	0.021356817
184	0x3a4a59a1	0.0007719044
185	0xbd334d1b	-0.043774705
186	0xbe8fc433	-0.28079376
187	0xbea04c78	-0.3130834
188	0x3e55a568	0.20863879
189	0xbe6e813f	-0.23291491
190	0x3d13dcdc	0.0360993
191	0x3e295a80	0.1653843
192	0xbc38859b	-0.011262323
193	0x3d45fcb4	0.0483367
194	0xbea5df77	-0.32397053
195	0x3ddeeeab	0.10885366
196	0x3d52d4e4	0.05147256
197	0x3e49e1a0	0.19714975
198	0xbe42e9e6	-0.19034538
199	0x3e079285	0.13239487
200	0xbdc41a30	-0.09575307
201	0xbdbd383f	-0.09239244
202	0x3c9c1015	0.019050637
203	0x3d27b5de	0.040944926
204	0x3cbb9528	0.022898272
205	0xbe0885d4	-0.13332301
206	0xbd738af0	-0.059458673
207	0x3d81ab73	0.063315295
208	0xbdbeef71	-0.093230136
209	0x3dce4fc4	0.10073808
210	0xbe305100	-0.17218399
211	0xbdf1c333	-0.118048094
212	0x3c474a0c	0.01216365
213	0x3e5bfda1	0.2148347
214	0xbd413c6c	-0.047176763
215	0x3e29a8ec	0.16568345
216	0xbe96ffe6	-0.2949211
217	0x3dcff7fa	0.1015472
218	0xbe2cd4b5	-0.16878016
219	0x3de6c249	0.11267526
220	0xbe88121b	-0.26576313
221	0x3cdd0ac4	0.026982673
222	0x3cad5bfa	0.021162022
223	0x3db2a3ee	0.08722673
224	0xbe10ba91	-0.1413367
225	0xbc81934e	-0.01581731
226	0xbdaa2d39	-0.08309407
227	0x3bca7a85	0.0061791562
228	0xbda64094	-0.08117786
229	0x3bd78204	0.0065767784
230	0xbdcc3c33	-0.099724196
231	0x3db0a5a5	0.08625344
232	0x3e0bf65b	0.13668196
233	0x3ce2e633	0.027697658
234	0x3e32faba	0.17478457
235	0x3caea3a0	0.021318257
236	0x3e02d160	0.12775183
237	0xbdfcad13	-0.12337699
238	0x3d841416	0.064491436
239	0xbe10dc42	-0.14146522
240	0x3e3ed136	0.18634495
241	0xbd2a8442	-0.041630037
242	0xbd3b3958	-0.045708984
243	0xbd29f824	-0.04149641
244	0xbdec1937	-0.11528247
245	0xbe2b21d8	-0.16712129
246	0x3dc57736	0.09641878
247	0x3ea1293b	0.3147677
248	0xbe6b34fd	-0.22969432
249	0x3d35e732	0.04440994
250	0xbd6ad75a	-0.05733428
251	0xbe0f67ab	-0.1400439
252	0xbe87784c	-0.26458967
253	0x3ddb9de3	0.10723474
254	0x3c5699c6	0.013098186
255	0x3d202f15	0.0391074

lstm.bias_ih_l0 f4 [128]
0	0xbe257c39	-0.16160668
1	0xbe1914e9	-0.14949383
2	0x3e9e8334	0.30959475
3	0xbda40307	-0.0800839
4	0xbbbf82b3	-0.005844438
5	0xbe933b7e	-0.28756326
6	0xbdcedbf4	-0.101005465
7	0x3dbf6601	0.093456276
8	0xbd52d20c	-0.051469848
9	0xbe5890e8	-0.21149027
10	0xbe1011d5	-0.14069302
11	0xbdf624fe	-0.120187744
12	0x3e1bd8e4	0.15219456
13	0xbdeeacba	-0.11654039
14	0x3d290e66	0.041273497
15	0xbe76cebf	-0.24102305
16	0xbda186b6	-0.07887022
17	0x3de8667b	0.113476716
18	0x3d2ec083	0.042664062
19	0xbdba4fe2	-0.09097268
20	0x3af821cc	0.0018930971
21	0xbdddd3b9	-0.108313985
22	0x3e79d3b4	0.24397165
23	0x3de92094	0.11383167
24	0xbe3c6730	-0.18398738
25	0xbd7518b9	-0.05983803
26	0x3d1afdd6	0.037839733
27	0xbebf8a20	-0.3741007
28	0x3d06a9bc	0.032876715
29	0xbdd89e6c	-0.105770916
30	0xbdd8628f	-0.105656736
31	0xbe30e70c	-0.17275637
32	0x3e09d5e0	0.13460493
33	0xbdde1c80	-0.1084528
34	0x3c2675e6	0.010159945
35	0x3c6a5f55	0.0143049555
36	0xbdda5635	-0.10660974
37	0xbe42a9b6	-0.19010052
38	0xbe009723	-0.12557654
39	0x3d64ffc1	0.05590797
40	0xbdff5661	-0.12467647
41	0xbe0b1965	-0.13583906
42	0xbe3a3d15	-0.18187363
43	0x3b47a8c2	0.0030465578
44	0x3dc13871	0.094345935
45	0xbe700a61	-0.23441459
46	0xbdb2499b	-0.087054454
47	0xbd274f86	-0.040847324
48	0x3cbec014	0.02328495
49	0xbc178fc4	-0.009250585
50	0xbe1d9a17	-0.15390812
51	0x3e092293	0.13392095
52	0x3dbe7e4a	0.093014315
53	0x3d3f6761	0.04672945
54	0x3d4d16fb	0.050070744
55	0xbe263b9d	-0.16233678
56	0xbe0016db	-0.12508719
57	0x3e0aeeb9	0.13567628
58	0xbce91895	-0.028454104
59	0xbe417849	-0.18893541
60	0xbc82f942	-0.015987996
61	0xbcb8d699	-0.022563266
62	0x3da991e6	0.08279781
63	0x3d754540	0.059880495
64	0x3da38df8	0.07986063
65	0xbe4c4a52	-0.19950226
66	0x3d7a229c	0.061068162
67	0x3cfc1d4c	0.030775689
68	0x3e201142	0.15631583
69	0x3d9fea73	0.078083895
70	0x3daf9b9b	0.08574601
71	0xbd93152d	-0.07181773
72	0xbdacda5d	-0.08440087
73	0xbdc9119a	-0.0981781
74	0x3dd7a07b	0.10528656
75	0x3c313404	0.010815624
76	0x3dde31c1	0.108493336
77	0xbd2d9260	-0.042375922
78	0xbd855118	-0.06509608
79	0x3d40c4a0	0.047062516
80	0x3e50803d	0.20361419
81	0x3e1db31e	0.15400359
82	0xbd2c6f6f	-0.04209846
83	0xbd39ed90	-0.045392573
84	0xbe364dbe	-0.17803094
85	0x3e630017	0.22168003
86	0x3ca40248	0.020020619
87	0xbd8cf09a	-0.068818286
88	0x3c00e248	0.00786645
89	0xbd8e63c1	-0.0695262
90	0x3e08ee22	0.1337209
91	0xbd252045	-0.040313978
92	0x3d81278c	0.06306371
93	0x3e280bc6	0.16410741
94	0xbddf0bf7	-0.10890954
95	0xbe5618ff	-0.20907973
96	0x3d807a63	0.062733434
97	0x3d2771bf	0.04087996
98	0x3d54e292	0.051973887
99	0x3e15f66b	0.14644782
100	0xbdeb6e09	-0.11495597
101	0xbc3aac71	-0.011393652
102	0x3dd11f6a	0.1021107
103	0x3e26dfd7	0.16296326
104	0x3ca9585f	0.020672021
105	0x3da87106	0.082246825
106	0x3d7b87d6	0.06140884
107	0x3dbdd2f7	0.09268754
108	0x3d7b6fef	0.061386045
109	0xbe119a82	-0.14219096
110	0xbe11371a	-0.14181176
111	0xbb1a46ed	-0.002354081
112	0xbdb25094	-0.08706775
113	0x3d824eb6	0.06362669
114	0xbe6d9ab8	-0.23203552
115	0x3cdf9b37	0.027295692
116	0xbd8023b5	-0.062568106
117	0xbe218e7f	-0.15777014
118	0x3e0579e6	0.13034782
119	0x3dadf3e1	0.08493782
120	0xbc72ac8f	-0.014811649
121	0x3d258b72	0.04041619
122	0xbd5a1c75	-0.053249795
123	0xbe0e1325	-0.1387449
124	0x3d6becd9	0.057598922
125	0x3cba99fc	0.022778504
126	0xbde8f288	-0.11374384
127	0xbda84a11	-0.08217252

lstm.bias_hh_l0 f4 [128]
0	0x3c31d9b2	0.010855125
1	0xbbce0b8a	-0.0062879967
2	0x3da8f00c	0.0824891
3	0x3e1859d1	0.14878012
4	0xbdda5fde	-0.106628165
5	0xbe30da39	-0.17270745
6	0xbdbd7077	-0.092499666
7	0x3dbc471d	0.09193251
8	0x3d09535b	0.03352676
9	0xbe17e903	-0.1483498
10	0x3d4c833f	0.049929854
11	0x3dbe2073	0.09283533
12	0xbdfcf306	-0.123510405
13	0xbe410633	-0.18850021
14	0xbd900c05	-0.070335425
15	0xbe2f5751	-0.17123152
16	0xbcda7b98	-0.026670262
17	0xbdede4e4	-0.11615923
18	0xbe49ed5b	-0.1971945
19	0x3e12076b	0.14260642
20	0x3db428d5	0.087968506
21	0xbdcb60b3	-0.09930553
22	0xbd37c841	-0.04486871
23	0xbe68185e	-0.22665545
24	0xbe45610d	-0.19275303
25	0x3e5f2cf0	0.21794486
26	0xbde93c5d	-0.113884665
27	0xbe37fc42	-0.17967322
28	0xbe246891	-0.16055514
29	0xbd9f5eab	-0.07781728
30	0xbdeb6bef	-0.11495196
31	0xbd3931c2	-0.04521347
32	0x3c82ef9f	0.0159834
33	0x3d81f957	0.06346386
34	0xbe492fc0	-0.19647121
35	0x3d76fc7e	0.06029939
36	0x3de850ae	0.113435134
37	0xbe0e7532	-0.13911894
38	0xbe29971f	-0.16561554
39	0xbd343d4e	-0.044003777
40	0xbda4cce3	-0.080468915
41	0xbe090903	-0.13382344
42	0xbd44ea53	-0.04807503
43	0xbe3142a1	-0.17310573
44	0xbe350824	-0.17678887
45	0xbe591ca8	-0.21202338
46	0xbe316eb6	-0.17327389
47	0xbdfec134	-0.12439194
48	0x3e086e20	0.1332326
49	0x3dac0360	0.08399081
50	0xbe593df0	-0.21215034
51	0x3d504bf8	0.0508537
52	0xbdf4a045	-0.119446315
53	0xbe05ac8b	-0.13054101
54	0x3dcf5973	0.10124483
55	0xbd2fff50	-0.042968094
56	0xbeb7012d	-0.35743085
57	0x3e18ca27	0.14920865
58	0xbe4a7753	-0.19772081
59	0xbe063017	-0.13104282
60	0xbe5abb95	-0.2136062
61	0x3c571cab	0.013129394
62	0xbc2c6eb7	-0.010524443
63	0xbdb331a8	-0.087497056
64	0x3dd94632	0.10609092
65	0xbe4e1b4f	-0.20127605
66	0xbdf32591	-0.118723996
67	0x3e283309	0.16425718
68	0x3e4fb254	0.2028287
69	0xbdc3a2af	-0.09552514
70	0xbc8ecf4f	-0.017432837
71	0x3b13e39e	0.002256609
72	0xbe0ec3b0	-0.13941836
73	0x3d73e912	0.059548445
74	0xbe2dbc23	-0.169663
75	0xbe4347f5	-0.19070418
76	0x3d7fc800	0.062446594
77	0xbd29a39c	-0.041415796
78	0xbe0bcfd9	-0.13653506
79	0xbe2cc3e0	-0.16871595
80	0xbd9cd644	-0.076580554
81	0xbd96a5d4	-0.07355848
82	0xbd843360	-0.064551115
83	0xbdd01e54	-0.10162035
84	0xbda50db5	-0.08059255
85	0x3d515d66	0.051114462
86	0xbdff95cc	-0.12479743
87	0x3cd9c42e	0.026582804
88	0xbad97375	-0.0016590195
89	0xbe080b50	-0.13285565
90	0x3c9febb9	0.019521581
91	0x3dd6bf93	0.10485759
92	0xbcb88a2f	-0.022526829
93	0x3e48d21c	0.196114
94	0xbd5784e0	-0.052616954
95	0x3dd4d03a	0.103912786
96	0xbde025b8	-0.10944694
97	0xbd151d03	-0.03640462
98	0x3d06a7e6	0.032874964
99	0x3d374d36	0.04475137
100	0x3e10de46	0.1414729
101	0xbe4ba592	-0.19887379
102	0xbd18b4cc	-0.037281796
103	0x3e08a82d	0.13345404
104	0xbe3ec167	-0.18628465
105	0x3db80f5a	0.08987303
106	0x3da9f415	0.08298508
107	0x3d859eb2	0.06524409
108	0x3e069fd6	0.1314691
109	0xbe2d29c1	-0.16910459
110	0xbcb5827c	-0.022156946
111	0xbe43aaaa	-0.19108072
112	0xbdefb053	-0.11703553
113	0xbd982b21	-0.07430101
114	0xbe6c23fb	-0.230606
115	0x3e56e1a9	0.2098452
116	0x3dca69e5	0.09883479
117	0xbd42fdb6	-0.04760524
118	0x3e3af859	0.182588
119	0xbce8f0fb	-0.028435221
120	0xbd55dbb1	-0.052211467
121	0xbda614b1	-0.08109415
122	0x3c68d284	0.014210347
123	0xbea8843c	-0.32913387
124	0xbd690859	-0.056892727
125	0xbb875e0c	-0.0041310843
126	0xbdaea92e	-0.08528362
127	0x3e054e10	0.1301806

layer_norm.weight f4 [32]
0	0x3f828753	1.0197548
1	0x3f5850a7	0.84498066
2	0x3f8e8859	1.113536
3	0x3f761d8b	0.9613883
4	0x3f66f6d8	0.90220404
5	0x3f44e070	0.76904964
6	0x3f786dc9	0.9704252
7	0x3f831c5f	1.0243033
8	0x3f726a34	0.94693303
9	0x3f72c39e	0.9482974
10	0x3f80ef18	1.0072966
11	0x3f85f345	1.0464865
12	0x3f6ac73b	0.9171025
13	0x3f51c348	0.819386
14	0x3f6be11c	0.92140365
15	0x3f5a407d	0.8525465
16	0x3f665fcb	0.8998992
17	0x3f7ebe74	0.9950936
18	0x3f601be3	0.8754255
19	0x3f81dbe0	1.0145226
20	0x3f6b3375	0.9187539
21	0x3f80acb4	1.0052705
22	0x3f846f37	1.034644
23	0x3f6c1fc8	0.92235994
24	0x3f48c62e	0.784274
25	0x3f8051ca	1.002496
26	0x3f8027f1	1.0012189
27	0x3f4b71ee	0.7947072
28	0x3f6240f8	0.88380384
29	0x3f55632b	0.83354443
30	0x3f5ed2d5	0.87040454
31	0x3f81f998	1.0154295

layer_norm.bias f4 [32]
0	0x3c69cd2f	0.014270111
1	0x3cbc687e	0.022999045
2	0x3d2bde7f	0.041960236
3	0xbc075e68	-0.008262254
4	0xbda32ed0	-0.07967913
5	0x3c431caa	0.0119086895
6	0x3d1ff349	0.039050374
7	0x3c6d141c	0.0144701265
8	0x3d619847	0.055076864
9	0x3d853695	0.06504551
10	0xbd253d71	-0.0403418
11	0xbca1b251	-0.019738348
12	0xbd9db729	-0.07700951
13	0x3d38ee26	0.04514899
14	0xbd1729a2	-0.03690494
15	0x3dafb2f9	0.08579058
16	0x3caab5ae	0.020838585
17	0x3d09e1ff	0.033662792
18	0x3dc531f1	0.09628666
19	0xbcea8d49	-0.028631823
20	0x3d962c28	0.07332641
21	0xbc8ec1b0	-0.017426342
22	0xbd1a2fd9	-0.037643287
23	0xbd718c2f	-0.05897158
24	0x3d9c1777	0.07621663
25	0x3d5a2aef	0.0532636
26	0x3cbf192e	0.023327436
27	0x3c59aac6	0.0132853445
28	0x3d09fca5	0.033688206
29	0xbe4e1627	-0.20125638
30	0x3dc082f1	0.09399975
31	0xbd2e47d6	-0.042548977

linear1.weight f4 [32, 32]
0	0x3c8ef463	0.017450517
1	0xbda1f794	-0.0790855
2	0xbe245e13	-0.16051511
3	0x3e00aad6	0.12565169
4	0xbde18421	-0.1101153
5	0x3ddf0fde	0.10891698
6	0xbd77d992	-0.060510226
7	0x3e1603f3	0.14649944
8	0x3de68ade	0.112569556
9	0xbd8503d0	-0.06494868
10	0x3e1db08c	0.15399379
11	0x3dc753dc	0.09732792
12	0xbd9b46cc	-0.07581863
13	0x3d89b348	0.06723648
14	0xbe1b6592	-0.15175465
15	0xbc523f5c	-0.012832489
16	0xbce9572b	-0.028483948
17	0x3e39e2cb	0.18152921
18	0x3db60a81	0.08888722
19	0xbe513ef5	-0.20434172
20	0xbd0b0456	-0.033939682
21	0x3e1791c6	0.14801702
22	0xbe1c4880	-0.15262032
23	0x3e5c1a9e	0.21494529
24	0x3c5c1e00	0.013434887
25	0x3b919e43	0.004443915
26	0xbd36608f	-0.04452568
27	0x3d0a0ffa	0.033706643
28	0x3d71191e	0.058861844
29	0xbd8427b8	-0.06452888
30	0xbd9d3aa6	-0.07677202
31	0xbd1d5c6a	-0.03841821
32	0x3df63aeb	0.120229565
33	0x3d6a56f6	0.05721184
34	0xbe4d5d42	-0.20055106
35	0x3d362494	0.044468477
36	0xbddb85ab	-0.107188545
37	0xbd6a6a30	-0.057230175
38	0x3cac909a	0.021065045
39	0x3e049fc2	0.12951568
40	0xbaa04ff9	-0.0012230865
41	0xbe51d263	-0.20490412
42	0xbc322776	-0.010873666
43	0x3e3ccf80	0.1843853
44	0x3cd3bbee	0.025846448
45	0xbdd43540	-0.10361719
46	0x3d8ce310	0.06879246
47	0x3ca8d23b	0.020608058
48	0xbe6d9d00	-0.23204422
49	0x3d065973	0.03280015
50	0x3db2c43f	0.08728837
51	0xbe029a51	-0.1275418
52	0x3cd163d1	0.025560291
53	0x3d0e59de	0.034753673
54	0xbc2cb88f	-0.010542049
55	0x3ddb017a	0.10693641
56	0x3e50df28	0.20397627
57	0xbd8b748f	-0.06809341
58	0x3e1817d5	0.14852841
59	0xbd50757f	-0.050893303
60	0x3e300ea7	0.1719309
61	0xbded2a1f	-0.115802996
62	0xbe699eb4	-0.22814447
63	0xbccbb8eb	-0.02486845
64	0x3e7a9f8e	0.24474928
65	0x3d0c514c	0.03425722
66	0xbe4ec1f9	-0.20191182
67	0xbe295709	-0.16537108
68	0x3e49ac0c	0.19694537
69	0xbe6ff32b	-0.23432605
70	0xbe1cca68	-0.15311587
71	0xbde8749c	-0.113503665
72	0x3dfc8bb5	0.123313345
73	0x3df3f39a	0.11911698
74	0xbd9fed83	-0.07808974
75	0x3e0b1ac6	0.13584432
76	0xbd5ee5ff	-0.05441856
77	0xbe84348c	-0.2582134
78	0xbe4c2199	-0.19934691
79	0x3d23b88d	0.039970923
80	0x3cfc758c	0.03081777
81	0x3d88d80e	0.06681834
82	0x3cb367fa	0.021900166
83	0xbe264f54	-0.16241199
84	0x3d8f2087	0.06988626
85	0x3dbdc877	0.09266751
86	0xbe4c74d0	-0.19966435
87	0x3c857b5c	0.016294174
88	0x3bc6f94b	0.0060721985
89	0x3e64c1cd	0.22339554
90	0x3d1c99a9	0.03823248
91	0xbdc4a878	-0.09602445
92	0x3d82df19	0.06390209
93	0x3dd9433b	0.10608526
94	0x3cfc19f9	0.030774103
95	0x3d105cd8	0.035244793
96	0xbe084010	-0.13305688
97	0xbd008d14	-0.031384543
98	0xbe67cf12	-0.22637585
99	0xbd8f2f3d	-0.06991432
100	0x3d89489a	0.06703301
101	0x3d2121d5	0.039338905
102	0xbe2edd82	-0.17076686
103	0x3e6aefaa	0.22942987
104	0x3d9b8578	0.075938165
105	0x3daea6f1	0.08527935
106	0x3e3bd4fa	0.18342963
107	0x3e757043	0.23968606
108	0x3e158932	0.14603117
109	0x3cda50b4	0.02664981
110	0x3c4e9f0d	0.012611163
111	0xbd983f93	-0.07434001
112	0xbe5be497	-0.21473919
113	0x3e2e3715	0.170132
114	0xbd049bb4	-0.032375053
115	0x3c06aee5	0.008220409
116	0xbb76e364	-0.0037672156
117	0xbe040755	-0.12893422
118	0x3c9dee88	0.01927878
119	0x3dbddd56	0.09270732
120	0xbdac1e69	-0.08404238
121	0x3e2525fc	0.16127771
122	0xbe0ab12b	-0.13544147
123	0xbce8ca0a	-0.028416652
124	0x3a008459	0.0004902534
125	0xbcd349f5	-0.025792101
126	0xbdbae907	-0.09126478
127	0x3e0370fd	0.1283607
128	0x3e370687	0.17873584
129	0xbdc1f724	-0.094709665
130	0xbe9d0d7e	-0.30674356
131	0x3e4e674d	0.20156594
132	0x3e41a5f5	0.18910964
133	0x3e630737	0.22170721
134	0xbce1f4a8	-0.027582482
135	0x3e042ab3	0.12906913
136	0x3d35fcb6	0.044430457
137	0xbdfff876	-0.12498562
138	0x3d96c9c8	0.073627055
139	0xbd4a73f7	-0.049427
140	0x3d7bd6fb	0.06148432
141	0xbd883692	-0.066510335
142	0xbe387b0d	-0.1801569
143	0xbda0439f	-0.07825398
144	0xbd5df561	-0.05418909
145	0x3df4dd0a	0.11956222
146	0xbe838e83	-0.25694665
147	0x3ba4b969	0.0050269854
148	0xbda1cf65	-0.079008855
149	0xbc5dee7f	-0.013545631
150	0xbd1d8231	-0.03845424
151	0x3e6e680a	0.23281875
152	0xbe338e53	-0.17534761
153	0xbdc3cfbc	-0.095611066
154	0x3d6f12d5	0.05836757
155	0xbe41fcb4	-0.18944055
156	0x3da31fb7	0.079650335
157	0x3e88573e	0.2662906
158	0x3d1f69d5	0.03891929
159	0x3d3b777e	0.045768254
160	0x3e13f892	0.14450291
161	0x3e1daa92	0.15397099
162	0xbd9210e2	-0.071321264
163	0x3dad20d1	0.08453525
164	0xbdcaf9c0	-0.09910917
165	0xbd8e7471	-0.06955803
166	0xbc3a7454	-0.011380274
167	0xbe1b77ed	-0.15182467
168	0xbd58f752	-0.052970238
169	0xbc33774d	-0.0109537365
170	0x3d792731	0.06082839
171	0xbd544448	-0.05182293
172	0xbdd0fdae	-0.102046356
173	0xbe5bf7b4	-0.2148121
174	0x3ce23987	0.027615322
175	0xbe0f7f6e	-0.14013454
176	0x39876675	0.00025825543
177	0xbb81b2f2	-0.0039580995
178	0x3da1da56	0.079029724
179	0xbd106eea	-0.035262026
180	0x3e2298e2	0.15878633
181	0x3d80007c	0.062500924
182	0xbe1030a3	-0.14081053
183	0x3ca00534	0.019533731
184	0xbd1a1a4a	-0.037622727
185	0xbdc2d4d5	-0.09513251
186	0x3d681cc2	0.05666805
187	0xbce07aca	-0.0274023
188	0x3e4e544c	0.20149344
189	0x3d849383	0.06473448
190	0xbc816d29	-0.015799122
191	0x3e1c9d97	0.15294491
192	0x3da338e2	0.07969834
193	0xbe304712	-0.17214611
194	0xbced22b0	-0.028947204
195	0xbbceed74	-0.0063149277
196	0xbe50a329	-0.2037474
197	0x3dd86cce	0.10567628
198	0x3c8e9989	0.017407196
199	0x3da2b816	0.07945268
200	0x3cb4e44a	0.022081513
201	0xbcbd1373	-0.023080563
202	0xbd8cd085	-0.068757094
203	0xbcf8a41b	-0.03035169
204	0xbdcdbdfe	-0.10046004
205	0x3e188abc	0.14896673
206	0x3e815007	0.2525637
207	0x3e69ad01	0.22819902
208	0x3d480dde	0.04884135
209	0xbda4d6e0	-0.08048797
210	0x3d9c6312	0.07636084
211	0x3e1cdff5	0.15319808
212	0xbe2083db	-0.15675299
213	0xbe1ebaae	-0.155009
214	0xbb7df6b3	-0.003875178
215	0xbe9b84af	-0.30374667
216	0xbcd1d1a7	-0.025612665
217	0xbe58cc5e	-0.2117171
218	0x3e00e198	0.12586057
219	0x3d6857cc	0.056724355
220	0xbe0fd9e1	-0.14047958
221	0x3e10a90c	0.14126986
222	0x3d8f3b29	0.06993706
223	0xbe246748	-0.16055024
224	0x3e2a8c32	0.16655043
225	0xbcd87d53	-0.026426947
226	0xbd0be0f3	-0.034150075
227	0xbdc3ae36	-0.095547125
228	0x3dd1a4a8	0.10236484
229	0x3e2818b2	0.1641567
230	0x3dbc2677	0.09187024
231	0xbb09c660	-0.0021022782
232	0xbdc544cf	-0.09632265
233	0x3d3a7125	0.04551806
234	0x3e757c24	0.23973137
235	0xbdfa2df6	-0.122157976
236	0x3e32d0ca	0.17462459
237	0xbd9dbc70	-0.07701957
238	0xbe634a6f	-0.22196363
239	0xbe2efe12	-0.17089108
240	0x3bb7eb70	0.005612783
241	0x3d1734b6	0.036915503
242	0x3c0d3b58	0.008620106
243	0xbe6aee85	-0.2294255
244	0xbda23f44	-0.07922223
245	0x3e7e5d9e	0.248404
246	0xbe5eb813	-0.21749906
247	0xbd57bc9e	-0.052670114
248	0xbd33c37e	-0.043887608
249	0xbcc726de	-0.024310526
250	0xbdfb46fd	-0.12269399
251	0xbdaa40b0	-0.083131194
252	0x3e78c4d6	0.24293837
253	0x3e0a48a8	0.13504279
254	0x3d67f595	0.05663069
255	0x3decd39b	0.11563798

linear1.bias f4 [32]
0	0xb924ef4f	-0.00015729408
1	0x3dfda710	0.1238538
2	0xbd332731	-0.043738548
3	0xbe075e21	-0.13219501
4	0xbc0c4f7d	-0.008563873
5	0xbdb38913	-0.08766379
6	0x3e3b55da	0.18294469
7	0xbd424a21	-0.047433976
8	0xbdee5d4c	-0.11638889
9	0x3d0d7aef	0.034541067
10	0x3e00ca8a	0.12577263
11	0x3d8af132	0.067842856
12	0xbdf7454c	-0.12073764
13	0xbccf28a1	-0.025287928
14	0x3e825d62	0.2546187
15	0xbd23a248	-0.039949685
16	0x3de24d02	0.11049844
17	0x3d6ced35	0.057843406
18	0xbe09e469	-0.13466038
19	0x3cf054c9	0.029337304
20	0xbe655ad2	-0.22397926
21	0x3ca2b7ac	0.019862972
22	0xbd417698	-0.04723224
23	0x3df62c34	0.1202015
24	0xbe24dba8	-0.16099417
25	0xbd44cbf1	-0.048046056
26	0x3e429140	0.19000721
27	0xbb188507	-0.002327265
28	0xbe152f83	-0.14568906
29	0xbd58db4c	-0.052943513
30	0xbdc01dd4	-0.09380689
31	0xba605259	-0.00085571926

linear2.weight f4 [1, 32]
0	0xbe164f7e	-0.14678761
1	0xbced0f3d	-0.02893793
2	0xbd0e3069	-0.034714136
3	0xbd92e47f	-0.071724884
4	0xbde13225	-0.109958924
5	0xbb314dc1	-0.0027054402
6	0xb93b3a28	-0.00017855375
7	0xbe02d521	-0.12776615
8	0xbbabcfb9	-0.0052432683
9	0xbdab5d6f	-0.083674304
10	0xbd338661	-0.043829326
11	0x3dca5c68	0.09880906
12	0xbda2c819	-0.07948322
13	0xbd92b0d6	-0.07162635
14	0x3d1bef87	0.038070228
15	0x3c6738c3	0.014112654
16	0x3d3949ae	0.045236282
17	0x3cdf2c87	0.027242912
18	0xbc14cfb3	-0.0090827225
19	0xbc842e4a	-0.016135354
20	0x3c571d2b	0.013129513
21	0x3bdd1940	0.006747395
22	0xb968b977	-0.00022194335
23	0xbc2a460d	-0.010392678
24	0x3dc15e40	0.09441805
25	0x3e43c853	0.19119386
26	0x3e36e3af	0.17860292
27	0xbe0200ec	-0.12695664
28	0xbda4b987	-0.08043199
29	0x3e0b07a1	0.13577129
30	0x3cbdcf30	0.023170084
31	0x3d9bd66c	0.07609257
