labml_nn/lstm/LSTM_THz/model_combine_318r1_30.pth (torch, 26025 bytes, 9 tensors)

lstm.weight_ih_l0 f4 [128, 1]
-0.007944011 0.13415456 0.16733071 0.2336158 -0.016672125 0.031965524 0.10173483 0.25634065
0.070798054 0.2550463 0.29714885 -0.1929193 0.24556817 0.11262452 -0.12100699 -0.008108803
-0.21801667 0.068427116 -0.1530764 -0.15022217 0.22329491 -0.3864343 -0.36951095 -0.0379815
0.038249243 -0.0012362207 0.074310005 -0.028069748 -0.029924802 -0.16457635 0.09080295 0.17093451
-0.16473761 0.36215118 0.100554325 0.19764023 0.033485938 0.1912395 0.045984976 0.27387315
0.1420783 0.1896976 0.027497472 -0.38044983 0.12380089 0.030876713 -0.20900254 0.043293394
-0.12500091 0.31205124 -0.1673207 -0.2306842 0.1636125 -0.29401362 -0.3531776 -0.30333683
0.08584524 -0.1060772 -0.03679177 0.11854719 -0.045376055 -0.23043813 -0.20952904 0.16702017
0.26274672 -0.13022682 0.011445487 0.32683027 -0.40954566 0.115567185 0.40828207 -0.33324933
-0.319133 -0.3354076 -0.19396476 -0.07717242 -0.46411973 -0.0062002162 0.22832291 0.11166972
0.29159856 -0.24131693 0.3771733 -0.14972576 0.32639927 0.41167924 -0.2241329 0.08637203
0.23840488 0.22450863 0.3232583 -0.067683846 0.38200465 -0.21552923 -0.30705315 -0.14491917
-0.18940938 0.10564951 -0.05300373 -0.057095863 -0.060171355 0.14459781 -0.117253356 0.15212025
0.041265957 0.31270614 0.2072673 -0.2589114 0.319546 0.017393084 -0.2769554 -0.2192032
0.007307428 0.18365811 -0.02849512 -0.21882665 0.12626086 -0.15831286 -0.17166157 0.012586723
0.16072853 -0.025772545 -0.105068445 0.029218262 -0.03728569 -0.30084977 -0.076974235 0.16527529
00000000: 9927 02bc d05f 093e be58 2b3e fb38 6f3e
00000010: fb93 88bc 48ee 023d 5a5a d03d 153f 833e
00000020: 92fe 903d 6e95 823e e523 983e a38c 45be
00000030: 3976 7b3e afa7 e63d 83d2 f7bd c9da 04bc
00000040: c33f 5fbe 8423 8c3d 0fc0 1cbe d7d3 19be
00000050: 6ca7 643e b7da c5be 8a30 bdbe 7d92 1bbd
00000060: 3dab 1c3d af08 a2ba d82f 983d 87f2 e5bc
00000070: dc24 f5bc b486 28be e6f6 b93d 7509 2f3e
00000080: fab0 28be e16b b93e 6def cd3d 3362 4a3e
00000090: 8d28 093d 4ad4 433e be5a 3c3d 1a39 8c3e
000000a0: f97c 113e 1640 423e 6142 e13c 52ca c2be
000000b0: 528b fd3d 29f1 fc3c c304 56be 6a54 313d
000000c0: 3d00 00be 2ec5 9f3e 1e56 2bbe 7b38 6cbe
000000d0: 098a 273e f488 96be b2d3 b4be f74e 9bbe
000000e0: a1cf af3d 013f d9bd f8b2 16bd dfc8 f23d
000000f0: 3edc 39bd f9f7 6bbe c88e 56be 5607 2b3e
00000100: bd86 863e 2e5a 05be da85 3b3c 4c56 a73e
00000110: f8af d1be 7dae ec3d 590a d13e a89f aabe
00000120: 6765 a3be 8cba abbe b39e 46be 930c 9ebd
00000130: 1aa1 edbe 2f2b cbbb 7bcd 693e 18b3 e43d
00000140: 684c 953e c91b 77be dc1c c13e b651 19be
00000150: ce1d a73e 9fc7 d23e 1883 65be d2e3 b03d
00000160: 6920 743e 97e5 653e 1d82 a53e d49d 8abd
00000170: 1d96 c33e b2b3 5cbe 1236 9dbe b165 14be
00000180: 88f4 41be c55e d83d 701a 59bd 5add 69bd
00000190: 3d76 76bd 7311 143e 8722 f0bd 69c5 1b3e
000001a0: 7e06 293d 051b a03e e13d 543e 0990 84be
000001b0: 899b a33e f17b 8e3c 19cd 8dbe ce76 60be
000001c0: 2673 ef3b df10 3c3e 996e e9bc 1814 60be
000001d0: 874a 013e c41c 22be 0dc8 2fbe 8b38 4e3c
000001e0: 0596 243e f220 d3bc 202e d7bd 235b ef3c
000001f0: e1b8 18bd fb08 9abe aba4 9dbd ed3d 293e

lstm.weight_hh_l0 f4 [128, 32]
-0.084426485 -0.011513793 -0.12576005 -0.11131125 -0.07604709 0.118343875 0.019578991 0.14378808
0.16728097 0.22601731 -0.10533188 0.11478181 0.0075179227 -0.15645707 0.013508242 0.09450663
-0.039448187 -0.05650162 -0.017995358 0.08413818 -0.24744436 -0.33461508 0.2480133 -0.24825023
-0.09940186 0.015299309 0.18382499 0.070287235 0.17027584 0.14252211 0.047712084 -0.014932971
0.18941556 0.13330321 -0.0035879542 0.021491421 0.07338029 0.060229216 0.13790959 -0.08174723
-0.034193136 -0.076612025 -0.0168543 -0.25705236 0.04034779 0.20236512 0.010223058 0.20985077
0.07674692 0.01694244 -0.21210635 0.23378812 -0.07821846 0.23931755 -0.14297704 -0.1376488
0.040032372 -0.22911684 0.09577976 -0.10641561 0.10700485 0.036540136 0.029507658 0.08645536
0.18542585 0.2573827 -0.14542425 0.067241736 -0.14599428 -0.057954736 -0.06018924 -0.13759644
0.061255842 0.16926889 0.008791539 -0.16046353 0.100426465 0.04726088 -0.010639402 -0.06995216
0.10298625 0.095899425 -0.024456242 0.116084926 -0.20510975 0.3001076 -0.1889757 0.21797396
0.0761148 -0.12424942 0.18932055 0.0652866 0.1518089 -0.17246127 0.045860108 -0.025868816
0.286669 0.26286405 -0.20509148 -0.10002003 -0.129411 -0.042057894 -0.07498822 0.12609646
-0.15071261 0.09652013 0.012002778 0.031324204 -0.047809273 -0.028356588 0.013620887 -0.19003001
0.088461414 -0.17414212 0.014374275 -0.057005063 0.0203673 0.28988492 -0.13643731 -0.02486242
0.19802703 -0.009071819 0.0833701 -0.12808195 0.19250843 -0.0073384237 -0.19464168 -0.03307323
0.17615835 0.075844325 0.18469343 0.026082765 0.007855015 -0.16929469 -0.13833584 0.2049651
-0.23398468 -0.35380793 -0.32485765 -0.08538257 -0.24503265 0.0062038973 -0.23222144 -0.33242506
0.0127424365 -0.34567133 0.03821307 -0.09774543 0.074088424 0.062547885 -0.09547058 0.23773675
0.29447368 0.23115522 -0.08536766 -0.016808761 -0.012309741 -0.037287503 -0.20874983 -0.16333778
0.010616926 0.2618144 0.055364333 -0.018330934 -0.154286 0.017009243 -0.13903238 0.10117238
0.008557552 0.09042795 -0.09161589 -0.23099475 0.063091874 0.19063312 -0.047349416 -0.07821664
0.043550566 -0.030873153 0.014123219 -0.00945137 -0.18490295 0.33596283 -0.33100054 0.24272415
0.049194764 0.15559106 0.0069903885 -0.033819757 -0.055322688 -0.37911555 0.24386983 -0.0019284424
-0.07650579 0.04838184 -0.17390506 -0.13633385 0.117700554 -0.005987299 -0.061657604 -0.007678182
-0.044399343 0.0685994 0.050923638 0.078443326 0.18060718 -0.2972394 0.15940727 0.28587836
-0.14394066 -0.20450597 0.053490836 -0.034268443 0.03856406 0.014811598 -0.0132145565 -0.104891956
-0.042015173 -0.042946674 0.08262234 -0.013415528 0.12971598 0.2734975 0.012806895 -0.13424198
-0.3510982 -0.099506766 -0.14061074 -0.2760214 0.25444978 -0.021335568 -0.09822763 -0.105616555
0.36014405 0.045577176 0.2675561 -0.19832598 0.011550941 0.0803101 -0.06227436 0.39711618
0.028854087 -0.12336966 -0.14110525 0.33348852 -0.121079884 -0.04160604 -0.16761151 -0.16058716
-0.17422183 -0.17303678 -0.09210764 -0.27675545 -0.12018652 -0.13880263 0.16994976 -0.00067660824
00000000: cbe7 acbd 59a4 3cbc 3ec7 00be 27f7 e3bd
00000010: 94be 9bbd 465e f23d 1f64 a03c 2f3d 133e
00000020: b44b 2b3e 1571 673e 3eb8 d7bd ba12 eb3d
00000030: e858 f63b 4836 20be ac51 5d3c b18c c13d
00000040: 6c94 21bd 3e6e 67bd 006b 93bc a350 ac3d
00000050: 0e62 7dbe ab52 abbe 33f7 7d3e 4f35 7ebe
00000060: 3493 cbbd f4a9 7a3c 9e3c 3c3e c1f2 8f3d
00000070: ca5c 2e3e 51f1 113e bf6d 433d 6ca9 74bc
00000080: 27f6 413e a380 083e e223 6bbb c70e b03c
00000090: 6848 963d e9b2 763d 2c38 0d3e 176b a7bd
000000a0: 1a0e 0cbd c4e6 9cbd 0712 8abc 5e9c 83be
000000b0: b943 253d cd38 4f3e 9d7e 273c 1fe3 563e
000000c0: 7d2d 9d3d dfca 8a3c 6832 59be 2766 6f3e
000000d0: 0031 a0bd a90f 753e 9368 12be cff3 0cbe
000000e0: fcf8 233d 9b9d 6abe 2e28 c43d 6df0 d9bd
000000f0: 5c25 db3d 1cab 153d 0bba f13c 820f b13d
00000100: 46e0 3d3e aac7 833e 18ea 14be 09b6 893d
00000110: 867f 15be f261 6dbd fe88 76bd 15e6 0cbe
00000120: 68e7 7a3d d354 2d3e 630a 103c 8d50 24be
00000130: 64ac cd3d a094 413d e350 2ebc 1443 8fbd
00000140: 74ea d23d eb66 c43d 7558 c8bc efbd ed3d
00000150: 4a08 52be b4a7 993e d982 41be 9134 5f3e
00000160: 14e2 9b3d 7b76 febd 3fdd 413e fbb4 853d
00000170: cb73 1b3e b099 30be cfd7 3b3d d7ea d3bc
00000180: 47c6 923e 1e96 863e 8003 52be 4dd7 ccbd
00000190: 5184 04be e644 2cbd 6d93 99bd 6e1f 013e
000001a0: 6854 1abe 59ac c53d 4da7 443c cf4d 003d
000001b0: a8d3 43bd 134c e8bc 242a 5f3c 3a97 42be
000001c0: 422b b53d 5052 32be 1482 6b3c 247e 69bd
000001d0: 53d9 a63c cc6b 943e 39b6 0bbe 46ac cbbc
000001e0: 99c7 4a3e f7a1 14bc f1bd aa3d ea27 03be
000001f0: ee20 453e 2977 f0bb 2650 47be cc77 07bd
00000200: db62 343e 4554 9b3d 4620 3d3e 86ab d53c
00000210: 52b2 003c 965b 2dbe e9a7 0dbe 5fe2 513e
00000220: ae99 6fbe 5026 b5be be53 a6be 0fdd aebd
00000230: d7e9 7abe 104a cb3b 75cb 6dbe 9e33 aabe
00000240: a7c5 503c d5fb b0be 4f85 1c3d c22e c8bd
00000250: acbb 973d 1b19 803d 1486 c3bd 4371 733e
00000260: 41c5 963e f4b3 6c3e 3dd5 aebd 87b2 89bc
00000270: ccae 49bc c8ba 18bd 84c2 55be 0542 27be
00000280: 9df2 2d3c 890c 863e b6c5 623d c12a 96bc
00000290: 26fd 1dbe f856 8b3c 815e 0ebe 7733 cf3d
000002a0: f934 0c3c 4a32 b93d 1da1 bbbd e389 6cbe
000002b0: 5036 813d 5435 433e 76f1 41bd 0c30 a0bd
000002c0: 1462 323d b2e9 fcbc 1365 673c ebd9 1abc
000002d0: 3357 3dbe 5203 ac3e e778 a9be ae8c 783e
000002e0: 7380 493d 4353 1f3e a10f e53b 9686 0abd
000002f0: 0b9a 62bd 6f1b c2be 03b9 793e cac3 fcba
00000300: 11af 9cbd 092c 463d 2b14 32be 1a9b 0bbe
00000310: fd0c f13d 1b31 c4bb af8c 7cbd 4299 fbbb
00000320: 16dc 35bd d87d 8c3d 4e95 503d e5a6 a03d
00000330: 17f1 383e c32f 98be a93b 233e a65e 923e
00000340: 2e65 13be 036a 51be 3519 5b3d 115d 0cbd
00000350: 59f5 1d3d 58ac 723c de81 58bc 98d1 d6bd
00000360: 1a18 2cbd dae8 2fbd e735 a93d cecc 5bbc
00000370: 44d4 043e dd07 8c3e 03d4 513c bb76 09be
00000380: 25c3 b3be 34ca cbbd 43fc 0fbe ad52 8dbe
00000390: 3e47 823e eec7 aebc 912b c9bd 7e4d d8bd
000003a0: cd64 b83e 22af 3a3d 1dfd 883e f715 4bbe
000003b0: 2840 3d3c 9f79 a43d 6613 7fbd d052 cb3e
000003c0: 685f ec3c 3ba9 fcbd e57d 10be 02bf aa3e
000003d0: bbf8 f7bd 186b 2abd 5aa2 2bbe f670 24be
000003e0: 3567 32be 8e30 31be eea2 bcbd e4b2 8dbe
000003f0: 5a24 f6bd 4722 0ebe 4f07 2e3e 695e 31ba

lstm.bias_ih_l0 f4 [128]
0.08883198 0.16984254 -0.018570185 -0.017116262 0.094430685 0.03992647 -0.19400896 0.031874113
0.03897427 0.26466644 -0.2499796 -0.036069717 -0.009368277 -0.18191749 -0.11630292 0.03391028
0.030578474 -0.08744554 0.07571445 0.026241068 0.045018118 0.09121542 -0.20293261 -0.27406648
-0.23330222 -0.0727903 -0.16607215 -0.10664069 0.07594116 -0.043912373 -0.16794826 -0.08528457
-0.144515 0.11772152 0.10849533 -0.02653047 -0.038470805 -0.15435192 -0.117396094 -0.07042955
0.07886841 0.13274568 -0.18407801 -0.022170046 -0.21097463 -0.058999915 -0.2694312 -0.2419886
-0.34096047 0.09772364 0.03887357 -0.07145812 0.021606525 -0.10734929 -0.25085667 -0.3772723
0.073790014 -0.26335093 -0.06502073 -0.22178598 -0.20915435 -0.22857732 0.036858182 -0.21861553
-0.03310921 -0.17946494 0.16314979 0.026991049 0.06587818 -0.062291246 0.020599922 -0.11291033
-0.08487929 -0.3461726 0.13001035 0.07023778 -0.070169106 -0.22047 -0.0012943908 -0.02045418
0.21422015 -0.09269087 -0.06403819 0.1047664 0.21966417 0.073417805 0.17011346 -0.040792916
0.08297249 -0.04409924 0.028278524 0.012372419 -0.025252907 0.03400239 0.13788389 -0.006959823
-0.0864748 -0.014459445 -0.16526496 0.16161297 0.37474102 -0.024640184 -0.17160055 -0.27664202
-0.16319929 0.30248025 -0.0072455727 -0.2878859 0.07656751 -0.28211725 -0.26418772 -0.27982324
0.09843144 -0.11245781 -0.0107404 -0.20275143 0.022856679 -0.050698753 -0.05305966 -0.18666904
0.08099018 -0.13331237 -0.07293235 -0.29398274 -0.074495986 -0.19647844 0.10232142 -0.0737782
00000000: 8bed b53d 34eb 2d3e 8020 98bc 6737 8cbc
00000010: e064 c13d f089 233d 49aa 46be 6e8e 023d
00000020: 7ca3 1f3d 5c82 873e a7fa 7fbe d7bd 13bd
00000030: 677d 19bc 9448 3abe 3a30 eebd 81e5 0a3d
00000040: b57f fa3c a616 b3bd 2d10 9b3d 82f7 d63c
00000050: eb64 383d 26cf ba3d 91cd 4fbe 7152 8cbe
00000060: c7e6 6ebe 1513 95bd d10e 2abe 6f66 dabd
00000070: 0a87 9b3d 76dd 33bd a1fa 2bbe ada9 aebd
00000080: bdfb 13be fb17 f13d cd32 de3d 6e56 d9bc
00000090: 9093 1dbd 6e0e 1ebe 5d6d f0bd 5e3d 90bd
000000a0: c385 a13d 7cee 073e f27e 3cbe f59d b5bc
000000b0: bc09 58be e5a9 71bd e3f2 89be dccb 77be
000000c0: 5f92 aebe 5523 c83d e439 1f3d a358 92bd
000000d0: 2b00 b13c f2d9 dbbd 4970 80be d629 c1be
000000e0: 381f 973d efd5 86be 9729 85bd dd1b 63be
000000f0: 8f2c 56be 2c10 6abe 9bf8 163d c0dc 5fbe
00000100: 869d 07bd a8c5 37be bd10 273e 551c dd3c
00000110: 24eb 863d 1b25 7fbd 2bc1 a83c 883d e7bd
00000120: 31d5 adbd 893d b1be 6f21 053e d3d8 8f3d
00000130: d2b4 8fbd e3c2 61be 8ca8 a9ba 868f a7bc
00000140: 875c 5b3e b6d4 bdbd 7426 83bd c48f d63d
00000150: a5ef 603e 135c 963d 3932 2e3e 7916 27bd
00000160: 7bed a93d 68a1 34bd 5da8 e73c b0b5 4a3c
00000170: 2fdf cebc 1746 0b3d 6f31 0d3e 3a0f e4bb
00000180: b319 b1bd 4fe7 6cbc 383b 29be df7d 253e
00000190: 0ede bf3e 36da c9bc 0eb8 2fbe 06a4 8dbe
000001a0: b71d 27be b1de 9a3e 456c edbb c865 93be
000001b0: 6dcf 9c3d ac71 90be 9d43 87be fe44 8fbe
000001c0: 6c96 c93d 4850 e6bd 81f8 2fbc 129e 4fbe
000001d0: ee3d bb3c 7fa9 4fbd 1655 59bd 2b26 3fbe
000001e0: 2ede a53d 0a83 08be 8e5d 95bd e884 96be
000001f0: 5a91 98bd a531 49be e58d d13d 0619 97bd

lstm.bias_hh_l0 f4 [128]
0.0014031878 0.083599865 -0.099386804 0.049042758 0.09294804 0.09849711 -0.009990134 -0.0007525547
0.08795381 0.06473996 0.026535092 -0.110780165 0.034329858 -0.34207782 -0.14120185 -0.16835573
-0.08215716 -0.21347485 0.10885633 -0.29158255 0.30744487 -0.09863087 -0.16350389 -0.13552621
-0.07882613 -0.02422122 0.03806821 -0.069745235 -0.1369095 -0.124919824 -0.047334936 -0.16315895
-0.14249599 0.003422698 -0.10432727 0.040099643 0.00040861487 -0.058927465 -0.14560945 -0.050896373
0.08220878 0.18215925 -0.2065638 -0.1173548 0.098404914 -0.24805225 -0.20508276 -0.24880536
-0.36705744 0.022355685 0.09260719 -0.2625269 -0.02792775 -0.07001864 -0.09307447 -0.07479378
0.0053450265 -0.0385929 -0.10847926 -0.17506489 -0.18988958 -0.064106524 -0.20243675 -0.13249397
-0.04142685 -0.08674258 0.0446455 -0.05887164 0.072913416 -0.07278034 -0.0031215076 0.007033045
0.117647745 -0.34803012 -0.05099458 -0.013234388 0.008164903 0.0019593458 0.09326864 -0.09411361
0.0021202664 0.105433874 -0.059348457 -0.12026674 0.26068118 -0.18843505 -0.08023124 -0.116894774
0.010818649 -0.0009851627 -0.07328004 0.102179565 -0.16528548 0.08203376 -0.0071013817 0.09139249
-0.0713243 -0.06594332 0.0010465499 0.013515948 0.11496734 -0.14786243 -0.19763783 -0.14678478
-0.013961533 0.116613865 -0.21679917 -0.3172228 -0.06340776 -0.07884046 -0.1020513 -0.18441743
-0.009147424 0.06158948 -0.025529565 -0.054720152 0.28986028 0.11460177 -0.13320556 -0.24034303
0.08863061 0.063809946 -0.081968896 -0.004177744 0.13720292 -0.17785764 0.081565276 0.01156593
00000000: 2beb b73a 6836 ab3d 4f8b cbbd 0fe1 483d
00000010: 8b5b be3d dab8 c93d a9ad 23bc 1747 45ba
00000020: 2121 b43d 6296 843d 1f60 d93c b6e0 e2bd
00000030: 779d 0c3d d324 afbe 3897 10be 7265 2cbe
00000040: 0342 a8bd 2799 5abe 11f0 de3d 4f4a 95be
00000050: 6a69 9d3e fbfe c9bd 906d 27be 62c7 0abe
00000060: 986f a1bd 946b c6bc 69ed 1b3d 97d6 8ebd
00000070: 0132 0cbe f7d5 ffbd 47e2 41bd 2413 27be
00000080: 78ea 11be 584f 603b 89a9 d5bd 863f 243d
00000090: 5c3b d639 ed5d 71bd a51a 15be b778 50bd
000000a0: 145d a83d f487 3a3e 7685 53be b757 f0bd
000000b0: 8488 c93d 6901 7ebe 3701 52be d5c6 7ebe
000000c0: f4ee bbbe 4523 b73c d7a8 bd3d ed69 86be
000000d0: bdc8 e4bc ef65 8fbd d49d bebd 7b2d 99bd
000000e0: 5525 af3b 9713 1ebd 602a debd 3644 33be
000000f0: 6a72 42be 484a 83bd 944b 4fbe 80ac 07be
00000100: 33af 29bd 18a6 b1bd 33de 363d 6423 71bd
00000110: a153 953d dc0d 95bd 3592 4cbb 7575 e63b
00000120: 4df1 f03d 0131 b2be b1df 50bd 0cd5 58bc
00000130: 16c6 053c 5e68 003b a103 bf3d a3be c0bd
00000140: 2bf4 0a3b b7ed d73d 5e17 73bd 694e f6bd
00000150: 0178 853e 1ef5 40be 4750 a4bd 8766 efbd
00000160: b440 313c 9320 81ba d813 96bd 8543 d13d
00000170: 9940 29be 5101 a83d b5b2 e8bb fc2b bb3d
00000180: 7912 92bd 4b0d 87bd 632c 893a ff71 5d3c
00000190: ff73 eb3d 4069 17be 9261 4abe c04e 16be
000001a0: eabe 64bc 40d3 ee3d 9a00 5ebe 076b a2be
000001b0: eddb 81bd 1b77 a1bd 4600 d1bd ecd7 3cbe
000001c0: 14df 15bc 4045 7c3d 6123 d1bc 3d22 60bd
000001d0: 9168 943e 55b4 ea3d 0a67 08be 7c1c 76be
000001e0: f783 b53d caae 823d 4fdf a7bd 75e5 88bb
000001f0: ec7e 0c3e 5020 36be b20b a73d 077f 3d3c

layer_norm.weight f4 [32]
0.9243431 0.9198015 0.9196858 0.94641304 1.0753688 0.9150349 0.8519569 0.88691616
0.95000196 0.9770171 0.91072464 0.8301733 0.95985216 0.8304815 0.87270445 0.7964227
0.89108014 0.92590743 0.98794246 0.9027888 0.9551479 0.9691668 0.85180104 0.8677017
0.84799117 0.9069723 0.90661114 0.79434365 0.9876585 0.89243144 0.8921297 0.8347356
00000000: c0a1 6c3f 1c78 6b3f 8770 6b3f 2048 723f
00000010: afa5 893f ba3f 6a3f d919 5a3f f00c 633f
00000020: 5433 733f cb1d 7a3f 4025 693f 3d86 543f
00000030: dfb8 753f 709a 543f 8f69 5f3f 5ce2 4b3f
00000040: d41d 643f 4508 6d3f cce9 7c3f 2b1d 673f
00000050: 9384 743f 511b 783f a20f 5a3f b321 5e3f
00000060: f315 593f 562f 683f ab17 683f 1b5a 4b3f
00000070: 30d7 7c3f 6376 643f 9d62 643f 3bb1 553f

layer_norm.bias f4 [32]
-0.055452853 0.06789911 -0.060187668 -0.057962023 0.0050584716 0.077720754 0.07208255 -0.11688874
0.07437969 0.07067929 0.070691556 0.03244382 -0.08892335 -0.06384587 0.057005007 0.001071594
0.06113417 0.046845436 0.020173408 -0.08575078 -0.104591615 -0.05166972 0.010672154 -0.072732255
-0.16355902 -0.06244148 0.13990574 0.093878746 -0.045181587 0.040352356 0.13043967 0.044835493
00000000: 8822 63bd b00e 8b3d 5887 76bd 9669 6dbd
00000010: 89c1 a53b 0f2c 9f3d 04a0 933d 5d63 efbd
00000020: 6154 983d 4ec0 903d bcc6 903d d0e3 043d
00000030: 721d b6bd a0c1 82bd 157e 693d ba74 8c3a
00000040: d367 7a3d 00e1 3f3d b442 a53c 1b9e afbd
00000050: 2134 d6bd a1a3 53bd 42da 2e3c a6f4 94bd
00000060: 047c 27be a3c2 7fbd 7343 0f3e 8043 c03d
00000070: 5410 39bd 8348 253d fa91 053e 6ca5 373d

linear1.weight f4 [32, 32]
-0.08887074 0.043484673 0.119346894 0.09476428 0.08301501 -0.086876646 0.044609312 -0.112591304
0.23748758 0.03929582 0.08222577 -0.24053898 0.026978735 0.027391661 -0.32077572 -0.19898401
0.069590665 0.026422465 -0.29348794 0.013695543 0.059824686 -0.039477676 0.06731951 -0.11454253
-0.06467252 -0.17374715 0.0017856987 -0.1916082 -0.23300089 -0.1631991 0.09548738 0.15667006
0.1616451 0.10913962 -0.14858921 0.1599512 -0.3001245 0.03827033 -0.069861524 -0.1644985
0.033143714 0.21104096 -0.030907085 -0.21812709 -0.13655534 0.20855497 -0.08742369 -0.15287988
-0.037472736 -0.00590466 0.06695342 -0.10028823 0.02548591 0.01207226 -0.1880776 -0.09494244
0.1425719 0.10641391 0.20219365 -0.01860396 0.24726878 -0.07490255 0.09664397 0.03797076
0.02079666 -0.11407604 0.07487742 0.09428126 0.024462221 0.09989503 -0.04738417 -0.021991743
0.20536219 0.05593205 0.08835934 0.03204919 -0.043415066 0.13010502 0.07420206 0.013108137
-0.09568937 0.025798136 0.073427744 0.039151862 0.1576705 0.18655457 -0.12476761 0.1315778
-0.06646824 -0.117126405 0.033097856 0.03326486 -0.15581225 0.08544026 -0.080018915 -0.09834635
-0.100815296 -0.2173625 -0.022713773 -0.08246701 0.23843738 0.08323609 -0.18422325 0.15170294
-0.0583418 -0.076605484 0.041396335 0.013932168 0.27367806 -0.07215205 0.07788156 -0.092251316
0.20184933 -0.22284614 -0.014581544 0.04362083 0.18266152 -0.23230198 0.043809246 0.0041053006
-0.042263325 0.18348657 -0.11525774 0.19882354 0.012793799 0.18270528 0.12895298 0.061997406
-0.2605841 -0.23775287 -0.08741691 0.12826079 0.23360786 0.07673528 0.025356894 0.14006351
-0.14487056 0.051482726 0.03818911 0.07627658 0.17557804 0.03647571 0.26948294 0.011023194
-0.11850245 -0.011933428 -0.14079495 -0.078702785 -0.047878504 -0.09935525 0.14519745 -0.08847832
0.14262447 0.16957746 0.07280118 0.15208961 -0.20041452 -0.028698536 0.08299754 0.049823537
0.16529827 -0.059338193 -0.21429995 -0.084064916 -0.0649965 0.076964885 0.23232406 -0.24008164
0.0579519 0.108723745 0.22223212 0.045424353 0.10853697 0.12090472 0.12462626 -0.107879035
0.061605513 -0.105099656 -0.011797194 -0.15210739 -0.09407174 0.076430924 0.012291159 -0.22313109
-0.10643737 -0.08423917 -0.074788816 0.13253202 -0.14685646 -0.08384413 0.099013954 0.017816702
0.087433204 -0.13667864 0.19872689 -0.10098821 0.41133937 -0.24066605 -0.023772093 -0.019691529
-0.028354613 -0.1711724 0.09551619 0.21327321 0.1689629 0.13513379 -0.066358544 0.032743733
-0.059293687 0.050858274 -0.022264289 0.1940031 0.17389834 -0.15935624 0.225933 0.024009611
0.01330827 -0.07779505 -0.24322033 0.0014853956 -0.20271772 0.24385461 -0.15803154 -0.1612602
0.019005364 0.037666626 -0.14696425 0.023570616 -0.13826543 0.0655063 0.1227427 -0.23517092
0.023964982 0.049013823 -0.06344922 -0.20405549 -0.01188699 -0.19120921 -0.19657978 0.019006675
0.20074123 0.070931286 0.0037530516 -0.12349765 -0.055120967 0.13567363 -0.04334377 0.11317892
-0.02575335 -0.022235794 0.0160034 -0.14808907 -0.0055008433 -0.12393056 -0.13984199 0.008787681
00000000: dd01 b6bd fc1c 323d 256c f43d c613 c23d
00000010: c603 aa3d 62ec b1bd 41b8 363d 4596 e6bd
00000020: f22f 733e a7f4 203d fc65 a83d da4f 76be
00000030: 8202 dd3c 7a64 e03c b73c a4be 77c2 4bbe
00000040: 8d85 8e3d ed73 d83c 0d44 96be 4563 603c
00000050: bb0a 753d 58b3 21bd d0de 893d 4695 eabd
00000060: 0773 84bd c6ea 31be 1b0e ea3a f134 44be
00000070: c997 6ebe aa1d 27be e38e c33d 1e6e 203e
00000080: 4b86 253e 9884 df3d c527 18be 3fca 233e
00000090: eba9 99be 59c1 1c3d 8f13 8fbd 4b72 28be
000000a0: b4c1 073d 1f1b 583e db30 fdbc b55c 5fbe
000000b0: 2ad5 0bbe 6f8f 553e 310b b3bd 8b8c 1cbe
000000c0: 037d 19bd e17b c1bb e01e 893d ea63 cdbd
000000d0: d4c7 d03c baca 453c 6a97 40be 2f71 c2bd
000000e0: 5efe 113e 89ef d93d da0b 4f3e 5567 98bc
000000f0: 0734 7d3e 8266 99bd 46ed c53d 3a87 1b3d
00000100: c25d aa3c b3a0 e9bd 5559 993d 8916 c13d
00000110: ff64 c83c c495 cc3d e715 42bd 0728 b4bc
00000120: 774a 523e 0119 653d bef5 b43d 0346 033d
00000130: ffd3 31bd 403a 053e 40f7 973d 83c3 563c
00000140: caf8 c3bd 9d56 d33c 4961 963d b45d 203d
00000150: 6074 213e 2908 3f3e 2986 ffbd 55bc 063e
00000160: 8020 88bd f8df efbd 9e91 073d bc40 083d
00000170: 3f8d 1fbe 4efb ae3d f5e0 a3bd d069 c9bd
00000180: 4078 cebd 4694 5ebe 3c12 babc 77e4 a8bd
00000190: ee28 743e af77 aa3d 05a5 3cbe 0458 1b3e
000001a0: d0f7 6ebd 56e3 9cbd 348f 293d bf43 643c
000001b0: 881f 8c3e 74c4 93bd 5e80 9f3d 42ee bcbd
000001c0: 97b1 4e3e c731 64be 6ee7 6ebc c1ab 323d
000001d0: 9f0b 3b3e 92e0 6dbe 5371 333d c285 863b
000001e0: 4f1c 2dbd e7e3 3b3e 400c ecbd 6698 4b3e
000001f0: 159d 513c 1817 3b3e 400c 043e fef0 7d3d
00000200: 476b 85be 7d75 73be a307 b3bd cc56 033e
00000210: e636 6f3e 6327 9d3d 43b9 cf3c cf6c 0f3e
00000220: f358 14be 8ddf 523d 2f6c 1c3d e536 9c3d
00000230: bbca 333e 8e67 153d abf9 893e a09a 343c
00000240: 6ab1 f2bd 6d84 43bc 8d2c 10be ed2e a1bd
00000250: 401c 44bd c47a cbbd a4ae 143e 1f34 b5bd
00000260: 260c 123e b7a5 2d3e c918 953d 61bd 1b3e
00000270: 7739 4dbe 3119 ebbc 9dfa a93d c413 4c3d
00000280: f343 293e 9b0c 73bd 7271 5bbe 3a2a acbd
00000290: e31c 85bd c49f 9d3d 5ce6 6d3e f6d7 75be
000002a0: f95e 6d3d 8eaa de3d d190 633e e30e 3a3d
000002b0: a248 de3d e59c f73d 0d3c ff3d afef dcbd
000002c0: 1056 7c3d 7d3e d7bd 0549 41bc 0ac2 1bbe
000002d0: afa8 c0bd d187 9c3d db60 493c 7a7c 64be
000002e0: d6fb d9bd 9685 acbd e12a 99bd 79b6 073e
000002f0: 8a61 16be 79b6 abbd d4c7 ca3d 55f4 913c
00000300: 2e10 b33d 7cf5 0bbe 107f 4b3e e8d2 cebd
00000310: 139b d23e 2971 76be b1bd c2bc 2150 a1bc
00000320: ef47 e8bc d147 2fbe fe9d c33d 4b64 5a3e
00000330: 9c04 2d3e 8360 0a3e fde6 87bd 4b1e 063d
00000340: f0dd 72bd c450 503d 9963 b6bc c0a8 463e
00000350: 6812 323e 482e 23be fb5a 673e ceaf c43c
00000360: ee0a 5a3c 0353 9fbd c00e 79be 9bb1 c23a
00000370: 3c95 4fbe 06b5 793e 05d3 21be 6521 25be
00000380: 23b1 9b3c 5248 1a3d cc7d 16be 2a17 c13c
00000390: 7495 0dbe 2b28 863d 8660 fb3d a5d0 70be
000003a0: 3652 c43c b8c2 483d aaf1 81bd ecf3 50be
000003b0: a6c1 42bc 59cc 43be 364c 49be e3b3 9b3c
000003c0: 1c8f 4d3e 6c44 913d c2f5 753b 56ec fcbd
000003d0: 86c6 61bd 07ee 0a3e 3d89 31bd 59ca e73d
000003e0: b1f8 d2bc d727 b6bc 9019 833c a9a4 17be
000003f0: 6b40 b4bb 4ecf fdbd bd32 0fbe 35fa 0f3c

linear1.bias f4 [32]
-0.0015012522 0.014591098 -0.0907296 0.084311895 -0.03742184 -0.11602915 0.18241493 0.0745092
-0.08680927 0.17046654 0.11019665 -0.07446882 -0.10204418 -0.15709409 -0.11321429 0.006052034
-0.07589138 -0.13890629 0.13086523 -0.0320043 0.039924584 0.025977487 0.1870551 -0.23182398
0.006983692 0.12449007 -0.09464235 0.18877277 0.11175436 0.025342556 0.01462363 -0.08381429
00000000: aac5 c4ba 800f 6f3c 71d0 b9bd b7ab ac3d
00000010: a547 19bd b1a0 edbd fbca 3a3e 4898 983d
00000020: 0fc9 b1bd c88e 2e3e c8ae e13d 1c83 98bd
00000030: 8afc d0bd 46dd 20be e5dc e7bd 2450 c63b
00000040: f16c 9bbd 733d 0ebe 8901 063e f116 03bd
00000050: f687 233d bdce d43c 5f8b 3f3e 4463 6dbe
00000060: 74d7 e43b a6f4 fe3d d9d3 c1bd a64d 413e
00000070: 78df e43d 319b cf3c f397 6f3c d4a6 abbd

linear2.weight f4 [1, 32]
-0.06717795 0.06375074 -0.00034073115 -0.054761574 -0.0056261434 -0.005378303 -0.07156696 -0.0020790666
0.020947821 0.011676586 0.061642118 0.06626289 -0.080688834 0.05521721 0.040962283 -0.002181393
0.09705895 0.0146273635 0.03678849 -0.097763434 -0.087970525 0.022053856 -0.15656696 0.080905944
0.0880331 -0.044442505 -0.16820009 0.043473717 0.06212882 0.053971935 -0.11040047 0.08602325
00000000: 9894 89bd bf8f 823d 29a4 b2b9 ac4d 60bd
00000010: 835b b8bb 7a3c b0bb b391 92bd f340 08bb
00000020: c49a ab3c 274f 3f3c 727c 7c3d d7b4 873d
00000030: 3040 a5bd 712b 623d 11c8 273d b4f5 0ebb
00000040: d8c6 c63d 9ca7 6f3c 87af 163d 3238 c8bd
00000050: e429 b4bd 4aaa b43c 1753 20be 04b2 a53d
00000060: b34a b43d 5809 36bd a53c 2cbe 7f11 323d
00000070: ca7a 7e3d ad11 5d3d a419 e2bd f52c b03d
