labml_nn/lstm/LSTM_THz/model_combine_319r2_28.pth (torch, 26025 bytes, 9 tensors)

lstm.weight_ih_l0 f4 [128, 1]
-0.21232817 -0.05546113 0.048071 0.089723706 -0.1396788 -0.18188545 0.07162341 0.053741183
0.0750779 0.23060781 -0.22444569 0.043295253 0.17914616 -0.06594091 -0.24591954 0.25457084
-0.15571213 0.07461377 0.29220006 -0.4904203 -0.13036928 -0.31166774 0.24062249 0.3166994
-0.15227912 -0.0155699365 -0.13807687 -0.004344696 0.12596479 0.1613117 0.032820687 0.10460322
-0.11128269 0.011660775 -0.068018295 0.08623348 0.12785365 -0.06540333 0.08921674 0.011727288
-0.028817268 0.3530251 -0.22403435 -0.00054823054 0.3251556 -0.11018817 -0.09668856 0.01954836
-0.14645064 0.13729534 0.24042308 -0.45611778 -0.26614204 -0.18375841 -0.03286628 0.214779
-0.09799617 -0.17337108 -0.11963353 -0.30629256 -0.011485012 0.16513503 0.13131323 0.14115779
-0.17123222 -0.1556653 -0.10114256 0.052561074 -0.035030227 0.13556881 -0.25281549 -0.021574998
-0.027321145 -0.20201822 -0.003520815 -0.10589263 0.11605941 -0.17600785 -0.14437212 -0.09828121
-0.08191755 -0.016531216 0.18881282 0.28962094 -0.20730552 -0.08830219 -0.104159884 0.24789058
0.27759358 -0.26559928 -0.21544114 0.15159008 -0.069534965 0.24853848 0.22968003 -0.20162858
-0.072107896 0.27958295 0.06275285 0.015127045 -0.2584755 -0.080886625 0.13329178 -0.14268862
-0.018448152 0.3179347 -0.02005005 0.20932646 0.25907293 -0.06100283 0.0028144708 0.20708963
-0.08960296 0.2429757 0.3528968 -0.27649644 0.033428755 -0.34824196 0.12816268 0.08005235
-0.1339381 -0.077433474 -0.2135519 -0.055010535 0.04858348 0.19419637 0.19552529 0.12865177
00000000: 8e6c 59be 362b 63bd 19e6 443d 10c1 b73d
00000010: f607 0fbe 2e40 3abe 4baf 923d b71f 5c3d
00000020: 71c2 993d 7424 6c3e 17d5 65be 5d56 313d
00000030: 1772 373e 070c 87bd 55d2 7bbe 1c57 823e
00000040: 0073 1fbe 1bcf 983d 3f9b 953e 5f18 fbbe
00000050: 867f 05be ea92 9fbe be65 763e 6c26 a23e
00000060: 0fef 1bbe 0c19 7fbc 0664 0dbe f45d 8ebb
00000070: eafc 003e e52e 253e fc6e 063d 373a d63d
00000080: 2ee8 e3bd d60c 3f3c 2d4d 8bbd 2e9b b03d
00000090: 11ec 023e 2ef2 85bd 44b7 b63d d023 403c
000000a0: 3112 ecbc b5bf b43e 4369 65be 21b7 0fba
000000b0: cb7a a63e 56aa e1bd a704 c6bd e223 a03c
000000c0: 28f7 15be 2697 0c3e 7831 763e 4588 e9be
000000d0: c543 88be 2a2b 3cbe cb9e 06bd 07ef 5b3e
000000e0: 37b2 c8bd 3088 31be 6d02 f5bd 61d2 9cbe
000000f0: a22b 3cbc 2819 293e fa76 063e ab8b 103e
00000100: 8057 2fbe b966 1fbe d523 cfbd 484a 573d
00000110: db7b 0fbd 8dd2 0a3e 0871 81be 0dbe b0bc
00000120: 98d0 dfbc dddd 4ebe 79bd 66bb 3cde d8bd
00000130: 8eb0 ed3d 673b 34be 49d6 13be a947 c9bd
00000140: 63c4 a7bd 796c 87bc 2658 413e 3249 943e
00000150: e647 54be c7d7 b4bd c751 d5bd 07d7 7d3e
00000160: bf20 8e3e a1fc 87be 9a9c 5cbe 6e3a 1b3e
00000170: 5968 8ebd df80 7e3e 3e31 6b3e b977 4ebe
00000180: 4ead 93bd 7f25 8f3e 9184 803d 6dd7 773c
00000190: e756 84be e3a7 a5bd a47d 083e f71c 12be
000001a0: 9420 97bc 56c8 a23e 0140 a4bc ad59 563e
000001b0: 35a5 843e 1ade 79bd fc72 383b 4e0f 543e
000001c0: c281 b7bd 9fce 783e e4ae b43e f190 8dbe
000001d0: 97ec 083d c54c b2be 143d 033e 7df2 a33d
000001e0: 1227 09be 7195 9ebd 59ad 5abe ba52 61bd
000001f0: 79ff 463d 6adb 463e c837 483e 4abd 033e

lstm.weight_hh_l0 f4 [128, 32]
-0.045330845 -0.17564364 -0.19429052 0.1340893 -0.09886415 -0.07083798 -0.21676509 0.13119765
-0.38419956 0.022506779 0.001339548 0.036453605 0.017220672 -0.11233504 0.108373225 -0.12737612
-0.03215411 -0.10726041 0.02936649 0.058069963 0.11001548 -0.033589415 0.05198987 0.047193766
0.098602615 -0.15567718 0.038844373 -0.13975807 -0.105229296 0.114207335 -0.050728843 0.0168143
-0.10818442 -0.22148602 0.04567768 -0.13959931 0.011989474 -0.15167077 0.15017188 -0.075675756
0.15231976 0.15436096 0.05323271 0.106279634 0.012380196 0.08434908 -0.18773136 -0.004775159
-0.027619217 0.08306716 -0.034614872 -0.071361005 -0.13436233 0.27118713 0.08699792 -0.124124825
0.052433774 -0.05033802 -0.110267326 0.23005436 -0.20374727 -0.15166368 0.043107256 0.20854342
-0.07835069 -0.27306804 0.18829472 -0.33685157 -0.16762526 -0.11140808 0.1338936 -0.17684555
0.05649561 -0.028589677 0.13461517 0.12373346 0.54195714 0.23195352 -0.030582342 -0.16148199
-0.0034539993 -0.09369173 -0.01857438 -0.52154505 0.15068413 0.36998236 -0.038272254 -0.1837498
-0.104690164 -0.078642875 0.09794832 -0.14687237 -0.07691265 -0.114222154 -0.29034436 0.18054865
-0.15041749 -0.17070551 0.18962778 -0.1195334 0.1265247 -0.026865201 0.16661486 -0.23799133
0.00054230983 0.122551106 0.26384592 0.11979471 -0.029676547 0.235679 -0.07113311 -0.027662309
0.16454904 0.3486831 -0.12011804 0.23938574 0.00398031 0.10955988 0.26522428 -0.05312598
-0.19189449 0.08991803 -0.18140812 0.16443582 -0.21021627 -0.021177296 -0.2998617 -0.14693801
-0.06929989 0.04162519 0.018152626 0.13918348 -0.16908754 0.096238025 -0.011067575 -0.017186679
-0.06614352 -0.09011192 0.08982204 -0.03855161 -0.20872727 -0.26088917 -0.023760203 0.18774602
-0.36068168 -0.07556427 -0.13940509 -0.10270754 -0.09957571 -0.39335823 0.10104374 0.19765267
-0.07023458 0.06945846 -0.036215566 -0.056967773 -0.040597457 -0.08727511 0.24417202 -0.048562784
-0.020541057 0.0046595153 0.037164524 -0.22561146 0.1129275 -0.19243754 0.2961086 -0.18943697
0.08136951 0.09944793 0.06781772 0.13581227 0.28698966 0.10201073 0.1367083 -0.10971124
0.3006348 -0.052474465 0.069069974 -0.06414982 -0.0139483465 0.11389456 0.18013345 -0.00027608228
0.005515875 0.0012270922 -0.20038351 -0.063608356 0.06619997 -0.2596716 -0.07495528 -0.03601057
-0.021503853 -0.20136091 -0.1475956 0.15399228 -0.14901951 0.025654662 0.056804992 0.23477302
-0.26799098 0.025146127 -0.024720164 0.063024804 0.03404873 -0.05047024 0.4081247 -0.035224482
-0.16073345 -0.056736477 0.19825858 -0.42850763 0.26048338 0.1951849 -0.021003038 0.035379834
-0.08188393 -0.012033476 0.2589298 0.06928197 0.07988476 0.16210116 0.0659961 -0.01692508
0.07714571 0.27761063 0.18114899 -0.15421593 0.18519919 -0.3008611 0.018048087 -0.4051937
0.09087368 0.2514008 0.058397606 0.05792875 -0.22511187 0.023430757 -0.16802742 0.10719737
0.07170708 0.378392 -0.19474912 0.314849 -0.07278052 -0.29817954 0.1289013 -0.30770302
-0.056595564 0.15301892 -0.090470344 -0.029568093 -0.074476644 -0.21647567 -0.22192857 -0.012925257
00000000: d6ac 39bd eddb 33be 18f4 46be b54e 093e
00000010: 4a79 cabd 8113 91bd abf7 5dbe ad58 063e
00000020: ceb5 c4be 2360 b83c c693 af3a 6050 153d
00000030: 5e12 8d3c ea0f e6bd c8f2 dd3d e36e 02be
00000040: 07b4 03bd 59ab dbbd fe91 f03c c5da 6d3d
00000050: cc4f e13d 0e95 09bd 54f3 543d 404e 413d
00000060: 2bf0 c93d d769 1fbe 471b 1f3d bd1c 0fbe
00000070: 7582 d7bd 89e5 e93d 0cc9 4fbd 25be 893c
00000080: cb8f ddbd 3bcd 62be 8518 3b3d 1ff3 0ebe
00000090: 806f 443c 954f 1bbe a8c6 193e e4fb 9abd
000000a0: b6f9 1b3e cd10 1e3e 8b0a 5a3d 23a9 d93d
000000b0: 4ed6 4a3c 36bf ac3d a63c 40be f078 9cbb
000000c0: b241 e2bc 1d1f aa3d 53c8 0dbd b825 92bd
000000d0: 4796 09be 0ad9 8a3e f72b b23d 2835 febd
000000e0: ccc4 563d 3d2f 4ebd d6d3 e1bd 5f93 6b3e
000000f0: 20a3 50be b94d 1bbe 3c91 303d 688c 553e
00000100: 5476 a0bd 93cf 8bbe 55d0 403e cf77 acbe
00000110: f5a5 2bbe eb29 e4bd 671b 093e 0017 35be
00000120: f167 673d e634 eabc 8fd8 093e f867 fd3d
00000130: b4bd 0a3f 3985 6d3e d287 fabc 895b 25be
00000140: 7e5c 62bb 73e1 bfbd 4c29 98bc fa83 05bf
00000150: f14c 1a3e 546e bd3e 5ec3 1cbd e828 3cbe
00000160: cc67 d6bd 840f a1bd 2199 c83d b665 16be
00000170: 6184 9dbd 4eed e9bd 04a8 94be bfe1 383e
00000180: 0b07 1abe 6dcd 2ebe c92d 423e edcd f4bd
00000190: b18f 013e 6914 dcbc 169d 2a3e 00b4 73be
000001a0: cc29 0e3a 13fc fa3d d016 873e ee56 f53d
000001b0: 3b1c f3bc d655 713e 3cae 91bd 119c e2bc
000001c0: 8b7f 283e 9786 b23e 7200 f6bd 8921 753e
000001d0: 436d 823b ee60 e03d 7acb 873e a19a 59bd
000001e0: fd7f 44be f226 b83d 0dc3 39be dd61 283e
000001f0: ef42 57be 027c adbc 7987 99be eb76 16be
00000200: 1aed 8dbd 2d7f 2a3d d1b4 943c 1d86 0e3e
00000210: 4925 2dbe 7118 c53d c654 35bc 14cb 8cbc
00000220: 4176 87bd 998c b8bd 9ef4 b73d 4be8 1dbd
00000230: 9abc 55be 4493 85be c2a4 c2bc 7e40 403e
00000240: 45ab b8be 71c1 9abd 35c0 0ebe 5558 d2bd
00000250: 5aee cbbd 4066 c9be 05f0 ce3d 7665 4a3e
00000260: 26d7 8fbd 3d40 8e3d c656 14bd 0a57 69bd
00000270: 8549 26bd 4bbd b2bd 3b08 7a3e c5e9 46bd
00000280: b845 a8bc d9ae 983b d439 183d b106 67be
00000290: 8846 e73d 590e 45be 8c9b 973e c4fb 41be
000002a0: 0fa5 a63d 5bab cb3d 04e4 8a3d 5f12 0b3e
000002b0: 4ff0 923e 00eb d03d 43fd 0b3e 49b0 e0bd
000002c0: ceec 993e 77ef 56bd 8f74 8d3d fb60 83bd
000002d0: 9b87 64bc 8d41 e93d e774 383e 23bf 90b9
000002e0: 83be b43b 62d6 a03a 5631 4dbe 1945 82bd
000002f0: da93 873d adf3 84be 2782 99bd d27f 13bd
00000300: d928 b0bc 8e31 4ebe 4d23 17be 27b0 1d3e
00000310: 9298 18be ba29 d23c 5aac 683d 5768 703e
00000320: 1d36 89be 40ff cd3c f181 cabc 2613 813d
00000330: ae76 0b3d e2b9 4ebd b8f5 d03e 8c47 10bd
00000340: 4f97 24be 8264 68bd 4c04 4b3e 5a65 dbbe
00000350: 145e 853e 8dde 473e 900e acbc 72ea 103d
00000360: c3b2 a7bd 0e28 45bc 7292 843e b5e3 8d3d
00000370: 9f9a a33d d9fd 253e f728 873d 77a6 8abc
00000380: 92fe 9d3d fb22 8e3e 1f7f 393e c8ea 1dbe
00000390: dba4 3d3e 770a 9abe 95d9 933c 8c75 cfbe
000003a0: fb1b ba3d 9bb7 803e 5432 6f3d b246 6d3d
000003b0: ba83 66be dcf1 bf3c 610f 2cbe 4b8a db3d
000003c0: 29db 923d 99bc c13e 506c 47be e333 a13e
000003d0: f40d 95bd fdaa 98be b4fe 033e 408b 9dbe
000003e0: c0d0 67bd feb0 1c3e 8448 b9bd c938 f2bc
000003f0: 3687 98bd ccab 5dbe 3e41 63be 75c4 53bc

lstm.bias_ih_l0 f4 [128]
-0.15156433 -0.084464386 -0.07055935 -0.06079507 0.23658371 -0.21092725 -0.08237573 -0.1175964
-0.08147941 -0.11721884 -0.17776825 -0.058896728 0.01408799 0.099104285 -0.08344574 -0.055445008
-0.100062154 -0.15178496 0.10160732 0.060246505 -0.16777728 -0.09258747 -0.09690672 0.13689317
0.16725543 -0.1348671 0.122468494 -0.07957746 -0.109970294 -0.114710525 0.045049638 -0.32003897
-0.22966929 -0.32794487 -0.069043264 -0.13582002 0.09643655 -0.18133293 -0.115259014 -0.18490344
-0.060005445 -0.015597566 -0.20418349 -0.07461006 -0.15056977 -0.13668026 0.081293575 -0.3119315
-0.09442345 -0.033757225 0.00943546 0.16797161 -0.2223467 -0.22263695 -0.18626817 -0.07824297
0.060851116 -0.23214717 -0.10808771 -0.030777974 -0.002345734 -0.15185216 -0.11513389 -0.25724348
0.062600665 -0.060184658 0.0047348314 -0.085933946 -0.0658637 0.04015612 -0.011267147 0.17973672
-0.05032349 0.08113524 -0.119377084 -0.19508678 0.03235898 0.04132008 0.054458275 0.056759737
-0.03361363 -0.13958637 0.0037465456 -0.25634974 0.114205346 0.067680836 -0.18401727 0.13379894
-0.1492049 0.044993017 0.13261905 -0.20804848 0.005844126 0.041458126 0.20704168 -0.08870557
0.11896893 -0.08077268 -0.087646835 -0.05604844 0.19103463 0.09422569 0.25029105 -0.14856192
-0.064546 -0.15186839 -0.023040423 -0.00340797 -0.0032470517 -0.06356466 0.022811314 -0.2774907
-0.05293877 -0.099620245 -0.08949633 0.14848506 0.05436753 -0.0034543243 -0.07591357 -0.06728519
0.1103023 0.13395408 0.14586389 0.13215795 0.05555208 -0.06224965 -0.08578612 -0.2523809
00000000: ae33 1bbe aafb acbd 6c81 90bd 4004 79bd
00000010: 0043 723e 50fd 57be 9bb4 a8bd 62d6 f0bd
00000020: adde a6bd 6e10 f0bd e108 36be b23d 71bd
00000030: 50d1 663c 30f7 ca3d 9ae5 aabd 4e1a 63bd
00000040: 63ed ccbd 846d 1bbe 8017 d03d 0ac5 763d
00000050: cfcd 2bbe 809e bdbd 0877 c6bd b92d 0c3e
00000060: 0245 2b3e 9a1a 0abe c3d0 fa3d 82f9 a2bd
00000070: 1b38 e1bd 5aed eabd f885 383d 26dc a3be
00000080: 6d2e 6bbe 64e8 a7be 8e66 8dbd 6714 0bbe
00000090: 8780 c53d 57af 39be eb0c ecbd 5457 3dbe
000000a0: 45c8 75bd ef8c 7fbc 7a15 51be 29cd 98bd
000000b0: f62e 1abe e9f5 0bbe 3f7d a63d 7cb5 9fbe
000000c0: 1561 c1bd 0445 0abd 3097 1a3c c000 2c3e
000000d0: daae 63be f1fa 63be 15bd 3ebe da3d a0bd
000000e0: 053f 793d fdb7 6dbe 175d ddbd 1722 fcbc
000000f0: e3ba 19bb 227f 1bbe 51cb ebbd 6bb5 83be
00000100: c734 803d 3084 76bd a526 9b3b 23fe afbd
00000110: 8ce3 86bd be7a 243d d799 38bc e70c 383e
00000120: 0120 4ebd 3c2a a63d f97b f4bd d4c4 47be
00000130: da8a 043d 3f3f 293d a40f 5f3d e67c 683d
00000140: 72ae 09bd bbef 0ebe 9b88 753b 4640 83be
00000150: 7ee4 e93d 409c 8a3d 066f 3cbe 9702 093e
00000160: 2bc9 18be 994a 383d 4acd 073e a90a 55be
00000170: 1580 bf3b ffcf 293d bc02 543e 44ab b5bd
00000180: fba5 f33d 266c a5bd 2f80 b3bd 0d93 65bd
00000190: 959e 433e 66f9 c03d 2626 803e 9e20 18be
000001a0: b130 84bd 6383 1bbe 45bf bcbc 4058 5fbb
000001b0: 7dcc 54bb 302e 82bd cbde ba3c 4313 8ebe
000001c0: 53d6 58bd b305 ccbd da49 b7bd 780c 183e
000001d0: 7db0 5e3d f261 62bb 9378 9bbd d1cc 89bd
000001e0: 2ce6 e13d 422b 093e 585d 153e 6a54 073e
000001f0: 948a 633d 7df9 7ebd a2b0 afbd 1238 81be

lstm.bias_hh_l0 f4 [128]
0.02986752 -0.16058284 -0.2224819 -0.17219792 0.097800255 0.09744902 0.16322987 -0.033323817
-0.19839628 -0.07119795 0.100709274 -0.025812933 -0.14760327 -0.012186673 -0.10996998 -0.01770387
-0.3028872 -0.17260465 0.22109048 0.19762988 -0.016466048 -0.118984304 -0.016200317 0.21266912
0.22572574 0.11356943 -0.09455228 0.1541668 -0.20846942 0.031293556 0.037564214 -0.3122361
-0.1564822 -0.37010047 0.14821747 -0.3021308 -0.11546869 -0.09903659 0.035911437 -0.30678722
-0.17318846 0.043012526 -0.079840295 0.11121255 0.015069589 -0.15689577 0.0016894115 -0.0571602
-0.11670349 -0.082260765 -0.10756213 0.1076998 0.09039466 -0.23720135 -0.043272305 0.097473375
0.07312928 0.058770325 -0.01882818 -0.12164162 0.08013351 0.16177765 -0.063787766 -0.3798759
-0.037317306 -0.019977566 -0.0886264 0.0604497 -0.25475925 0.038181834 0.0021005105 -0.12496948
-0.0352725 -0.09394591 -0.25184572 -0.10545566 0.13351016 -0.065809384 0.110787064 -0.10628259
0.006035971 0.003601307 0.13721587 -0.2029555 -0.18086047 -0.10432899 0.013504494 0.27802202
0.11045662 -0.040186096 0.035702035 -0.058167703 0.16611925 0.16852878 -0.09250729 0.116385706
-0.18034159 -0.29044694 -0.07261611 -0.29086664 -0.016794533 0.063264444 -0.07989581 -0.2206809
0.004106927 -0.06534463 -0.025909489 0.15120412 0.07513078 0.11525767 0.058814205 -0.29778558
-0.062574714 -0.18305336 -0.03741528 0.20800006 0.1040599 -0.2094729 -0.23030505 0.1407046
-0.041791875 -0.07544616 -0.0022910612 -0.12683329 0.050389025 -0.11284296 0.20596193 -0.29783997
00000000: bbac f43c d46f 24be 4cd2 63be a754 30be
00000010: 804b c83d 5a93 c73d bb25 273e 8e7e 08bd
00000020: 6528 4bbe 3bd0 91bd aa40 ce3d a575 d3bc
00000030: 5025 17be 9caa 47bc f137 e1bd b507 91bc
00000040: 0814 9bbe 46bf 30be 8b65 623e 7d5f 4a3e
00000050: cee3 86bc 0bae f3bd 87b6 84bc efc5 593e
00000060: a624 673e 1797 e83d a0a4 c1bd e7dd 1d3e
00000070: 0279 55be ac2d 003d efdc 193d 69dd 9fbe
00000080: df3c 20be cf7d bdbe 52c6 173e e3b0 9abe
00000090: d97a ecbd b2d3 cabd df17 133d 3713 9dbe
000000a0: 5158 31be e72d 303d 4f83 a3bd 68c3 e33d
000000b0: 70e6 763c 49a9 20be 3e6f dd3a d020 6abd
000000c0: 3d02 efbd 5578 a8bd 8949 dcbd b691 dc3d
000000d0: d620 b93d e9e4 72be 4d3e 31bd 1fa0 c73d
000000e0: cec4 953d 27b9 703d 8e3d 9abc 3e1f f9bd
000000f0: 0a1d a43d 0aa9 253e 29a3 82bd 187f c2be
00000100: 08da 18bd fea7 a3bc c281 b5bd 1b9a 773d
00000110: ce6f 82be 8e64 1c3d b8a8 093b 00f0 ffbd
00000120: e679 10bd b766 c0bd ecf1 80be 23f9 d7bd
00000130: e3b6 083e 12c7 86bd 54e4 e23d b0aa d9bd
00000140: 65c9 c53b e803 6c3b 5182 0c3e 91d3 4fbe
00000150: 7d33 39be 70aa d5bd f441 5d3c e758 8e3e
00000160: 1537 e23d 2d9a 24bd 4c3c 123d 4241 6ebd
00000170: 2a1b 2a3e cf92 2c3e 7674 bdbd a15b ee3d
00000180: 77ab 38be 76b5 94be c1b7 94bd 79ec 94be
00000190: b094 89bc ca90 813d 6aa0 a3bd 2dfa 61be
000001a0: 6793 863b 68d3 85bd 2340 d4bc 41d5 1a3e
000001b0: 2bde 993d 370c ec3d 2ae7 703d 5a77 98be
000001c0: 2c27 80bd 5772 3bbe c440 19bd f8fd 543e
000001d0: 5b1d d53d 1080 56be 16d5 6bbe de14 103e
000001e0: f52d 2bbd 8483 9abd a125 16bb 96e0 01be
000001f0: b964 4e3d 361a e7bd afe7 523e 7b7e 98be

layer_norm.weight f4 [32]
0.9457252 0.7646356 0.83173233 0.8486943 0.9428387 0.8891086 1.0571795 0.64961237
0.7649063 0.9315341 0.858878 0.7760244 0.879209 0.96695596 1.0001556 0.8711663
0.83688515 0.84747505 1.0231903 0.9828964 0.96152985 0.83646244 0.8706351 0.9256601
1.0261425 1.0189893 1.053807 0.9525065 0.87827027 1.022887 1.0282631 0.8232795
00000000: 0c1b 723f 29bf 433f 69ec 543f 0844 593f
00000010: e15d 713f 9f9c 633f a851 873f ff4c 263f
00000020: e6d0 433f 0579 6e3f 6edf 5b3f 89a9 463f
00000030: d713 613f 6d8a 773f 1905 803f c104 5f3f
00000040: 1b3e 563f 20f4 583f e6f7 823f 199f 7b3f
00000050: d226 763f 6722 563f f1e1 5e3f 0ff8 6c3f
00000060: a358 833f 3e6e 823f 26e3 863f 77d7 733f
00000070: 52d6 603f f6ed 823f 209e 833f 72c2 523f

layer_norm.bias f4 [32]
0.011721365 -0.085190766 0.056956615 -0.028325206 0.007701828 -0.059993535 0.031540316 -0.18116319
0.13165672 -0.007975921 0.14255252 0.19671035 0.043878675 0.03228893 0.030235704 -0.028544687
0.011394061 0.0047334926 0.03199897 0.007999819 -0.049186315 0.046734743 0.07187912 -0.035855394
0.023254544 0.015496489 0.011524488 0.08538958 -0.09656674 0.008578893 0.044601902 -0.0077302004
00000000: f80a 403c 7f78 aebd 574b 693d 430a e8bc
00000010: 9e5f fc3b c8bb 75bd 6b30 013d d882 39be
00000020: 05d1 063e 70ad 02bc 4af9 113e 706e 493e
00000030: 20ba 333d 6641 043d deb0 f73c 8cd6 e9bc
00000040: 28ae 3a3c 6a1b 9b3b 5a11 033d ac11 033c
00000050: 9777 49bd ee6c 3f3d 5c35 933d 1bdd 12bd
00000060: 5080 be3c fce4 7d3c 35d1 3c3c bbe0 ae3d
00000070: c8c4 c5bd 7c8e 0c3c 7cb0 363d 9f4d fdbb

linear1.weight f4 [32, 32]
0.019522868 0.16787769 -0.06162743 0.06913706 -0.090361126 -0.004388264 -0.05017795 -0.13034359
0.1048693 -0.0037335835 -0.102150545 -0.048597615 -0.061433803 0.19894506 -0.008305415 -0.021002157
-0.00579817 0.21642756 -0.10624147 -0.14158492 0.075045094 -0.03895311 0.14683248 -0.013708968
-0.24707112 -0.08000159 0.07098919 -0.15322438 0.0054950197 -0.15181524 -0.1122617 -0.028990593
0.11956677 -0.04706383 -0.14662333 -0.06776275 -0.063643984 0.04915396 -0.040727865 0.0762472
-0.114949316 -0.13410088 -0.080029644 0.030759076 0.063841045 0.1356269 0.16302589 -0.032160457
0.008466473 -0.11300383 0.19236283 -0.06235635 -0.15040874 -0.038873382 -0.02260799 0.21218078
0.18451414 -0.13425785 0.06411588 0.15697163 0.034857463 -0.058422178 0.01695628 0.033636406
-0.062073037 -0.04272188 -0.19045213 0.084479995 0.18214792 -0.012470643 -0.22731648 0.036336016
0.0005428935 -0.1011203 0.2163892 -0.07398623 0.17992823 -0.069037944 -0.066522196 0.032705557
0.04905326 -0.20136765 -0.065695375 0.05618203 -0.028569855 -0.23056282 -0.065055475 0.006791313
-0.05818708 -0.07288615 -0.2144721 0.08597649 -0.27211553 0.03118712 0.25976998 -0.14058918
-0.03975689 0.13512613 0.03894562 0.012088895 -0.23843561 0.043245282 -0.121693954 0.03337511
-0.112939976 0.04144839 -0.09657209 0.02317951 -0.0005668164 -0.058263082 0.13386819 0.034066226
-0.11353088 0.02902271 0.14389014 -0.23677629 -0.008969379 0.119598806 -0.049676105 0.14268064
-0.051743276 0.17259188 -0.073987566 -0.22369471 0.13547413 0.050444216 -0.0013696658 -0.17758158
0.20988175 0.19664337 0.0019974995 0.03251659 -0.03833052 0.14974958 0.044198178 0.11439218
0.07847418 -0.0031519895 0.027204856 0.021633858 -0.17259847 -0.15890536 0.17775333 -0.04257772
-0.3320602 0.023883661 -0.15861493 -0.22163278 0.08502828 -0.1998327 -0.008056088 0.099464595
-0.18355146 0.11510523 0.25600109 0.06662146 0.03808267 0.15861934 0.06701106 -0.18143927
-0.032827538 0.04422413 -0.054424915 -0.11476055 -0.16498959 -0.20846279 0.11182756 0.07580137
0.098060966 -0.051707324 0.1325153 -0.1786636 -0.20127177 0.025465285 0.0374094 -0.06916491
0.07895692 0.017275982 -0.08194946 -0.07213332 0.15761504 -0.0369555 -0.10815284 -0.060331307
-0.13247035 -0.08238839 -0.031543877 -0.010803089 -0.024385387 -0.072332345 0.043557603 0.13067438
0.10116022 -0.08202754 0.0065613855 0.080002286 -0.07783167 0.18612096 -0.11294608 0.17611207
-0.0035214126 0.0032241435 -0.07905434 -0.045528322 -0.1575748 0.036564685 -0.062306978 -0.11884061
-0.18917131 -0.13467993 0.112885214 0.122271635 -0.047117606 -0.016844848 0.15026852 -0.07396501
-0.013823533 -0.056317642 -0.030900016 -0.044877246 -0.2045933 0.08574623 0.07997447 -0.14475702
-0.120688476 0.042904787 -0.17388424 -0.088488795 -0.079359144 0.15851164 -0.14728066 -0.14004612
-0.04353797 -0.11454293 -0.06742398 0.071395166 -0.03943354 -0.095130086 -0.11341087 -0.18841536
-0.05119395 -0.012913703 -0.113650516 0.0126304105 -0.08503459 -0.0012057875 -0.033564664 -0.11492673
-0.10406621 -0.11258874 -0.10472656 0.05952638 -0.018814757 0.11345067 -0.14486772 -0.09909531
00000000: 6cee 9f3c 21e8 2b3e 0b6d 7cbd bb97 8d3d
00000010: 410f b9bd 6dcb 8fbb 6587 4dbd ca78 05be
00000020: b7c5 d63d 23af 74bb 4e34 d1bd 4b0e 47bd
00000030: 03a2 7bbd 41b8 4b3e 6f13 08bc b70c acbc
00000040: 93fe bdbb 309f 5d3e 2195 d9bd a3fb 10be
00000050: 3eb1 993d 4c8d 1fbd 415b 163e 949b 60bc
00000060: 3600 7dbe e0d7 a3bd c862 913d dae6 1cbe
00000070: 910f b43b 7475 1bbe 76e9 e5bd ae7d edbc
00000080: 6cdf f43d 01c6 40bd 6d24 16be 32c7 8abd
00000090: c757 82bd aa55 493d 43d2 26bd 7e27 9c3d
000000a0: 8c6a ebbd be51 09be 95e6 a3bd 75fa fb3c
000000b0: 18bf 823d c7e1 0a3e 42f0 263e afba 03bd
000000c0: f6b6 0a3c 8d6e e7bd c3fa 443e 5f69 7fbd
000000d0: c004 1abe b239 1fbd 6434 b9bc eb45 593e
000000e0: 46f1 3c3e e47a 09be 304f 833d 2cbd 203e
000000f0: b3c6 0e3d 184c 6fbd e6e7 8a3c 54c6 093d
00000100: 4c40 7ebd 23fd 2ebd e205 43be d903 ad3d
00000110: fc84 3a3e ab51 4cbc a7c5 68be 13d5 143d
00000120: f750 0e3a 2918 cfbd 2195 5d3e 1886 97bd
00000130: 1b3f 383e c463 8dbd ca3c 88bd 43f6 053d
00000140: 12ec 483d 5233 4ebe 4c8b 86bd 211f 663d
00000150: 540b eabc a918 6cbe ce3b 85bd aa89 de3b
00000160: 9355 6ebd 5545 95bd 939e 5bbe 7114 b03d
00000170: ba52 8bbe 227c ff3c 9200 853e 9cf6 0fbe
00000180: 1fd8 22bd 815e 0a3e 7185 1f3d 8010 463c
00000190: 7728 74be f721 313d ae3a f9bd 57b4 083d
000001a0: 134d e7bd c9c5 293d 97c7 c5bd f5e2 bd3c
000001b0: 6896 14ba 45a5 6ebd be14 093e 0789 0b3d
000001c0: e182 e8bd 09c1 ed3c f057 133e 7c75 72be
000001d0: 4df4 12bc 38f0 f43d 2c79 4bbd e01a 123e
000001e0: c2f0 53bd edbb 303e cb86 97bd 3a10 65be
000001f0: bbb9 0a3e 989e 4e3d 5c86 b3ba f2d7 35be
00000200: 3eeb 563e e15c 493e 7be8 023b 1e30 053d
00000210: 7700 1dbd f457 193e 2609 353d 7346 ea3d
00000220: 12b7 a03d 9c91 4ebb b8dc de3c 7d39 b13c
00000230: a7bd 30be 16b8 22be f804 363e fa65 2ebd
00000240: cb03 aabe aba7 c33c f46b 22be b4f3 62be
00000250: 4f23 ae3d f1a0 4cbe affd 03bc 18b4 cb3d
00000260: eaf4 3bbe 4abc eb3d 9312 833e d570 883d
00000270: 93fc 1b3d 1c6d 223e 183d 893d 37cb 39be
00000280: 2b76 06bd 5d24 353d a9ec 5ebd 9407 ebbd
00000290: 08f3 28be 4577 55be d905 e53d c03d 9b3d
000002a0: 30d4 c83d 0fcb 53bd 17b2 073e 97f3 36be
000002b0: 301a 4ebe 939c d03c 993a 193d 55a6 8dbd
000002c0: 2ab4 a13d 5c86 8d3c 1ed5 a7bd a2ba 93bd
000002d0: d665 213e a65e 17bd 3c7f ddbd f61d 77bd
000002e0: 4fa6 07be 3fbb a8bd 2734 01bd 70ff 30bc
000002f0: ddc3 c7bc fb22 94bd 7569 323d 81cf 053e
00000300: 172d cf3d 0efe a7bd e400 d73b 3dd8 a33d
00000310: 3666 9fbd 7e96 3e3e 4650 e7bd b956 343e
00000320: 80c7 66bb 274c 533b 3ee7 a1bd e87b 3abd
00000330: 4a5b 21be dac4 153d 9a35 7fbd b562 f3bd
00000340: 20b6 41be 89e9 09be 5d30 e73d 8d69 fa3d
00000350: 64fe 40bd 35fe 89bc fedf 193e f87a 97bd
00000360: 1a7c 62bc 54ad 66bd 0822 fdbc 34d1 37bd
00000370: e880 51be b89b af3d a8c9 a33d 2f3b 14be
00000380: 852b f7bd eebc 2f3d b60e 32be 9d39 b5bd
00000390: 0c87 a2bd e050 223e bed0 16be 4068 0fbe
000003a0: df54 32bd 7c95 eabd 9515 8abd a137 923d
000003b0: 1085 21bd 90d3 c2bd f543 e8bd f5ef 40be
000003c0: bfb0 51bd ff93 53bc 9ac1 e8bd c8ef 4e3c
000003d0: 9d26 aebd 840b 9eba 1a7b 09bd b55e ebbd
000003e0: aa20 d5bd ed94 e6bd e17a d6bd efd1 733d
000003f0: 6821 9abc d358 e83d 3458 14be 7bf2 cabd

linear1.bias f4 [32]
0.09241189 -0.1170656 0.026891569 0.10085582 0.05220346 -0.111868896 0.08062149 -0.2085696
-0.0063989577 -0.16689546 -0.08721732 -0.12571616 -0.18232201 -0.018314416 0.17874052 -0.1362546
-0.0905983 0.10065008 -0.051844455 0.12081719 0.119587384 0.14207196 0.05371955 -0.20111799
0.006665048 0.0038626725 -0.06347765 -0.06949759 -0.1611728 -0.15077509 -0.07901396 -0.09564594
00000000: 7242 bd3d 17c0 efbd b54b dc3c 7f8d ce3d
00000010: 4cd3 553d 851b e5bd e11c a53d 4593 55be
00000020: 59ae d1bb a5e6 2abe ff9e b2bd bdbb 00be
00000030: 9fb2 3abe 1d08 96bc c107 373e 5386 0bbe
00000040: 9a8b b9bd a121 ce3d da5a 54bd 016f f73d
00000050: 3bea f43d 507b 113e 0809 5c3d e0f1 4dbe
00000060: 7a66 da3b e424 7d3b 9200 82bd c154 8ebd
00000070: 7c0a 25be c964 1abe 12d2 a1bd 05e2 c3bd

linear2.weight f4 [1, 32]
-0.10454862 0.050078213 0.12374798 -0.052699845 -0.04989338 -0.026937118 0.016053926 0.024532286
0.008581392 -0.054010678 0.015252442 -0.0054152855 0.019496456 -0.060178198 0.022319734 0.015214609
0.15762404 -0.047627497 0.075385064 0.17185283 -0.15401109 0.051107377 0.09585156 0.21913113
-0.0471657 0.00429743 0.01917278 0.04850508 0.104269035 -0.0454976 -0.126413 -0.07295388
00000000: 961d d6bd d01e 4d3d 956f fd3d cbdb 57bd
00000010: 005d 4cbd 3bab dcbc 8683 833c eff7 c83c
00000020: f798 0c3c 4d3a 5dbd 61e5 793c b572 b1bb
00000030: 08b7 9f3c 6a7d 76bd e0d7 b63c b246 793c
00000040: 3268 213e 0d15 43bd 7c63 9a3d 30fa 2f3e
00000050: 15b5 1dbe f855 513d d34d c43d e963 603e
00000060: d230 41bd 75d1 8c3b 3c10 9d3c 43ad 463d
00000070: 018b d53d b15b 3abd 6972 01be d868 95bd
