labml_nn/lstm/LSTM_THz/model_combine_318r1_13.pth (torch, 26025 bytes, 9 tensors)

lstm.weight_ih_l0 f4 [128, 1]
000000 cc e7 49 3e f3 26 ec 3d 84 e4 f4 3d 5d 37 3b 3e
       0.1971733 0.115308665 0.119576484 0.18282838
000010 8c 54 de be e2 1d 36 be 34 fb 27 bd 0c 3b 9c 3e
       -0.4342388 -0.17784837 -0.04101105 0.305138
000020 17 f0 78 be bb 80 58 3c 7d 06 8c be 4a ef 9c 3d
       -0.24310337 0.0132142855 -0.273487 0.07662828
000030 02 6e b9 bd 2c e0 2e 3e 46 d5 69 3e b1 88 21 bd
       -0.090541855 0.17077702 0.22835264 -0.039437
000040 e7 be cf 3e 1d b8 33 be c1 4a 38 be 5a e1 c4 bc
       0.40575334 -0.17550702 -0.17997266 -0.024033237
000050 cf 8a 87 bc 77 2c 6f be 50 6a 35 3e 33 ac a5 3e
       -0.016545681 -0.23356806 0.17716336 0.3235794
000060 d9 9c ed bd ec 01 83 3e 95 1f b2 3e 52 65 4b be
       -0.11602182 0.25587404 0.3478972 -0.1986287
000070 ec d6 25 3e 7b c6 d3 3a 29 4d b0 3e c1 86 c6 bd
       0.16195267 0.0016157174 0.3443387 -0.09693671
000080 7a 46 6b 3e 16 75 16 be 84 63 03 3e 3f 79 05 be
       0.22976103 -0.14693102 0.12830931 -0.13034533
000090 5f 80 a0 be 98 36 b3 bb b6 5f 9b be 63 3b 50 3e
       -0.3134794 -0.0054691546 -0.3034646 0.20335154
0000a0 03 b5 0c be 9d ef bc bd 12 ae a7 bd 7f ed 65 bd
       -0.13740925 -0.0922539 -0.08187498 -0.056134697
0000b0 bc 0b 21 be 48 8d bb 3d 36 99 97 3d d4 ab 5e bc
       -0.15727133 0.09157807 0.074022695 -0.013590772
0000c0 e8 ae 03 3f db 68 fd 3d 49 0b e6 bd 0b 2d 3a 3d
       0.5143876 0.12373515 -0.11232621 0.045453113
0000d0 4d 42 d8 3d a3 61 24 be da 66 94 3e 28 79 a7 3e
       0.10559521 -0.1605287 0.2898472 0.32709622
0000e0 e0 0c 04 be 36 29 da 3c 77 75 3c 3e a8 f6 9d be
       -0.12895536 0.026630979 0.18404184 -0.30852246
0000f0 99 4b 2f 3e e6 e0 72 3e fe 5b 50 3e a0 0f 2c 3d
       0.17118682 0.23718604 0.20347592 0.04200709
000100 e0 15 4c 3e 07 3d 8f bb 8c 3c a6 3e 6d 44 f9 bd
       0.1993022 -0.0043712887 0.3246807 -0.12171254
000110 08 cc 82 3d e3 b7 85 be fb e5 83 be 06 8e bd 3e
       0.06386572 -0.26116857 -0.257614 0.37022418
000120 ac 70 ea 3d 4a 4f 88 bd 7f 1b 81 be aa ff 6c 3e
       0.11447272 -0.06655748 -0.2521629 0.23144403
000130 6f e5 63 3e 87 18 2f be 25 d7 44 3e fe 66 db be
       0.2225549 -0.170992 0.19222696 -0.42852014
000140 f5 94 2c 3e e1 5a 5c 3e 3a ec 9b be da ae 9b 3d
       0.16853698 0.21519043 -0.30453664 0.0760171
000150 47 7a d5 be 61 1c 88 be 03 6f 33 bb 19 6b d7 3e
       -0.41694853 -0.2658415 -0.00273794 0.42073897
000160 8a cc 05 be d7 31 37 bd 4d 88 63 be f0 7e 9d 3e
       -0.13066307 -0.044725265 -0.22219963 0.30760908
000170 2c ea dc 3e 0b e4 8d 3e 07 10 06 be 79 d8 9c be
       0.4314741 0.27713045 -0.13092051 -0.30633906
000180 9d 0e b1 bc f5 55 aa 3d 73 c8 41 3e a6 6f 51 be
       -0.021613413 0.08317176 0.18924122 -0.20452747
000190 23 55 f4 be 6f 48 a4 bd cc 91 41 be ab b6 50 3d
       -0.47721204 -0.08021628 -0.18903273 0.050955456
0001a0 57 7b 18 be 28 e2 5e 3e dd 15 f0 bd 15 ff 26 3e
       -0.148908 0.2176596 -0.1172292 0.16308244
0001b0 7b 01 1b bd df e1 93 3d 17 57 98 3e 3c 88 b3 3d
       -0.03784321 0.07220816 0.29753944 0.08766219
0001c0 d9 10 d9 3e 56 3a 9e bc 6c e0 44 be bd 87 4a be
       0.42395666 -0.019314926 -0.19226235 -0.19778343
0001d0 90 6e e6 3d cf a3 a5 be 1a fa 65 3e 1c 98 b5 3e
       0.11251557 -0.3235154 0.22458687 0.35467613
0001e0 ac 83 d5 bd 9c 86 11 bd 32 c5 7d 3d 68 3c 61 be
       -0.10425505 -0.035528764 0.06195564 -0.219957
0001f0 73 23 0a 3d 28 32 6c 3d e6 37 97 3e 8a f6 e9 bd
       0.033725213 0.05766502 0.29534835 -0.11423977

lstm.weight_hh_l0 f4 [128, 32]
000000 6d 9f 63 3d 12 4a 95 bd 2e 1f 22 be 40 ad 72 3e
       0.055571962 -0.072895184 -0.15832207 0.23698902
000010 cf 6f 3b 3e 82 27 d2 bd 68 d5 e6 bd 7b 9a c6 3c
       0.1830437 -0.10261442 -0.11271173 0.024243584
000020 44 01 13 be 90 d4 62 3d af a6 d7 3d 8f 67 04 bd
       -0.14355952 0.055378497 0.10529839 -0.032325324
000030 38 66 0a 3e 04 07 f5 bc 0d 25 d9 3c 0e b1 01 3e
       0.13515556 -0.029910572 0.026506925 0.12665197
000040 7e c5 cb bd 26 e2 41 bd a0 73 4a bd 47 80 82 bd
       -0.09949778 -0.047334813 -0.049426675 -0.06372123
000050 33 c1 53 3e cd d9 4a bd ad 00 de 3d 48 db b3 bc
       0.20679168 -0.049524117 0.10839973 -0.021955147
000060 b8 d7 71 3c f3 5d a9 bc 10 e0 50 3e 40 2b f4 3d
       0.014760904 -0.020674681 0.20397973 0.11922312
000070 a5 f8 a8 be 53 87 a2 bc c0 28 6b 3e 6a c7 a8 3e
       -0.330022 -0.019839918 0.22964764 0.3296464
000080 81 c7 56 bc 31 d8 66 be 6f 44 ce 3d e6 a1 35 3c
       -0.013109089 -0.22543408 0.100716464 0.011085963
000090 23 70 64 bb d0 eb 81 be b1 9e 3c 3e 2e 20 7e be
       -0.0034856878 -0.25375223 0.18419911 -0.24816963
0000a0 b3 c6 8d 3e 33 58 c5 3d bc 06 56 be fe 72 ae be
       0.27690658 0.09635963 -0.20901006 -0.34072107
0000b0 8e 7a a1 3e 0f 07 a9 3e f7 a9 49 3e 7f 81 b0 3d
       0.31538814 0.33013198 0.19693743 0.086184494
0000c0 f9 05 a1 bd 18 ba d3 bd cb 8a 34 be 35 a6 fe 3d
       -0.07862467 -0.10338229 -0.1763107 0.12434045
0000d0 ef e2 51 be ab 1e 84 be 31 dc b5 3d 29 8c f9 3d
       -0.20496725 -0.25804648 0.08879889 0.121849366
0000e0 49 e9 9d 3d a5 b2 42 be dc 3a c6 3c b5 16 87 3d
       0.07710511 -0.1901346 0.024197988 0.06596128
0000f0 c6 d2 dc bd e5 78 ac bd d1 e1 62 3e e0 bc d0 3d
       -0.10782389 -0.08421496 0.22156455 0.10192275
000100 59 63 20 be f8 04 c5 bd e3 6d 12 3e 6b 8e 03 3d
       -0.15662898 -0.09620088 0.14299731 0.032118242
000110 1b 71 07 bc d3 0d af 3d 16 49 ba 3e b1 a1 67 be
       -0.008266713 0.08547559 0.36383885 -0.22620274
000120 02 31 fc 3d 2a 3a 95 3d 87 c4 51 bd 40 ac 94 bc
       0.12314035 0.072864845 -0.051212814 -0.018148541
000130 d9 6e 89 bd 84 28 c8 3d ed af 4d 3d c2 48 f1 3d
       -0.06710596 0.09773353 0.050216604 0.117814556
000140 e6 72 82 bc 22 87 54 bd 88 d8 01 3d 09 3b 4f 3e
       -0.015923928 -0.051886685 0.03170064 0.20237364
000150 04 e1 50 3e 92 5f c5 bd 2a bb 2a be 77 b8 81 3c
       0.20398337 -0.09637369 -0.1667296 0.01583503
000160 12 dd d1 3c 48 68 72 3d 7b 39 92 3d d0 7d 15 3e
       0.02561811 0.05918148 0.0713987 0.14598775
000170 79 ad 0d 3d c0 a8 64 be 09 6e 0d 3e 59 d0 8a 3d
       0.034589265 -0.22329998 0.13811506 0.067780204
000180 59 17 54 be 36 d8 1e 3e 52 10 50 bd 97 da 6f bd
       -0.20712031 0.15512165 -0.050796814 -0.058558073
000190 88 b9 49 3d 20 12 d1 3d c4 be 75 bd af 20 a3 bd
       0.049249202 0.10208535 -0.05999638 -0.07965218
0001a0 5a b8 0e 3d a7 63 7c be 49 e7 08 3e 35 c7 31 be
       0.03484378 -0.2464739 0.13369478 -0.17361148
0001b0 d5 f2 40 3e e1 f3 94 3e 55 a0 f2 bb 32 dc 8c 3d
       0.18842633 0.29092315 -0.007404367 0.068779364
0001c0 46 ab 01 be 57 ed 31 3e ef 44 5d be 6c 9f 87 3d
       -0.12662992 0.17375694 -0.21608327 0.06622204
0001d0 9d 17 ab 3c e2 e9 75 bd 08 1b 9e bd 96 4c fd 3d
       0.020885283 -0.0600375 -0.077199996 0.12368123
0001e0 40 79 a5 be 65 6e 0b 3d 0c a7 71 bd 16 41 ff 3d
       -0.3231907 0.034040827 -0.0589972 0.12463586
0001f0 0d 69 19 be d0 a9 3f bd 16 34 4e 3e 0c c4 d5 3d
       -0.1498148 -0.046792805 0.20137057 0.104377836
000200 c0 21 88 be 2a 7f 5b bd 3e 41 f3 bd 4e ce 8d 3e
       -0.2658825 -0.05358807 -0.11877678 0.2769646
000210 5f 07 6c be c9 1b 0c be 89 b8 f0 be 39 98 ec bd
       -0.23049687 -0.13682474 -0.4701579 -0.11552472
000220 ca 9a 10 3e f6 ee 82 be 46 62 bf bd 69 a9 f2 bb
       0.14121547 -0.25572938 -0.09344916 -0.007405449
000230 c2 12 31 3e 09 bd a2 3d 80 82 6a be be b1 9a 3e
       0.17292312 0.07946212 -0.22901344 0.30213732
000240 f2 2a 92 be 92 13 8a 3d 56 96 83 be 0a 46 81 3e
       -0.2854839 0.06742014 -0.25700635 0.25248748
000250 48 43 9c 3e 3f ec 89 3c 06 f0 82 be 5c e5 bc be
       0.30520082 0.016836284 -0.25573748 -0.36893737
000260 43 69 45 3e 6b f6 23 3d 3e 7e b7 3e 71 bf 92 3e
       0.19278435 0.040029924 0.35838503 0.28661683
000270 81 6f 85 bd fd 53 6c bc 2c f6 3b 3e 88 f0 c9 3e
       -0.06515408 -0.014424321 0.18355626 0.39441323
000280 a3 35 f4 3d 56 f3 81 bd a0 bb 22 3c ce c8 4f 3c
       0.11924293 -0.06345241 0.009932429 0.012682153
000290 85 43 ea bd f5 fd 21 bd b6 de 1b 3e 15 1b 0b 3e
       -0.114386596 -0.039548833 0.15221676 0.1358455
0002a0 fb 15 55 3d 57 77 ec 3d 8f 1c 22 b8 4d ea 12 3c
       0.052022915 0.115462 -3.8650407e-05 0.0089669945
0002b0 17 94 47 3d 59 43 df bc 80 e6 71 3e cd 6d 60 be
       0.048725214 -0.027253794 0.23623085 -0.21916886
0002c0 35 4b 79 3b 17 47 b2 bd 8b a7 a6 39 33 05 ca bd
       0.0038039212 -0.087049656 0.00031786817 -0.09864273
0002d0 a1 13 fa bd 7c b7 c3 bd 65 78 e5 bd 9d fd 74 3e
       -0.12210775 -0.09556481 -0.11204604 0.23924871
0002e0 7c b1 5f 3e c9 00 e6 bd 90 b7 61 3d 75 80 49 3e
       0.21845049 -0.112306185 0.0551067 0.19677909
0002f0 a9 3a 79 3d c6 e2 0f be de 32 1c bd 21 67 91 be
       0.06084696 -0.14051351 -0.03813445 -0.28398994
000300 e5 04 16 be b3 70 3a be 39 0c 62 3d bb 0e 78 3e
       -0.14650305 -0.18207054 0.055187438 0.24224369
000310 46 17 3d be 11 05 07 be 9d 45 e4 bd 8e 35 d5 bd
       -0.1846591 -0.13185526 -0.1114609 -0.10410605
000320 b9 63 7b 3a b3 ef 5d bd 94 a7 9c bc b7 21 62 bc
       0.000958975 -0.054183673 -0.019122876 -0.013801984
000330 a9 bb dc 3d 38 9b 2c 3e 1c 8b 98 be b7 7a f0 bd
       0.10777981 0.16856086 -0.29793632 -0.11742156
000340 6c 4e 21 be 6b 81 83 3e ee 2b 15 be 7d d8 b6 bc
       -0.15752572 0.25684676 -0.14567539 -0.022320027
000350 97 78 a7 3e f2 73 bd bd d4 24 28 be 7f 0c 3d be
       0.3270919 -0.092506304 -0.16420299 -0.18461798
000360 f6 5e 3b be ab e9 1a 3e 3e 3e 4a 39 39 5d 3d 3d
       -0.18297943 0.151282 0.00019287408 0.046231482
000370 9a 6f fe ba 16 57 a0 3e e0 c4 6d bd 60 f5 58 3d
       -0.0019411922 0.3131644 -0.058049083 0.052968383
000380 16 26 81 be 78 7f 52 be 4b ca c6 3e 47 54 df 3d
       -0.2522437 -0.20556438 0.38826212 0.109047465
000390 85 e7 db bc 3f 2b 6c be 53 63 45 be a2 3d 8c bd
       -0.026843796 -0.23063372 -0.1927617 -0.06847693
0003a0 b2 47 28 bd d4 12 96 bd f2 0c 2c be bf a5 d8 bd
       -0.041084 -0.0732781 -0.16801813 -0.105784886
0003b0 16 78 08 3e b4 b8 78 3e 7d 98 f6 bc 8d 55 ee bc
       0.13327059 0.24289209 -0.030102009 -0.029093528
0003c0 ae 9c 5d be 76 2e 65 3e 8b d3 49 be 30 8a 2f 3e
       -0.216418 0.22381005 -0.19709603 0.17142558
0003d0 aa 72 ba 3d f0 5d 16 be 8a ba fa 3d f0 ef c6 bd
       0.09103902 -0.14684272 0.12242611 -0.09713733
0003e0 1c 5e 81 be 11 51 3a be 2c 02 70 bd 36 94 8b 3e
       -0.25267112 -0.18194987 -0.05859582 0.27261513
0003f0 6c 56 02 be 8e 6d 64 bd 2b 43 06 3d fe 5f 31 3e
       -0.1272828 -0.055768542 0.0327789 0.17321774

lstm.bias_ih_l0 f4 [128]
000000 42 e8 02 be aa be fe bc 01 fb 10 bd d1 c4 44 be
       -0.12783912 -0.031096775 -0.035395626 -0.19215705
000010 d4 e2 10 be b7 40 ce 3d e6 a8 33 be 3c 02 5e be
       -0.14149028 0.10070937 -0.17544898 -0.2168054
000020 1a 92 8b 3d a9 c8 ec bd 10 11 3a be 3f 21 c7 3b
       0.06814976 -0.115617104 -0.18170571 0.0060769613
000030 de 0a d8 3c d6 01 f7 bd 12 c7 be 3c 39 6e 25 bc
       0.02637237 -0.12060897 0.023288283 -0.01009708
000040 64 4f 16 3e 94 f1 d5 3d a6 53 38 be 99 4b 81 bc
       0.14678723 0.10446468 -0.1800066 -0.015783118
000050 2c 35 f5 bd d5 17 fc bd 84 85 16 bd f1 e8 d5 3d
       -0.11973032 -0.12309233 -0.036748424 0.10444821
000060 10 af 97 be b5 fd 37 be 53 c2 76 3d 6f e5 33 3e
       -0.2962575 -0.17967875 0.060243916 0.1756799
000070 a0 c2 d5 3c 26 58 8e be 51 82 7b be 6d e7 4f 3d
       0.026093781 -0.27801627 -0.2456143 0.050757814
000080 df 0f 67 bb 8c 85 a0 3b cc 6e 98 3d 69 59 a4 3d
       -0.0035257263 0.0048987325 0.07443008 0.08024866
000090 90 63 e0 bc 75 3d f5 3c c6 25 ad be 6f b5 2e be
       -0.027391225 0.029936532 -0.3381788 -0.17061399
0000a0 66 19 23 be 06 ec 94 bd f5 e8 87 3d b0 7f 02 3e
       -0.15927657 -0.072715804 0.0663623 0.12744021
0000b0 55 88 16 3e ee 51 07 3d 45 9e 75 bd 6d 64 54 be
       0.14700444 0.03303712 -0.05996539 -0.20741434
0000c0 26 12 79 3e 99 7d be 3c f0 e6 5a be 3b 96 e8 bc
       0.2432333 0.023253249 -0.21377158 -0.028391948
0000d0 e9 54 96 be 85 1e 61 3d ed 9b 1f 3e 4c a6 51 be
       -0.29361656 0.054960746 0.15586825 -0.20473593
0000e0 5e 87 ed bd 32 0b 4f be 1f 83 de bc d4 b1 ac 3d
       -0.11598085 -0.20219114 -0.027162133 0.084323555
0000f0 fb e6 da 3b 47 b9 08 bd 56 05 b5 be 12 58 9e be
       0.006680367 -0.03337982 -0.35355633 -0.30926567
000100 8c b0 3c 3e b3 75 7c 3d f8 fe 56 bc a5 9a 66 be
       0.18426722 0.061635684 -0.013122313 -0.2251993
000110 69 0d 86 3b 9c f3 cc 3d 2a 1c 27 3e bc f5 a0 3d
       0.004090954 0.10007402 0.16319337 0.0785937
000120 d8 ce 24 bd e4 9d bc 3d 68 38 2b 3d 54 2d 47 bd
       -0.040236324 0.09209803 0.04180184 -0.048627213
000130 98 39 a7 3d 32 a4 46 bd ca 3e 22 bd ee 69 13 3d
       0.08165282 -0.048496433 -0.03961066 0.035989694
000140 c6 8f cc 3e 84 26 0f be 2b 5f d3 3d 41 63 12 be
       0.3995344 -0.13979536 0.10320886 -0.14295675
000150 32 06 ad 3a ed 86 c0 3d 58 db 45 3e ee 93 da 3d
       0.0013200699 0.09400735 0.19321954 0.106727466
000160 9b 4e 75 3d f4 30 6e bd b2 a3 14 3c 41 a4 0f be
       0.059889417 -0.058152154 0.009072231 -0.14027502
000170 b9 fd 9f 3d e0 64 ba 3d 9b c8 9b 3d df f1 2c 3d
       0.07812066 0.09101272 0.07606622 0.042222854
000180 78 43 d9 3d 3c 00 0a be 3a f5 da 3c 41 ba 0b bc
       0.10608572 -0.13476652 0.026728261 -0.008528293
000190 c5 36 0f be 29 c7 f6 bd 09 48 d6 bb 48 5d 34 be
       -0.13985737 -0.120497055 -0.006539349 -0.17613709
0001a0 f4 5b 58 bd fd 48 7d be d5 33 c6 3d 4b d3 23 be
       -0.05282207 -0.24734874 0.09677855 -0.1599857
0001b0 f0 04 f9 3d 74 7a 27 3d d6 17 d3 3d fb e0 9b bd
       0.12159145 0.040888265 0.10307281 -0.07611271
0001c0 88 29 c3 3e 54 55 4a be 46 c7 94 be 46 85 45 3d
       0.38117623 -0.19759113 -0.29058284 0.048222803
0001d0 00 81 3d be b6 24 e5 3d b0 e9 c8 bd 0c 18 f2 3d
       -0.18506241 0.11188643 -0.09810197 0.11820993
0001e0 70 3c 93 be 5a f5 cd bd 24 53 fe bc 42 09 29 3e
       -0.28757048 -0.10056563 -0.031045504 0.16507438
0001f0 19 4f 06 3e 64 fd 4a be 01 73 f9 be d8 2b 12 3d
       0.13116111 -0.19823223 -0.48720554 0.035686344

lstm.bias_hh_l0 f4 [128]
000000 6c 4b 8a 3c c3 a1 90 bc ff fd 56 bd 1c 4d 0e be
       0.016881667 -0.017655259 -0.052488323 -0.13896602
000010 13 ff 92 be 0b a8 15 bd d4 ab 9a be c3 9e 9a 3c
       -0.2871023 -0.03653721 -0.3020922 0.018874532
000020 b0 23 a9 3c 08 23 e1 3c 37 b2 5a 3d 2c 4a b0 bd
       0.0206469 0.027482525 0.053392615 -0.08607897
000030 6a 9e f1 3d 00 01 d0 bc 70 f3 1d be 3b 35 83 3e
       0.11797793 -0.025391102 -0.15424895 0.2562655
000040 18 6f 74 3e 49 dc d4 bd 1c 54 c6 bd 05 5d dd bb
       0.23870504 -0.103935786 -0.09684011 -0.0067554736
000050 9e e8 16 be c3 a9 07 3d e8 45 50 3e d5 50 2a 3e
       -0.14737174 0.03312088 0.20339167 0.16632397
000060 df 4c b5 bd 9a 78 89 be a3 eb bc 3d b8 d8 62 3c
       -0.088525526 -0.26849824 0.09224632 0.013845615
000070 73 c6 8a 3e 7f 35 e9 bd 40 b0 83 be 02 32 23 be
       0.2710453 -0.11387157 -0.25720406 -0.15937045
000080 42 a8 22 be 6d de 4f be 10 7c 1c be 04 ac d9 3c
       -0.15884498 -0.20299692 -0.15281701 0.026571281
000090 da 1d 77 bc da ce 5d 3d d5 8a b5 bd 14 86 4a be
       -0.015082801 0.054152347 -0.08864371 -0.19777709
0000a0 29 97 65 be 79 a2 3e be 65 85 63 3d b2 bb a0 3d
       -0.22420944 -0.18616666 0.055547137 0.078483
0000b0 87 b5 7c 3e 61 b9 9f bd cf 72 02 bd d0 97 0b 3d
       0.24678622 -0.0779903 -0.03184777 0.034080327
0000c0 20 0a 42 3e 70 c5 44 bd 69 e7 69 be 11 8d 52 be
       0.18949175 -0.048039854 -0.22842182 -0.20561625
0000d0 8d 51 4f bd d6 08 1c be 6f ad 1e 3c 97 e9 55 bc
       -0.050614882 -0.15237746 0.0096849045 -0.01305618
0000e0 98 63 b7 bd e1 d5 a3 3c 2f 71 2c 3d 9d 33 15 3e
       -0.08954543 0.019999446 0.042100128 0.1457047
0000f0 04 7f 8c be bd ef 32 bd 98 fe 8b be b1 89 bd bb
       -0.27440655 -0.043685663 -0.27342677 -0.0057842364
000100 38 f7 eb 3d 52 ce 32 3d 9c e7 20 3e ee ab 17 be
       0.115217626 0.043653794 0.15713352 -0.1481168
000110 99 2f 2d bd 0c 40 9b 3d 72 2b dc bb f2 d2 10 be
       -0.04228172 0.07580575 -0.0067190463 -0.14142969
000120 62 f3 1a bd ff c0 29 3e 30 a5 a1 3d e0 62 41 3d
       -0.037829764 0.16577528 0.07892835 0.047213435
000130 60 60 dc bd fb c1 bd bd 1c 3b d2 3c 5f f1 11 be
       -0.107605696 -0.092655145 0.025662951 -0.14252232
000140 af fa c4 3e f2 13 07 bd 4c ed 09 bd b9 66 9c bd
       0.38472506 -0.032978006 -0.03367357 -0.0763678
000150 df b7 68 bd d3 e4 82 3d be 0a 7c 3e 3a 15 c2 3d
       -0.05681598 0.06391301 0.24613473 0.09476705
000160 9d e2 a4 3d 7d c7 35 3d aa 35 00 be 31 b3 08 be
       0.080510356 0.0443797 -0.12520471 -0.13349606
000170 04 20 a7 bc 6f 4a e7 bd 6d 6e ec bd a7 2f 3e 3d
       -0.020401008 -0.11293494 -0.115444995 0.046432164
000180 05 89 95 3d 95 3a 52 be e4 d5 14 3e 46 f2 13 3d
       0.07301525 -0.2053016 0.14534718 0.03611972
000190 93 97 77 be f6 f8 a0 bd 3e 4e ff bd 83 d2 fb bd
       -0.24178915 -0.078599855 -0.124660954 -0.12296011
0001a0 4a f9 14 be 56 c8 83 bd 05 c8 e8 3c 42 db 92 3c
       -0.14548221 -0.064346954 0.02841569 0.017926816
0001b0 03 34 94 3c b7 0a a8 3d 3d 72 e5 3c 92 0c 05 3e
       0.018091207 0.08205169 0.028008575 0.12993076
0001c0 e2 f0 89 3e fb 0e e0 bd d2 e2 60 be c3 ee f6 bd
       0.26941592 -0.10940357 -0.21961525 -0.12057259
0001d0 58 ce 53 be 22 25 bf bd 7a 53 5c bd 76 e7 3f 3e
       -0.20684183 -0.093332544 -0.053790547 0.18740639
0001e0 8b ca 21 bc ea 2c 19 be 22 f9 36 3d 55 4a ea 3d
       -0.00987495 -0.1495854 0.044671185 0.11439959
0001f0 03 71 8c bd e2 1d 7d be 39 12 10 bf e5 09 0d be
       -0.06857493 -0.2471843 -0.56277806 -0.13773306

layer_norm.weight f4 [32]
000000 e9 83 4a 3f a4 ef 60 3f 46 a5 78 3f d8 f3 55 3f
       0.7910753 0.8786566 0.9712719 0.835752
000010 25 da 5b 3f 29 5d 7c 3f d3 d8 46 3f 4e 90 5d 3f
       0.8587974 0.9857965 0.776746 0.86548316
000020 25 5e 61 3f 02 d2 5c 3f e0 c8 73 3f 4a 4e 63 3f
       0.8803428 0.86257946 0.95228386 0.88791335
000030 e9 be 6e 3f 68 56 6d 3f 74 27 69 3f 66 f2 89 3f
       0.93260056 0.9270997 0.91075826 1.0777099
000040 fe 2c 47 3f 31 53 62 3f f5 46 6b 3f ee 93 71 3f
       0.7780303 0.8840819 0.91905147 0.9436635
000050 94 24 6a 3f 40 b6 72 3f b2 f8 59 3f d0 ba 82 3f
       0.91462064 0.9480934 0.85145104 1.0213261
000060 e1 1f 58 3f 8a 2f 4f 3f c4 4b 61 3f ca 09 7d 3f
       0.84423643 0.80931914 0.88006234 0.9884306
000070 35 05 8c 3f 97 db 3c 3f 48 d6 74 3f 63 06 74 3f
       1.0939089 0.7377257 0.9563947 0.95322245

layer_norm.bias f4 [32]
000000 34 00 b2 bd f2 fe ab bd 1b a2 4b 3d 37 06 58 3d
       -0.08691445 -0.08398236 0.049715143 0.052740302
000010 c1 f8 41 bc 92 6b 2a 3b 63 cc 05 3d 71 dd 57 bd
       -0.011839093 0.0026004058 0.03266562 -0.052701417
000020 4e 33 70 3d e7 22 a3 bd 42 9f 0c bd 0d 58 cf 3d
       0.058642678 -0.079656415 -0.034331568 0.10124216
000030 27 da 8c 3d f6 9c 6a bc 27 6b 86 bd b1 8a 3b 3c
       0.06877547 -0.014319649 -0.065634064 0.011446641
000040 c3 63 3d be 54 a7 c6 3d f6 95 a5 bd fa cf 19 3d
       -0.18495087 0.09699884 -0.080852434 0.037551858
000050 17 8e eb 3d 0f a3 65 bd 9a b1 1d be 9b aa 91 bd
       0.11501711 -0.056063708 -0.15399781 -0.071126185
000060 2e f6 68 3d 10 2a c0 bd 6f 6f cc 3d e8 2d 9a 3c
       0.0568754 -0.09383023 0.09982192 0.018820718
000070 38 c8 06 bc 8b 37 96 bd 17 e1 ac 3c 8f ac 14 3d
       -0.008226447 -0.07334813 0.021103425 0.036297377

linear1.weight f4 [32, 32]
000000 ff 2d b3 3d 75 fe fb 3d d4 7c bf bd 18 15 14 bd
       0.087490074 0.12304393 -0.09349981 -0.03615293
000010 bb fc 69 3c 23 87 d8 bd ea 6c af bd 37 ca 8f bd
       0.014281447 -0.1057265 -0.085656956 -0.07020991
000020 f9 e8 6f 3d dc fc a4 3c 90 bb 60 3b 1f 28 8f 3e
       0.05857179 0.020140104 0.0034291483 0.27960297
000030 1e 6f e9 3d 28 58 14 3d 4e fd 1e be ed 3a 2d be
       0.11398147 0.036216885 -0.15526316 -0.1691701
000040 5e 81 80 bc d6 37 1d bd 15 44 0d be 99 c1 de bd
       -0.015686687 -0.038383327 -0.13795502 -0.108767696
000050 76 29 21 bb 1c 88 f2 bd a3 7e 36 3e bf da 2e 3e
       -0.0024591363 -0.11842367 0.17821746 0.17075633
000060 75 04 fc 3d 00 84 28 be b9 77 06 be 17 21 10 3e
       0.123055376 -0.16456604 -0.13131608 0.14075123
000070 d5 99 be 3d 79 34 19 3e 7b b0 b3 39 65 9f 29 be
       0.09306685 0.14961423 0.0003427303 -0.1656471
000080 94 9d 85 bd 3d f4 13 bd ed 5c 7d 3e 0e d8 4a bd
       -0.06524196 -0.036121596 0.2474248 -0.049522452
000090 77 a2 89 bd 15 3d 3b be 74 9c 85 3d b3 12 7e bd
       -0.06720441 -0.1828502 0.06523982 -0.06202955
0000a0 9d d8 a6 bb d1 b1 15 3d 88 ab 9b bc b6 2f 83 3d
       -0.0050917403 0.036546532 -0.01900269 0.064055845
0000b0 72 29 97 3d 70 5a a5 3d 8d 55 7d 3c d7 2f a4 bd
       0.07380952 0.0807389 0.015462291 -0.08016937
0000c0 a2 76 ad bd 65 e0 3f 3e 1c ba 3a be cb 7b a0 3c
       -0.08469893 0.18737943 -0.18235058 0.01959028
0000d0 c5 47 08 3e f0 be 18 be 3f 53 16 3e ec e3 23 3d
       0.13308628 -0.14916587 0.14680193 0.040012285
0000e0 ce 67 8d 3c 08 47 b3 bc ee 5a a3 bd 74 00 12 3e
       0.017261412 -0.021884456 -0.07976328 0.14257985
0000f0 14 6a 8b 3e a8 0e 29 3e 03 63 58 bd 0d c4 9e 3d
       0.2722937 0.16509497 -0.0528288 0.077522375
000100 5d 59 17 be 09 ba 01 be bf 4e 32 3e e7 81 0c 3e
       -0.14780183 -0.12668623 0.17412852 0.13721429
000110 45 b2 e3 3c 67 4d a4 bd bd ac cd 3d d8 58 58 3d
       0.027794966 -0.08022576 0.10042713 0.052819103
000120 54 5b e8 bc 60 b4 3a be 8e 09 c5 bd 08 67 45 3e
       -0.028363861 -0.1823287 -0.09620963 0.19277585
000130 88 c2 04 3e 43 9b db bc cf 55 9e 3d 5c 8e e0 bd
       0.12964833 -0.026807433 0.077312104 -0.10964653
000140 91 0c 55 3d dd f1 82 3d 11 9b 44 3d 7a 43 09 3e
       0.052013937 0.06393788 0.047999445 0.13404647
000150 f4 e4 82 3d d6 18 a7 3a 23 93 c8 bd 4d 98 50 3d
       0.063913256 0.001274849 -0.09793689 0.050926495
000160 36 7d c2 bd d1 bd 05 be c7 05 e7 3d 63 03 4d 3d
       -0.09496538 -0.1306069 0.11280399 0.050052058
000170 59 6a a1 bd 25 b9 01 3e 3d 69 73 3d 3a 17 a6 bd
       -0.07881612 0.12668283 0.059426535 -0.08109899
000180 c1 94 74 3c aa e7 3f be 44 31 8b bd 1c 02 a2 3d
       0.014928044 -0.18740717 -0.06796506 0.079105586
000190 76 81 1a be 8b 51 09 3e 0e 00 a1 bd ba c1 ee b9
       -0.15088448 0.13410012 -0.078613386 -0.00045539235
0001a0 a6 32 dd 3a ad a2 19 3e 16 d7 00 be 1e 0a a0 bd
       0.0016876056 0.15003462 -0.12582049 -0.0781443
0001b0 bd 74 c3 3d 2c 5d 5d 3e c1 a3 ab bd 1f 87 2a 3d
       0.095437504 0.21617573 -0.08380843 0.041632768
0001c0 b8 03 e5 bd d9 92 5a 3c ce ba 23 3d 4e 99 8a ba
       -0.1118235 0.013340675 0.039973073 -0.0010574253
0001d0 7e 14 f6 bd 50 77 0e be 80 a6 90 bd 56 5d 3d be
       -0.12015627 -0.13912702 -0.07063007 -0.18492636
0001e0 85 8d da bd 5b d3 18 be 45 55 f0 bd 23 97 cc 3d
       -0.10671524 -0.14924376 -0.11735014 0.099897645
0001f0 4d fa 99 3c 89 91 87 be d4 c5 02 3e 73 87 a4 bd
       0.01879611 -0.26478222 0.12770778 -0.080336474
000200 b9 26 f7 3d 80 4c 6b 3e 5a 06 80 3d 8c 80 05 be
       0.12067933 0.22978401 0.062512115 -0.13037318
000210 5f c4 ca 3d cd 48 67 3e f6 89 4a bd 79 3f 55 3d
       0.09900736 0.22586365 -0.049447976 0.052062485
000220 fc 75 84 be e0 22 f8 bd 49 81 16 3e 02 49 06 bd
       -0.25871265 -0.12116027 0.14697756 -0.03278447
000230 90 08 12 be 45 db 48 be 7c 3c ba bd 05 08 97 3b
       -0.14261079 -0.19614895 -0.09093568 0.0046091103
000240 1a f0 2e 3d 18 20 51 be 36 7f 32 be 09 97 11 be
       0.042709447 -0.20422399 -0.1743134 -0.14217772
000250 a9 ab f3 3c fd ea 17 3e c5 2b 2a 3c 7e 4a 2a be
       0.02974494 0.14835735 0.010386412 -0.16629979
000260 32 bf c6 3c af 75 8f 3d a4 b1 19 3e 28 47 9b 3d
       0.02426109 0.07004868 0.15009171 0.07581931
000270 ae c4 70 be 05 bc 5e 3e 2e 02 00 3c 43 7a c9 3a
       -0.23512527 0.21751411 0.00781302 0.001537152
000280 f7 28 16 3e 38 48 94 3b c5 50 0f 3e 10 f9 62 bd
       0.14664064 0.0045252107 0.13995655 -0.055413306
000290 c2 98 04 3d ad 9d 0c 3e f0 c5 5e be 21 65 aa 3d
       0.032372244 0.13732024 -0.21755195 0.0832007
0002a0 33 6a 8a bd 9d f9 44 bb a9 31 2d be 5e 46 ad 3d
       -0.06758537 -0.0030056008 -0.16913475 0.08460687
0002b0 4f 94 f4 3d c1 1b 1c be fe 77 d8 3d bd 91 41 be
       0.1194235 -0.15244962 0.10569762 -0.18903251
0002c0 38 1e 37 3e f4 15 0a 3e 2f ee ad bd 3f 64 90 bd
       0.17882621 0.13484937 -0.084926955 -0.070503704
0002d0 4c 7a 62 be b1 52 07 be aa 42 4d 3a 9c 72 5c bd
       -0.22116965 -0.13215138 0.0007830063 -0.053820238
0002e0 5e 9b 3f be 25 35 4b be 4e 7f ea 3d 25 f9 eb bd
       -0.18711612 -0.19844492 0.11450063 -0.1152213
0002f0 c5 4a 8f 3e 62 7e 49 3c 52 d0 e7 3d 18 44 14 bd
       0.27986732 0.012298198 0.11319031 -0.03619775
000300 72 d0 7d bd e7 47 61 3d ce 7b 1b be f8 f1 8b be
       -0.061966367 0.055000212 -0.15183946 -0.27333045
000310 35 53 5d bd 69 fa 0a 3e 1c ed 52 bd 1d 6d 0e be
       -0.05403443 0.13572086 -0.051495656 -0.13908811
000320 6b a6 49 be ad 0d ca 3c c2 39 2f 3e 28 aa 37 be
       -0.1969239 0.024664724 0.17111877 -0.17936003
000330 98 da 81 3d b8 58 89 bb b3 e1 89 be ab 6e bb 3e
       0.063405216 -0.0041914843 -0.26930007 0.3660787
000340 aa f4 a1 3d 12 f8 e2 bd 81 f4 07 bd 66 4c ec bd
       0.07907994 -0.11082472 -0.03319216 -0.11538009
000350 29 70 83 bd 0b 20 d2 3d 3b 43 0e bd 6f f5 51 be
       -0.06417877 0.10260018 -0.034732085 -0.20503782
000360 82 ec a3 3c fc 8a 98 bd a6 12 0a 3e 37 54 20 ba
       0.020010237 -0.07448384 0.13483676 -0.00061160646
000370 19 c5 18 bf c1 96 d7 3d 0a 67 69 bd 28 41 74 3e
       -0.5967575 0.10526801 -0.05698303 0.2385298
000380 fb 04 82 3e 75 55 e3 3d a8 7e 2e bd 98 26 29 be
       0.25394425 0.11100284 -0.042601258 -0.16518629
000390 f2 04 04 bc 0a 82 d0 3b 59 51 76 be 08 0b 51 3e
       -0.00805782 0.006363158 -0.24054469 0.20414364
0003a0 23 7c 3e 3d 41 26 b2 3d 1b b0 3c 3e 1f 65 dc bc
       0.046505105 0.086987026 0.18426554 -0.026903687
0003b0 fb cf 84 bc 99 99 9f bd 03 7b c8 bc 97 3e 57 be
       -0.016212454 -0.07792968 -0.024472719 -0.2101997
0003c0 09 9a 62 3e fa ef 9c bd 39 70 8e 3d 5a e1 51 be
       0.22129072 -0.076629594 0.069549985 -0.20496121
0003d0 42 18 1f 3c 02 cd 8a bc e2 29 13 3e d8 44 12 3e
       0.009710373 -0.016943458 0.14371446 0.14284074
0003e0 21 5e 00 3d f6 4f a1 bd 3a 52 38 be f1 c9 1f be
       0.03133977 -0.078765795 -0.18000117 -0.15604378
0003f0 44 8c b5 3e c2 13 98 3e ed ae ac bc 38 96 d2 bd
       0.35458577 0.29702574 -0.021079505 -0.10282558

linear1.bias f4 [32]
000000 95 3a d5 3c 45 b2 cd bd 09 87 e9 bd e2 09 a0 bd
       0.02602891 -0.10043768 -0.11402709 -0.07814385
000010 37 fe 2c 3e b4 7c d6 bd 31 6b 02 3e c7 08 24 3e
       0.1689385 -0.10473004 0.12736203 0.16018973
000020 f9 44 29 be 40 ed b1 3d db ae e8 bd 39 2f c7 bc
       -0.16530217 0.0868783 -0.11361476 -0.02431451
000030 fc cf e2 3d 8d 16 91 3e 19 1a e5 3d ef 9e 34 3e
       0.11074826 0.28337517 0.11186618 0.17638753
000040 a5 be c4 bd 37 15 85 3d 8a 0c 73 bd 6a 99 15 3d
       -0.09606675 0.06498187 -0.05933813 0.03652326
000050 38 af d3 bd 9a ef 18 3e 17 79 d1 bd 7d 22 87 be
       -0.10336155 0.1493515 -0.10228174 -0.263935
000060 76 2e a5 bd 28 3b 2a bd c1 55 2a 3e 8c 4d 36 be
       -0.08065502 -0.041560322 0.16634275 -0.1780302
000070 43 a8 b9 bd 5c 46 82 3d 69 ec fa 3d 58 20 04 be
       -0.090652965 0.06361076 0.12252123 -0.12902963

linear2.weight f4 [1, 32]
000000 be a0 db 3d ce ad ae 3d 22 08 c2 3c 7f e3 36 3c
       0.107240185 0.08529244 0.023685519 0.011162638
000010 d6 e0 8c bd 95 40 13 3e e1 a3 4a bd 3d 32 e5 3d
       -0.068788216 0.14380105 -0.049472693 0.11191223
000020 65 33 06 be 56 70 28 bd df 72 7c 3d 31 48 21 3d
       -0.13105543 -0.041122757 0.061632987 0.039375488
000030 89 43 2f bc 26 2f 26 be 1d 3f ee bd 25 ae 51 3d
       -0.010697254 -0.16228923 -0.11633132 0.051191468
000040 72 ed a9 3d e2 57 9d bd 09 4c 94 3d 83 19 99 3d
       0.08297242 -0.07682778 0.07241065 0.07475569
000050 86 c8 47 bc ca 3e 13 bd 4d ab cd 3d 1f 5f de bc
       -0.012193805 -0.035948552 0.10042439 -0.027144967
000060 47 a2 da bc 8e bd c7 bc 91 96 bc 3d 5e c8 68 bd
       -0.026688708 -0.024382379 0.09208406 -0.05683171
000070 d3 21 6d 3c 0c 3c aa 3c 7d 6d 22 3d 63 2e c6 bb
       0.014473396 0.020780586 0.039655197 -0.00604801
