labml_nn/lstm/LSTM_THz/model_combine_319r2_5.pth (torch, 25950 bytes, 9 tensors)

lstm.weight_ih_l0 f4 [128, 1]
-0.25465858 -0.17037465 -0.16386767 0.24192117 0.01680557 0.079065286 0.026862396 0.29763398
-0.10669397 -0.05168683 0.124630444 -0.11747731 0.06778417 0.07153407 0.24355982 0.09444899
0.14652155 -0.1764876 0.0860207 0.13217732 0.10937714 0.045532197 -0.05903101 0.134609
-0.1390271 0.20612171 0.06788585 0.07490024 -0.14887539 0.13517329 -0.1696802 0.01989596
-0.13036846 -0.14327456 -0.19166714 0.17434976 0.028971631 -0.11323452 0.3259924 0.022651095
0.07826132 -0.0915525 0.052027866 -0.36584955 -0.09695659 -0.041643098 -0.034222033 0.03453991
0.17025326 -0.040789872 0.18729225 -0.12418688 0.0015897579 0.02376027 -0.07751079 0.1461597
-0.046853337 0.08456327 -0.052531667 0.18704368 -0.25867745 0.070305005 -0.0009455096 0.084163755
-0.2969383 0.17881286 -0.16703407 -0.14602222 0.099694 -0.29134062 0.32529518 -0.3069494
0.15759557 -0.038090326 0.18217008 -0.2289773 -0.039220374 -0.223813 0.21844125 0.13159803
0.1690857 0.04186162 0.18967952 0.016634563 0.21169245 -0.21456358 -0.22065975 0.15758736
0.17929985 0.1343492 -0.21605454 -0.31089166 0.298459 0.07045738 0.06492712 0.3302927
-0.08817034 -0.15547311 -0.033901565 0.32268387 0.23700808 0.11784778 0.17428243 0.2652359
0.03237889 0.028192468 0.18481943 -0.35582152 0.14811143 -0.19659592 -0.07169565 0.119183116
-0.08586281 -0.23820215 0.11175522 0.18442053 -0.06082338 -0.095571876 -0.03339645 0.042749576
-0.14441866 0.16254123 0.048713434 0.22955672 -0.1534244 0.3830048 -0.2547193 0.060794722
00000000: 9c62 82be b176 2ebe edcc 27be 2fba 773e
00000010: d6ab 893c fbec a13d 870e dc3c 7b63 983e
00000020: 5e82 dabd 92b5 53bd 3f3e ff3d f297 f0bd
00000030: 6dd2 8a3d 7480 923d bf67 793e 796e c13d
00000040: bf09 163e 2ab9 34be 9f2b b03d 7e59 073e
00000050: 1f01 e03d f87f 3a3d 80ca 71bd f1d6 093e
00000060: 1f5d 0ebe 9211 533e bd07 8b3d 4c65 993d
00000070: ca72 18be de6a 0a3e a5c0 2dbe dafc a23c
00000080: 4f7f 05be 91b6 12be 6444 44be be88 323e
00000090: ea55 ed3c 80e7 e7bd 7ae8 a63e ca8e b93c
000000a0: 7947 a03d e17f bbbd 2c1b 553d a250 bbbe
000000b0: 2d91 c6bd f491 2abd 672c 0cbd b879 0d3d
000000c0: df56 2e3e 4813 27bd 8ac9 3f3e b155 febd
000000d0: 6c5f d03a e6a4 c23c fabd 9ebd e3aa 153e
000000e0: 49e9 3fbd 822f ad3d 722b 57bd 6188 3f3e
000000f0: 5f71 84be 12fc 8f3d 13dc 77ba 0c5e ac3d
00000100: 4c08 98be b81a 373e fb0a 2bbe d986 15be
00000110: 5e2c cc3d 992a 95be 178d a63e 7928 9dbe
00000120: bc60 213e 9a04 1cbd cb8a 3a3e 0679 6abe
00000130: 8ba5 20bd 3c2f 65be 10af 5f3e a2c1 063e
00000140: cd24 2d3e 1777 2b3d 593b 423e 3545 883c
00000150: e8c5 583e 8eb6 5bbe a1f4 61be 955e 213e
00000160: 619a 373e d692 093e 673d 5dbe 312d 9fbe
00000170: 9ecf 983e f54b 903d 83f8 843d 201c a93e
00000180: a792 b4bd 5834 1fbe 5edc 0abd d236 a53e
00000190: 3fb2 723e 2d5a f13d 1877 323e 00cd 873e
000001a0: ba9f 043d e4f3 e63c 4e41 3d3e 3d2e b6be
000001b0: 86aa 173e 7150 49be 2bd5 92bd 4716 f43d
000001c0: d7d8 afbd 44eb 73be ecdf e43d bcd8 3c3e
000001d0: f021 79bd 30bb c3bd b7ca 08bd 2e1a 2f3d
000001e0: 7ce2 13be 3571 263e bd87 473d eb10 6b3e
000001f0: 491b 1dbe 3519 c43e 916a 82be e303 793d

lstm.weight_hh_l0 f4 [128, 32]
0.17683445 0.06892312 -0.08284591 -0.104490936 -0.04945089 0.10861418 -0.05906873 0.13252583
0.14625132 0.15801682 0.18542819 -0.17460169 -0.080723874 -0.038383625 -0.062473465 -0.037896458
-0.008761614 0.1585467 0.16654912 0.08418151 -0.13109826 -0.09698628 0.0057520703 0.060407855
0.17628759 -0.0917223 -0.15436804 -0.0926066 -0.20104258 -0.032919843 -0.19071113 -0.0053254254
-0.091796465 0.17150743 0.10625192 -0.021636643 0.039791703 -0.19945125 0.027562853 -0.04078474
0.023711951 -0.2691107 -0.056385215 0.017887603 0.19123223 -0.05384655 -0.12282394 -0.07652884
0.081318125 -0.08635999 0.13731435 -0.033706512 0.028954754 0.0059133093 -0.04294719 0.013429178
0.09265549 0.0463737 0.008683994 -0.109248415 0.19648755 0.09716077 0.14825673 0.024623245
-0.15315354 0.038198292 -0.19222671 0.16320406 -0.1761704 -0.05855929 -0.053001646 -0.00938002
-0.016926369 -0.11514368 0.047741845 0.050101817 -0.034572136 0.13111207 -0.33577093 0.23021477
-0.15691575 0.033172306 -0.18978605 0.05336872 -0.27308232 -0.010984886 0.21706516 -0.06611027
-0.081391476 0.4686222 -0.038248736 0.2117308 0.034432277 0.23870979 -0.085442275 -0.047270518
-0.04264779 0.14613996 0.110492334 0.1572267 -0.0816036 -0.122575715 -0.014121063 -0.09631721
-0.05903281 -0.21044892 -0.15315266 0.2159752 -0.008373185 -0.007083518 0.13925552 0.090818934
0.114434466 -0.11266605 -0.1440917 0.08608903 0.040177237 0.069683544 0.11797759 -0.119736254
-0.17463313 -0.20919472 -0.058757287 -0.1676054 0.014241561 -0.04419401 0.13849902 -0.12903681
-0.029323403 0.20389876 0.02363513 0.117798634 -0.14826803 0.20416431 0.03313566 0.121231996
0.049062375 0.1091041 -0.15633217 -0.04503269 0.051198862 -0.17832027 -0.03894173 0.15946151
0.05451373 -0.12191143 -0.09519674 0.07413411 0.044286184 0.13911982 0.04699292 -0.00053630024
-0.0033609052 0.18570183 -0.04805646 0.08399985 -0.10655266 0.30441982 0.20553747 -0.19343244
0.18127497 0.14797555 0.0056212493 0.059861913 -0.033117946 0.20671912 0.09805356 0.14778265
0.029006438 -0.119595595 0.06794609 0.089906506 0.091899455 -0.1134927 -0.11121205 -0.045322612
-0.1374243 0.06618387 0.08383182 -0.25182095 -0.13457772 -0.0010769238 -0.1614797 0.16203071
0.15546401 -0.39627618 0.27716056 0.15332454 0.15480632 -0.29913223 -0.085128196 -0.18360645
0.14379297 0.012439614 0.25469956 -0.016968198 0.19767621 -0.095476285 0.13494682 0.034040127
0.078952 0.043557838 0.060972482 0.061443143 -0.05871086 0.18670954 0.08634496 0.19178629
0.13726215 -0.061549865 -0.119539924 -0.0195001 -0.17564286 0.21937701 0.10220493 -0.074540235
-0.04595578 0.12354659 -0.10107389 -0.073624365 -0.026067834 -0.023335407 0.07831315 -0.15768823
-0.065134354 -0.06057074 -0.09247321 0.09907186 -0.07623102 -0.07296553 0.15303947 -0.15593219
-0.15798865 -0.049645636 0.040599033 0.09139719 -0.14253905 0.07290165 0.049966868 -0.06940021
-0.051659383 0.0010154219 0.23358561 0.0670414 0.10372277 -0.14304231 0.16997477 0.09933606
-0.01835332 -0.12682074 -0.06617953 -0.103074126 0.1755962 -0.03564987 -0.10148734 0.01222786
00000000: 1714 353e 9127 8d3d 1eab a9bd 58ff d5bd
00000010: 048d 4abd 1c71 de3d 0df2 71bd dab4 073e
00000020: e8c2 153e 29cf 213e e3e0 3d3e c9ca 32be
00000030: 8f52 a5bd 2638 1dbd 2de4 7fbd 5139 1bbd
00000040: df8c 0fbc 115a 223e da8b 2a3e 5b67 ac3d
00000050: 9f3e 06be bea0 c6bd dd7b bc3b 3a6e 773d
00000060: bc84 343e e7d8 bbbd a812 1ebe 87a8 bdbd
00000070: 1bde 4dbe f5d6 06bd c749 43be e880 aebb
00000080: c9ff bbbd a59f 2f3e 9b9a d93d 543f b1bc
00000090: a0fc 223d f33c 4cbe 7ecb e13c e60d 27bd
000000a0: 913f c23c e1c8 89be 2ff4 66bd 0689 923c
000000b0: 62d2 433e 338e 5cbd 1e8b fbbd 27bb 9cbd
000000c0: 1e8a a63d 82dd b0bd 229c 0c3e d70f 0abd
000000d0: 8532 ed3c 6fc4 c13b 65e9 2fbd 0e06 5c3c
000000e0: 29c2 bd3d 59f2 3d3d 5047 0e3c a2bd dfbd
000000f0: 0834 493e 3afc c63d 9dd0 173e b0b6 c93c
00000100: 48d4 1cbe d075 1c3d 14d7 44be f71e 273e
00000110: 0366 34be dedb 6fbd 4118 59bd a8ae 19bc
00000120: 2ba9 8abc 73d0 ebbd f48c 433d 9037 4d3d
00000130: 839b 0dbd 3e42 063e 2bea abbe 6cbd 6b3e
00000140: 86ae 20be afdf 073d 4657 42be 2999 5a3d
00000150: 72d1 8bbe f4f9 33bc 5446 5e3e d264 87bd
00000160: 93b0 a6bd 40ef ef3e b5aa 1cbd f5cf 583e
00000170: dc08 0d3d 5770 743e 5cfc aebd bb9e 41bd
00000180: 73af 2ebd b7a5 153e ce49 e23d 0900 213e
00000190: ca1f a7bd fa08 fbbd 085c 67bc f541 c5bd
000001a0: 63cc 71bd ec7f 57be 0dd4 1cbe 9a28 5d3e
000001b0: af2f 09bc db1c e8bb 0099 0e3e 47ff b93d
000001c0: 9e5c ea3d 75bd e6bd c68c 13be 724f b03d
000001d0: e390 243d 3fb6 8e3d 3c9e f13d 4838 f5bd
000001e0: 07d3 32be 2437 56be 7bab 70bd c0a0 2bbe
000001f0: 7055 693c c704 35bd b0d2 0d3e 3a22 04be
00000200: a237 f0bc d6ca 503e 769e c13c 6940 f13d
00000210: 93d3 17be 7310 513e 42b9 073d 7b48 f83d
00000220: a1f5 483d f871 df3d 8a15 20be 3374 38bd
00000230: e6b5 513d 9799 36be 5d81 1fbd e149 233e
00000240: ca49 5f3d b3ac f9bd 82f6 c2bd a0d3 973d
00000250: 6e65 353d 6d75 0e3e a67b 403d 8096 0cba
00000260: a242 5cbb 9f28 3e3e dad6 44bd 1d08 ac3d
00000270: 4838 dabd eadc 9b3e 6a78 523e 2713 46be
00000280: 25a0 393e e786 173e 7532 b83b c431 753d
00000290: afa6 07bd 2dae 533e 4ed0 c83d 5654 173e
000002a0: e99e ed3c 89ee f4bd 5227 8b3d e720 b83d
000002b0: c835 bc3d dc6e e8bd 25c3 e3bd 34a4 39bd
000002c0: f5b8 0cbe 698b 873d 04b0 ab3d adee 80be
000002d0: bece 09be 9127 8dba ef5a 25be 61eb 253e
000002e0: f531 1f3e b6e4 cabe fde7 8d3e 1c01 1d3e
000002f0: 8c85 1e3e dc27 99be b157 aebd 5403 3cbe
00000300: 773e 133e 86cf 4b3c fb67 823e e400 8bbc
00000310: a26b 4a3e 1289 c3bd 802f 0a3e a96d 0b3d
00000320: 96b1 a13d b469 323d 48be 793d ceab 7b3d
00000330: cc7a 70bd c930 3f3e a0d5 b03d a063 443e
00000340: 738e 0c3e b61b 7cbd 59d1 f4bd acbe 9fbc
00000350: b9db 33be 5ea4 603e d150 d13d 8da8 98bd
00000360: 213c 3cbd ff05 fd3d d4ff cebd 5fc8 96bd
00000370: 368c d5bc e529 bfbc a562 a03d 0679 21be
00000380: 2965 85bd 0619 78bd 9862 bdbd 30e6 ca3d
00000390: 021f 9cbd f46e 95bd 61b6 1c3e b0ac 1fbe
000003a0: c7c7 21be 3959 4bbd 2c4b 263d 732e bb3d
000003b0: c2f5 11be 764d 953d 0faa 4c3d b321 8ebd
000003c0: ca98 53bd e817 853a 1131 6f3e 004d 893d
000003d0: 9b6c d43d af79 12be de0d 2e3e b470 cb3d
000003e0: b459 96bc 4cdd 01be 2289 87bd 8718 d3bd
000003f0: 7ecf 333e 9905 12bd 98d8 cfbd 5d57 483c

lstm.bias_ih_l0 f4 [128]
0.11036781 0.09569539 -0.10683477 0.16190164 -0.15456359 -0.051779144 0.19841976 -0.15835391
0.11137786 -0.30872566 0.0047810413 0.092230804 -0.23410648 0.10693985 0.008165144 -0.051206216
-0.19815905 -0.014573038 -0.27861568 -0.14563632 -0.16386765 -0.0775733 -0.15437496 -0.42399624
-0.045657013 -0.1958742 0.044632353 -0.09303226 0.05893998 -0.1158466 -0.27495727 -0.038448617
0.13720974 -0.082765445 0.0619325 -0.015615489 -0.045040805 -0.22979806 0.16561398 0.016085455
-0.036045633 -0.15219355 0.09603767 0.06337046 -0.28871745 -0.017056929 -0.056603856 -0.16058463
-0.019104347 -0.15434182 -0.2737758 -0.083607644 -0.1633558 -0.2693751 -0.21651347 -0.3998526
0.012855551 -0.2424961 0.07211354 -0.1805692 0.1177562 -0.28093734 -0.3054023 0.008424597
0.14178808 -0.04546348 0.018489482 -0.19548225 -0.08228055 -0.08237675 0.26109332 -0.075626545
-0.09868328 -0.17163545 0.19047146 0.008824523 -0.010507291 0.056631938 0.14038612 0.018807642
0.013922334 -0.1038871 0.035696127 -0.20972845 -0.083412886 0.0800727 0.028634677 0.0018394743
0.051724087 0.036050033 -0.021638906 -0.12851636 0.060955916 -0.114166714 0.09275313 0.06512371
0.1935486 -0.18984197 0.05944117 -0.13163336 0.032219816 -0.06246907 0.11992568 -0.15001579
0.06133164 -0.011586721 -0.026130103 0.1332749 -0.3054283 -0.046794064 -0.026439413 -0.122066624
-0.04726836 -0.062284194 -0.24040924 -0.055135664 -0.100891806 0.094754554 -0.06870793 -0.25743866
0.061894357 -0.35705557 0.020429417 0.15200911 -0.011289585 -0.14100395 -0.16299036 -0.00769005
00000000: 8508 e23d f2fb c33d 30cc dabd 8bc9 253e
00000010: eb45 1ebe 5e16 54bd 8d2e 4b3e 8727 22be
00000020: 131a e43d 4a11 9ebe 48aa 9c3b 81e3 bc3d
00000030: 9cb9 6fbe 4803 db3d 19c7 053c 9cbd 51bd
00000040: 35ea 4abe c0c3 6ebc b7a6 8ebe b021 15be
00000050: eccc 27be c0de 9ebd 7814 1ebe 0916 d9be
00000060: d902 3bbd 3f93 48be 6ad0 363d b387 bebd
00000070: 0c6b 713d fb40 edbd 33c7 8cbe 4c7c 1dbd
00000080: b680 0c3e ee80 a9bd efac 7d3d 1cd8 7fbc
00000090: b57c 38bd 2f50 6bbe b696 293e a5c5 833c
000000a0: 96a4 13bd a0d8 1bbe 66af c43d 5fc8 813d
000000b0: c6d2 93be f9ba 8bbc 72d9 67bd 4c70 24be
000000c0: b880 9cbc c80b 1ebe 572c 8cbe 7c3a abbd
000000d0: be46 27be 88eb 89be b5b5 5dbe 7bb9 ccbe
000000e0: 17a0 523c e650 78be 43b0 933d 22e7 38be
000000f0: 2a2a f13d 05d7 8fbe b15d 9cbe 5207 0a3c
00000100: e530 113e ea37 3abd 4177 973c 802c 48be
00000110: b482 a8bd 24b5 a8bd 06ae 853e 17e2 9abd
00000120: 761a cabd 34c1 2fbe f30a 433e bb94 103c
00000130: c626 2cbc e4f6 673d 61c1 0f3e 7c12 9a3c
00000140: 801a 643c c3c2 d4bd 1a36 123d 0ec3 56be
00000150: 60d4 aabd 28fd a33d 4593 ea3c 841a f13a
00000160: a3dc 533d 33a9 133d 1344 b1bc cb99 03be
00000170: e9ac 793d 3dd0 e9bd 5af5 bd3d 945f 853d
00000180: 9b31 463e ef65 42be 9678 733d e5ca 06be
00000190: edf8 033d 91df 7fbd 989b f53d bd9d 19be
000001a0: e336 7b3d 3bd6 3dbc cc0e d6bc 3779 083e
000001b0: 1961 9cbe 22ab 3fbd 7897 d8bc 11fe f9bd
000001c0: 789c 41bd b61d 7fbd d72d 76be efd5 61bd
000001d0: 5da0 cebd ad0e c23d beb6 8cbd 00cf 83be
000001e0: f084 7d3d fdcf b6be 985b a73c 47a8 1b3e
000001f0: f4f7 38bc 5763 10be f2e6 26be d1fc fbbb

lstm.bias_hh_l0 f4 [128]
0.03688984 -0.05122196 -0.19291689 -0.031352956 -0.1489353 -0.10438001 0.0044174455 0.07268935
0.092517145 -0.20352425 -0.093897805 -0.12758912 -0.105656154 0.06699197 -0.20453453 -0.16905622
-0.29392415 -0.15289137 -0.110465005 -0.103566654 -0.17526288 -0.0015923964 0.09439506 -0.27213547
-0.13172531 -0.39566374 0.047153853 -0.112756036 0.015209586 -0.26375166 -0.2984556 0.11809319
0.11201149 -0.12736872 -0.090236396 -0.025978394 -0.12169927 -0.080514066 0.22422004 -0.19409041
-0.10029924 -0.13220833 0.025800437 0.069543295 -0.29966998 -0.11277244 -0.0036521868 0.00010506588
-0.0754015 -0.19023588 -0.29441163 -0.27404344 -0.16690618 -0.21162173 -0.1609287 -0.34273943
0.049756657 -0.38776943 -0.095273465 -0.21569921 0.2185268 -0.29249498 0.00033571702 -0.19467518
0.057234846 0.05721727 0.22736467 -0.2534618 0.12291547 -0.08204204 0.25769424 -0.13785452
0.14776355 0.16654427 0.2199653 0.017832942 -0.19169246 0.17215309 -0.040384293 0.05495495
-0.05290558 -0.19092575 -0.028878674 0.047593214 0.046249997 0.06464989 0.057079002 -0.16796419
-0.13111205 -0.117046915 -0.055228926 0.15788 -0.13951916 -0.016712701 -0.06994857 -0.14006223
0.16561131 -0.14695844 0.0058749625 0.0787941 -0.082079954 -0.15585633 -0.06931859 -0.0059749577
-0.16843702 -0.2505427 -0.12538989 -0.118533514 -0.07904411 -0.004724616 -0.044751573 -0.039588675
-0.15227373 -0.20676328 -0.25270522 -0.044566587 -0.15412812 0.1014374 -0.009220348 -0.16333936
-0.05069376 -0.17943518 -0.077559024 -0.038135372 0.25677463 -0.18671925 -0.2717839 -0.070538655
00000000: cd19 173d 1ece 51bd 018c 45be f56b 00bd
00000010: 7f82 18be 30c5 d5bd 38c0 903b 27de 943d
00000020: a179 bd3d a968 50be 7e4d c0bd b9a6 02be
00000030: 4162 d8bd 1633 893d 8071 51be 131d 2dbe
00000040: 3a7d 96be 8e8f 1cbe 7a3b e2bd c11a d4bd
00000050: 1d78 33be f5b7 d0ba 3252 c13d 5755 8bbe
00000060: 00e3 06be 7094 cabe 6624 413d a3ec e6bd
00000070: a131 793c 750a 87be 2ccf 98be d8da f13d
00000080: 4866 e53d f26c 02be dccd b8bd a4d0 d4bc
00000090: 783d f9bd 8fe4 a4bd f099 653e a3bf 46be
000000a0: b069 cdbd 9f61 07be 705b d33c b76c 8e3d
000000b0: 586e 99be 3df5 e6bd 8759 6fbb d156 dc38
000000c0: 1a6c 9abd 32cd 42be 1fbd 96be 6c4f 8cbe
000000d0: 74e9 2abe 5eb3 58be 7eca 24be 8b7b afbe
000000e0: a3cd 4b3d b789 c6be bc1e c3bd 41e0 5cbe
000000f0: 7dc5 5f3e e7c1 95be 2d03 b039 ee58 47be
00000100: 166f 6a3d a85c 6a3d 49d2 683e bfc5 81be
00000110: 1bbb fb3d a805 a8bd 80f0 833e bc29 0dbe
00000120: 544f 173e 958a 2a3e 953e 613e 6416 923c
00000130: 074b 44be e648 303e 006a 25bd 7118 613d
00000140: 85b3 58bd 0a82 43be f892 ecbc 1af1 423d
00000150: a370 3d3d 2967 843d accb 693d cefe 2bbe
00000160: 3d42 06be 4bb6 efbd ba37 62bd 4bab 213e
00000170: 1cde 0ebe 13e9 88bc 3241 8fbd 796c 0fbe
00000180: 0396 293e 467c 16be c282 c03b cd5e a13d
00000190: 8919 a8bd cd98 1fbe e8f6 8dbd 94c9 c3bb
000001a0: c17a 2cbe 2247 80be 3566 00be b3c1 f2bd
000001b0: e1e1 a1bd f4d0 9abb 6d4d 37bd bc27 22bd
000001c0: a5ed 1bbe c1b9 53be 9462 81be 748b 36bd
000001d0: c3d3 1dbe 69be cf3d f110 17bc 6f42 27be
000001e0: 43a4 4fbd dbbd 37be 44d7 9ebd d633 1cbd
000001f0: f777 833e 5533 3fbe 4227 8bbe 9276 90bd

layer_norm.weight f4 [32]
0.9889909 0.9020062 0.7836388 0.97608733 0.9129846 0.99775654 1.0080769 0.99853486
0.88768613 0.88056654 0.96459407 0.9751769 0.91960293 0.9556712 0.8973466 0.9302829
0.86705935 0.9051427 0.87142664 0.9329018 0.9672424 0.94705975 0.9376113 0.49114075
0.97757465 0.85077226 0.940873 0.97521216 1.0690248 0.98027086 0.8271258 1.0389314
00000000: 822e 7d3f e1e9 663f 8d9c 483f dce0 793f
00000010: 5cb9 693f f96c 7f3f aa08 813f fb9f 7f3f
00000020: 663f 633f cf6c 613f a3ef 763f 31a5 793f
00000030: 196b 6b3f dea6 743f 82b8 653f 0527 6e3f
00000040: 9af7 5d3f 6fb7 673f d115 5f3f a7d2 6e3f
00000050: 339d 773f 8272 723f 4b07 703f cd76 fb3e
00000060: 5542 7a3f 36cc 593f 0edd 703f 81a7 793f
00000070: ced5 883f 08f3 7a3f 84be 533f b4fb 843f

layer_norm.bias f4 [32]
-0.033573292 0.09053948 -0.093074076 0.03238857 -0.031020485 0.029556325 0.032113723 0.07074163
0.038062822 0.017510893 -0.008322565 0.010565527 0.05178502 0.01017155 0.010820603 -0.035705652
0.019847956 0.016286645 0.06827875 0.012171333 0.034262296 -0.016312853 -0.06475502 0.011224881
0.0011315277 -0.015280632 0.057763137 -4.293589e-05 0.053616516 -0.076256275 0.16836745 -0.00090492377
00000000: 2684 09bd c36c b93d 9f9d bebd e1a9 043d
00000010: ac1e febc 1b20 f23c ae89 033d fde0 903d
00000020: c3e7 1b3d 0173 8f3c 5e5b 08bc 081b 2d3c
00000030: 871c 543d 93a6 263c e648 313c 1740 12bd
00000040: 2e98 a23c 926b 853c bbd5 8b3d 456a 473c
00000050: 9f56 0c3d 88a2 85bc 489e 84bd 90e8 373c
00000060: c54f 943a 9e5b 7abc 0a99 6c3d 1016 34b8
00000070: fe9c 5b3d 402c 9cbd 8468 2c3e 6838 6dba

linear1.weight f4 [32, 32]
-0.21483693 0.08267586 -0.13448264 0.14132534 -0.13447875 0.12000296 -0.18003912 0.10635693
0.11661047 -0.020264458 0.017579557 0.000759207 0.070672825 -0.17484753 0.026981674 0.02083031
-0.031903666 0.0994956 -0.030168546 0.06783972 0.014289366 -0.029370558 -0.08251523 0.14242102
0.058532454 0.05022323 0.07002047 -0.0035963575 0.21556458 0.13183662 0.16639891 0.034133054
0.09064713 -0.13263611 -0.026273785 -0.017929673 -0.032793906 0.14280845 -0.13585082 -0.12398316
0.15556373 -0.040721342 0.09115305 0.016612768 -0.07358331 0.124195956 0.1546084 -0.10944163
0.07696827 -0.012992788 0.11044008 -0.039250854 0.17738894 -0.05699069 0.15159397 -0.14796211
0.14949843 -0.09938514 0.0344041 0.09616449 -0.14041382 0.025015058 0.034817465 0.06361537
-0.071029685 0.11403603 0.017004466 -0.03716355 -0.03328775 0.123200096 -0.21831544 -0.019996343
0.123583026 -0.2619963 -0.114439584 -0.0061740982 0.030511437 0.08519059 -0.1698227 -0.13652629
0.026658552 0.086396776 -0.15988612 0.0775209 -0.1346271 0.23300256 -0.0059619374 -0.06716874
0.008899662 0.14098345 -0.0875183 0.112556405 -0.09345222 0.16001794 0.09713612 -0.24660441
-0.23287183 -0.031577744 -0.05441763 -0.020832902 0.043009944 0.052769758 0.1509126 0.041744433
0.14828543 -0.18919805 0.0041335854 0.113907464 0.04229779 -0.084818065 -0.05156658 0.06949078
0.008561357 0.0066120066 -0.32747182 0.003290246 -0.011494416 0.11543876 0.06467586 0.097990066
-0.16164914 0.17092732 -0.0038107021 -0.070060775 -0.30691147 0.27428314 0.004320322 -0.0499929
0.10395744 0.082048066 0.087036 0.03063045 -0.02970629 -0.013447608 -0.065403886 -0.025115058
-0.14554353 0.13645345 0.16803172 -0.07661194 -0.15852803 0.10006544 -0.06982779 0.11816029
-0.06946595 -0.06912571 -0.15052682 -0.093294375 -0.1292714 0.1045959 0.027991254 0.041438922
-0.17204984 -0.13827278 0.15936852 -0.10901695 -0.22526507 -0.043434042 -0.025972141 -0.031586993
-0.15095338 0.0856574 -0.18609266 -0.17052056 -0.1346408 -0.25561017 0.09010566 -0.19695415
0.1486356 -0.035508614 -0.06452031 -0.09704823 -0.088393204 -0.052000947 0.0874896 0.205913
-0.05792226 -0.12777753 -0.023462588 0.11676182 0.14630045 -0.1664946 -0.25758594 0.046051778
-0.009312996 -0.16131014 0.08143592 -0.058048252 0.0025865184 0.00820117 0.11744802 -0.076220706
0.0066044205 -0.16873637 -0.04839804 0.14191587 0.005628855 0.027233351 0.10597644 0.015900062
0.03942009 0.05304556 -0.10476261 -0.100185394 -0.06195642 0.10555791 -0.022773564 0.09857178
0.07023205 -0.23447919 0.027026819 -0.091208436 -0.18601769 0.104946814 0.09579602 0.08763738
-0.073323354 0.16646239 -0.02808276 0.2033455 -0.19027044 -0.11702242 0.08626623 0.04753324
0.15650351 -0.029082686 0.03862826 -0.1184172 0.13318306 -0.037726697 -0.067499146 0.13234814
0.046132613 -0.07292106 0.023142723 -0.08155175 0.08677849 -0.0024830084 0.010730817 -0.105999365
0.10261654 0.1558709 0.025743676 0.07744835 0.15670085 0.12411955 -0.15057127 0.014489916
-0.029126432 -0.15246032 0.11426355 0.08461736 -0.04736041 0.015002199 0.10414262 -0.046417486
00000000: 36fe 5bbe f651 a93d d1b5 09be 97b7 103e
00000010: ccb4 09be 1dc4 f53d 2d5c 38be aad1 d93d
00000020: 78d1 ee3d a601 a6bc 0103 903c 8505 473a
00000030: eabc 903d 3b0b 33be ac08 dd3c 54a4 aa3c
00000040: 6bad 02bd 59c4 cb3d 0724 f7bc 8def 8a3d
00000050: f21d 6a3c 869a f0bc bffd a8bd d1d6 113e
00000060: babf 6f3d e0b6 4d3d e466 8f3d deb0 6bbb
00000070: f6bc 5c3e 2e00 073e 7a64 2a3e 1acf 0b3d
00000080: 34a5 b93d c3d1 07be 1f3c d7bc 40e1 92bc
00000090: e752 06bd 613c 123e 7a1c 0bbe e2ea fdbd
000000a0: 194c 1f3e 6ccb 26bd 73ae ba3d 8017 883c
000000b0: d9b2 96bd 735a fe3d aa51 1e3e ef22 e0bd
000000c0: 8aa1 9d3d b4df 54bc 692e e23d 81c5 20bd
000000d0: 72a5 353e 126f 69bd 733b 1b3e 6183 17be
000000e0: 1e16 193e 708a cbbd 50eb 0c3d e3f1 c43d
000000f0: a4c8 0fbe 61ec cc3c c29c 0e3d c648 823d
00000100: 0378 91bd b98b e93d f34c 8b3c ce38 18bd
00000110: bc58 08bd 5550 fc3d 158e 5fbe 5fcf a3bc
00000120: 1919 fd3d 6124 86be 4d5f eabd 1750 cabb
00000130: 1ff3 f93c 6778 ae3d 00e6 2dbe 8ccd 0bbe
00000140: 0963 da3c cbf0 b03d 30b9 23be 47c3 9e3d
00000150: b0db 09be 3998 6e3e 5b5c c3bb c48f 89bd
00000160: e3cf 113c f75d 103e cb3c b3bd f983 e63d
00000170: e163 bfbd bedb 233e 4def c63d de85 7cbe
00000180: f475 6ebe aa57 01bd 05e5 5ebd c3a9 aabc
00000190: 322b 303d 1a25 583d d588 1a3e 36fc 2a3d
000001a0: 23d8 173e 22bd 41be 0773 873b 5148 e93d
000001b0: 7340 2d3d 18b5 adbd 7a37 53bd 2f51 8e3d
000001c0: ef44 0c3c 88a9 d83b 63aa a7be 2ba1 573b
000001d0: 1353 3cbc 286b ec3d c774 843d 04af c83d
000001e0: 5a87 25be 9207 2f3e f9bc 79bb 067c 8fbd
000001f0: 8023 9dbe d76e 8c3e 7d91 8d3b 5bc5 4cbd
00000200: a3e7 d43d d108 a83d ee3f b23d b6ec fa3c
00000210: 9b5a f3bc 5b53 5cbc 79f2 85bd 18be cdbc
00000220: 5d09 15be 74ba 0b3e 8210 2c3e b9e6 9cbd
00000230: 2c55 22be 1cef cc3d df01 8fbd 06fe f13d
00000240: 2a44 8ebd c891 8dbd b423 1abe 1f11 bfbd
00000250: b95f 04be 6036 d63d ea4d e53c dcbb 293d
00000260: d52d 30be 6197 0dbe 8031 233e 4744 dfbd
00000270: e3ab 66be e5e7 31bd 87c3 d4bc 5d61 01bd
00000280: 8693 1abe 266d af3d 138f 3ebe f19c 2ebe
00000290: 47df 09be 56df 82be 5189 b83d 59ae 49be
000002a0: ee33 183e 7b71 11bd 3923 84bd 39c1 c6bd
000002b0: 7f07 b5bd f2fe 54bd bf2d b33d dcda 523e
000002c0: e43f 6dbd 1dd8 02be 9d34 c0bc d220 ef3d
000002d0: c9cf 153e 8f7d 2abe 4ee2 83be caa0 3c3d
000002e0: 8995 18bc 7c2e 25be e0c7 a63d 01c4 6dbd
000002f0: 9482 293b 335e 063c 9688 f03d 9a19 9cbd
00000300: e569 d83b 3ac9 2cbe 063d 46bd 6552 113e
00000310: 4272 b83b 7a18 df3c 2d0a d93d d940 823c
00000320: f676 213d 4d46 593d c78d d6bd 002e cdbd
00000330: 04c6 7dbd bf2e d83d a08f babc 00e0 c93d
00000340: d2d5 8f3d 501b 70be 5967 dd3c 7dcb babd
00000350: 6c7b 3ebe 5bee d63d b430 c43d 3a7b b33d
00000360: 8e2a 96bd 1e75 2a3e d10d e6bc ce39 503e
00000370: 41d6 42be 73a9 efbd 59ac b03d 37b2 423d
00000380: 7542 203e d03e eebc ab38 1e3d b884 f2bd
00000390: 2461 083e 4f87 1abd fe3c 8abd 4586 073e
000003a0: 8df5 3c3d a357 95bd cf95 bd3c 9b04 a7bd
000003b0: ecb8 b13d f8b9 22bb 4fd0 2f3c 3216 d9bd
000003c0: 9f28 d23d 9f9c 1f3e 67e4 d23c 3e9d 9e3d
000003d0: 3076 203e 6432 fe3d 5b2f 1abe 1d67 6d3c
000003e0: 8e9a eebc 8f1e 1cbe 0203 ea3d de4b ad3d
000003f0: fdfc 41bd c9cb 753c ba48 d53d 4320 3ebd

linear1.bias f4 [32]
-0.121205375 -0.06639643 -0.1518429 -0.11446393 -0.04375054 0.114881694 -0.1104794 0.063521445
-0.08802869 -0.036634892 -0.15142407 0.17981057 0.0036545706 0.11845517 -0.03193099 -0.09885271
-0.040424466 0.05348601 0.10767422 -0.09848667 0.011643992 0.2223261 0.03398745 -0.21709675
-0.09531342 -0.14875814 0.12087606 -0.022415368 0.002624638 0.1982872 0.13619605 -0.20284358
00000000: 863a f8bd dafa 87bd b57c 1bbe 116c eabd
00000010: c433 33bd 1847 eb3d 0643 e2bd 8817 823d
00000020: 6348 b4bd 780e 16bd e90e 1bbe 4320 383e
00000030: 8581 6f3b a098 f23d 12ca 02bd 4a73 cabd
00000040: 2094 25bd 2514 5b3d 4d84 dc3d 61b3 c9bd
00000050: 71c6 3e3c 74a9 633e 6d36 0b3d 9c4e 5ebe
00000060: af33 c3bd 0e54 18be de8d f73d 6fa0 b7bc
00000070: 1e02 2c3b cd0b 4b3e fa76 0b3e 3ab6 4fbe

linear2.weight f4 [1, 32]
0.05090314 -0.010726242 -0.02773337 -0.031324334 -0.11044681 0.1632461 -0.052658472 -0.013413796
-0.038727634 -0.07450753 -0.06627831 0.01873716 -0.13364394 0.10727501 -0.16402926 -0.0014256028
0.16693519 0.001096679 -0.07724638 0.0014644418 -0.048201866 -0.10366368 -0.074525736 -0.041264415
0.026343996 -0.020396153 -0.13263775 0.075037226 0.16013385 -0.10269612 -0.06463591 0.08660038
00000000: d07f 503d 1fbd 2fbc 1831 e3bc f24d 00bd
00000010: f031 e2bd fc29 273e 69b0 57bd 8ac5 5bbc
00000020: dea0 1ebd 6797 98bd ecbc 87bd ac7e 993c
00000030: f5d9 08be 00b3 db3d 49f7 27be 4bdb baba
00000040: 0ff1 2a3e 71be 8f3a 5a33 9ebd 83f2 bf3a
00000050: 526f 45bd a04d d4bd f3a0 98bd e004 29bd
00000060: 5dcf d73c d515 a7bc 31d2 07be 1ead 993d
00000070: 21fa 233e 5852 d2bd d55f 84bd 8a5b b13d
