labml_nn/lstm/LSTM_THz/model_combine_319r2_22.pth (torch, 26025 bytes, 9 tensors)

lstm.weight_ih_l0 f4 [128, 1]
0.4221695 -0.20748726 -0.12530284 -0.04466628 0.15964456 0.07294457 -0.10406553 -0.21466635
-0.07118453 0.19381267 -0.20427755 -0.22703011 0.122330405 0.27349135 0.013425961 0.102670684
-0.036904592 0.25207445 -0.07462825 0.12906714 0.3216115 0.40773606 0.07616701 -0.119961
-0.029108064 0.011222166 -0.06129214 0.12233487 -0.22262153 -0.42811298 0.08913843 -0.2862912
0.25684434 -0.21910276 0.01731391 -0.22343759 0.088347144 0.26186833 -0.13904275 -0.22793989
-0.06898174 0.20617983 -0.295225 -0.12919587 -0.16649243 0.12362799 -0.1119001 -0.061286252
0.04927048 0.257658 -0.24146159 -0.0023483676 0.17281976 0.25485992 0.14541093 0.05143259
0.047057893 0.15331043 -0.2753993 0.09291897 -0.16925281 -0.30166838 -0.01666453 -0.2775783
0.37218156 -0.39010897 0.05651567 0.1349025 -0.14285263 0.3342594 0.054386925 -0.11144449
-0.24498868 -0.29898268 0.06909097 0.28678942 -0.4217528 -0.35767218 0.28855753 0.18074408
-0.09786014 0.28595132 -0.050724003 -0.4569487 0.20486012 0.06454121 -0.18213658 -0.08748527
-0.177092 -0.11922802 0.33035067 -0.17944291 -0.11412008 0.24697988 0.4638869 -0.36257228
0.22699162 -0.17816675 -0.18297873 -0.14211974 0.14386556 0.10943335 0.06976414 -0.17146784
-0.3127012 0.069067806 -0.11525979 -0.2107941 0.15447591 0.020716231 -0.059537604 0.00618326
-0.17562106 -0.0033741682 -0.139888 0.026436191 0.3346195 0.33598804 0.0062561417 -0.011297168
0.12971427 0.057225686 -0.22189973 0.34207505 -0.16650651 -0.24738705 0.21891606 -0.25902045
00000000: 9a26 d83e 8a77 54be 634f 00be fdf3 36bd
00000010: dd79 233e f663 953d 4f20 d5bd 7fd1 5bbe
00000020: 32c9 91bd d476 463e 222e 51be 957a 68be
00000030: 5d88 fa3d 0f07 8c3e 90f8 5b3c 0245 d23d
00000040: 4529 17bd e70f 813e b2d6 98bd 2d2a 043e
00000050: 43aa a43e c8c2 d03e 73fd 9b3d 1dae f5bd
00000060: 0974 eebc 2ddd 373c 780d 7bbd b48a fa3d
00000070: e6f6 63be a031 dbbe 368e b63d c394 92be
00000080: 1a81 833e 795c 60be e7d5 8d3c d3cc 64be
00000090: 59ef b43d 9b13 863e 3961 0ebe 1369 69be
000000a0: 4c46 8dbd ce20 533e bb27 97be ec4b 04be
000000b0: fe7c 2abe ac30 fd3d e12b e5bd 4b07 7bbd
000000c0: d8cf 493d c0eb 833e b541 77be 12e7 19bb
000000d0: aaf7 303e 007d 823e 9ae6 143e fbaa 523d
000000e0: c7bf 403d 69fd 1c3e 2301 8dbe 4d4c be3d
000000f0: 9c50 2dbe 4774 9abe 0d84 88bc be1e 8ebe
00000100: 958e be3e 5dbc c7be fa7c 673d e223 0a3e
00000110: f647 12be 0c24 ab3e d3c4 5e3d 023d e4bd
00000120: 50de 7abe 4214 99be 917f 8d3d 10d6 923e
00000130: fcef d7be cf20 b7be d0bd 933e fa14 393e
00000140: e66a c8bd 3668 923e f9c3 4fbd 2ef5 e9be
00000150: dac6 513e 2f2e 843d 0382 3abe 7a2b b3bd
00000160: 9b57 35be d22d f4bd b923 a93e e2bf 37be
00000170: cab7 e9bd 4be8 7c3e 9582 ed3e 13a3 b9be
00000180: 7e70 683e 5871 36be c75e 3bbe d687 11be
00000190: 7e51 133e 981e e03d 80e0 8e3d 4495 2fbe
000001a0: 5f1a a0be 6c73 8d3d 530d ecbd 69da 57be
000001b0: ef2e 1e3e 16b5 a93c b4dd 73bd f29c ca3b
000001c0: 02d6 33be 2621 5dbb cd3e 0fbe b690 d83c
000001d0: 3f53 ab3e a006 ac3e 5200 cd3b c217 39bc
000001e0: d1d3 043e 7b65 6a3d af39 63be 7624 af3e
000001f0: af80 2abe 0853 7dbe 882b 603e 549e 84be

lstm.weight_hh_l0 f4 [128, 32]
0.077352874 -0.008061599 0.010139476 -0.19216067 -0.04244384 0.23972593 0.09348413 -0.056928255
0.12088213 0.055692364 -0.2597554 0.1130229 -0.1656918 0.112745844 -0.04980726 -0.043894436
0.053665772 -0.17679645 0.004945195 -0.07706981 0.047001343 -0.026592925 -0.2096584 -0.15227202
-0.091287866 -0.1345298 -0.08788115 -0.15645283 -0.013555568 -0.066973455 0.03738152 -0.035821717
0.035898678 -0.120124415 0.08720746 0.16363472 0.035422705 -0.11476139 -0.06691675 0.12300284
-0.13430934 -0.09977565 0.3237999 -0.1362581 0.1478703 -0.17643659 0.19038977 0.13067521
-0.16244192 -0.102294914 0.041928865 0.06157149 -0.003932779 -0.024181178 0.18218468 -0.17540681
0.059296463 -0.021148235 0.033747423 0.013836624 0.024660537 -0.20974788 0.03021743 0.058808345
-0.1537498 0.038516402 -0.0059697446 0.055752046 -0.16164228 -0.21056758 0.07379773 0.057438407
-0.1912762 0.073537715 -0.0110628065 0.086080156 0.17131507 0.15050031 0.06799069 0.1606747
-0.1752397 -0.122808374 0.09988278 0.16924821 -0.19450189 -0.323009 0.13302134 -0.15039566
0.1578534 -0.105596595 0.06713255 0.2851103 0.032181036 -0.22785488 0.015125967 -0.030967113
-0.1291261 -0.23551714 0.17978539 0.2932867 -4.8930237e-05 -0.29120275 0.05193909 0.021021616
-0.1314625 0.09856207 0.09630378 0.24964431 0.14560042 0.14823207 -0.048398707 -0.053347576
-0.11054972 -0.26329976 -0.23414062 0.30038267 -0.151225 -0.34102875 0.029232299 -0.19990689
0.31425887 -0.11185063 -0.08362993 -0.19795056 0.22635368 0.015199331 -0.0024346893 -0.013705949
-0.02809888 -0.049565636 -0.064091586 -0.23748608 -0.16370663 0.15958004 -0.23523152 0.0146157015
0.18941492 0.07134849 -0.03991073 0.12963192 0.022764733 -0.07876325 -0.002669281 0.0066018724
0.006091708 0.058357205 0.01384078 0.14058019 0.09530059 0.020701243 0.03293535 0.026980111
-0.16514805 0.013558188 0.1389718 -0.042239796 0.028138252 0.2867676 -0.060317025 -0.021205848
-0.15529284 -0.18726438 0.08570103 -0.29656819 0.076113485 -0.02345539 0.069730856 0.18636188
0.040183265 0.034799427 -0.01789453 0.029207924 0.07389793 -0.036063842 -0.1155571 0.038406882
0.049244262 -0.12585185 -0.10067332 0.16468872 0.14723606 -0.011678641 -0.0039200718 0.0954533
-0.116643876 0.014200662 0.08193624 -0.32033208 -0.018770551 -0.24402228 -0.14690477 0.19264194
-0.16719861 -0.05658734 0.06934141 0.04133025 -0.16139859 -0.08133835 0.102228396 -0.000850484
0.06295294 0.1430163 0.0005466921 -0.06159281 0.041346423 0.007716164 0.0124692945 0.017417714
0.008760802 -0.0856136 -0.117026836 0.16783258 0.022063557 -0.3759679 0.10240989 -0.05252028
0.3006783 -0.06790472 0.05861543 0.20866962 0.101573676 -0.030915169 -0.1984345 -0.23183645
-0.119004644 -0.06402484 0.07804754 0.016437348 -0.108961605 0.08498352 -0.07638633 -0.24267375
-0.053059034 0.06958657 0.040796284 -0.07400443 0.066595584 -0.07450433 -0.09100182 0.2442619
0.044538226 -0.083592735 -0.06335353 0.10257246 -0.34195814 -0.18778253 -0.04544525 -0.17928989
-0.0013630925 0.04606026 -0.06863879 0.09539582 0.23980993 -0.1458006 -0.21251826 -0.23584667
00000000: 2f6b 9e3d cc14 04bc 0b20 263c c4c5 44be
00000010: 98d9 2dbd b77a 753e 9c74 bf3d 9a2d 69bd
00000020: 0d91 f73d ad1d 643d a9fe 84be 8d78 e73d
00000030: 1cab 29be 4be7 e63d b302 4cbd a7ca 33bd
00000040: a4d0 5b3d 210a 35be 4d0b a23b c7d6 9dbd
00000050: 7b84 403d 68d9 d9bc b1b0 56be 32ed 1bbe
00000060: 22f5 babd 2ec2 09be 08fb b3bd 2c35 20be
00000070: 2c18 5ebc 6129 89bd 5d1d 193d cbb9 12bd
00000080: 7e0a 133d ca03 f6bd d399 b23d dc8f 273e
00000090: 6617 113d 0508 ebbd a60b 89bd eae8 fb3d
000000a0: 6388 09be 2d57 ccbd 1ac9 a53e 3e87 0bbe
000000b0: 506b 173e cbab 34be 89f5 423e b9cf 053e
000000c0: 2d57 26be ff7f d1bd 9abd 2b3d 6332 7c3d
000000d0: 8bde 80bb 9b17 c6bc 9f8e 3a3e d89d 33be
000000e0: d9e0 723d 103f adbc bd3a 0a3d 02b3 623c
000000f0: e504 ca3c 26c8 56be 8b8a f73c 05e1 703d
00000100: 9670 1dbe 60c3 1d3d d99d c3bb 425c 643d
00000110: 8e85 25be 079f 57be 4423 973d 8944 6b3d
00000120: e8dd 43be f19a 963d c640 35bc cb4a b03d
00000130: 386d 2f3e c11c 1a3e b43e 8b3d e987 243e
00000140: 0972 33be f582 fbbd 588f cc3d 674f 2d3e
00000150: 812b 47be 7061 a5be bf36 083e 5201 1abe
00000160: 52a4 213e 0743 d8bd ca7c 893d faf9 913e
00000170: 43d0 033d ca52 69be e7d2 773c beae fdbc
00000180: a239 04be 682b 71be a919 383e ad29 963e
00000190: 713a 4db8 8718 95be 15be 543d 8635 ac3c
000001a0: 1b9e 06be e9da c93d eb3a c53d c2a2 7f3e
000001b0: 4718 153e 26ca 173e b93d 46bd fd82 5abd
000001c0: e467 e2bd 3acf 86be 8fc2 6fbe c2cb 993e
000001d0: bada 1abe 529b aebe 9378 ef3c 64b4 4cbe
000001e0: 8ae6 a03e f111 e5bd 2b46 abbd 8db3 4abe
000001f0: 42c9 673e 9d06 793c 4f8f 1fbb eb8e 60bc
00000200: 9f2f e6bc 5605 4bbd 7342 83bd 8d2f 73be
00000210: b6a2 27be f368 233e 88e0 70be b276 6f3c
00000220: fcf5 413e 281f 923d 6f79 23bd 3bbe 043e
00000230: 1b7d ba3c a04e a1bd 1bef 2ebb 8554 d83b
00000240: f39c c73b f707 6f3d 70c4 623c 41f4 0f3e
00000250: f52c c33d a795 a93c 38e7 063d 6505 dd3c
00000260: 921c 29be 2a23 5e3c a04e 0e3e a303 2dbd
00000270: 3182 e63c 34d3 923e fc0e 77bd e3b7 adbc
00000280: 1605 1fbe 3cc2 3fbe 0684 af3d c9d7 97be
00000290: 63e1 9b3d 8525 c0bc 0dcf 8e3d a6d5 3e3e
000002a0: 3597 243d d889 0e3d 8d97 92bc 7545 ef3c
000002b0: cc57 973d aeb7 13bd 33a9 ecbd 8950 1d3d
000002c0: 5ab4 493d 4fdf 00be d02d cebd 29a4 283e
000002d0: 0dc5 163e c557 3fbc f273 80bb 057d c33d
000002e0: fce2 eebd e5a9 683c 30ce a73d 9102 a4be
000002f0: b3c4 99bc fae0 79be 346e 16be ee43 453e
00000300: 1d36 2bbe 20c8 67bd df02 8e3d e949 293d
00000310: ac45 25be b994 a6bd 1f5d d13d 04f3 5eba
00000320: 79ed 803d dd72 123e e34f 0f3a be48 7cbd
00000330: de5a 293d e0d7 fc3b 034c 4c3c 98af 8e3c
00000340: 7889 0f3c 2f56 afbd c4ab efbd 4edc 2b3e
00000350: a2be b43c dd7e c0be 47bc d13d 811f 57bd
00000360: 82f2 993e a111 8bbd bc16 703d 7dad 553e
00000370: dc05 d03d cf41 fdbc 6a32 4bbe 8966 6dbe
00000380: b5b8 f3bd 751f 83bd 63d7 9f3d 9ea7 863c
00000390: 4327 dfbd d70b ae3d 7070 9cbd 787f 78be
000003a0: 6e54 59bd 6783 8e3d 011a 273d a28f 97bd
000003b0: 4463 883d ba95 98bd 2a5f babd cb1f 7a3e
000003c0: b76d 363d ab32 abbd 7fbf 81bd 8311 d23d
000003d0: 2315 afbe 104a 40be cc24 3abd c597 37be
000003e0: cba9 b2ba afa9 3c3d 7e92 8cbd e25e c33d
000003f0: bc90 753e c14c 15be 639e 59be ca81 71be

lstm.bias_ih_l0 f4 [128]
-0.10852009 0.04469643 0.0061998554 -0.22551732 0.09384461 -0.020028513 -0.06687312 0.066738695
-0.054261245 0.044857766 -0.058095388 0.07699649 -0.037113294 -0.105846934 -0.17179586 -0.25453457
-0.13817003 -0.2126622 -0.19742376 0.035651237 -0.20798619 0.06579831 -0.08044797 -0.03426839
0.039124057 -0.0445768 0.20632504 -0.29109338 -0.23305756 -0.28120652 0.122897685 0.12208327
0.09168687 -0.16714133 -0.2479469 -0.22495404 -0.2220817 -0.15363821 -0.2108353 -0.089910515
-0.22496058 0.13095199 -0.16364259 0.10039737 -0.23725909 -0.16144733 -0.05352499 -0.31115693
-0.108199574 0.018869387 -0.20321612 -0.19085807 -0.26844478 0.03812102 -0.38930076 -0.33742964
0.1710579 -0.19777487 0.03241616 -0.11333206 0.066242464 -0.27599844 -0.19059546 0.23660043
0.08039724 0.14523607 -0.11067166 0.11405722 0.15883602 -0.0880268 0.108347625 -0.10084562
0.069124684 0.08143415 0.23763515 -0.12652643 -0.14817801 -0.107603505 0.17320234 0.0061670328
-0.1276394 0.07295076 0.016296871 -0.12063539 0.18258587 -0.06824244 -0.0080923075 -0.00094291446
-0.07500926 0.031252146 -0.2812441 0.070265874 0.14274098 0.036521997 -0.00023400698 0.2857267
0.06566821 0.157876 0.004934739 0.00038917185 0.023937488 -0.17858163 -0.24266751 -0.010617645
-0.20825495 0.1288344 -0.0075101214 0.120622054 0.14168935 0.17695329 -0.22924648 -0.047186714
-0.009541081 0.015166352 -0.12215856 0.1127996 0.049465965 -0.156185 -0.33186874 -0.2582208
-0.043294657 -0.19913825 0.17282228 -0.10572469 -0.01300943 -0.27545202 -0.08378429 0.0067654196
00000000: c83f debd 9b13 373d 2828 cb3b 03ee 66be
00000010: 9a31 c03d d612 a4bc c6f4 88bd 4cae 883d
00000020: 0a41 5ebd c7bc 373d 6ef5 6dbd 56b0 9d3d
00000030: 1c04 18bd 47c6 d8bd 41eb 2fbe 5b52 82be
00000040: 727c 0dbe 1fc4 59be 7429 4abe 0807 123d
00000050: 55fa 54be 44c1 863d e8c1 a4bd 035d 0cbd
00000060: 8c40 203d 2a96 36bd df46 533e 310a 95be
00000070: a4a6 6ebe 4dfa 8fbe c8b1 fb3d cb06 fa3d
00000080: 53c6 bb3d 1927 2bbe cbe5 7dbe 5a5a 66be
00000090: 6369 63be 5653 1dbe 35e5 57be 0123 b8bd
000000a0: 115c 66be 4718 063e ec91 27be 239d cd3d
000000b0: 0cf4 72be 7352 25be 053d 5bbd f64f 9fbe
000000c0: bd97 ddbd f993 9a3c e317 50be 4c70 43be
000000d0: 9871 89be c924 1c3d 6e52 c7be 94c3 acbe
000000e0: cd29 2f3e 7f85 4abe cfc6 043d a41a e8bd
000000f0: 21aa 873d ab4f 8dbe 752b 43be 6247 723e
00000100: 4fa7 a43d c4b8 143e d3a7 e2bd d596 e93d
00000110: e9a5 223e 6547 b4bd 5ce5 dd3d 2688 cebd
00000120: 3e91 8d3d f3c6 a63d a156 733e 2590 01be
00000130: fabb 17be 3a5f dcbd f45b 313e d214 ca3b
00000140: e7b3 02be 3567 953d 0481 853c b00f f7bd
00000150: caf7 3a3e b1c2 8bbd 9995 04bc eb2d 77ba
00000160: 749e 99bd 4002 003d 3aff 8fbe 8ee7 8f3d
00000170: b12a 123e 1798 153d c55f 75b9 c54a 923e
00000180: 0e7d 863d 3faa 213e 97b3 a13b c309 cc39
00000190: 8d18 c43c 1ade 36be d57d 78be a2f5 2dbc
000001a0: c940 55be 2aed 033e 7717 f6bb b208 f73d
000001b0: 0317 113e 3e33 353e 97bf 6abe db46 41bd
000001c0: 3252 1cbc 4a7c 783c 442e fabd 7a03 e73d
000001d0: d39c 4a3d f6ee 1fbe b3ea a9be 8435 84be
000001e0: bd55 31bd e6ea 4bbe 53f8 303e 3086 d8bd
000001f0: 8125 55bc 0c08 8dbe 1997 abbd 74b0 dd3b

lstm.bias_hh_l0 f4 [128]
-0.011234591 0.12831156 -0.08836653 -0.14436068 -0.056421332 -0.14460596 0.010502704 0.074357346
-0.028897334 0.16686101 -0.15977533 -0.092064664 -0.18259995 0.16205524 -0.22432439 -0.15378456
-0.112048894 -0.11437601 -0.23466904 -0.08076618 -0.26857463 0.034011908 -0.055234708 -0.34859842
-0.12332698 -0.13427801 0.31688777 -0.0036022428 -0.04309479 -0.13673517 0.19886182 0.0070455484
-0.0028520327 -0.19617072 0.0063134986 -0.07671963 -0.1593002 -0.20311064 -0.17238864 -0.022873497
-0.07592918 -0.0018434623 -0.07441854 -0.039881498 -0.2077328 -0.17030919 -0.31935102 -0.06516077
-0.29267818 -0.08514147 -0.16693148 0.13591748 -0.02814237 -0.09384547 -0.17106101 -0.27697664
0.08165558 0.0277388 0.06884264 -0.010102699 -0.09230526 -0.2784871 0.069801256 0.2516208
-0.0051381085 -0.07429011 -0.005461926 -0.004871215 0.13920292 0.030366551 -0.09480087 0.056377433
-0.016893756 -0.09830302 -0.06846486 -0.008222089 0.15095381 -0.086323224 -0.075258195 0.15389039
0.026913453 0.10987418 -0.13993639 -0.06021392 -0.118535906 0.17945799 0.13949971 -0.10258109
-0.16087581 -0.086149335 -0.30447865 -0.038553327 0.016123803 -0.10386025 0.06091624 0.27598476
-0.15767553 0.098033726 -0.16483389 0.060695115 -0.15156177 0.08089606 -0.032948688 0.00784094
0.07537721 -0.0020202924 -0.2961911 0.07858063 -0.06551696 -0.08776989 -0.25053647 -0.052159023
-0.04221676 -0.14700986 -0.13622765 -0.015850801 -0.27742276 0.054590013 -0.082451805 -0.2801873
-0.13383406 0.03233186 0.35190293 -0.023281995 -0.048870914 -0.15447946 0.108753294 -0.025888657
00000000: 4a11 38bc 1b64 033e 83f9 b4bd 49d3 13be
00000010: 0e1a 67bd 9613 14be 8913 2c3c aa48 983d
00000020: 1aba ecbc 9ddd 2a3e 259c 23be 668c bcbd
00000030: 7bfb 3abe cff1 253e 4bb5 65be b379 1dbe
00000040: e479 e5bd f83d eabd 154d 70be bd68 a5bd
00000050: 9d82 89be 1250 0b3d ca3d 62bd 7e7b b2be
00000060: db92 fcbd 2d80 09be 1d3f a23e 9b13 6cbb
00000070: 2a84 30bd 4e04 0cbe 6fa2 4b3e 58de e63b
00000080: 2be9 3abb fae0 48be 77e1 ce3b 2e1f 9dbd
00000090: 971f 23be 3cfc 4fbe a686 30be 3361 bbbc
000000a0: c280 9bbd 55a0 f1ba bf68 98bd c85a 23bd
000000b0: e8b7 54be 8865 2ebe fa81 a3be 0373 85bd
000000c0: ead9 95be a75e aebd 16f0 2abe f42d 0b3e
000000d0: d48a e6bc 0e32 c0bd 9e2a 2fbe e2cf 8dbe
000000e0: 0a3b a73d 7b3c e33c 5ffd 8c3d ca85 25bc
000000f0: 8a0a bdbd dc95 8ebe f6f3 8e3d 71d4 803e
00000100: 945d a8bb 6a25 98bd f5f9 b2bb b79e 9fbb
00000110: 368b 0e3e 46c3 f83c f526 c2bd 06ec 663d
00000120: c664 8abc 1853 c9bd 4e37 8cbd f1b5 06bc
00000130: a393 1a3e 3bca b0bd f820 9abd 7195 1d3e
00000140: 9a79 dc3c b705 e13d 7c4b 0fbe dfa2 76bd
00000150: f4c2 f2bd d6c3 373e 03d9 0e3e 0916 d2bd
00000160: a1bc 24be 106f b0bd a0e4 9bbe 18ea 1dbd
00000170: 1116 843c afb4 d4bd 4f83 793d e04d 8d3e
00000180: b275 21be e8c5 c83d 37ca 28be 719b 783d
00000190: 0233 1bbe d5ac a53d 34f5 06bd 4977 003c
000001a0: 5e5f 9a3d e266 04bb 5ca6 97be e2ee a03d
000001b0: c22d 86bd b3c0 b3bd 5146 80be b3a4 55bd
000001c0: 7beb 2cbd c189 16be 437f 0bbe 8ad9 81bc
000001d0: 5b0a 8ebe c799 5f3d 7edc a8bd b674 8fbe
000001e0: cc0b 09be 6a6e 043d 9f2c b43e e2b9 bebc
000001f0: de2c 48bd dd2f 1ebe 0cba de3d 7314 d4bc

layer_norm.weight f4 [32]
0.84860694 1.0222619 0.9161416 0.8459051 0.9499876 0.8973463 0.9122109 0.9062823
0.8928237 1.0650072 0.86330426 0.8897695 0.97952145 0.9918536 0.8898732 0.86320657
0.8673444 0.8115561 0.80439305 1.0129328 0.83135444 0.8702104 0.77189827 0.8468619
1.0260353 0.83324003 1.0640757 0.8193784 0.9031785 0.8942899 1.085445 0.9813476
00000000: 4e3e 593f 7ad9 823f 4288 6a3f 3d8d 583f
00000010: 6332 733f 7db8 653f a786 693f 1e02 683f
00000020: 1890 643f 2852 883f 8201 5d3f efc7 633f
00000030: ebc1 7a3f 1eea 7d3f bbce 633f 1bfb 5c3f
00000040: 480a 5e3f 24c2 4f3f b4ec 4d3f c8a7 813f
00000050: a5d3 543f 1cc6 5e3f 209b 453f f1cb 583f
00000060: 2055 833f 384f 553f a233 883f c8c2 513f
00000070: b536 673f 2ff0 643f ddef 8a3f 9939 7b3f

layer_norm.bias f4 [32]
-0.17968297 -0.04243146 0.070252396 0.1421257 -0.0069213416 0.04289605 0.06136784 -0.06272371
-0.055949945 0.039361604 0.061492857 0.11971811 0.0028480643 0.044219013 0.04099517 0.05882077
-0.045645244 -0.15736757 -0.085757025 0.061980292 0.0033032515 0.08808319 0.085744716 -0.10911991
-0.07443204 -0.12660377 -0.01161436 -0.068165384 0.069331355 -0.028709894 -0.0020115192 -0.04089435
00000000: d0fe 37be 9ccc 2dbd 7de0 8f3d 6689 113e
00000010: 6ccc e2bb c5b3 2f3d d85c 7b3d 4a75 80bd
00000020: c52b 65bd a239 213d efdf 7b3d c52e f53d
00000030: 97a6 3a3b ff1e 353d 8dea 273d 0cee 703d
00000040: 82f6 3abd f724 21be 61a1 afbd 0cdf 7d3d
00000050: 5d7b 583b f664 b43d ed9a af3d 427a dfbd
00000060: d36f 98bd 6ba4 01be 284a 3ebc 4b9a 8bbd
00000070: 99fd 8d3d 0331 ebbc b1d3 03bb d580 27bd

linear1.weight f4 [32, 32]
-0.03723895 -0.05951805 -0.14123867 -0.12543145 -0.053129252 -0.020324873 0.07537665 0.17217952
0.1315504 -0.09482954 0.0064331233 -0.01875481 -0.122665994 -0.0007089972 0.07004538 0.08983446
0.23387128 -0.05877479 -0.02955068 0.011436195 -0.0031676898 0.027127145 -0.024640447 0.03985404
-0.21429552 0.059384935 -0.15262401 -0.18645185 0.112107605 0.037453774 -0.06834352 0.070681535
0.051683318 -0.086737156 0.079977825 0.0028685287 -0.049113728 -0.027486255 0.13252015 -0.045921896
0.10257455 0.20762585 -0.10593911 -0.0077801743 0.29613125 0.117584474 0.11733741 -0.00648161
-0.08107646 -0.119926035 0.034779873 0.17299893 -0.24652945 -0.13774803 0.07432249 0.13297382
0.18239726 -0.014998464 0.15363307 0.026346931 0.24116983 -0.15022855 -0.2974864 0.040433425
0.027024072 0.020351706 0.15146229 -0.095948145 -0.030751873 -0.04720969 0.056401767 -0.09545162
-0.14792894 -0.04462473 0.16505656 -0.050742466 -0.10074331 0.07440408 0.026574237 0.16216445
-0.040828135 -0.056072745 0.15914048 -0.11778504 0.027845042 -0.27343485 0.09427442 -0.15143508
-0.009644953 -0.08256868 0.08937494 0.14933072 0.100462206 -0.1508873 -0.070081696 0.06987692
0.1963469 0.006412928 -0.09060134 0.1438265 0.059439108 -0.1700416 -0.20638764 -0.11232006
0.1367396 -0.047900196 0.12072276 -0.29370984 0.17898959 -0.14325526 0.022012025 -0.15494739
0.07041052 0.15474352 -0.02450261 -0.17501926 -0.056702085 0.044015706 0.06574565 0.16005994
0.0787958 -0.012524442 -0.30146012 -0.012957978 0.0050303866 0.008891854 0.018667417 0.181284
0.12883781 -0.310024 0.19387701 -0.031075409 -0.16437848 -0.053395946 0.08744701 0.015529225
-0.14342703 -0.14023027 -0.06853558 0.09668574 -0.12453211 -0.109011315 -0.14799453 -0.028302256
0.050142847 0.017921947 0.07252742 -0.026907163 0.048331626 0.015475716 -0.11902678 0.07931789
0.22916648 -0.007443127 0.15367009 0.098630756 -0.095636606 0.12760556 0.09963395 -0.2556946
0.16822346 0.11205378 -0.053658176 0.0039231344 -0.033512898 0.22875844 -0.14532119 0.063969314
0.05133951 -0.07614968 -0.1309552 0.15044673 0.008131997 -0.15483183 -0.030283973 0.10340431
0.167333 0.18591593 -0.11181661 -0.054497506 0.010986715 0.13741104 -0.10419083 0.14477645
0.01999259 0.08922787 0.0953546 0.09214942 -0.18593162 0.19397402 0.1765701 0.10076769
0.110856265 -0.085664764 -0.10569509 -0.22183906 0.09406922 0.25078642 -0.18897815 0.09215208
0.16372342 -0.12971902 0.10485779 0.09532317 -0.26196662 -0.0069024763 -0.008534695 0.0019501792
0.080012485 0.1894907 0.030173069 -0.22465669 0.26211023 0.095996946 0.11940978 0.0314369
0.018982762 0.038742904 -0.19029388 -0.04117633 0.031493206 0.21065527 0.31947118 -0.13087124
0.1284472 0.07491634 0.00574926 0.22800797 0.011907899 0.088801466 0.1220804 -0.18038675
-0.09976744 -0.018474627 0.07358783 0.068089396 -0.053435206 -0.1433899 -0.099177994 0.053374264
0.08083673 0.13494903 0.14413103 -0.11359591 -0.010622732 0.052984577 -0.033164926 0.022673916
0.14185055 0.0630856 -0.19863704 0.09918295 -0.029117577 0.13597998 0.06853921 0.029334946
00000000: df87 18bd 33c9 73bd dfa0 10be 1a71 00be
00000010: 0f9e 59bd 5980 a6bc 135f 9a3d d44f 303e
00000020: 26b5 063e fd35 c2bd f3cc d23b b0a3 99bc
00000030: 4f38 fbbd ffdb 39ba f473 8f3d 21fb b73d
00000040: f47b 6f3e d6bd 70bd 4514 f2bc e15e 3b3c
00000050: 0499 4fbb bf39 de3c c3da c9bc fd3d 233d
00000060: 4970 5bbe 9e3d 733d 7849 1cbe 3ced 3ebe
00000070: ac98 e53d 2169 193d b0f7 8bbd 7bc1 903d
00000080: e3b1 533d 40a3 b1bd 6acb a33d edfd 3b3b
00000090: 7a2b 49bd db2a e1bc 5db3 073e 9918 3cbd
000000a0: 9b12 d23d df9b 543e 9bf6 d8bd d5f0 febb
000000b0: 849e 973e 21d0 f03d 994e f03d af63 d4bb
000000c0: 6a0b a6bd c89b f5bd 5775 0e3d a226 313e
000000d0: 3772 7cbe d20d 0dbe 6436 983d 4a2a 083e
000000e0: 59c6 3a3e 1ebc 75bc fd51 1d3e 85d5 d73c
000000f0: 39f5 763e 83d5 19be 2350 98be 859d 253d
00000100: 9661 dd3c 9fb8 a63c ee18 1b3e 7680 c4bd
00000110: 5aeb fbbc f35e 41bd 8a05 673d 247c c3bd
00000120: af7a 17be 6cc8 36bd 9604 293e 55d7 4fbd
00000130: 8252 cebd 2b61 983d 37b2 d93c 700e 263e
00000140: 673b 27bd 89ac 65bd b9f5 223e 4839 f1bd
00000150: 491b e43c a7ff 8bbe f212 c13d cc11 1bbe
00000160: dd05 1ebc c519 a9bd 350a b73d 27ea 183e
00000170: 21bf cd3d 3382 1abe fe86 8fbd a11b 8f3d
00000180: 290f 493e 8a23 d23b 328d b9bd 4147 133e
00000190: 6c76 733d 631f 2ebe 4857 53be 0f08 e6bd
000001a0: 7705 0c3e ff32 44bd 7f3d f73d 2361 96be
000001b0: 0c49 373e 82b1 12be 9052 b43c 87aa 1ebe
000001c0: 6433 903d 1675 1e3e b3b9 c8bc 4038 33be
000001d0: 7240 68bd d049 343d a8a5 863d c1e6 233e
000001e0: b15f a13d 5133 4dbc fb58 9abe b34d 54bc
000001f0: f1d5 a43b 24af 113c 69ec 983c 83a2 393e
00000200: 0fee 033e 77bb 9ebe b287 463e db91 febc
00000210: d552 28be b5b5 5abd 6b17 b33d 4a6e 7e3c
00000220: 89de 12be 8698 0fbe 625c 8cbd 2c03 c63d
00000230: b10a ffbd 5341 dfbd e18b 17be 22da e7bc
00000240: 9662 4d3d 0cd1 923c 4289 943d 696c dcbc
00000250: 62f7 453d dc8d 7d3c 50c4 f3bd 6b71 a23d
00000260: 9eaa 6a3e 7ae5 f3bb b15b 1d3e ecfe c93d
00000270: 20dd c3bd 08ab 023e e20c cc3d 67ea 82be
00000280: c542 2c3e 747c e53d adc8 5bbd a38d 803b
00000290: d244 09bd a73f 6a3e 14cf 14be 5802 833d
000002a0: 6149 523d 5df4 9bbd 1f19 06be b50e 1a3e
000002b0: 113c 053c 3c8c 1ebe 1816 f8bc a4c5 d33d
000002c0: 5859 2b3e bf60 3e3e 1b00 e5bd c738 5fbd
000002d0: 9f01 343c 7bb5 0c3e 0062 d5bd 4740 143e
000002e0: 80c7 a33c 1abd b63d 4649 c33d d6b8 bc3d
000002f0: dc64 3ebe 20a1 463e cbce 343e 4a5f ce3d
00000300: 9c08 e33d 0271 afbd ab76 d8bd c729 63be
00000310: 5da7 c03d 1467 803e 7d83 41be 3bba bc3d
00000320: 1da7 273e 10d5 04be aebf d63d cb38 c33d
00000330: 7d20 86be 2b2e e2bb 1bd5 0bbc 289d ff3a
00000340: 96dd a33d da09 423e 832d f73c 670c 66be
00000350: 5033 863e 0c9a c43d 1d8d f43d fbc3 003d
00000360: bd81 9b3c e1b0 1e3d 66dc 42be 83a8 28bd
00000370: 05ff 003d 04b6 573e ba91 a33e 1c03 06be
00000380: aa87 033e bd6d 993d 4a64 bc3b ec7a 693e
00000390: 5919 433c 8bdd b53d 4a05 fa3d 4eb7 38be
000003a0: df52 ccbd 1a58 97bc 37b5 963d 7472 8b3d
000003b0: e0de 5abd cdd4 12be d51d cbbd f99e 5a3d
000003c0: ba8d a53d 1430 0a3e 1697 133e f9a4 e8bd
000003d0: f80a 2ebc 5b06 593d f2d7 07bd a6be b93c
000003e0: 4541 113e 0633 813d 8267 4bbe 6e20 cb3d
000003f0: fc87 eebc 563e 0b3e 495e 8c3d d74f f03c

linear1.bias f4 [32]
0.1988853 0.0920028 0.15430705 0.055379882 -0.037733395 -0.03655145 0.173201 0.012050214
0.13100727 -0.10375537 -0.07717977 -0.03131401 0.15957607 0.012493665 -0.14027819 -0.28339246
0.19316533 -0.1596181 0.09139335 0.105498254 -0.011540882 0.020957517 0.014505366 -0.074731395
0.11554521 -0.1470576 -0.04699169 -0.048003253 0.08366158 -0.09980902 -0.09562806 -0.08436339
00000000: 97a8 4b3e f76b bc3d ab02 1e3e 04d6 623d
00000010: 558e 1abd f9b6 15bd 9a5b 313e 436e 453c
00000020: c526 063e b27d d4bd 6d10 9ebd 1f43 00bd
00000030: e967 233e 3bb2 4c3c 16a5 0fbe d118 91be
00000040: 22cd 453e ed72 23be 702c bb3d 780f d83d
00000050: f815 3dbc 19af ab3c eaa7 6d3c c60c 99bd
00000060: f8a2 ec3d 4496 16be 5c7a 40bd 0f9f 44bd
00000070: c356 ab3d ac68 ccbd a5d8 c3bd b7c6 acbd

linear2.weight f4 [1, 32]
-0.051214978 -0.053108845 -0.004457092 -0.12445504 0.07793438 0.055768926 0.10547871 0.034529924
-0.10452434 0.1543018 -0.050110046 0.011787372 -0.004707304 -0.0929015 0.047811586 0.0068423143
0.051018804 -0.0076563912 -0.063963756 -0.053539712 -0.139924 -0.066669114 0.062524416 -0.0018758343
0.09776743 0.09754837 0.06051034 -0.108811416 0.022408621 0.04091582 0.046522044 0.020098737
00000000: ccc6 51bd a988 59bd cc0c 92bb 49e2 febd
00000010: 0f9c 9f3d f56d 643d 3905 d83d 406f 0d3d
00000020: db10 d6bd 4b01 1e3e 3140 4dbd d21f 413c
00000030: ba3f 9abb 2443 bebd 15d6 433d 7e35 e03b
00000040: 18f9 503d 77e2 fabb 6eff 82bd 754c 5bbd
00000050: 3d48 0fbe d189 88bd cd0c 803d 8ede f5ba
00000060: 4a3a c83d 71c7 c73d b1d9 773d 85d8 debd
00000070: 4992 b73c 5997 273d e68d 3e3d 1ba6 a43c
